Project_1/Part1_2/checkpoints/cnn_2_50.pth (torch, 911555 bytes, 16 tensors)

weight f4 [32, 3, 4, 4]
-0.252424 -0.30672532 -0.25137284 0.27040192 -0.5074685 -0.394429 -0.25084206 0.19862838
-0.36153024 -0.43913203 -0.16066186 -0.058175378 -0.7363218 -0.57179135 -0.3363609 0.40637487
-0.035140317 0.0596017 -0.2073606 0.11980465 0.14236455 -0.050657 -0.0077313455 -0.051254034
0.23161931 0.16980356 -0.042965263 -0.11517178 -0.25611413 0.14340362 0.07249713 0.25240496
0.3034294 0.0006840888 -0.03603186 0.043309033 0.3139526 0.33626562 0.28399125 0.11044079
0.5314121 0.46536413 0.11984165 -0.12549376 0.31524694 0.28082204 0.21359225 0.12402458
0.1813142 -0.38610923 0.22757162 -0.038009666 0.3543788 -0.47515655 0.33001894 -0.22219385
0.22949034 -0.4573678 0.29757062 -0.2447925 0.32987615 -0.33356512 0.29087046 -0.15064682
0.07636245 -0.31454155 0.2106414 -0.08469561 0.09201825 -0.35636145 0.44032848 -0.115205534
0.17416012 -0.47085157 0.5431237 -0.088845134 0.11928006 -0.3970173 0.34178862 -0.19008517
-0.013721249 -0.15492974 0.33069712 -0.14587751 0.064853966 -0.3164028 0.44200128 -0.14782354
0.058994643 -0.26233596 0.37977627 -0.18896359 0.03160691 -0.35332382 0.35623208 -0.06582987
0.003455071 0.12043061 0.093148686 -0.015540376 0.11474598 -0.058320522 -0.008156457 -0.22484104
0.08258063 0.114457995 0.14243364 -0.055741753 0.00031909172 -0.016194407 -0.07828684 -0.21403469
0.2749307 0.09085928 -0.031601917 -0.2810456 0.18600307 0.11915473 -0.09692211 -0.34503552
0.36869887 0.067258716 -0.12189104 -0.25693387 0.45956182 -0.006204047 0.072401725 -0.14491904
0.57296145 0.002276973 -0.22546026 -0.58060265 0.5924442 0.15055998 -0.18372335 -0.5110909
0.5895374 0.27305517 -0.2917648 -0.6214265 0.44932258 0.29674956 -0.18541779 -0.43188298
0.1323682 -0.32072604 -0.13113254 0.28662422 0.30359706 0.10855014 -0.53186035 0.03642017
0.13159059 0.3551803 -0.13042942 -0.34949073 -0.19248278 0.29804072 0.24021828 -0.15982059
0.113927595 -0.37415248 -0.18255831 0.21707016 0.3681988 -0.053693358 -0.6847201 -0.056071226
0.26173452 0.48268655 -0.2334699 -0.39121023 -0.09851351 0.23006828 0.3416992 -0.27420306
0.054098494 -0.31668866 0.08570706 0.4014211 0.06758013 -0.045847137 -0.5328824 0.1400567
-0.017479142 0.38491368 -0.101994686 -0.33728716 -0.21527627 0.12010258 0.30002627 -0.17899142
0.1560133 -0.095139176 -0.054454446 0.14980975 0.044544265 0.04729004 -0.30607423 -0.23820281
0.07410924 0.11385902 0.0394843 -0.3056777 -0.26569647 -0.22609922 0.1756881 0.09885643
0.25566462 -0.20929916 0.006240067 -0.016028468 0.035050415 -0.19825713 -0.3682148 -0.29357353
0.23303266 0.3164737 -0.11569469 -0.38166967 -0.17440449 0.15682262 0.26900336 0.45577046
-0.19755676 -0.34965897 -0.18361449 -0.41029832 0.18430826 -0.16334295 -0.4048705 -0.45956102
0.5399365 0.3051986 0.2616667 -0.110280484 0.26805136 0.48823068 0.5176782 0.7178039
0.2951067 0.5764294 0.25447106 -0.10136634 0.5529207 0.45646846 -0.19989446 -0.33228156
0.4495334 -0.06370776 -0.32673323 -0.11706103 0.059416443 -0.3204782 -0.29540488 -0.42991075
00000000: b83d 81be 1a0b 9dbe f1b3 80be 1f72 8a3e
00000010: 75e9 01bf 99f2 c9be 5f6e 80be 3d65 4b3e
00000020: 7e1a b9be ead5 e0be 8b84 24be 4e49 6ebd
00000030: 967f 3cbf eb60 12bf 7f37 acbe 5e10 d03e
00000040: 4bef 0fbd ea20 743d 5656 54be 245c f53d
00000050: 03c8 113e b77d 4fbd 3a57 fdbb c0ef 51bd
00000060: 9d2d 6d3e fce0 2d3e 58fc 2fbd 2fdf ebbd
00000070: 6421 83be 66d8 123e 6079 943d 393b 813e
00000080: 195b 9b3e 6c54 333a 2596 13bd d064 313d
00000090: 65be a03e 022b ac3e 4d67 913e c82e e23d
000000a0: a00a 083f 3544 ee3e 8a6f f53d 7081 00be
000000b0: 0c68 a13e e8c7 8f3e edb7 5a3e 9900 fe3d
000000c0: 6eaa 393e 1cb0 c5be 8908 693e 06b0 1bbd
000000d0: 2371 b53e b847 f3be 3ef8 a83e c986 63be
000000e0: 84ff 6a3e 1d2c eabe 2d5b 983e e3aa 7abe
000000f0: 87e5 a83e 0cc9 aabe f9ec 943e 2943 1abe
00000100: eb63 9c3d 970b a1be 61b2 573e e474 adbd
00000110: 1074 bc3d 0275 b6be bc72 e13e e1f0 ebbd
00000120: 0857 323e 7513 f1be 280a 0b3f 70f4 b5bd
00000130: 1b49 f43d da45 cbbe ebfe ae3e b0a5 42be
00000140: 17cf 60bc e7a5 1ebe 2251 a93e ea60 15be
00000150: 28d2 843d 8cff a1be fe4d e23e 0e5f 17be
00000160: 5ea4 713d e650 86be 0972 c23e ac7f 41be
00000170: 3f76 013d dce6 b4be 0d64 b63e d0d1 86bd
00000180: 796e 623b 53a4 f63d bdc4 be3d 109d 7ebc
00000190: f1ff ea3d 80e1 6ebd a9a2 05bc bb3c 66be
000001a0: 0920 a93d f468 ea3d 20da 113e 7751 64bd
000001b0: c44b a739 22aa 84bc da54 a0bd e92b 5bbe
000001c0: b7c3 8c3e 6e14 ba3d 0371 01bd 35e5 8fbe
000001d0: 9777 3e3e 6507 f43d 197f c6bd 7fa8 b0be
000001e0: 19c6 bc3e f0be 893d 02a2 f9bd d68c 83be
000001f0: b04b eb3e 514b cbbb 5b47 943d a865 14be
00000200: 9aad 123f 4539 153b 0edf 66be 60a2 14bf
00000210: 6caa 173f 652c 1a3e f921 3cbe dad6 02bf
00000220: eceb 163f e3cd 8b3e 3262 95be cf15 1fbf
00000230: 9c0d e63e 8fef 973e 29de 3dbe c41f ddbe
00000240: 888b 073e 3436 a4be 9c47 06be 69c0 923e
00000250: 1371 9b3e 894f de3d 0028 08bf 512d 153d
00000260: afbf 063e 31da b53e 4a8f 05be 73f0 b2be
00000270: 351a 45be cb98 983e c8fb 753e 02a8 23be
00000280: df52 e93d ea90 bfbe 91f0 3abe a447 5e3e
00000290: 8e84 bc3e 91ed 5bbd d149 2fbf f1aa 65bd
000002a0: 1102 863e b122 f73e bc12 6fbe b54c c8be
000002b0: 73c1 c9bd 0597 6b3e 33f3 ae3e 5864 8cbe
000002c0: 6296 5d3d 0425 a2be 2f87 af3d 1187 cd3e
000002d0: 7467 8a3d 35ca 3bbd fb6a 08bf 066b 0f3e
000002e0: 6b30 8fbc 6813 c53e 97e2 d0bd e7b0 acbe
000002f0: 6271 5cbe 57f8 f53d 0b9d 993e 8749 37be
00000300: f3c1 1f3e 54d8 c2bd a00b 5fbd ba67 193e
00000310: 0c74 363d 33b3 413d c3b5 9cbe 70eb 73be
00000320: 96c6 973d eb2e e93d 4aba 213d ca81 9cbe
00000330: 5e09 88be 8e86 67be 95e7 333e 3d75 ca3d
00000340: 79e6 823e 8552 56be 7a79 cc3b 224e 83bc
00000350: 0691 0f3d eb03 4bbe a686 bcbe 454f 96be
00000360: 1da0 6e3e d708 a23e 56f1 ecbd 356a c3be
00000370: 1797 32be 1c96 203e cfba 893e bf5a e93e
00000380: 524c 4abe 8006 b3be 7005 3cbe 9f12 d2be
00000390: 4ebb 3c3e 6043 27be 304b cfbe 954b ebbe
000003a0: 4739 0a3f fe42 9c3e 2df9 853e bcda e1bd
000003b0: 073e 893e 5ff9 f93e 8f86 043f ffc1 373f
000003c0: 3a18 973e e190 133f 084a 823e 2899 cfbd
000003d0: 368c 0d3f 3cb6 e93e 22b1 4cbe cf20 aabe
000003e0: 3e29 e63e 3779 82bd 9449 a7be b1bd efbd
000003f0: a85e 733d b815 a4be 4f3f 97be 431d dcbe

bias f4 [32]
-0.4196298 0.01763047 0.0030098099 -0.24178958 0.09129333 0.23391308 -0.0030990434 0.12972996
-0.16662857 -0.21289296 -0.3758567 0.00014367841 -0.112013064 -0.079998836 0.3598614 -0.09058504
0.23539856 -0.43778586 -0.23341116 -0.122778915 0.16484226 -0.19434193 -0.1224498 0.05185259
-0.1105883 0.28691152 -0.29048154 0.066105574 0.1045867 0.06985138 -0.1584946 0.2941273
00000000: b8d9 d6be c76d 903c 3b40 453b b097 77be
00000010: fff7 ba3d e986 6f3e 5219 4bbb eed7 043e
00000020: aea0 2abe 9d00 5abe 4a70 c0be 61a8 1639
00000030: 1b67 e5bd 6ed6 a3bd c13f b83e a684 b9bd
00000040: 520c 713e 7825 e0be 5603 6fbe 8373 fbbd
00000050: 69cc 283e 9201 47be f6c6 fabd 6263 543d
00000060: 1e7c e2bd 11e6 923e ffb9 94be 5c62 873d
00000070: 8d31 d63d 3e0e 8f3d 694c 22be da97 963e

weight f4 [32]
0.7475079 1.0816578 0.98733246 0.93693316 1.1083264 0.906629 1.2494226 1.0763955
0.99703693 1.0883433 0.8857383 1.0208554 0.71216595 1.0309845 0.9299176 0.85640436
0.7623787 1.0004323 0.95567507 0.9433919 1.0386142 0.7689306 1.0134683 1.0024012
0.94698197 0.9662418 0.95292413 1.0200914 1.0182675 0.90109235 0.9098161 1.0868479
00000000: ae5c 3f3f c373 8a3f d2c1 7c3f dada 6f3f
00000010: a4dd 8d3f d718 683f 14ed 9f3f 54c7 893f
00000020: d03d 7f3f d54e 8b3f bfbf 623f 64ab 823f
00000030: 8250 363f 4df7 833f 140f 6e3f 513d 5b3f
00000040: 402b 433f 2a0e 803f 1fa7 743f 2282 713f
00000050: 4ff1 843f a3d8 443f 54b9 813f af4e 803f
00000060: 696d 723f 9f5b 773f d6f2 733f 5b92 823f
00000070: 9756 823f fdad 663f b5e9 683f d51d 8b3f

bias f4 [32]
0.15404743 -0.3499469 -0.22292261 -0.4001898 -0.95393234 -0.5599878 -0.9780586 -0.39482132
-0.552327 -0.6127498 -0.33759618 -0.5508916 0.13532497 -0.32133022 -0.28153455 -0.3570254
-0.08038753 -0.26197964 -0.4646712 -0.30100685 -0.5776319 -0.2610174 -0.52828383 -0.57664967
-0.017450662 -0.3157448 -0.27493605 -0.6256831 -0.5898267 -0.34776866 -0.26756716 -0.679903
00000000: 9cbe 1d3e 3d2c b3be d345 64be ade5 ccbe
00000010: e934 74bf 5c5b 0fbf 0c62 7abf 0526 cabe
00000020: 4d65 0dbf 2cdd 1cbf 68d9 acbe 3b07 0dbf
00000030: a192 0a3e 6585 a4be 4c25 90be 09cc b6be
00000040: 38a2 a4bd 3222 86be 62e9 edbe 921d 9abe
00000050: afdf 13bf 13a4 85be 9c3d 07bf 509f 13bf
00000060: b1f4 8ebc 4da9 a1be 6bc4 8cbe c52c 20bf
00000070: e2fe 16bf bc0e b2be 90fe 88be 1f0e 2ebf

running_mean f4 [32]
-0.6630385 0.018357817 -0.007695711 -0.218757 -0.0270249 0.19486293 0.28168485 0.1331795
-0.18680388 -0.21146977 -0.37374374 -0.025938531 -0.5793547 -0.07587787 0.36756867 -0.22517689
0.18839958 -0.42958647 -0.22334364 -0.086644806 0.18686105 -0.18349898 -0.11213742 0.050860763
0.04121384 0.28933713 -0.26877272 0.06258708 0.1352061 0.070343584 -0.16276665 0.29536548
00000000: e4bc 29bf 2263 963c 4e2c fcbb d601 60be
00000010: 5363 ddbc 268a 473e ff38 903e 3560 083e
00000020: 8449 3fbe 888b 58be 575b bfbe 0b7d d4bc
00000030: 9750 14bf db65 9bbd f631 bc3e c594 66be
00000040: d2eb 403e c2f2 dbbe 32b4 64be d572 b1bd
00000050: 8158 3f3e 28e7 3bbe 4ea8 e5bd 6053 503d
00000060: d8cf 283d ff23 943e 949c 89be a82d 803d
00000070: 7873 0a3e 4c10 903d 4dac 26be 253a 973e

running_var f4 [32]
1.3188391 0.14273886 1.5739106 0.49334633 1.0454985 0.19446102 5.15945 1.0865833
0.1528689 0.06458902 0.15742497 0.77681196 2.9194942 0.14116263 0.5108515 1.2939757
0.26151258 0.15772218 0.1465481 1.6297731 1.1296219 0.55946684 0.2123843 0.055404287
0.45426634 0.518587 1.7233921 1.5152814 0.23340614 0.592469 0.14409345 0.14178792
00000000: b8cf a83f 232a 123e e775 c93f e497 fc3e
00000010: e5d2 853f ca20 473e 371a a540 2915 8b3f
00000020: aa89 1c3e 4047 843d 0334 213e 26dd 463f
00000030: fed8 3a40 f08c 103e 2ac7 023f ffa0 a53f
00000040: fae4 853e ec81 213e b510 163e 689c d03f
00000050: 7397 903f 3839 0f3f 457b 593e 9bef 623d
00000060: 9995 e83e 1ec2 043f 1d98 dc3f bef4 c13f
00000070: 0502 6f3e 0cac 173f 3c8d 133e da30 113e

weight f4 [32, 32, 4, 4]
-0.30648422 -0.373482 -0.5830143 -0.18696001 -0.46772358 -0.21127549 -0.23541582 0.23262703
-0.5853268 -0.17393602 0.16028704 0.36165243 -0.0866467 0.34297082 0.5914849 0.6018503
-0.10532432 0.054395683 -0.295419 -0.22919147 -0.07965602 0.027609497 -0.11991628 -0.040564593
0.052080955 0.18181702 -0.074803844 0.014356358 0.10354279 0.22878943 0.12869376 -0.1399745
-0.18706255 0.32581356 0.20160194 0.15301277 0.2172665 0.18475759 0.24913752 -0.0015057938
0.18459843 0.1496892 0.16377214 0.21814317 0.42078817 0.024220841 0.08323809 0.20575002
-0.2082686 -0.07377942 0.090926655 -0.16081116 -0.066525735 -0.025423419 0.07504504 0.021244606
0.10413496 0.059852395 -0.23786734 0.034629278 0.20941633 0.0708284 0.096840225 -0.2373507
-0.13137268 -0.5750255 -0.58538896 -0.7173032 -0.37700993 -0.56188387 -0.3437971 -0.12812975
-0.45535377 -0.5389917 -0.2224504 0.053446498 0.33340403 0.12705134 0.025034454 -0.2245583
-0.15641649 0.0124323955 0.45163128 0.36142406 -0.30397832 0.43480673 0.21929877 0.52792084
0.3128262 0.2765595 0.1344112 -0.045766268 0.35514578 0.1351057 -0.036224432 -0.4905468
-0.68690675 0.078980856 0.28115952 0.46782798 -0.34570664 0.24153884 0.20109151 0.18930998
0.029904252 0.37544498 0.42971632 -0.057433102 0.23753737 0.3250624 0.19402418 -0.33608565
0.4274484 0.12129187 -0.037531324 -0.43050966 0.21532533 -0.6865026 -0.8637678 -0.12292252
-0.5102596 -0.8758494 -0.20511003 0.32700667 -0.09622205 0.05274729 0.27024347 0.14766818
-0.34231094 -0.16561072 -0.3431696 -0.18570644 -0.31974155 -0.51941407 -0.32304302 0.19426768
-0.109488264 -0.5575164 -0.27746153 -0.26279837 -0.16484354 -0.6533664 0.14289042 0.11986654
-0.11356156 -0.14177053 -0.109914266 0.14269528 -0.09732678 -0.19134863 -0.06152878 0.21086286
-0.547384 -0.070150286 -0.019442318 0.19138546 0.17345178 -0.2341175 -0.011753541 0.08997346
-0.24399902 0.0024653713 0.29017907 0.17264129 -0.109708436 0.42422402 0.15626636 0.15584852
0.28774506 0.23098162 -0.015483877 -0.12742603 0.44638634 0.08075222 0.07098488 -0.31117317
-0.36929637 -0.5011966 -0.16331497 -0.07824716 -0.61357427 -0.3570469 -0.20538768 0.16405348
-0.36052185 -0.1665361 0.024561461 -0.055763755 -0.085445486 0.113084696 0.28896907 -0.09775444
-0.42276597 -0.34788308 -0.5159123 -0.3274595 -0.13378733 -0.18843342 -0.47929084 -0.45965856
-0.10189976 -0.17039171 -0.29667535 -0.1344861 0.3701323 -0.0037093947 0.11697354 0.047771525
0.10862911 -0.010887146 -0.38339755 -0.2589034 0.013728021 0.03141613 -0.0792586 0.035206325
-0.053275317 -0.0020595894 -0.010165244 0.19181466 0.18405515 0.046452366 0.19799723 0.04564599
0.058804914 -0.09118773 0.23602778 0.16467404 0.037385575 -0.29302654 -0.42745915 -0.31441662
-0.15675056 -1.1635076 -0.6318492 -0.076152705 -0.45520714 -0.8210138 -0.16423976 0.16575593
0.075277075 0.10812111 -0.46617445 -0.5799769 0.39586225 0.30751276 -0.57344866 -0.42131385
0.53308016 0.17338821 -0.354703 0.18281719 0.07157085 0.05728677 0.042825393 0.09963208
00000000: 80eb 9cbe 0839 bfbe 6d40 15bf 7272 3fbe
00000010: 7779 efbe 9a58 58be d810 71be c835 6e3e
00000020: fad7 15bf 491c 32be 4922 243e 822a b93e
00000030: d373 b1bd df99 af3e 8e6b 173f dc12 1a3f
00000040: 47b4 d7bd 02ce 5e3d 2941 97be 2bb1 6abe
00000050: b222 a3bd 502d e23c ab96 f5bd 0f27 26bd
00000060: d752 553d 3e2e 3a3e c232 99bd ee36 6b3c
00000070: 3e0e d43d c747 6a3e 4cc8 033e 7a55 0fbe
00000080: 538d 3fbe 09d1 a63e bd70 4e3e 61af 1c3e
00000090: 1c7b 5e3e 1831 3d3e e81d 7f3e 0e5e c5ba
000000a0: 5f07 3d3e 2048 193e e2b3 273e ec60 5f3e
000000b0: 8c71 d73e c96a c63c bb78 aa3d 22b0 523e
000000c0: 5d44 55be aa19 97bd c137 ba3d aeab 24be
000000d0: a53e 88bd c644 d0bc 37b1 993d 2b09 ae3c
000000e0: b644 d53d c927 753d 7f93 73be 6ed7 0d3d
000000f0: 3c71 563e 7b0e 913d 2b54 c63d 100c 73be
00000100: 8f86 06be df34 13bf 0ddc 15bf 2fa1 37bf
00000110: 7207 c1be 9fd7 0fbf 2c06 b0be 7234 03be
00000120: 2124 e9be 5cfb 09bf 0aca 63be b7ea 5a3d
00000130: efb3 aa3e bf19 023e 0e15 cd3c 9cf2 65be
00000140: a52b 20be 3fb1 4b3c 373c e73e 930c b93e
00000150: 0ca3 9bbe fd9e de3e db8f 603e d225 073f
00000160: c12a a03e 3599 8d3e 17a3 093e 6975 3bbd
00000170: abd5 b53e 2659 0a3e 1260 14bd f328 fbbe
00000180: 1fd9 2fbf b7c0 a13d 24f4 8f3e 2687 ef3e
00000190: 7600 b1be f555 773e efea 4d3e 7ada 413e
000001a0: c3f9 f43c 533a c03e c703 dc3e f93e 6bbd
000001b0: ff3c 733e 946e a63e 46ae 463e 6b13 acbe
000001c0: 84da da3e df67 f83d 72ba 19bd c36b dcbe
000001d0: 3e7e 5c3e a2be 2fbf e31f 5dbf cdbe fbbd
000001e0: 60a0 02bf ab37 60bf 5d08 52be 6b6d a73e
000001f0: 1110 c5bd 8b0d 583d 5a5d 8a3e 5436 173e
00000200: 6143 afbe db95 29be edb3 afbe d429 3ebe
00000210: 2ab5 a3be 52f8 04bf e565 a5be 1bee 463e
00000220: 623b e0bd 65b9 0ebf 700f 8ebe 828d 86be
00000230: bfcc 28be 0543 27bf de51 123e 977c f53d
00000240: f792 e8bd 4b2c 11be bb1a e1bd b61e 123e
00000250: 4353 c7bd e5f0 43be 9a05 7cbd 6fec 573e
00000260: 5c21 0cbf f4aa 8fbd 7f45 9fbc 8dfa 433e
00000270: 589d 313e 7fbc 6fbe ed91 40bc 0144 b83d
00000280: e1da 79be 1192 213b 5a92 943e e1c8 303e
00000290: d1ae e0bd e433 d93e 4a04 203e c196 1f3e
000002a0: 5253 933e 7286 6c3e 16b0 7dbc f87b 02be
000002b0: c08c e43e 6b61 a53d 8560 913d 1752 9fbe
000002c0: 6a14 bdbe 6c4e 00bf 0a3c 27be 0c40 a0bd
000002d0: 3413 1dbf dace b6be 2651 52be a3fd 273e
000002e0: 5296 b8be 7088 2abe 1e35 c93c 8968 64bd
000002f0: 0bfe aebd f398 e73d c1f3 933e 7b33 c8bd
00000300: c874 d8be bb1d b2be d412 04bf c6a8 a7be
00000310: 8cff 08be b1f4 40be 9c65 f5be 5e58 ebbe
00000320: d2b0 d0bd 2a7b 2ebe d5e5 97be b9b6 09be
00000330: fb81 bd3e 5119 73bb d38f ef3d 13ac 433d
00000340: f078 de3d 0060 32bc af4c c4be fd8e 84be
00000350: 7eeb 603c 33ae 003d 5552 a2bd 8234 103d
00000360: 3837 5abd 2dfa 06bb 208c 26bc 106b 443e
00000370: f478 3c3e d644 3e3d c9bf 4a3e 4af7 3a3d
00000380: 6cdd 703d a2c0 babd 44b1 713e 50a0 283e
00000390: 9e21 193d 9307 96be eddb dabe 37fb a0be
000003a0: 3883 20be d1ed 94bf dfc0 21bf f3f5 9bbd
000003b0: e910 e9be f62d 52bf 782e 28be ecbb 293e
000003c0: de2a 9a3d 9a6e dd3d 6bae eebe 5e79 14bf
000003d0: 75ae ca3e 5072 9d3e 88cd 12bf 73b6 d7be
000003e0: f177 083f ae8c 313e a29b b5be 6e34 3b3e
000003f0: bd93 923d 88a5 6a3d ae69 2f3d e70b cc3d

bias f4 [32]
-0.10952161 -0.20322981 0.0036993325 -0.060712114 -0.16775183 -0.06555715 -0.060272414 -0.108674824
-0.06754762 -0.074571796 -0.16990113 -0.013291225 -0.12992425 -0.07831426 -0.09182893 -0.1732021
-0.12932153 -0.071226 -0.08623354 0.0030603642 -0.075145625 -0.105325125 -0.17093033 -0.108271204
-0.058888465 -0.02251391 -0.073435955 -0.1608984 -0.21254769 -0.11465237 -0.07325267 -0.124273926
00000000: de4c e0bd 7a1b 50be 8070 723b 44ad 78bd
00000010: 23c7 2bbe d442 86bd 35e0 76bd e890 debd
00000020: 6856 8abd 19b9 98bd 90fa 2dbe 70c3 59bc
00000030: dd0a 05be 3a63 a0bd ce10 bcbd e45b 31be
00000040: dd6c 04be f0de 91bd 369b b0bd 6490 483b
00000050: f3e5 99bd b3b4 d7bd 5c08 2fbe 4bbd ddbd
00000060: 0835 71bd 176f b8bc 9765 96bd 8dc2 24be
00000070: 1aa6 59be ddce eabd 7f05 96bd 5483 febd

weight f4 [32]
0.75995946 0.47337767 0.61232626 0.49337444 0.8669737 0.6633316 0.9935161 0.63745457
0.8920927 0.5500694 0.5988662 0.57143795 0.86270267 0.5623105 0.6212755 1.0002265
0.91703224 0.7468578 0.8179938 0.58484405 0.63399374 0.53058213 0.6675562 0.80430216
0.55968314 0.72755355 0.5451933 0.9702068 0.8879081 0.7701871 0.65909797 0.5805956
00000000: b48c 423f 8f5e f23e 6ac1 1c3f 939b fc3e
00000010: fdf1 5d3f 1ad0 293f 1257 7e3f 3930 233f
00000020: 3060 643f 59d1 0c3f 4c4f 193f c249 123f
00000030: 15da 5c3f 95f3 0f3f e90b 1f3f 6c07 803f
00000040: a0c2 6a3f 1332 3f3f 0b68 513f 57b8 153f
00000050: 6a4d 223f 3bd4 073f f7e4 2a3f bfe6 4d3f
00000060: 6547 0f3f f340 3a3f ca91 0b3f 795f 783f
00000070: f24d 633f fb2a 453f a5ba 283f eaa1 143f

bias f4 [32]
-0.6958918 -0.21704751 -0.49042174 -0.37929425 -0.6608244 -0.49445668 -0.8443776 -0.52977526
-0.7575515 -0.4572512 -0.4575253 -0.5918164 -0.6879944 -0.44997492 -0.4235932 -0.88360715
-0.7657671 -0.568616 -0.62461036 -0.42374706 -0.47507003 -0.30079776 -0.5598344 -0.5866178
-0.4101257 -0.5682548 -0.4241096 -0.76169497 -0.6668688 -0.66968983 -0.5085761 -0.44062263
00000000: f725 32bf b441 5ebe 8f18 fbbe db32 c2be
00000010: ca2b 29bf 6d29 fdbe 2129 58bf 5a9f 07bf
00000020: e5ee 41bf d41c eabe c240 eabe 4881 17bf
00000030: 6720 30bf 1d63 e6be 35e1 d8be 1434 62bf
00000040: 5009 44bf d190 11bf 77e6 1fbf 60f5 d8be
00000050: 613c f3be 2a02 9abe 4f51 0fbf 962c 16bf
00000060: fffb d1be 2679 11bf e524 d9be 71fe 42bf
00000070: eab7 2abf cb70 2bbf 0b32 02bf 4a99 e1be

running_mean f4 [32]
-10.7011595 -7.144782 -5.9016337 -1.5460039 -16.018476 -7.8526945 -11.657826 -6.542436
-11.161126 -7.6692753 -8.481947 2.3329406 -13.035027 0.6431608 -11.834061 -12.429206
-18.697233 -11.557954 -15.590919 -2.1643143 -5.749958 -5.701788 -8.262889 -10.957029
-8.62813 -7.7900343 -7.9667916 -10.663357 -25.963732 -11.120925 -16.25258 -6.924818
00000000: f337 2bc1 0ea2 e4c0 2fda bcc0 75e3 c5bf
00000010: d725 80c1 4649 fbc0 7586 3ac1 a35b d1c0
00000020: f993 32c1 b46a f5c0 0eb6 07c1 e64e 1540
00000030: 788f 50c1 30a6 243f 5058 3dc1 07de 46c1
00000040: ef93 95c1 61ed 38c1 6774 79c1 2084 0ac0
00000050: a8ff b7c0 0c75 b6c0 cb34 04c1 fe4f 2fc1
00000060: d20c 0ac1 f647 f9c0 f5ef fec0 1c9d 2ac1
00000070: b9b5 cfc1 4fef 31c1 4905 82c1 1c98 ddc0

running_var f4 [32]
129.4952 132.99832 125.32366 98.32405 263.15863 103.31882 217.53033 118.43701
163.88998 96.404305 101.17826 113.78305 182.82004 132.41428 147.9114 237.63705
277.18555 166.22063 207.76448 144.01288 135.48244 89.52427 99.986435 174.30438
106.293144 131.30771 106.40243 232.97112 306.91177 168.09167 161.31909 78.59439
00000000: c57e 0143 92ff 0443 b7a5 fa42 eaa5 c442
00000010: 4e94 8343 3ca3 ce42 c487 5943 c0df ec42
00000020: d6e3 2343 01cf c042 455b ca42 ec90 e342
00000030: eed1 3643 0e6a 0443 52e9 1343 16a3 6d43
00000040: c097 8a43 7b38 2643 b5c3 4f43 4c03 1043
00000050: 817b 0743 6d0c b342 0ef9 c742 ec4d 2e43
00000060: 1796 d442 c64e 0343 0bce d442 9bf8 6843
00000070: b574 9943 7817 2843 b051 2143 5430 9d42

weight f4 [256, 800]
-0.25544563 -0.03924942 0.47832808 -0.0799679 0.06908542 -0.03413991 0.30728716 0.13623321
-0.016680555 0.145035 -0.12600014 0.0638655 0.19870473 -0.24632204 0.10505658 0.1337854
-0.041590653 -0.027811442 0.0041946336 0.243169 -0.10841707 -0.25980833 -0.677135 0.45587665
0.086629525 -0.054859087 -0.1207805 -0.041040413 -0.13592824 0.18927595 0.0099584 0.2721998
0.09912413 0.094939694 -0.27734149 0.14107563 0.09247664 0.070651755 -0.16127025 -0.50411147
0.312737 -0.10703944 0.056349784 -0.05145842 -0.16700554 0.07206709 0.31263712 0.4501935
-0.10196664 -0.12548128 0.26137242 0.309549 -0.05336846 0.03981295 0.17546289 0.33560392
0.072311185 -0.44711372 0.02231459 -0.20497623 0.015879832 0.07102911 -0.03465657 0.19441095
-0.059372608 -0.15334637 -0.1344951 0.14139543 -0.018222285 0.16483448 0.03126313 -0.18148103
0.18294072 -0.008348242 -0.05544867 0.070376776 0.3782308 -0.048878208 -0.2882523 -0.03044051
-0.17399882 0.0030082657 -0.10555877 -0.14560874 -0.08983091 0.08730721 -0.22049998 -0.31053764
-0.13201389 -0.10883739 -0.42312568 -0.19186077 0.032405764 -0.15885638 -0.36792994 0.07211508
-0.1018854 -0.0020366716 -0.031582616 -0.30633605 -0.21461943 -0.08586856 0.30675742 0.39520466
0.10148565 -0.24551684 -0.35946965 -0.20414889 -0.121037655 -0.28501797 -0.06605103 0.16891335
0.4010648 -0.112779036 -0.47784895 0.20841399 0.2709957 -0.062347677 -0.39405566 -0.74089724
0.6318309 0.2523533 0.030783158 -0.05213148 0.037940986 0.20609732 0.123841606 -0.1683557
-0.50606656 -0.6249447 0.05476794 0.14305879 -0.29659393 -0.57973754 -0.5035161 0.0104411105
0.43678215 0.048172895 -0.08174162 -0.24132456 0.0390042 0.12736644 0.14178665 -0.16247241
0.06940438 -0.19818248 0.078401916 0.38260716 0.2915043 -0.059890177 -0.2602886 0.44692037
-0.017504923 0.12321741 -0.18703535 0.33931836 0.11132172 -0.06032275 -0.069984086 0.0026528942
0.21917406 0.068716735 0.22930837 -0.36115828 -0.15500206 -0.15019356 0.31423783 -0.15943381
-0.31696245 0.23531908 0.26705697 -0.8256562 -0.48497242 -0.110499516 0.37857103 -0.07219239
-0.11120443 -0.1897738 0.073711686 0.10031955 -0.09558141 -0.12731798 -0.3733946 -0.070090644
-0.043969747 0.086652435 -0.05280769 -0.347545 -0.17602193 -0.44077545 -0.107726365 -0.053917833
0.08293162 0.037898622 -0.31680045 -0.004471778 0.12114427 0.1283865 0.053078458 -0.26476267
-0.047089703 -0.41146803 -0.07945738 -0.107738495 -0.3428668 -0.12383594 0.03753433 -0.6679488
-0.19874138 -0.25961605 0.03936457 0.39909825 0.2273723 -0.05352126 -0.13209705 -0.079747684
0.35629678 0.5257813 0.31739074 0.019275423 -0.16307731 -0.24044767 -0.43872365 -0.2111244
0.16058992 -0.021201057 0.3721988 0.5754759 -0.024250213 -0.38622573 0.122980006 0.32164297
0.060707998 -0.17869695 0.2130147 -0.055313665 -0.29611817 -0.23803504 -0.010417905 -0.12593292
-0.25896543 0.08775095 0.033844426 -0.06616983 0.15257733 -0.26131633 0.067575715 0.051295612
0.14779192 0.3155327 -0.35010627 -0.2706406 -0.081265196 -0.013258265 0.12533797 -0.35099068
00000000: c5c9 82be 00c4 20bd 6be7 f43e 36c6 a3bd
00000010: a87c 8d3d 4ad6 0bbd be54 9d3e b880 0b3e
00000020: a9a5 88bc 0e84 143e 2e06 01be eacb 823d
00000030: 4179 4b3e d83b 7cbe e727 d73d 0aff 083e
00000040: f65a 2abd d2d4 e3bc 2373 893b 4b01 793e
00000050: c509 debd 9905 85be b858 2dbf aa68 e93e
00000060: d26a b13d ecb3 60bd c45b f7bd fe19 28bd
00000070: c630 0bbe 8ed1 413e 8f28 233c c65d 8b3e
00000080: 9801 cb3d be6f c23d b4ff 8dbe 2176 103e
00000090: 6564 bd3d deb1 903d 0724 25be 730d 01bf
000000a0: 101f a03e 7e37 dbbd 08cf 663d 10c6 52bd
000000b0: 8003 2bbe e997 933d f911 a03e c37f e63e
000000c0: e3d3 d0bd 2a7e 00be 9bd2 853e 357d 9e3e
000000d0: e398 5abd e712 233d 8bac 333e 47d4 ab3e
000000e0: e317 943d 17ec e4be 16cd b63c 4ae5 51be
000000f0: 6c16 823c b677 913d 0cf4 0dbd aa13 473e
00000100: b130 73bd d506 1dbe 15b9 09be f7c9 103e
00000110: e746 95bc 5fca 283e c50d 003d 2ad6 39be
00000120: d054 3b3e 11c7 08bc 251e 63bd b321 903d
00000130: 78a7 c13e 8434 48bd ce95 93be 605e f9bc
00000140: bf2c 32be 5326 453b 322f d8bd 751a 15be
00000150: 45f9 b7bd 1fce b23d bfca 61be cafe 9ebe
00000160: a62e 07be 23e6 debd eea3 d8be 2677 44be
00000170: e8bb 043d 3fab 22be 5061 bcbe 12b1 933d
00000180: 4ba9 d0bd ae79 05bb c65c 01bd 14d8 9cbe
00000190: 32c5 5bbe dbdb afbd 4f0f 9d3e 4458 ca3e
000001a0: b5d7 cf3d c468 7bbe 680c b8be 680c 51be
000001b0: 97e2 f7bd e0ed 91be c345 87bd 9ff7 2c3e
000001c0: 5e58 cd3e b2f8 e6bd 9ea8 f4be 7a6a 553e
000001d0: f3bf 8a3e 4760 7fbd aac1 c9be 71ab 3dbf
000001e0: abbf 213f 7434 813e f62c fc3c d287 55bd
000001f0: 0268 1b3d 2d0b 533e aba0 fd3d 7065 2cbe
00000200: 948d 01bf 60fc 1fbf 5954 603d 017e 123e
00000210: 29db 97be ae69 14bf 6ee6 00bf 3111 2b3c
00000220: e9a1 df3e f150 453d 2768 a7bd c91d 77be
00000230: dec2 1f3d 596c 023e 8530 113e 2b5f 26be
00000240: e223 8e3d 59f0 4abe 2f91 a03d 16e5 c33e
00000250: 0d40 953e 674f 75bd 8c44 85be bfd2 e43e
00000260: 7c66 8fbc 6959 fc3d 3286 3fbe 23bb ad3e
00000270: a4fc e33d fd14 77bd d153 8fbd 2edc 2d3b
00000280: 2a6f 603e 5cbb 8c3d d0cf 6a3e bde9 b8be
00000290: dcb8 1ebe 57cc 19be c8e3 a03e 9e42 23be
000002a0: e748 a2be 7cf7 703e b1bb 883e 345e 53bf
000002b0: 4e4e f8be 924d e2bd 10d4 c13e 9bd9 93bd
000002c0: 26bf e3bd 1054 42be 27f6 963d 5674 cd3d
000002d0: 30c0 c3bd a55f 02be 942d bfbe af8b 8fbd
000002e0: 9f19 34bd d576 b13d e04c 58bd 6bf1 b1be
000002f0: 183f 34be 52ad e1be a49f dcbd f2d8 5cbd
00000300: 0ed8 a93d 963b 1b3d ab33 a2be fe87 92bb
00000310: 7d1a f83d c077 033e cc68 593d f98e 87be
00000320: 22e1 40bd f0ab d2be 8dba a2bd 00a6 dcbd
00000330: 3d8c afbe b39d fdbd 99bd 193d b1fe 2abf
00000340: dc82 4bbe 65ec 84be be3c 213d 9b56 cc3e
00000350: 49d4 683e 1c39 5bbd 7344 07be c152 a3bd
00000360: 886c b63e 9a99 063f 0a81 a23e 7ee7 9d3c
00000370: bdfd 26be ea37 76be 63a0 e0be ff30 58be
00000380: af71 243e d7ad adbc d790 be3e 6352 133f
00000390: 62a8 c6bc 61bf c5be f1dc fb3d 63ae a43e
000003a0: f3a8 783d 55fc 36be 8720 5a3e 9590 62bd
000003b0: cd9c 97be 75bf 73be dcaf 2abc 8ff4 00be
000003c0: 1e97 84be c5b6 b33d 74a0 0a3d 0c84 87bd
000003d0: 3b3d 1c3e 41cb 85be 2365 8a3d 591b 523d
000003e0: c456 173e 818d a13e 2141 b3be 6891 8abe
000003f0: 5e6e a6bd 3239 59bc 9958 003e 0db5 b3be

bias f4 [256]
0.5026093 -0.006617182 -0.16723862 0.049627986 0.9174097 -0.057635427 -0.1901508 0.5791839
0.36534303 0.72323996 0.14282796 -0.013247385 -0.016181866 -0.007508963 -0.13572697 -0.03469637
-0.03459307 -0.0049765836 0.4324628 0.76390046 0.42987218 -0.03967441 0.5833742 0.51775575
0.5782763 0.006340192 -0.09942444 -0.033698663 -0.062251702 -0.052947853 -0.19707859 0.81605715
0.46968377 0.06796563 0.5852323 -0.0028833265 -0.06601404 0.5416501 -0.061707694 0.45599005
-0.3995935 -0.02948014 0.19911572 -0.019092439 -0.27782845 0.06208463 -0.011240292 -0.027345221
0.32363054 -0.38221946 -0.011638417 -0.017097294 -0.12302882 -0.1550648 0.09178344 0.21119696
-0.055175465 -0.03184987 -0.065231085 0.8345364 -0.46341774 0.35657203 -0.010188804 -0.07911582
-0.026721295 -0.040073827 -0.03924718 0.27102494 -0.04586135 0.080220625 0.50050896 0.3255328
0.1170981 0.31671098 -0.051986944 -0.17202201 0.4997707 -0.043832716 0.08911164 -0.39768514
-0.026231788 0.13235791 -0.031244049 0.038934086 0.0786391 0.31135833 0.006885753 0.0045828335
0.002461293 0.021797273 -0.061609242 0.53864956 -0.0018379466 0.4381286 -0.62589884 0.024463335
0.19691125 -0.10168341 0.13684483 0.73445535 0.40084365 -0.4131449 -0.019141966 -0.028004454
-0.06486499 0.102374695 -0.11705478 -0.32259515 -0.11211079 -0.07176632 0.18606322 0.0018990121
-0.07839749 -0.23680073 -0.07433271 -0.083565556 -0.006249081 -0.035853285 0.66064286 0.44011107
0.5333596 -0.20809929 0.17525727 0.21974312 0.12568107 -0.07130979 0.35151988 0.6304631
0.49285623 0.18437135 -0.14424719 0.60221493 0.00954878 -0.23842376 0.12573136 -0.12516858
0.42944792 -0.008977876 0.0409574 0.8352201 -0.011770552 -0.020815423 0.87047625 -0.24700174
0.22963099 -0.013693212 -0.093186416 0.13731882 -0.05814448 -0.44132864 0.72759897 0.16623156
0.08611054 -0.31871024 0.86252457 0.082743295 -0.013234418 0.41898307 0.19649799 -0.081395514
-0.021853257 0.6855553 -0.065989435 -0.024704816 -0.025082804 -0.077815354 0.23624732 0.22945675
0.21544614 -0.27728096 0.40610573 0.029560775 0.23501107 -0.21229112 -0.050244257 -0.1987655
0.07129033 -0.060872223 -0.024014253 0.30297136 0.29722962 -0.5043897 -0.0117720105 -0.16770792
-0.10621341 -0.015288437 0.05718268 -0.013154155 0.46517578 0.85603315 0.538013 -0.68646437
-0.1674705 -0.097123206 0.1246411 -0.006893269 0.56277883 -0.032324374 0.4302434 -0.65027106
0.15560338 -0.1547111 0.29878813 -0.6554662 0.17457819 -0.022285596 0.6258962 -0.07111603
0.34201032 0.14825091 1.0408864 -0.042802777 -0.19005919 -0.012929349 0.03478011 -0.07078446
-0.08290114 0.6685809 0.08239355 0.21664898 0.4806211 -0.006042539 0.051089246 -0.023259837
-0.040602177 -0.015143981 -0.030934155 0.18073307 -0.05418576 0.51966614 0.18139209 -0.092285365
0.6647096 0.16611645 0.014407176 -0.03479362 -0.06506444 -0.5726233 0.5203501 0.4557483
-0.069438525 -0.049872685 -0.032632306 -0.13507676 -0.03171661 0.61616737 -0.05175532 0.39262104
-0.107419625 0.34243187 0.48220152 -0.041526 0.41473258 0.2853941 0.005324728 -0.40373564
00000000: 01ab 003f f2d4 d8bb 9a40 2bbe b746 4b3d
00000010: 5ddb 6a3f 2013 6cbd e4b6 42be 6545 143f
00000020: 3e0e bb3e 4126 393f 7e41 123e 8f0b 59bc
00000030: d58f 84bc bf0d f6bb 03fc 0abe c81d 0ebd
00000040: 77b1 0dbd 9c12 a3bb c46b dd3e fb8e 433f
00000050: 3518 dc3e a281 22bd 0358 153f a48b 043f
00000060: ea09 143f 63c1 cf3b 0a9f cbbd 9c07 0abd
00000070: a4fb 7ebd d9df 58bd f8ce 49be 1fe9 503f
00000080: 647a f03e 9031 8b3d c9d1 153f 31f6 3cbb
00000090: 5e32 87bd 95a9 0a3f 35c1 7cbd 8777 e93e
000000a0: 8597 ccbe 5680 f1bc fee4 4b3e bf67 9cbc
000000b0: 883f 8ebe 744c 7e3d 3429 38bc 1603 e0bc
000000c0: e7b2 a53e 45b2 c3be 0faf 3ebc a00f 8cbc
000000d0: 89f6 fbbd 4fc9 1ebe f5f8 bb3d 0444 583e
000000e0: abff 61bd 0275 02bd e097 85bd 2da4 553f
000000f0: 1745 edbe 9c90 b63e f1ee 26bc 7a07 a2bd
00000100: 9ee6 dabc 7424 24bd a7c1 20bd c8c3 8a3e
00000110: 1cd9 3bbd b64a a43d 5b21 003f 3cac a63e
00000120: 21d1 ef3d f127 a23e 43f0 54bd 8a26 30be
00000130: f2e1 ff3e ef89 33bd 2a80 b63d 639d cbbe
00000140: 0ce4 d6bc d588 073e 85f3 ffbc 5979 1f3d
00000150: 890d a13d 5c6a 9f3e e2a1 e13b 982b 963b
00000160: a54d 213b 3290 b23c f959 7cbd f0e4 093f
00000170: 41e7 f0ba 6452 e03e e83a 20bf 5567 c83c
00000180: 1aa3 493e 643f d0bd 0d21 0c3e 4405 3c3f
00000190: 613b cd3e ba87 d3be 9dcf 9cbc 9969 e5bc
000001a0: f0d7 84bd d3a9 d13d 6bba efbd 312b a5be
000001b0: 589a e5bd 38fa 92bd 5b87 3e3e 46e8 f83a
000001c0: dd8e a0bd e47b 72be bf3b 98bd 6b24 abbd
000001d0: 17c5 ccbb e5da 12bd e41f 293f 3d56 e13e
000001e0: 418a 083f fb17 55be a476 333e 5704 613e
000001f0: 8ab2 003e de0a 92bd 6afa b33e 0866 213f
00000200: a757 fc3e d8cb 3c3e 89b5 13be c22a 1a3f
00000210: 7c72 1c3c 5c25 74be b9bf 003e 312c 00be
00000220: 99e0 db3e f117 13bc f2c2 273d fcd0 553f
00000230: 46d9 40bc 1b85 aabc 88d7 5e3f 06ee 7cbe
00000240: 6324 6b3e 7e59 60bc 85d8 bebd 4e9d 0c3e
00000250: e828 6ebd d4f5 e1be ed43 3a3f 9b38 2a3e
00000260: b95a b03d fd2d a3be 69ce 5c3f 5175 a93d
00000270: 2cd5 58bc f384 d63e c536 493e b1b2 a6bd
00000280: 9a05 b3bc 8d80 2f3f 7825 87bd c161 cabc
00000290: 747a cdbc a85d 9fbd d1ea 713e b6f6 6a3e
000002a0: ea9d 5c3e c5f7 8dbe 17ed cf3e 7029 f23c
000002b0: bea6 703e d862 59be eccc 4dbd 2f89 4bbe
000002c0: aa00 923d 2755 79bd 8ab9 c4bc 101f 9b3e
000002d0: 7b2e 983e af1f 01bf 64df 40bc a0bb 2bbe
000002e0: 6b86 d9bd 5a7c 7abc 6338 6a3d 8684 57bc
000002f0: 852b ee3e fd24 5b3f 38bb 093f 21bc 2fbf
00000300: 637d 2bbe 88e8 c6bd d543 ff3d eee0 e1bb
00000310: 4612 103f 9066 04bd dd48 dc3e 2a78 26bf
00000320: 7e56 1f3e 966c 1ebe c2fa 983e a2cc 27bf
00000330: a0c4 323e 4890 b6bc bc3a 203f 48a5 91bd
00000340: fa1b af3e 16cf 173e c43b 853f f751 2fbd
00000350: e09e 42be 9fd5 53bc 9775 0e3d 71f7 90bd
00000360: 13c8 a9bd 1e28 2b3f f3bd a83d 3bd9 5d3e
00000370: f813 f63e 7e00 c6bb f542 513d 6a8b bebc
00000380: 784e 26bd 761e 78bc a069 fdbc 1712 393e
00000390: e3f1 5dbd d708 053f d9be 393e 1c00 bdbd
000003a0: 692a 2a3f 6e1a 2a3e 130c 6c3c c183 0ebd
000003b0: 8140 85bd 7197 12bf aa35 053f d757 e93e
000003c0: c935 8ebd 4d47 4cbd 74a9 05bd 9051 0abe
000003d0: 47e9 01bd 25bd 1d3f 63fd 53bd a005 c93e
000003e0: d2fe dbbd 3b53 af3e 1ee3 f63e 2b17 2abd
000003f0: d457 d43e 2d1f 923e 0e7b ae3b 70b6 cebe

weight f4 [10, 256]
-0.41602486 -0.041060727 0.29198954 0.12431347 -0.0692968 -0.022798648 0.3310089 -0.04434384
-0.07591067 -0.20683447 0.094640575 -0.026502004 -0.54593825 0.0022121528 0.030191086 -0.10410975
0.0045209667 -0.051273957 -0.33512333 -0.10263871 -0.12252473 -0.049404293 -0.39413098 -0.5371557
0.18487503 -0.012838301 -0.02772981 -0.03283104 0.011849662 0.0042333556 -0.105574645 0.056466945
-0.080957234 0.052383333 -0.20631482 0.006686736 0.034005806 0.0020104563 -0.13173488 -0.2212196
0.08762916 -0.002990666 0.10068512 -0.011768842 -0.3193718 0.25168034 -0.040655877 0.04141411
-0.3328846 -0.25594977 0.023116518 0.24900547 0.019343337 0.5704428 0.47513354 -0.10935812
0.031302206 -0.040683717 0.039423186 -0.17202647 0.2509719 -0.118841365 0.035948176 0.21214023
0.040475268 -0.0681961 0.03864021 -0.34597415 -0.0614546 -0.2109609 -0.2816018 -0.12171269
-0.13576321 -0.09208756 0.050567597 -0.025293594 -0.35220787 -0.07783531 -0.17349483 -0.1791986
-0.018357692 0.33236665 0.4711542 -0.0021577936 0.059582077 -0.5758959 0.013268194 -0.46445322
-0.04347174 -0.12891477 -0.07014999 -0.097859405 0.015369905 -0.15226407 -0.097283356 -0.21303338
-0.054548323 -0.3792983 0.120622806 -0.43049207 0.28988612 0.2354047 0.0324541 0.03746786
-0.024816057 -0.008071906 0.06696085 -0.039405093 -0.13581245 0.025729435 -0.38992628 0.04274992
-0.029844232 -0.29319185 -0.08072037 0.04950842 -0.014324432 -0.008475671 -0.04773342 -0.06724228
-0.12799512 -0.34270522 -0.33888447 0.28300563 -0.5784581 -0.06416241 -0.3647462 -0.30477315
-0.5139447 -0.34383306 -0.038113758 -0.2355706 0.014129502 0.054022167 0.3291033 0.25283235
-0.2852643 -0.40239197 -0.5595791 -0.2787746 0.06165558 0.015808389 -0.13975172 -0.363153
-0.35625726 -0.027141144 -0.273225 -0.44545215 -0.009665181 -0.06326887 -0.49624106 -0.199121
0.24957815 -0.3292158 -0.4231568 -0.2484279 0.010483704 0.0483957 -0.0027429105 -0.036522936
-0.013226092 0.08123187 0.02788009 -0.0065725013 0.27308318 0.021200601 -0.17563741 0.19254573
-0.458756 0.17994088 -0.16701 0.74758464 -0.44701052 -0.070519425 0.021188803 -0.035733324
-0.55987835 -0.026751561 -0.05832043 -0.21926486 0.34359416 0.10203701 -0.0027825995 -0.074337475
-0.15160824 0.0030936575 -0.21696511 -0.0341602 0.18911073 -0.34142345 -0.35563457 0.17547317
-0.0143356025 -0.43353343 0.4376952 -0.19035186 -0.16544591 0.04598147 -0.082289375 0.052048873
-0.57876384 -0.13196047 0.12614793 0.29507867 0.27785003 0.0188472 0.31700814 -0.004830617
-0.72749215 0.16018192 -0.28480482 0.04348239 0.323804 0.01956789 -0.06228006 0.16602923
-0.0019425612 -0.17337954 -0.17833807 0.124376036 -0.1962127 -0.008035011 -0.014459387 -0.25670147
0.040158644 -0.028644219 0.016761579 -0.12862657 -0.440045 0.18851203 -0.2627867 -0.00024003319
-0.1778405 -0.08053305 -0.039945878 0.024967548 -0.12863919 0.19263251 -0.030282527 0.15516073
-0.027945852 -0.033404525 -0.19741371 -0.19094318 -0.06138271 -0.38597223 -0.1255447 -0.16258462
-0.19593948 -0.12718923 -0.3445696 -0.0020578504 -0.26625156 0.09114142 0.0289143 0.073491
00000000: 3601 d5be 4b2f 28bd a77f 953e 1098 fe3d
00000010: 7beb 8dbd 3bc4 babc 007a a93e e3a1 35bd
00000020: 0e77 9bbd 6acc 53be ebd2 c13d bb1a d9bc
00000030: 9cc2 0bbf c4f9 103b 4c53 f73c 7e37 d5bd
00000040: 9e24 943b a404 52bd 4995 abbe 3e34 d2bd
00000050: 3fee fabd 285c 4abd 89cb c9be 0983 09bf
00000060: e14f 3d3e bd57 52bc a029 e3bc d779 06bd
00000070: 1625 423c f6b7 8a3b 8537 d8bd e249 673d
00000080: e8cc a5bd e88f 563d 3144 53be 681c db3b
00000090: ac49 0b3d dcc1 033b 82e5 06be 6487 62be
000000a0: eb76 b33d 0dff 43bb 0034 ce3d 1ad2 40bc
000000b0: b384 a3be 3fdc 803e c786 26bd d8a1 293d
000000c0: da6f aabe d90b 83be da5e bd3c 4afb 7e3e
000000d0: eb75 9e3c 8a08 123f b444 f33e 26f7 dfbd
000000e0: be36 003d f8a3 26bd 357a 213d b527 30be
000000f0: 647f 803e 1a63 f3bd 653e 133d 4a3b 593e
00000100: 65c9 253d 66aa 8bbd 3245 1e3d 8623 b1be
00000110: d2b7 7bbd 2206 58be 1c2e 90be 8144 f9bd
00000120: 8305 0bbe 6798 bcbd f81f 4f3d 8334 cfbc
00000130: 9754 b4be 1e68 9fbd a1a8 31be d67f 37be
00000140: df62 96bc f62b aa3e 203b f13e c569 0dbb
00000150: 560c 743d ea6d 13bf d762 593c d0cc edbe
00000160: 6c0f 32bd 3c02 04be ccaa 8fbd 836a c8bd
00000170: 0ed2 7b3c 1deb 1bbe 7f3c c7bd 6c25 5abe
00000180: 106e 5fbd 6333 c2be 1709 f73d 7569 dcbe
00000190: f46b 943e ee0d 713e 97ee 043d e677 193d
000001a0: 0b4b cbbc 0740 04bc c522 893d 3c67 21bd
000001b0: 6b12 0bbe 89c6 d23c 6ba4 c7be 8a1a 2f3d
000001c0: e47b f4bc 3e1d 96be b950 a5bd 57c9 4a3d
000001d0: 06b1 6abc 8add 0abc 1e84 43bd 52b6 89bd
000001e0: 2711 03be 0f77 afbe 4482 adbe 1de6 903e
000001f0: d415 14bf 9567 83bd 04c0 babe 3a0b 9cbe
00000200: e191 03bf e30a b0be 2c1d 1cbd 6b39 71be
00000210: 6d7f 673c 5946 5d3d 3a80 a83e 3e73 813e
00000220: 2a0e 92be 5206 cebe 9340 0fbf 8bbb 8ebe
00000230: 908a 7c3d 9880 813c 131b 0fbe 31ef b9be
00000240: 5a67 b6be 1b57 debc 26e4 8bbe 4e12 e4be
00000250: b55a 1ebc 1c93 81bd 4f13 febe 60e6 4bbe
00000260: 6a91 7f3e f98e a8be 02a8 d8be e263 7ebe
00000270: d7c3 2b3c 923a 463d 67c2 33bb 1399 15bd
00000280: 40b2 58bc e55c a63d c964 e43c 235e d7bb
00000290: 8fd1 8b3e e2ac ad3c 4bda 33be b52a 453e
000002a0: 11e2 eabe 6c42 383e ab04 2bbe b561 3f3f
000002b0: 90de e4be 7d6c 90bd 2494 ad3c 1b5d 12bd
000002c0: 3054 0fbf 1726 dbbc 67e1 6ebd f886 60be
000002d0: 93eb af3e c8f8 d03d 465c 36bb 3f3e 98bd
000002e0: 313f 1bbe f6be 4a3b 1a2c 5ebe 91eb 0bbd
000002f0: 3ea6 413e 0ecf aebe bc15 b6be 3daf 333e
00000300: e0df 6abc 18f8 ddbe 9619 e03e 99eb 42be
00000310: a76a 29be 1157 3c3d 5587 a8bd 3331 553d
00000320: de29 14bf a520 07be ec2c 013e 8d14 973e
00000330: 5c42 8e3e 7165 9a3c e44e a23e 274a 9ebb
00000340: ed3c 3abf bb06 243e f0d1 91be 971a 323d
00000350: a3c9 a53e d74c a03c 6019 7fbd 9103 2a3e
00000360: 8a9d feba 688a 31be 419e 36be ddb8 fe3d
00000370: fbeb 48be 47a5 03bc 11e7 6cbc 606e 83be
00000380: 647d 243d 48a7 eabc 944f 893c afb6 03be
00000390: 944d e1be 4c09 413e fa8b 86be 6bb1 7bb9
000003a0: d21b 36be 83ee a4bd 4a9e 23bd be88 cc3c
000003b0: feb9 03be 7541 453e 1013 f8bc 74e2 1e3e
000003c0: b3ee e4bc 2fd3 08bd d226 4abe 9c86 43be
000003d0: 706c 7bbd 279e c5be ca8e 00be 957c 26be
000003e0: 5ca4 48be e53d 02be 6d6b b0be 00dd 06bb
000003f0: 2052 88be 5aa8 ba3d afdd ec3c 7382 963d

bias f4 [10]
-0.055868763 -0.68665636 -0.49264976 0.06799105 0.61800456 0.1586815 0.3147477 0.16115028
-0.23484541 0.17033637
00000000: a5d6 64bd b6c8 2fbf 973c fcbe e43e 8b3d
00000010: 8c35 1e3f 677d 223e 9c26 a13e 9404 253e
00000020: 517b 70be a86c 2e3e
