Project_1/Part3/checkpoints/dnn_7_1.pth (torch, 639703 bytes, 6 tensors)

weight f4 [200, 784]
0	0xbc22f8f3	-0.009947049
1	0xbd07616d	-0.033051897
2	0xbb861b0a	-0.004092579
3	0xbd03b76b	-0.032157343
4	0x3b4d205c	0.0031299805
5	0xbb15a15c	-0.0022831773
6	0x3ce3898c	0.027775548
7	0xbd11e01e	-0.035614125
8	0xbcb3fb1c	-0.021970324
9	0x3d00bdd7	0.031431045
10	0xbc6d88f8	-0.014497988
11	0x3c262bc5	0.010142271
12	0x3c8a9d1a	0.016920615
13	0x3c784b4a	0.015154669
14	0x3a573525	0.0008209518
15	0xbc6631f8	-0.014049999
16	0x3bbc8d0a	0.005754118
17	0x3d08299c	0.033242807
18	0xbcd5f45c	-0.026117496
19	0xbcc905dc	-0.024538927
20	0xb91f9925	-0.00015220472
21	0x3cea531e	0.028604086
22	0x3c67c71c	0.0141465925
23	0x3d0d5c42	0.034511812
24	0xb9e46c93	-0.00043568443
25	0xbd0af0ea	-0.03392116
26	0xbc1d81e5	-0.009613489
27	0x3d066ce4	0.03281869
28	0xbcbd71bc	-0.023125522
29	0x3ce9d653	0.02854458
30	0xbd011cbf	-0.031521555
31	0x3d066a44	0.032816187
32	0x3c7de50a	0.015496502
33	0x3bf3e9ca	0.0074436413
34	0xbbee7141	-0.0072766845
35	0x3bf7be1c	0.0075605046
36	0xbc6d441c	-0.014481571
37	0x3cdf6d6a	0.027273852
38	0xba3b9e4a	-0.0007157071
39	0xbd107ac0	-0.035273314
40	0xbce119fe	-0.027478214
41	0xbc83b057	-0.016075296
42	0xbb87926a	-0.004137327
43	0x3d87b62a	0.06626542
44	0x3ca0b94c	0.019619606
45	0x3cfe6f65	0.031058976
46	0xbc1c7f5e	-0.009551851
47	0xbd22dd7b	-0.039762
48	0xbb9f3a5c	-0.004859252
49	0xbd0e187f	-0.03469133
50	0xba6a7401	-0.00089436775
51	0xba4a844a	-0.0007725401
52	0x3ced48ca	0.028965373
53	0xbc7233b3	-0.014782834
54	0x3c974af0	0.01846835
55	0xbc9fd3a0	-0.01951009
56	0xbb4c21ca	-0.003114807
57	0x3cc508de	0.02405208
58	0x3b898113	0.004196295
59	0xbd11ea43	-0.0356238
60	0xbd0793b8	-0.03309986
61	0xbbb7da0a	-0.005610709
62	0xbc2b6a97	-0.010462425
63	0x3d123645	0.035696287
64	0x3c5c950e	0.013463272
65	0x3cc11a8e	0.023572233
66	0xbbf608e7	-0.0075083855
67	0xbb40514c	-0.0029345332
68	0xbd2167ba	-0.039405562
69	0xbd136526	-0.035985135
70	0x3d0062c5	0.031344194
71	0x3cab8058	0.020935223
72	0xbcb0a234	-0.02156172
73	0x3c700f4b	0.014652084
74	0xbbfa5473	-0.0076394617
75	0xbd34f1e1	-0.044175986
76	0xbcaa26ce	-0.020770457
77	0xbcea8bd9	-0.028631138
78	0x3c57950a	0.013158092
79	0xbc0add03	-0.008475545
80	0x3d0545a6	0.032537125
81	0xbc357e3c	-0.01107746
82	0x3b751b93	0.0037400469
83	0x3be46eb8	0.0069712065
84	0x3cc15e0c	0.023604415
85	0x3cc51785	0.024059067
86	0xbbe11cca	-0.006869887
87	0xbd045756	-0.032309853
88	0xbb5e3e6e	-0.0033911723
89	0x3ab11fb7	0.001351348
90	0xbc9f2430	-0.019426435
91	0x3bb53ad9	0.005530697
92	0x3bec7b01	0.0072168116
93	0xbc99f061	-0.01879138
94	0x3d3a1520	0.045430303
95	0x3c87eb2c	0.01659163
96	0xbb052e11	-0.0020321647
97	0xbd0048cf	-0.031319436
98	0xbc8578c5	-0.016292939
99	0xbcbf841a	-0.02337842
100	0xbbe1f895	-0.0068960884
101	0x3c37ce36	0.011218598
102	0x3b159cd6	0.0022829077
103	0xbcc9477b	-0.024570217
104	0x3d009349	0.031390462
105	0x3d13d81f	0.03609478
106	0x3c966de5	0.018362949
107	0xbc97d8a3	-0.018535918
108	0xbd2ad364	-0.041705504
109	0x3bb6a2bc	0.0055735987
110	0xbbb54693	-0.0055320947
111	0x3cd382b5	0.025819162
112	0xbb2aebdc	-0.0026080525
113	0x3c08713c	0.008327778
114	0x3cae9371	0.02131054
115	0xbd227558	-0.03966269
116	0xbc096a09	-0.008387097
117	0x3c6d1fe8	0.014472939
118	0xbcd23756	-0.025661152
119	0xbd19b499	-0.037525747
120	0xbbf26ece	-0.007398463
121	0x3bdf5057	0.006814997
122	0xbc4209eb	-0.011843185
123	0xbcab805e	-0.020935234
124	0xbcaf5caa	-0.02140649
125	0xbd07ec78	-0.0331845
126	0xbd35fa41	-0.044428114
127	0x3bd21fc8	0.00641248
128	0x3d1fd39a	0.03902016
129	0xbcb3124b	-0.021859309
130	0xbd1de55e	-0.03854882
131	0x3cc320a9	0.023819285
132	0xbcea2f2e	-0.02858695
133	0x3d21c92c	0.039498493
134	0xbc844e39	-0.01615058
135	0xbcc42719	-0.023944424
136	0x3b87c432	0.0041432614
137	0x3c4b2000	0.012397766
138	0xbc838639	-0.016055213
139	0x3cf2479f	0.029575167
140	0x3cd463e1	0.025926532
141	0xbc2054d7	-0.009785852
142	0x3c9b7230	0.018975347
143	0xbb21d260	-0.0024692044
144	0xbc2c34b9	-0.010510617
145	0x3c7311f2	0.014835821
146	0xbc799b00	-0.015234709
147	0x3cbe5b7b	0.02323698
148	0xbc573448	-0.013135023
149	0xbca5b608	-0.0202284
150	0xbac2b64f	-0.0014855358
151	0x3c9b8d59	0.018988298
152	0xbd12115f	-0.035661098
153	0x3bc8ae17	0.0061242688
154	0xbd2ce1d4	-0.042207554
155	0x3ca4b0ed	0.020103896
156	0xbc4b2785	-0.012399559
157	0xbc580f94	-0.013187308
158	0x3cc6e4f2	0.024279092
159	0x3c8ef70c	0.017451786
160	0x3c42f162	0.01189837
161	0xbb62e9cc	-0.0034624217
162	0xbc2590da	-0.010105336
163	0x3c244db9	0.010028296
164	0x3cef52d5	0.029214302
165	0x3cd1da68	0.02561684
166	0xbb1b3bdf	-0.002368681
167	0xbc3ffdd1	-0.011718229
168	0xbbd41477	-0.006472166
169	0x3cd164e7	0.02556081
170	0xbc6c08b0	-0.014406368
171	0xbccd5cf9	-0.025068747
172	0xbcc72490	-0.024309427
173	0x3adf19a8	0.0017021196
174	0xbd2a4dc3	-0.041578066
175	0xbcfe7fa9	-0.031066732
176	0xbced13e9	-0.028940158
177	0x3c162990	0.009165183
178	0xbd0d3a64	-0.034479514
179	0xbab52500	-0.0013820231
180	0xbd2a629c	-0.041597947
181	0xbd1b9484	-0.037983432
182	0xbcd69d0c	-0.026197933
183	0xbcaa4ebf	-0.020789502
184	0x3cb78b2b	0.022405228
185	0xbcbdbb29	-0.023160534
186	0xbd22da32	-0.03975887
187	0x3cfb37c2	0.030666236
188	0x3c1a217d	0.009407398
189	0xbc3135c4	-0.010816041
190	0x3cf32f4f	0.029685644
191	0x3d02a504	0.031895652
192	0x3c0b5e35	0.008506347
193	0x3cc0584f	0.023479609
194	0xbd00553b	-0.031331282
195	0x3bd58853	0.0065164953
196	0xbcc1efe5	-0.023673961
197	0x3d136be2	0.035991557
198	0xbc866ebb	-0.016410222
199	0xbc4a37b7	-0.012342385
200	0xbc9388b6	-0.018009525
201	0xbccd2ada	-0.025044847
202	0xbd4fc91f	-0.050728913
203	0xbd201ccc	-0.039089963
204	0xbcf486e0	-0.02984947
205	0xbbce87f2	-0.006302827
206	0x3c215551	0.009847001
207	0xbc886f1f	-0.01665455
208	0xbd705081	-0.058670525
209	0xbd8df11e	-0.06930755
210	0xbc9d5ede	-0.019210275
211	0xbc383f5b	-0.011245574
212	0xba3c3bba	-0.0007180531
213	0x3cba855e	0.022768673
214	0x3c41f4a0	0.011838108
215	0xbcb0fb83	-0.021604305
216	0xbc6169c9	-0.013758131
217	0xbcfbec4e	-0.030752327
218	0x3d362b4a	0.044474877
219	0x3c1af98c	0.009458911
220	0x3d25383e	0.04033684
221	0xbc377629	-0.011197605
222	0xbc8e4d92	-0.017370973
223	0x3c1f098b	0.009706865
224	0xbcdb9471	-0.02680418
225	0x3ce1fa34	0.027585126
226	0x3a0a0f94	0.00052666035
227	0x3cca371a	0.024684478
228	0xbc3759af	-0.011190816
229	0xbcac4387	-0.021028293
230	0xbcfda706	-0.030963432
231	0xbcf86ae4	-0.030324407
232	0x3b1040a8	0.0022011194
233	0xbd006660	-0.031347632
234	0xbd43ea36	-0.047830783
235	0xbb7e1a0a	-0.0038772845
236	0xbcd69a10	-0.02619651
237	0xbd599a38	-0.05312559
238	0xbc3a5b88	-0.011374362
239	0xbc168281	-0.009186388
240	0x3cda288c	0.026630662
241	0xbc6a97aa	-0.014318386
242	0x3c441af4	0.011969317
243	0x3c68d264	0.014210317
244	0x399c3645	0.00029795073
245	0x3a9983a9	0.0011712211
246	0x3b0908de	0.0020909826
247	0xbcf3f651	-0.029780539
248	0x3c140c08	0.009036072
249	0xbd4da2b3	-0.05020399
250	0xbbdc460e	-0.0067222184
251	0xbc7c3813	-0.0153942285
252	0x37a9edb7	2.0257065e-05
253	0x3d2aea9b	0.041727643
254	0xbb8561eb	-0.0040705106
255	0x3cff97c4	0.031200297

bias f4 [200]
0	0x3cddcedb	0.027076175
1	0x3ccc75bf	0.02495849
2	0xbd0d80cf	-0.03454667
3	0xbc6a36a6	-0.014295256
4	0x3c97a522	0.018511359
5	0xba501297	-0.00079373404
6	0x3d43836b	0.04773275
7	0x3c23bb7e	0.009993432
8	0xbbd0db13	-0.006373772
9	0x3d0f3d58	0.03497061
10	0xbc80f47d	-0.015741581
11	0xbd098480	-0.033573627
12	0xbc147cc4	-0.00906295
13	0xbd10d110	-0.035355628
14	0x3c63cc1e	0.013903646
15	0x3b8fa3f7	0.00438356
16	0xb9a29677	-0.00031011153
17	0xbaed99c9	-0.0018127497
18	0xbd34e49e	-0.04416334
19	0x3d8be31f	0.06830429
20	0x3d23ba4d	0.039972592
21	0x3c3bae65	0.011455153
22	0xbca9b5f2	-0.020716641
23	0x3d1c8164	0.038209334
24	0x3cb92d66	0.022604655
25	0x3cd54b7c	0.02603697
26	0x3c8bc895	0.017063418
27	0x3b0f4e42	0.0021866714
28	0xbadee2a1	-0.0017004797
29	0x3cbe4139	0.02322446
30	0x3d0190d1	0.03163225
31	0x3be5cd0d	0.0070129693
32	0xbc88c6a4	-0.016696282
33	0xbd3bcf1a	-0.045851804
34	0xbcffb2bd	-0.031213159
35	0xbadb077a	-0.0016710602
36	0xbcbcdfb3	-0.023055887
37	0x3c88ca8b	0.016698143
38	0xbd5757ab	-0.05257384
39	0xbcd4793d	-0.025936717
40	0xbc682d18	-0.014170907
41	0x3b5b9455	0.003350516
42	0xba8ac134	-0.0010586143
43	0xbd2fd2d3	-0.042925667
44	0xbd4b55ab	-0.049642246
45	0xbce55852	-0.027996216
46	0x3c57b8f8	0.013166659
47	0xbd1abf19	-0.0377799
48	0xbd51a7b3	-0.05118532
49	0xbd2f4496	-0.042790018
50	0x3dc22363	0.09479406
51	0xbce5baa6	-0.028043102
52	0x3d4d11ff	0.05006599
53	0x3c0cdad3	0.008597094
54	0x3d4bcd14	0.049756125
55	0xbcb6a2dc	-0.022294454
56	0xbce2bc47	-0.027677668
57	0x36baf5f0	5.571863e-06
58	0x3c6a9302	0.014317276
59	0xbc8901a3	-0.016724413
60	0xbcab9f5b	-0.02095001
61	0x3d9aea40	0.07564211
62	0xbc63675a	-0.013879621
63	0xbc1197e2	-0.008886309
64	0x3b6d7c47	0.0036237405
65	0xbc435723	-0.0119226305
66	0xbd2596ca	-0.040427007
67	0xbd2e7987	-0.042596366
68	0xbcad4766	-0.02115221
69	0x3d8f09d9	0.069843
70	0xbb8c4b9e	-0.004281475
71	0x3b32908b	0.00272468
72	0x3c0a8721	0.008455069
73	0xbc5bc4e9	-0.013413646
74	0x3c0097ea	0.007848719
75	0xbd1474a9	-0.03624407
76	0x3c5ac53a	0.013352687
77	0xbd2b99e6	-0.041894816
78	0xbcdbf4d0	-0.026850134
79	0x3c8c9ee6	0.017165612
80	0xbcca2bf3	-0.02467916
81	0xbce778a2	-0.028255764
82	0x3cbdb808	0.023159042
83	0x3aff2fcb	0.00194692
84	0x3c4626ca	0.012094209
85	0x3bad0cec	0.0052810814
86	0xbd4ecb4b	-0.050486844
87	0x3ca04247	0.019562854
88	0xbc8dec64	-0.017324634
89	0xbc1eee05	-0.009700303
90	0xbd2f3f29	-0.042784844
91	0x3c851921	0.016247334
92	0x3ca0cad6	0.01962797
93	0x3d87ec1f	0.066368334
94	0xbbb78e8b	-0.0056017092
95	0xbc881ba2	-0.016614739
96	0xba849e4b	-0.0010117976
97	0xbcea9a63	-0.02863807
98	0xbc7401eb	-0.014893035
99	0xbc7c2772	-0.015390264
100	0x3c8b7025	0.017021248
101	0xbccd0588	-0.025027052
102	0x3cfcfb7a	0.030881632
103	0xbd1199cd	-0.035547066
104	0xbbbefc83	-0.0058284416
105	0xbd3bb3ba	-0.045825697
106	0xbd2daa43	-0.042398702
107	0x3c4ac895	0.012376924
108	0x3d3af2fe	0.04564189
109	0xbc438712	-0.011934059
110	0xbd11f6d8	-0.0356358
111	0xbca2b0b5	-0.019859651
112	0x3c783086	0.015148288
113	0xbc635709	-0.013875731
114	0x3ab7d11a	0.0014024109
115	0x3caa0fab	0.020759424
116	0xbca77e5d	-0.020445997
117	0xbd1b8eab	-0.037977856
118	0xbc48fc42	-0.012267174
119	0xbca371a6	-0.019951653
120	0xbbce3051	-0.006292381
121	0x3c6b6a6b	0.014368634
122	0xbbed38d7	-0.007239442
123	0xbd150597	-0.036382284
124	0xbd085022	-0.033279546
125	0x3a9967d3	0.0011703916
126	0xba5dae2c	-0.00084564346
127	0xbd0a1cbf	-0.03371882
128	0x3c097956	0.008390745
129	0xbbc5d89b	-0.0060377843
130	0x3c38a7ed	0.011270505
131	0xbc7722e0	-0.015083998
132	0xbc41c7a0	-0.011827379
133	0x3d0351bd	0.032060374
134	0xbb254cfa	-0.0025222884
135	0xbb6fad71	-0.0036571885
136	0xbd4d978a	-0.050193347
137	0x3c89763b	0.01678001
138	0x3c7aae9d	0.01530042
139	0x39622d05	0.0002156981
140	0x3d463436	0.048389636
141	0xbd5367af	-0.051612552
142	0xba5ba466	-0.0008378684
143	0xbc11b891	-0.008894102
144	0xbd2dc33a	-0.04242251
145	0xbc90cd9b	-0.017676165
146	0xbc9d1dca	-0.019179244
147	0xbd342446	-0.043979906
148	0xb9d799a7	-0.00041122476
149	0x3d13b5d9	0.036062095
150	0x3bf23e0f	0.007392652
151	0xbd1b4d74	-0.037915662
152	0xbc5dcfaf	-0.013538285
153	0x3cacfc07	0.02111627
154	0xbbeef7b4	-0.007292712
155	0xbd38da3e	-0.045130007
156	0x3ca0e4c5	0.019640336
157	0xbc4629b9	-0.012094908
158	0x3c0bbf67	0.008529521
159	0x3d91994d	0.07109318
160	0xbd11363a	-0.035452105
161	0xbd03b846	-0.03215816
162	0xbcc0e9ee	-0.023549046
163	0xbc940b5e	-0.018071827
164	0xbd405cb6	-0.046963416
165	0x3c15561d	0.009114769
166	0x3caa8310	0.020814449
167	0x3ae81663	0.0017706867
168	0xbcf8adb4	-0.030356266
169	0xbd0a625a	-0.0337852
170	0x3c54a937	0.012979797
171	0x3c682271	0.014168368
172	0x3bbeaea0	0.0058191568
173	0xbb4bd4fb	-0.0031102288
174	0xbd5b9987	-0.053613212
175	0x3d4accd6	0.049511753
176	0xbc58cad2	-0.01323195
177	0xbd2d098b	-0.04224543
178	0x3c291528	0.010319985
179	0x3d137ac1	0.03600574
180	0x3b7e009e	0.0038757692
181	0xbcf74e08	-0.030188575
182	0xbc9d1364	-0.019174285
183	0xbd435735	-0.04769059
184	0x3ab35169	0.0013680878
185	0xbd038400	-0.032108307
186	0xbd4a6c9a	-0.049419977
187	0xbc9706b3	-0.018435812
188	0xbd305f38	-0.043059558
189	0xbcf36bc4	-0.029714473
190	0xbd2be50b	-0.04196648
191	0xbc1765e1	-0.009240598
192	0x3c41a4a6	0.01181904
193	0x3b741f48	0.003725009
194	0xbc7dd2ae	-0.0154921245
195	0x3ca0a1fe	0.019608494
196	0xbbfdfd9c	-0.00775118
197	0xbc922141	-0.017838122
198	0x3cc465f2	0.023974393
199	0xbd413fd6	-0.04718002

weight f4 [10, 200]
0	0xbd648b6a	-0.055797018
1	0x3d9a0a37	0.075214796
2	0x3b78848b	0.0037920799
3	0xbd5dcd9f	-0.054151174
4	0x3d12aead	0.035811115
5	0x3c8d8bb2	0.017278526
6	0xbcac7b4d	-0.021054888
7	0x3cf4bec6	0.029876124
8	0x3d843f82	0.06457426
9	0x3c835b68	0.016034797
10	0xbc4430e0	-0.011974543
11	0xbcac90d1	-0.021065148
12	0x3ca2c706	0.019870292
13	0x3d833901	0.06407357
14	0xbda33d73	-0.07970705
15	0xbc93cfce	-0.018043425
16	0xbc999d64	-0.018751808
17	0xbb994817	-0.004677783
18	0x3ca24475	0.019808033
19	0x3c7b17b8	0.015325479
20	0xbd15c161	-0.036561374
21	0xbdab2fcd	-0.08358727
22	0xbc5dbaab	-0.013533275
23	0xbcbaabbc	-0.022786967
24	0xbd4c7364	-0.049914733
25	0x3d1edd51	0.038785283
26	0x3d85ee51	0.06539596
27	0x3d463d30	0.048398197
28	0x3d105179	0.03523395
29	0xbce1ea46	-0.02757753
30	0xbd2ba7fb	-0.041908246
31	0xbd737ea1	-0.059446935
32	0xbdd97637	-0.10618251
33	0xbd2dca74	-0.042429402
34	0x3d119419	0.035541628
35	0xbd92ffa7	-0.07177668
36	0xbd35fe39	-0.0444319
37	0xbd6855ab	-0.056722324
38	0x3d01374f	0.031546887
39	0xbc14e3ba	-0.009087497
40	0x3c5f5c72	0.0136328805
41	0xbd72876d	-0.059211183
42	0x3d52cd76	0.051465474
43	0x3c1d7735	0.009610941
44	0x3c99ac90	0.018759042
45	0x3d42bdc0	0.04754424
46	0x3ce8ada3	0.028403109
47	0x3cbbbc37	0.022916896
48	0x3d8b6796	0.06806867
49	0xbca447f4	-0.020053841
50	0xbd1d206b	-0.038360994
51	0xbd4dc2cf	-0.050234612
52	0xbc0da2b5	-0.008644749
53	0xbcf5d6a8	-0.030009583
54	0xbd894add	-0.06703732
55	0xbd6563b8	-0.056003302
56	0xbd3ff25c	-0.04686199
57	0xbd65a702	-0.056067474
58	0x3c87c085	0.016571293
59	0x3d819470	0.0632714
60	0xbc9d3b9a	-0.01919346
61	0xbd2c77d9	-0.042106483
62	0x3d7c92fc	0.061663613
63	0xbb834c87	-0.0040069255
64	0xbc76849e	-0.015046267
65	0x3d7360cf	0.059418496
66	0xbd105b6f	-0.035243448
67	0x3ce5229d	0.027970606
68	0x3d6dccde	0.058056705
69	0xbd376208	-0.044771224
70	0xbd1dbb65	-0.03850879
71	0xbcc72037	-0.024307353
72	0xbd1658aa	-0.03670565
73	0xbce5a230	-0.028031439
74	0x3d320838	0.04346487
75	0xbd7a3cb9	-0.061093066
76	0xbb82388a	-0.003974025
77	0xbd1b7dbd	-0.03796171
78	0x3be9f316	0.007139574
79	0x3d80f572	0.06296815
80	0x3d6b08c1	0.057381395
81	0xbd0a8cd0	-0.033825696
82	0xbd7cd401	-0.06172562
83	0xbd827cdb	-0.063714705
84	0xbc121bfc	-0.008917805
85	0xbd82ff31	-0.0639633
86	0x3ca38ebc	0.019965522
87	0xbd33afdf	-0.043868896
88	0xbcacac3a	-0.021078218
89	0xbcffebff	-0.031240461
90	0xbb5be995	-0.0033555974
91	0xbd488a41	-0.048959974
92	0xbd697df1	-0.057004873
93	0xbdaa068e	-0.083020315
94	0x3d6d6dd9	0.057966087
95	0xbd3d677e	-0.046241276
96	0x3cb99583	0.0226543
97	0x3d6bbec4	0.057554975
98	0xbd29a07a	-0.041412808
99	0xbdc3f812	-0.095688
100	0xbcc64510	-0.024202853
101	0x3d623e1b	0.05523501
102	0x3d673f6f	0.05645698
103	0x3d3de162	0.04635752
104	0xbd49a086	-0.049225353
105	0x3d4da742	0.050208338
106	0x3cb9c87e	0.02267861
107	0xbd00683b	-0.031349402
108	0xbc6ce741	-0.014459432
109	0xbd0986a9	-0.033575688
110	0x3ce65418	0.02811627
111	0xbc8b2ba0	-0.016988575
112	0x3d23e228	0.0400106
113	0x3c135737	0.008992962
114	0xbd6f0829	-0.05835739
115	0xbd475811	-0.04866797
116	0xbc749456	-0.014927944
117	0xba75fcb2	-0.0009383663
118	0x3cc05bc7	0.023481263
119	0x3c748f05	0.014926677
120	0x3d306a35	0.043070037
121	0xbd328dfe	-0.043592446
122	0xbc0c6459	-0.008568847
123	0x3d2fc792	0.042914934
124	0xbd50f9cc	-0.051019475
125	0xbb758167	-0.0037461163
126	0x3c81e446	0.01585592
127	0x3c908e71	0.017646046
128	0x3d743290	0.059618533
129	0xbcddf931	-0.027096363
130	0xbd35bf0c	-0.04437165
131	0x3d4255ef	0.047445234
132	0x3d7d426d	0.061830927
133	0x3d1048be	0.035225622
134	0x3d442e65	0.047895808
135	0xbd158893	-0.0365072
136	0x3cd79856	0.026317757
137	0x3cf77687	0.030207885
138	0x3bc6f386	0.0060715107
139	0x3beb6166	0.0071832417
140	0xbcae393a	-0.021267522
141	0xbca792e4	-0.020455785
142	0x3ce8e2a9	0.028428392
143	0x3c988be9	0.018621402
144	0x3ca49323	0.020089692
145	0x3c6b3441	0.01435572
146	0xbd9445a6	-0.07239847
147	0xbc98d653	-0.018656885
148	0xbd54a0f2	-0.051911302
149	0x3ca0c83a	0.019626725
150	0xbd39a179	-0.045320008
151	0x3c82d5e5	0.015971133
152	0xbddcb437	-0.10776561
153	0xbd59df75	-0.05319162
154	0xbbe5fca1	-0.007018641
155	0xbd863798	-0.065535724
156	0x3d6b6bba	0.057475783
157	0x3d784bae	0.06061905
158	0xbd7e03d3	-0.062015366
159	0xbd9284a5	-0.07154206
160	0x3d4b5578	0.049642056
161	0x3cafbb6c	0.021451674
162	0xbd3e76ee	-0.04650014
163	0x3d7db024	0.06193556
164	0x3d5243df	0.05133426
165	0xbc9c7495	-0.01909856
166	0xbd703713	-0.058646273
167	0xbcb03608	-0.02151014
168	0x3bbd836d	0.0057834894
169	0xbcf66b30	-0.030080408
170	0xbc4916a2	-0.0122734625
171	0xbd82cc53	-0.06386628
172	0xbcfc80fa	-0.03082322
173	0xbd8378fd	-0.06419561
174	0x3d60d858	0.05489382
175	0xbbcdef7d	-0.0062846527
176	0xbd291f83	-0.041289818
177	0x3d279dca	0.040921964
178	0xbd6ab983	-0.057305824
179	0xbd954d4c	-0.07290134
180	0xbc19c1c0	-0.0093845725
181	0x3d73061e	0.059332006
182	0x3d861de7	0.06548672
183	0x3c01d6db	0.007924761
184	0x3d134b71	0.03596062
185	0x3d4e521e	0.05037128
186	0x3d6625c8	0.056188375
187	0x3d382ffc	0.044967636
188	0xbd8ac961	-0.06776691
189	0x3cc66899	0.024219798
190	0x3cc9d76a	0.02463885
191	0x3d8da289	0.06915767
192	0xba6a1f28	-0.0008931034
193	0xbda65d68	-0.081232846
194	0xbd424234	-0.047426417
195	0xbd865e12	-0.06560911
196	0xbd9de8e5	-0.07710437
197	0xbd8d0ac7	-0.06886821
198	0x3d215010	0.039382994
199	0x3cc7d200	0.024392128
200	0x3d855d1d	0.065119006
201	0x3cd9525b	0.026528528
202	0x3d2422b9	0.040072177
203	0xbd6959df	-0.056970473
204	0x3d852e46	0.065029666
205	0x3d560cd5	0.05225833
206	0xbd87e9c7	-0.06636386
207	0xbc8f4279	-0.017487751
208	0x3d560173	0.052247476
209	0xbb6be2e7	-0.0035993399
210	0xbd78a8a7	-0.060707714
211	0xbd846c1d	-0.064659335
212	0x3a0fbc4d	0.0005483076
213	0x3d10c322	0.035342343
214	0xbd207aaf	-0.0391795
215	0xbd0237e9	-0.0317916
216	0xbd20483b	-0.039131384
217	0x3d745c3b	0.05965827
218	0xbd51fb98	-0.05126533
219	0x3cae02a1	0.021241488
220	0x3d49593b	0.049157362
221	0x3d26a744	0.04068686
222	0xbbdeea7e	-0.006802856
223	0xbc9a12bd	-0.018807763
224	0x3bfdde22	0.0077474276
225	0xbbb5aa61	-0.0055439924
226	0xbd33e872	-0.04392285
227	0xbd37dcfc	-0.04488848
228	0xbc65fafd	-0.014036891
229	0xbcde2f10	-0.02712205
230	0x3d7432f6	0.059618913
231	0x3c1870c5	0.00930423
232	0x3c8f3f17	0.017486138
233	0x3b46b62d	0.0030320988
234	0x3d388aea	0.045054354
235	0xbd05def6	-0.032683335
236	0xbd2cbe12	-0.042173453
237	0xbd67615d	-0.056489337
238	0xbd72dea4	-0.059294358
239	0x3cd0ae1c	0.025473647
240	0x3c9fca81	0.019505741
241	0xbd57895c	-0.05262123
242	0x3cca3e8a	0.024688024
243	0xbaed8fc3	-0.0018124509
244	0x3d65bfa0	0.05609095
245	0xbca4553e	-0.020060178
246	0xbd8d5823	-0.06901576
247	0xbb6fa578	-0.0036567133
248	0xbc068243	-0.008209768
249	0xbd562123	-0.052277695
250	0xbd10b133	-0.03532524
251	0x3d50b91b	0.05095778
252	0xbd957d8d	-0.072993375
253	0x3d306c0c	0.04307179
254	0xbd346865	-0.04404487
255	0xbcc72886	-0.024311315

bias f4 [10]
0	0x3cdababb	0.026700368
1	0xbd8c36ea	-0.068464115
2	0x3d20be4d	0.039243985
3	0x3e137d2b	0.14403217
4	0x3befa3e1	0.007313237
5	0xbd65a4d0	-0.05606538
6	0xbda1f8fa	-0.07908817
7	0x3c23e6b2	0.0100037325
8	0xbd8786f8	-0.0661754
9	0xbc7e2d7d	-0.015513775

weight f4 [10, 10]
0	0x3e262b9c	0.16227573
1	0x3d8d5a82	0.069020286
2	0x3e5312aa	0.20612589
3	0xbe8766a9	-0.2644551
4	0xbd94b235	-0.07260553
5	0xbd6b461c	-0.05743991
6	0xbe800ba3	-0.25008878
7	0xbe5d469f	-0.21608971
8	0x3d6e2064	0.05813636
9	0x3e976f92	0.2957731
10	0x3db95131	0.09048689
11	0x3e0aeabb	0.13566105
12	0x3e814411	0.25247243
13	0xbe1a269e	-0.15053794
14	0xbe5c6460	-0.21522665
15	0x3e833675	0.25627485
16	0xbe0a2504	-0.13490683
17	0x3e4c2660	0.19936514
18	0xbe3e68e0	-0.18594694
19	0xbdc4fe08	-0.09618765
20	0x3e9b7607	0.30363485
21	0x3e5ea330	0.21741939
22	0x3c7635cc	0.015027475
23	0xbd34e4c0	-0.044163465
24	0xbe2e18c4	-0.17001635
25	0xbe1cde12	-0.15319088
26	0x3e7eb0c0	0.24872112
27	0x3e43f322	0.19135717
28	0xbe1349bb	-0.14383595
29	0xbe307a3f	-0.17234133
30	0x3d432fc3	0.04765297
31	0x3e9cbe91	0.3061414
32	0xbdffb904	-0.12486461
33	0x3d085218	0.033281416
34	0xbe81f625	-0.25383106
35	0x3d9cc705	0.076551475
36	0x3e164ddd	0.1467814
37	0xbe874093	-0.26416454
38	0xbe2fdbf7	-0.17173754
39	0x3e273f6e	0.1633279
40	0x3e4d7c45	0.20066936
41	0xbd3c0199	-0.04589996
42	0xbe036250	-0.12830472
43	0xbe915317	-0.28383705
44	0x3bf0ca9e	0.0073483726
45	0x3e82e446	0.25564784
46	0x3bff2fb1	0.0077876677
47	0xbe9790a1	-0.2960253
48	0xbdbfed60	-0.093714476
49	0xbe9952d3	-0.29946002
50	0x3deb518b	0.114901625
51	0x3e721607	0.23641215
52	0x3e82ae36	0.25523537
53	0x3e3221fe	0.1739578
54	0xbe12d6e9	-0.14339794
55	0xbe9db285	-0.30800262
56	0xbd1ca8aa	-0.038246788
57	0x3e91b8e5	0.28461376
58	0x3d97453c	0.07386252
59	0x3e6cd813	0.23129301
60	0x3ddec795	0.10877911
61	0xbe4bfc48	-0.19920456
62	0xbe49bc3c	-0.19700712
63	0x3e59342c	0.21211308
64	0x3d4143b5	0.04718371
65	0xbe9c6117	-0.30542824
66	0xbd1065ea	-0.035253443
67	0xbde7b332	-0.11313476
68	0xbe2614fe	-0.16218945
69	0xbba68f22	-0.0050829807
70	0xbe96c6bc	-0.29448497
71	0xbe3c51ac	-0.1839053
72	0x3e931098	0.28723598
73	0xbe42b907	-0.19015895
74	0xbbdbbcdc	-0.0067058634
75	0xbcc5407b	-0.024078598
76	0xbe392074	-0.18078786
77	0xbe02fef1	-0.12792565
78	0x3c7a3994	0.015272517
79	0xbdd832a5	-0.10556535
80	0x3d90c96f	0.070696704
81	0xbe4633a6	-0.1935564
82	0xbdfc497c	-0.123187035
83	0xbd1e4c36	-0.0386469
84	0x3e4b32e5	0.19843633
85	0xbe949676	-0.29021043
86	0x3e3227fc	0.17398065
87	0xbe951de5	-0.2912437
88	0xbca1a025	-0.019729683
89	0xbdd74f76	-0.10513203
90	0x3e041ad5	0.1290086
91	0x3e5c1b73	0.21494846
92	0xbe0f2c2a	-0.13981691
93	0xbd2425d2	-0.04007513
94	0x3e3cf399	0.184523
95	0xbe895b02	-0.26827246
96	0xbd4e595d	-0.050378192
97	0xbe0ba6c4	-0.13637835
98	0xbe123f41	-0.14281942
99	0xbdae4c1e	-0.08510612

bias f4 [10]
0	0x3e057a10	0.13034844
1	0x3d26a852	0.040687867
2	0xbb6bf3b7	-0.003600342
3	0xbd126f5b	-0.035750728
4	0x3dea7ea5	0.11449937
5	0xbe050101	-0.12988664
6	0xbe3f2ac2	-0.18668655
7	0x3d739bf8	0.059474915
8	0xbc8e668f	-0.017382888
9	0xbb229c76	-0.0024812496
