Project_1/Part3/checkpoints/dnn_1_1.pth (torch, 956575 bytes, 4 tensors)

weight f4 [300, 784]
00000000: 816f bfbb 9bcd 073d 81e9 623b 7faf 113d
00000010: 9cc0 c1bc 1c72 ffbb 1000 92bc 6500 8b3c
00000020: aa55 68bc 3c08 d9bc 57f7 1ebc 1e88 d33c
00000030: 95ff 01bd 0169 c3ba 9799 d73c 3729 193c
00000040: ee62 efbc e511 f1bb b843 7cbb 5b46 07bd
00000050: e03e 0e3d a1a2 4cbc 845a 0f3d 650d 3a3c
00000060: d8f5 78bc a597 2a3c 18c8 edbc d380 24bc
00000070: f0ef 81bc d6be 06bd 93d8 023d 4cf1 0a3d
00000080: 0a3b adbc dc9f 1a3c c160 c93c 4d17 1bbc
00000090: 3d44 503c 0cc5 6b3c f993 8dbc fc6f 1d3c
000000a0: 9a1a d6bc 22a7 9bbc b0b1 fe3b 6f0b ae3c
000000b0: 1cfa f2bc f3e9 56bc fe73 a63c 65bd 103c
000000c0: fa97 a63c da31 bdbc fc52 273c 5cd3 34bb
000000d0: dc09 a1ba 3313 0d3c fb6b 073d 4e40 c73c
000000e0: 65d3 0d3d a517 ae3b c1ff b2bc a59b 00bd
000000f0: 7cc1 d03c c62e a0bc 8008 c6bc 95cc 93bc
00000100: b545 ecb9 935d 23bb 62f9 3e3c ac63 0bbd
00000110: 826b 12bd d99b dcbc 4b12 923c 097e 5c3b
00000120: 0e32 12bd 4725 14bc ae68 acbc 07f5 d9bc
00000130: 36e0 15bd 1ac1 30bc 1a56 0bbd 1af2 d73c
00000140: 93b7 723c ca66 efbc 0a87 b13c 9355 6cbc
00000150: 6ef1 ac3b 708f 9bbc c1b9 d8bb b8ce e53c
00000160: e552 603c 5d6c 273c 0345 163d 750b b73c
00000170: 2c8a f7bb ba2b b5bb 61df c3bc c2a8 1ebd
00000180: ae86 cbbc 603f 2dbd eea2 edbc 3da3 fc3b
00000190: cd3f 9a3c 6e3f ecbc e949 cdba df0e 603c
000001a0: 5627 84bb 592d e33c 54fe 07bd ab8b 99bb
000001b0: b3da b73c a727 adbc ca72 f73b f0b3 81bc
000001c0: 25fa 40bc 4eb5 c53c 5b9e a2bc 5680 433c
000001d0: 8ef0 6d3c 56e1 5fbc 8713 013b b191 5d3c
000001e0: 0e2c 693c 3704 20bd 8e90 983c fcab 86bc
000001f0: 17d3 10bd a03b 623c 2a5d 983c 634d 2bbd
00000200: 4096 df3b 9c26 3fbc a487 813c 4a20 aebc
00000210: fc26 c9bc 73e4 b6bc 3796 f6bc b624 cb3a
00000220: cde0 efbc fbe9 42bc 0e5a 9fbc 1367 07bd
00000230: ca8e 8abb 7c82 60bc c740 c2bc dc5b 9d3c
00000240: e0e7 9fbc e45a 61bb 2981 953c f280 22bd
00000250: afff 0bbd 3b67 85bc 7ac7 ba3c 8749 90bc
00000260: 0d46 4b3c 15fe 003c d86a 57bb 34f5 b3bc
00000270: 66f4 1cbc 1f20 aebc f6f2 853c 2681 99bc
00000280: b7f8 dfbc c1a7 d03b 6f48 8d3c cc41 893c
00000290: af06 c33c 43c2 67bc f7c3 043d da1f 103d
000002a0: 775b db3b 852e 9fbc f2dc a9bc 2b2f 94bc
000002b0: df42 2aba f9d7 d5bc 7b85 82bc 4e63 b4bc
000002c0: 6ade 00bd d5af f23c 6616 b9bc db0a 1fbd
000002d0: 76a9 7ebb 1d98 7dbc c3e7 87bb b8c8 b8bc
000002e0: e5ac fe3b 73dd c8bc ecd0 2dbb 6f47 61bc
000002f0: e051 b9bc 4254 ee3c bb75 c8bc 5503 b53c
00000300: 2fc7 333c d561 503d f186 ab3b b6e2 08bd
00000310: 659d b9bb 093e a53b fd29 2ebd e57d 953b
00000320: f55c d83c 3ff9 a6bc b909 0a3c e8b8 d53b
00000330: 7978 ce3c fbc2 ddbc e1dc c53b 9800 2cbd
00000340: e02d fe3b 5a7b e2bc 4e1c 08bd 2599 6dbc
00000350: 3a6f ed3c 0ce5 e2bb 4216 b23c 18a1 edbc
00000360: 57a4 fbbc f043 853c 38ef bbbc 7bc9 c7bc
00000370: 9d0f a5bc 58d1 163c b30b 1c3d b525 acbc
00000380: d3cf 61bc f301 bebc 4d28 2d3c 06a9 46bd
00000390: 04e7 2cbd ae03 32bd 062a 433b 26fe bb3c
000003a0: 1d8a 76bc dc7e 0ebd a84d 00bd b90b 7bbc
000003b0: 44f2 17bd ae2f ed3c f09d dabc adf1 da3b
000003c0: 13fb d0bb ef85 71bc f57d f4bc 2923 1f3a
000003d0: cd2d a1bc 8937 c139 6e50 e3bc 9f7e 40bc
000003e0: 25a4 6dbc ba47 1abb c1cd fc3b 6e53 2c3b
000003f0: 453a 813c 6f8d 14bc 3bba 2cbd a597 bfbc
-0.0058421497 0.033155065 0.0034624042 0.035567757 -0.023651414 -0.0077955853 -0.017822295 0.016967962
-0.01418058 -0.026493184 -0.009702525 0.025821742 -0.031737883 -0.0014908613 0.026318355 0.009348205
-0.029221978 -0.0073568695 -0.0038492512 -0.03302608 0.03472793 -0.012489946 0.03499843 0.011355733
-0.0151953325 0.010412131 -0.029026076 -0.01004048 -0.015861481 -0.03289684 0.031944823 0.033921525
-0.021146316 0.0094375275 0.024582269 -0.009466005 0.012711582 0.014390241 -0.017282473 0.009609219
-0.026135731 -0.019000594 0.007772647 0.021245686 -0.029660277 -0.013117301 0.020318981 0.008834218
0.02033614 -0.02309506 0.010212656 -0.00275918 -0.0012286264 0.0086105345 0.033061963 0.024322655
0.03462543 0.0053128772 -0.021850469 -0.031398434 0.025482886 -0.019553553 -0.024173975 -0.018041888
-0.00045065364 -0.00249276 0.011656137 -0.0340306 -0.03574706 -0.026929783 0.017830988 0.0033644459
-0.035692267 -0.009042091 -0.021046009 -0.026606096 -0.036590777 -0.0107882265 -0.03401766 0.02636056
0.014814275 -0.029223818 0.021670837 -0.014424699 0.005277804 -0.018989295 -0.0066139405 0.028052673
0.013691639 0.010218707 0.03668691 0.02234433 -0.007554313 -0.0055288943 -0.023910226 -0.03873516
-0.024844494 -0.042296767 -0.029008355 0.007709889 0.01882925 -0.02883884 -0.0015662286 0.013675421
-0.0040330095 0.027731584 -0.03320153 -0.004685839 0.022443151 -0.021137072 0.0075515257 -0.015832871
-0.011778389 0.024134304 -0.0198509 0.011932453 0.014522685 -0.013664564 0.0019695477 0.013523505
0.014231695 -0.03906652 0.018623617 -0.01643943 -0.03535756 0.013808161 0.018599112 -0.04182185
0.006823331 -0.01166692 0.015811749 -0.021255631 -0.024554722 -0.02232573 -0.030100925 0.0015498612
-0.029281998 -0.011896606 -0.019452121 -0.033057284 -0.0042284476 -0.013702985 -0.023712529 0.019208841
-0.019519746 -0.003438645 0.018250065 -0.039673753 -0.034179386 -0.016284576 0.022800196 -0.017613186
0.012406838 0.007873078 -0.003287008 -0.021967508 -0.0095797535 -0.02125555 0.016351204 -0.01873834
-0.027340276 0.006367654 0.017246453 0.016755007 0.023806898 -0.014145437 0.03241345 0.035186626
0.006694253 -0.019431362 -0.020735238 -0.018088898 -0.000649495 -0.02610396 -0.01593279 -0.022020008
-0.03146211 0.029624859 -0.022593688 -0.038828712 -0.003885833 -0.015478161 -0.004147501 -0.022556648
0.0077720755 -0.024519658 -0.0026522232 -0.013749941 -0.022622049 0.029092912 -0.0244702 0.022096315
0.010972782 0.05087455 0.005234592 -0.033419333 -0.005664515 0.0050427956 -0.042520512 0.004562127
0.026411513 -0.020382522 0.00842517 0.0065222867 0.02520393 -0.027070513 0.0060382937 -0.041992754
0.0077569336 -0.02764671 -0.03323012 -0.0145018445 0.028983701 -0.006924277 0.021739129 -0.02900748
-0.030718012 0.016267747 -0.022941217 -0.024388066 -0.020149047 0.009205185 0.038097095 -0.021014074
-0.013782459 -0.023194289 0.0105686905 -0.048501037 -0.0422125 -0.04346054 0.0029779687 0.022948336
-0.015047577 -0.03478895 -0.03132406 -0.015322619 -0.037096277 0.0289534 -0.026686639 0.006681642
-0.0063775866 -0.014741405 -0.029845217 0.0006070608 -0.01967516 0.00036853206 -0.027748313 -0.011748939
-0.014504467 -0.0023541288 0.0077149575 0.0026294845 0.015774855 -0.0090669235 -0.04216979 -0.02338774

bias f4 [300]
00000000: 18cd d0bb 12af 32bd 6081 543c 66ec 56bc
00000010: e6e0 1dbd e852 bebc d50a 2abd f482 b7bc
00000020: 2b19 21bc 3ba3 1ebd fed5 3e3b 65bf 25bd
00000030: c873 a0b9 fff8 293c 2870 27bd be13 05bc
00000040: e014 fabc 5e65 4cbd 2af0 b93c f27f 1abd
00000050: 07bf a7b9 54e0 40bb eafc c0bc d768 48bd
00000060: 42a4 04bd 5460 70bc ac9c 2c3d 325c acbc
00000070: 358a 00bc 1d99 7739 e1f3 22bd 16e0 0ebc
00000080: 34fe 38bd 617f 71bb e85a 06bd 89dc 3dbd
00000090: 205b 77ba e038 d73b 2f73 0abd 1752 4bbd
000000a0: 8f1c 0839 2246 1fbd 0b06 52bc 374f 1cbd
000000b0: 071d 933c f016 983b 7d84 95bb add7 eabc
000000c0: 1e0c 4abd d625 0fbc 28c0 4ebc 7a1b da3b
000000d0: 6b39 d4bc 42a9 22bd 9327 afbc 2a8b 1fbd
000000e0: e00d 16bd 14fb 0cbd 1c86 b139 c8a0 e0bc
000000f0: a741 20bd 6898 84bc 0814 d73b 07ff 2ebd
00000100: 3f7e 6d3a 8fd4 e8bc ccc2 43bd 0bfe 15bd
00000110: 613c 1fbd de4a 3e3c 61e3 4fbc 2e53 a63c
00000120: 7003 1fbd 5cff 0fbd 7478 e1bc 8df7 183b
00000130: d325 18bd 9f88 943c 971b 0abd 4209 aabc
00000140: eb18 4f3c ec4a 41bb 2167 8bbd f124 1bbd
00000150: 0193 e9bc cb2e a0bc e395 8d3c 7bef 323c
00000160: 51e5 f3bc 7e4f c4bc e28e 8dbb 27f2 ac3c
00000170: 530b 94bc 0a80 f9bc 6ecd 29bd b9bb 53bd
00000180: 3c7b 633c a346 9f3c e32f 8fbd b1ab 64bc
00000190: b21b 35bd 9cb4 ffbc 0621 7a3c 38fa dcbb
000001a0: 754a eabc ea39 0abd 3345 e1ba d2da 04bd
000001b0: fcfa 883a 4ba3 143c a175 573b 1b1b a13c
000001c0: 87d5 273c f1c6 31bd c460 2ebd baa0 6ebc
000001d0: 3627 963c a0ae 8ebc f5e0 4fbd d043 01bd
000001e0: 6e60 f33a f7a7 4f3c 69d5 64bc 9c39 12bd
000001f0: 69c1 a03c 6f69 0b39 78bc 0dbc bea1 3dbd
00000200: b592 13bd 9f77 2ebd a68f 3ebd 19e6 a5bc
00000210: 0748 dfbc 8328 b03c 5d91 b4bc f364 413c
00000220: 5ebc 99bb 5c19 28bd d3f1 213c 55bc a2bc
00000230: 024a 32bd f3b3 c43c 9039 39bd afad bcbb
00000240: 8961 17bd 0f9e d7bc 9503 f0bc 65d7 b53a
00000250: 1b8f 4ebd f525 3dbc a4fe b83c ddd9 96bc
00000260: 6a62 cbba 7e3a d9bc 542a e1bc e7a2 f0bc
00000270: fe0c 29bd ce0e 29bb 885e 59bc 1ab1 9dbc
00000280: 6f47 3bbd b043 0bba 79c3 aebc 6396 59bc
00000290: 5a8b 6f3a dc37 52bd fa38 23bc b763 56bb
000002a0: d5b6 93bc 0a25 2dbd da1b 38bc 2713 9b3c
000002b0: 8cf8 74bd 5e72 9dbc 9403 42bd a911 a9bc
000002c0: 205e 13bd ecda 52bd 9a5a 26bd 17c6 f53a
000002d0: 1bd8 82bc b525 a4bc 9c0f f1bc d83b 1c3c
000002e0: e64f 263c fe53 32bd 2d87 61bc e5d5 04bd
000002f0: 35bc 70bc c4c2 ca3c a90e 4c3c 2714 06bd
00000300: a86b 4abb c4b7 1fbd 92d9 5cbc dd4e 54bd
00000310: 70a3 d9bc 3eac 1b3c b75b 19bc 2488 003c
00000320: 6662 1ebd 798b 0abc da2b 04bc 6847 b43b
00000330: 86d3 a03b c030 5fbc d08a 7f3c a204 bdbb
00000340: 561f 15bd fd0f 20bd 6dd1 843a 66ad 64bd
00000350: 4993 c7bc 52b5 58bd ae23 ea3a de45 cc3a
00000360: de17 293b 99c4 94bc 5f2c 04bd 473d 94bc
00000370: 6a0a a5bc 6a5e 133d f98b 50bc bf5c 0bbd
00000380: 6bea 42bc 3c61 30bd f8ab beba eda9 cbbc
00000390: 48d3 debb 374b bb3c 3a2b 16bd a519 54bc
000003a0: 366a 8a3c 9244 4fbd ae94 a03c d0e4 46bd
000003b0: 0a2b 05bd 5254 19bc b22c 10bd f2e2 dcbc
000003c0: 485d 8cbb dd9d ecba 7bf9 913a 18a3 32bd
000003d0: 1c11 e1bc 00a0 073b 116b 843c 5477 bd3c
000003e0: 5a85 cdbc 3cd0 a13c c5f3 263b 20e7 033c
000003f0: 2482 903b 92fc 79ba 1be5 abbc 3c72 0fbc
-0.0063721053 -0.04362399 0.0129702985 -0.013117885 -0.038544558 -0.023232892 -0.041514236 -0.02240131
-0.009832661 -0.038729887 0.0029119249 -0.04046573 -0.00030603842 0.010374307 -0.040878445 -0.008122383
-0.030527532 -0.04990136 0.022697527 -0.037719674 -0.0003199505 -0.0029430585 -0.023558099 -0.048928108
-0.03238321 -0.014671404 0.0421416 -0.021040056 -0.007845451 0.00023612795 -0.039783362 -0.008720418
-0.045164302 -0.0036849605 -0.03280154 -0.046352897 -0.0009435881 0.0065680593 -0.033801254 -0.049638834
0.0001298061 -0.038885243 -0.012818824 -0.038161483 0.017958177 0.0046414062 -0.004562913 -0.028667295
-0.049327962 -0.008737048 -0.012619056 0.0066561075 -0.025906285 -0.039712198 -0.021381175 -0.038951077
-0.036634326 -0.034419134 0.0003385999 -0.027420416 -0.03912511 -0.016185954 0.006563667 -0.04272368
0.00090596447 -0.028421668 -0.047793195 -0.036619227 -0.03887594 0.011614529 -0.012688489 0.020303335
-0.038821638 -0.03515564 -0.027523257 0.002334091 -0.037145447 0.018131552 -0.033717718 -0.020756368
0.012640218 -0.002949412 -0.0680678 -0.037877027 -0.02851248 -0.019553563 0.017283386 0.010921354
-0.029772433 -0.023963686 -0.0043200115 0.021111561 -0.018071806 -0.030456562 -0.04145568 -0.0516927
0.013884362 0.019442862 -0.069915555 -0.01395695 -0.044215865 -0.031214051 0.015266662 -0.0067436956
-0.028599957 -0.033746637 -0.0017186761 -0.032435246 0.0010450776 0.009072135 0.0032876509 0.019666245
0.01024378 -0.043402616 -0.04257275 -0.014564687 0.018329244 -0.017417252 -0.050751645 -0.03155881
0.0018568167 0.012674323 -0.013966897 -0.03569947 0.019623475 0.0001329535 -0.0086508915 -0.046296827
-0.036028583 -0.04259455 -0.046523713 -0.02025132 -0.027256025 0.021503692 -0.02204197 0.011803853
-0.0046916446 -0.04103981 0.009884316 -0.019865194 -0.04352761 0.024011588 -0.04522091 -0.0057580094
-0.03695825 -0.026320485 -0.029298583 0.0013873397 -0.050429445 -0.011544694 0.02258236 -0.018414432
-0.0015517 -0.026517149 -0.027486004 -0.029374553 -0.041272156 -0.0025796178 -0.013267167 -0.019249488
-0.04572242 -0.00053125154 -0.021333443 -0.013280484 0.00091378915 -0.051322803 -0.009962315 -0.0032713243
-0.018031517 -0.04227165 -0.011237109 0.018930031 -0.059807345 -0.019219574 -0.047366694 -0.020638304
-0.035978436 -0.05147831 -0.040613748 0.0018751052 -0.015972188 -0.020037511 -0.029426388 0.009535752
0.010150885 -0.043537132 -0.013765139 -0.03243055 -0.01469331 0.024751075 0.012454667 -0.032734063
-0.0030886922 -0.038993612 -0.013479607 -0.051833022 -0.02656719 0.009501515 -0.009360245 0.007844958
-0.03866806 -0.008456104 -0.008067096 0.0055016764 0.004908028 -0.013622463 0.01559706 -0.0057683745
-0.036406837 -0.039077748 0.0010133215 -0.055829428 -0.024362223 -0.052907296 0.0017863417 0.0015584787
0.002580158 -0.018160151 -0.032268878 -0.018095626 -0.020146567 0.035978712 -0.012728685 -0.034023996
-0.01189671 -0.04306148 -0.00145471 -0.0248613 -0.006800089 0.022863014 -0.036662318 -0.012945567
0.016896348 -0.050602503 0.019602146 -0.048558056 -0.03251175 -0.009358482 -0.035198875 -0.026963685
-0.004283581 -0.0018052418 0.0011136973 -0.04361257 -0.027473979 0.0020694733 0.016164334 0.02312819
-0.025088001 0.019752614 0.0025474888 0.00805071 0.004410045 -0.0009536232 -0.02098327 -0.008755263

weight f4 [10, 300]
00000000: 3c87 6abd 5227 3c3b e3cc b4bc 395f 353d
00000010: 134e f1bc 08f0 eb38 e72a 2f3d 48b9 acbc
00000020: de77 573b 2bb2 1dbd 5254 73bd f125 c5bc
00000030: 07f2 04bc 8126 3b3b 0abc 90bd 0482 3ebd
00000040: 421c 8c3b 31a0 bf3c 951c 55bd 9515 f73c
00000050: 1a7c 32bd ab12 4bbc 82c6 843c a2a3 88bd
00000060: abce 43bd ae85 69ba 50ca 953d 0c4b a63c
00000070: 816d 0cbd c073 e4bc 8605 34bc 7081 21bd
00000080: 1918 c53a fa19 da3c e9e1 4d3d d6b7 24bd
00000090: 0d91 733c ddbb 73bc 3d18 5fbc 1b63 97bc
000000a0: cce0 39bd 8eda 103d a329 993c 20b8 bdbc
000000b0: 3fcc 51bc 0b08 23bd 68a9 20bc 685f 643c
000000c0: 794a e03b 2d14 8dbc d253 d4bc ecaf 8cbb
000000d0: 2174 b2bc 117c 673d e33f 4f3d e650 9ebc
000000e0: f0ef 683b aa2b b4bd d4f8 a13c cc89 f7bc
000000f0: 4de3 193d 474a 133c aed0 97bb 89b9 a0bc
00000100: adfc 193d 9a87 e23c 5349 1bbc 0f38 30bd
00000110: 676e 83bd 852c 29bd bb4c b3bc ad9e 453c
00000120: cee8 8e3c 55f1 ebbc edb8 ba3c 4428 5fbd
00000130: 009d 15bd 31a3 843b 773e c4bc 3cec 37bd
00000140: 0eef 34bb 6f8b 1c3d f807 20bd b9a0 29bb
00000150: ebab 843c 9f99 2bbc 133d fa3c e2f3 b6bc
00000160: 559f 35bd 5f5e 073d 4c43 d8b9 5885 d0bb
00000170: 5712 4ebd ee20 00bb d866 1ebd b1b8 06bc
00000180: 17a2 49bd 5b79 213d 01bb c43b 7ac5 4dbb
00000190: fc68 823c f5f0 ab3c 0d54 cc3c 8dd9 91ba
000001a0: c2e3 13bd 5ab9 1fbc 3b23 8d3c ed77 1abd
000001b0: e382 153b 8cef 47bd 480f 0e3d 4804 dbbc
000001c0: 8e32 13bd 655c 2f3b a206 4fbc 8e6b 283d
000001d0: 7cd6 84bd 327f 43bc 7a83 193d 796d 05bd
000001e0: 86c1 873c 21db 4d3d bedf 563d fc3c 2b3d
000001f0: 5be9 09ba 7501 103d 2eff debc 138f 35bd
00000200: bbfc c63c a58d bc3c 9205 2f3d 380f 6cbc
00000210: aa35 493d 753a 8ebc 1b7f 83bc 9502 1dbd
00000220: 16f5 00bd 072b 5bbd 10e8 4d3d e80d d83c
00000230: e32f a8bc d1b6 893d 16dc a8bb 22ba 98bb
00000240: c428 bbbc 3f1e 70bb 3a40 10bd e87e 81bd
00000250: 7350 ecbc 3b4a 373b 8e2c f1b9 a558 d13c
00000260: 8bca 08bc b4c0 4f3c 8af4 f53c 53de 51bd
00000270: 1d73 5cba 7220 753d d81d 3fbb 98c5 383c
00000280: b0ac 15bc 3b4f b83a 19de a4bc e9a9 653c
00000290: 6f5d f8bc b784 80bc 57ec 0f3c 5e3a f8bc
000002a0: 84b4 a3bc dfad 2c3d 5c70 683d 72b0 79bb
000002b0: 9d04 4abd 278f 05bd 055a 093d 20ca 0abd
000002c0: 504b 77bc 9f4b 0cbd dd46 95bd 75c7 2a3d
000002d0: 27a6 adbc ac48 8fbc d85b f7bc 86cf 52bd
000002e0: 0e7b 21bd 83cf 1d3d 2264 893d fc0c 3f3c
000002f0: 5772 823c 2819 fabc 6164 40bc 1d08 023d
00000300: b8c4 38bd 17f3 00b9 62a1 4a3c 66c6 ffbc
00000310: 39f4 863b 19c8 01bd 5c82 193d 1305 1ebd
00000320: 09f4 72bd 879b 3b3c e13a d93b b8d0 bf3c
00000330: 3c39 b9bc 7449 95bc c172 34bd 5a10 f73c
00000340: f9d5 dbbc a074 2cbd d40c 1b3c e16a a9bd
00000350: 67ce 14bd fcf0 b73c 6088 0fbd 5dec 3ebd
00000360: 823e 2ebd 746a 003c c0fd 9cbb ee74 103d
00000370: c3ed 33bd e4cc 75bd c5ab 5f3c 520f 1a3d
00000380: 8833 023c 8536 a33c e9eb 92bc 6a64 2b3d
00000390: 212f eabc f1b9 a33c 0bc3 263d 7d95 61bd
000003a0: bdb1 143d cdcd 6bbb 854f fb3b 1c35 9339
000003b0: 8c3f df3c f102 253d 8bef 1cbc 2beb 52bd
000003c0: 0ba3 00bd 39dd e4bb 77f7 58bd 2b3e afbd
000003d0: 07a1 26bd 9582 993c 2bd3 1fbd 32fb dabc
000003e0: 0a19 a63b 47ee 7b3c 57f1 8b3b 921a d13c
000003f0: 2d5b 13bd a71f 59bb 5f74 e3bc c291 b73c
-0.057257876 0.002870996 -0.022070354 0.044280265 -0.029456174 0.000112503825 0.042765524 -0.021084443
0.0032877843 -0.038499992 -0.059406586 -0.024065943 -0.008114344 0.0028556886 -0.070671156 -0.04651071
0.0042758295 0.023391815 -0.05202921 0.030161658 -0.043575384 -0.0123945875 0.016207937 -0.066718355
-0.047804516 -0.00089081645 0.07313979 0.020299457 -0.03428412 -0.027887225 -0.010987645 -0.03943008
0.0015037089 0.026623715 0.050264273 -0.040214382 0.014866126 -0.014876333 -0.013616619 -0.018479874
-0.0453804 0.03536468 0.018696612 -0.023159087 -0.012805044 -0.039802592 -0.009806015 0.013938762
0.0068448153 -0.017221535 -0.025918875 -0.0042934325 -0.02178389 0.056514803 0.050598036 -0.019325685
0.0035543405 -0.08797391 0.01977197 -0.030217074 0.037570287 0.008989877 -0.004633031 -0.01961972
0.037594486 0.02765255 -0.009477931 -0.04302221 -0.06417542 -0.041302223 -0.021887174 0.012061757
0.017444994 -0.0288016 0.022793258 -0.05448176 -0.03652668 0.0040477742 -0.023955567 -0.044903025
-0.0027608308 0.03821891 -0.0390701 -0.0025883152 0.016195258 -0.010473638 0.0305467 -0.02233309
-0.044341404 0.033048984 -0.0004124887 -0.006363552 -0.05031046 -0.0019550878 -0.0386723 -0.008222745
-0.049226847 0.039422374 0.006003738 -0.0031398223 0.015919201 0.02098892 0.024942422 -0.0011127457
-0.03610588 -0.009748781 0.017228713 -0.037712026 0.002281361 -0.048812434 0.034682542 -0.02673544
-0.035936885 0.0026757952 -0.012635859 0.041118197 -0.06486222 -0.011932181 0.0374789 -0.032575104
0.016571771 0.050257806 0.05245947 0.041806206 -0.0005260908 0.03515764 -0.027221289 -0.0443259
0.024290433 0.02301676 0.04272992 -0.014407925 0.049123444 -0.017361859 -0.01605182 -0.03833254
-0.031483732 -0.05350783 0.05027014 0.026373819 -0.020530647 0.067243226 -0.0051531894 -0.0046608606
-0.022846587 -0.0036639122 -0.0352175 -0.063230336 -0.028846955 0.0027967829 -0.00046000298 0.025554964
-0.008349071 0.012680221 0.030023832 -0.051237416 -0.0008409487 0.059845395 -0.0029162075 0.011277579
-0.00913541 0.0014061698 -0.020125436 0.0140175605 -0.03031799 -0.015688283 0.008784375 -0.03030127
-0.019983537 0.042158004 0.05674778 -0.0038099554 -0.049320806 -0.032607224 0.033533115 -0.033884168
-0.0150936395 -0.034251805 -0.07288907 0.041694123 -0.021197392 -0.017490707 -0.030195162 -0.05146744
-0.039423995 0.038527977 0.06708552 0.011660811 0.015923662 -0.030529574 -0.011742682 0.03174602
-0.04510948 -0.0001229759 0.012367578 -0.031222533 0.004118469 -0.03168497 0.037477836 -0.038579058
-0.05931476 0.011450655 0.0066293334 0.023414955 -0.0226103 -0.018223502 -0.04405475 0.030159164
-0.026835429 -0.04210341 0.009463508 -0.08272339 -0.036329653 0.022453777 -0.035042167 -0.046612132
-0.04254008 0.00783788 -0.0047909915 0.035267763 -0.04392792 -0.060009852 0.013651793 0.037612267
0.007946856 0.019923458 -0.017934756 0.04184381 -0.028586926 0.019986125 0.04071335 -0.055074204
0.036302317 -0.003598082 0.0076693916 0.00028077594 0.027251981 0.04028601 -0.009578596 -0.051493805
-0.03140549 -0.0069843796 -0.052970376 -0.085567795 -0.04068091 0.018739024 -0.039019745 -0.026731107
0.005068903 0.015376634 0.0042707133 0.025525365 -0.035975624 -0.0033130439 -0.027765451 0.02240837

bias f4 [10]
00000000: 6219 c33c 6677 e93c 9fa6 4d3c 0244 e53c
00000010: 661f d13c d989 b23b 60b4 16bc 5f66 163d
00000020: 0334 853c 90fc e13c
0.023815814 0.028499316 0.012551933 0.02798653 0.025527667 0.0054485616 -0.009198278 0.036718722
0.016260153 0.027586251
