Project_1/Part3/checkpoints/dnn_3_2.pth (torch, 845967 bytes, 8 tensors)

weight f4 [200, 784]
-0.027347948 -0.012817647 0.024548715 -0.023172703 -0.017563242 -0.012904934 0.03366063 0.034655195
-0.005499006 -0.010669913 -0.0009922002 0.018562667 -0.0062483894 0.002616891 0.010897202 -0.03172071
-0.03280752 -0.008482772 -0.03265883 0.017667657 0.034004577 0.006015497 0.03332611 -0.007820922
-0.027820146 0.017308278 -0.030610193 -0.014178009 -0.03406125 -0.0051647215 0.011572587 0.0038414386
0.03336452 0.006369838 0.0030319097 -0.003005624 0.026270581 0.03589899 0.022382967 0.021810357
-0.016386125 0.00023668431 0.0069732503 -0.029870916 -0.008379583 -0.024793632 -0.028265301 -0.031070642
0.03587236 0.04067028 0.016656296 0.006319936 0.0018201896 -0.022663709 -0.009004044 -0.009719721
0.020148326 0.0032909685 0.030672695 -0.012997589 0.020274837 -0.008720492 0.011739331 -0.0019869332
-0.032811638 -0.013033675 0.050165556 -0.015389123 0.01534926 0.0056644045 -0.017418621 -0.0040138126
0.00075308833 -0.031659286 -0.032166354 -0.04003211 -0.0067806523 -0.03680896 -0.0073937704 -0.040084783
-0.019076684 -0.010998245 0.03539569 -0.035587262 -0.029932031 0.009515856 -0.032488726 0.032513488
0.013015407 0.0004840951 -0.039138194 -0.02741393 -0.024402965 -0.017702328 0.011792331 -0.0095984405
-0.02969382 -0.0632111 -0.038681045 -0.04348575 -0.018257061 0.0043769795 -0.017748887 0.012325939
-0.012249182 -0.0021879675 0.007202672 0.0034362744 -0.008629558 -0.04267502 -0.006020755 0.017013926
-0.0071898913 0.013367538 0.025606949 -0.015840998 0.03743557 -0.035951383 0.017210161 -0.029243886
-0.03703037 0.020416128 0.022791274 0.015467934 -0.004871886 -0.034917317 -0.043043908 -0.024285756
-0.013274022 -0.03040044 -0.060420867 -0.031155124 0.024958452 -0.013450415 -0.03291926 0.0036724822
0.014786962 -0.013584002 -0.008215005 -0.018201463 -0.017777866 -0.0054182922 -0.0062391763 -0.008020082
0.021492014 -0.013994684 0.011085434 0.0009566385 0.005792488 -0.036931675 0.018124577 0.0070014535
0.0102873845 0.00630555 0.0043532336 -0.0047399784 -0.057911698 -0.03719461 -0.05840729 -0.021331495
-0.041002713 0.0016970054 -0.05992245 -0.0067240936 -0.025802428 0.010781932 0.024077727 0.05381411
-0.028813295 -0.009431933 -0.0018258053 -0.0051214527 0.056970153 0.030614989 -0.0014190249 -0.0048343833
-0.053057924 -0.041372832 0.022352906 -0.049569048 0.008955272 -0.005216456 -0.013797543 -0.05755666
-0.04739531 -0.0004745921 -0.05894577 -0.05366432 -0.04624951 -0.010280865 -0.061004605 -0.036226828
-0.008666192 0.033243533 0.019675732 0.03933862 0.006956586 0.0048145372 0.017722717 0.053416688
-0.0016362286 -0.0060067726 -0.02260503 -0.033363998 -0.049491595 -0.030996064 -0.02881169 -0.03977638
-0.019981178 -0.028669525 -0.06441351 0.00044502885 -0.0038337465 -0.021781046 -0.03714816 0.014704862
-0.008615714 -0.05237313 -0.009541648 -0.065216616 -0.018527035 -0.016050374 0.03340512 0.02699996
0.03307014 -0.015447362 0.025395675 0.034625445 0.030939601 -0.0009800642 -0.05095245 -0.052919734
-0.014648095 -0.04920988 -0.0001632901 -0.009073471 -0.037497897 -0.0027199558 0.0014403467 0.03185012
0.0015208765 -0.013979655 0.0026004934 0.02546581 0.026212733 -0.0006439576 -0.032010704 -0.0043153125
0.016643066 0.02296319 -0.020958954 -0.0006182535 0.014200607 -0.0095145935 -0.010156797 0.015382655
00000000: ce08 e0bc 1c01 52bc 631a c93c aed4 bdbc
00000010: cae0 8fbc 376f 53bc bbdf 093d 9bf2 0d3d
00000020: 0131 b4bb dcd0 2ebc b70c 82ba bc10 983c
00000030: 4abf ccbb 2580 2b3b 2e8a 323c 93ed 01bd
00000040: 2e61 06bd 53fb 0abc 44c5 05bd c3bb 903c
00000050: 6248 0b3d a51d c53b f680 083d 5323 00bc
00000060: 13e7 e3bc 17ca 8d3c 3ac2 fabc e14a 68bc
00000070: cf83 0bbd d33c a9bb f39a 3d3c a5c0 7b3b
00000080: 3ca9 083d 13ba d03b 01b3 463b 01fa 44bb
00000090: 6735 d73c d20a 133d 7c5c b73c a2ab b23c
000000a0: 323c 86bc 762e 7839 dd7f e43b dab3 f4bc
000000b0: 854a 09bc 041c cbbc a28c e7bc dc87 febc
000000c0: e5ee 123d e195 263d c972 883c 7717 cf3b
000000d0: 6e93 ee3a 3ea9 b9bc b385 13bc 773f 1fbc
000000e0: 1a0e a53c 4aad 573b 4e45 fb3c d7f3 54bc
000000f0: 6a17 a63c 65e0 0ebc 5356 403c 3537 02bb
00000100: 7f65 06bd 328b 55bc 667a 4d3d a922 7cbc
00000110: 767b 7b3c 789c b93b 7fb1 8ebc 4d86 83bb
00000120: e76a 453a 2bad 01bd dec0 03bd b6f8 23bd
00000130: 3c30 debb fec4 16bd 7147 f2bb f12f 24bd
00000140: b546 9cbc fc31 34bc 12fb 103d f3c3 11bd
00000150: 0534 f5bc 65e8 1b3c e612 05bd dd2c 053d
00000160: 933e 553c 25ce fd39 5f4f 20bd 2e93 e0bc
00000170: bae8 c7bc 7904 91bc 9f34 413c c742 1dbc
00000180: 7440 f3bc d274 81bd 0470 1ebd 1d1e 32bd
00000190: d58f 95bc c46c 8f3b 1d66 91bc bcf2 493c
000001a0: cbb0 48bc 0164 0fbb 6404 ec3b 1e33 613b
000001b0: fd62 0dbc 00cc 2ebd c149 c5bb ca60 8b3c
000001c0: 2e99 ebbb 8503 5b3c aac5 d13c fbc4 81bc
000001d0: 0a56 193d c241 13bd 53fc 8c3c e090 efbc
000001e0: 28ad 17bd b93f a73c c4b4 ba3c 386d 7d3c
000001f0: 58a4 9fbb 7605 0fbd cf4e 30bd ecf2 c6bc
00000200: 497b 59bc 580a f9bc df7b 77bd 0839 ffbc
00000210: ab75 cc3c 215f 5cbc 59d6 06bd 07ae 703b
00000220: 0445 723c 6f8f 5ebc 3a98 06bc 3c1b 95bc
00000230: e3a2 91bc ee8b b1bb 0172 ccbb a966 03bc
00000240: 0510 b03c f649 65bc ae9f 353c ecc6 7a3a
00000250: e9ce bd3b ab45 17bd fe79 943c 736c e53b
00000260: 6b8c 283c ca9e ce3b 92a5 8e3b d251 9bbb
00000270: d134 6dbd 6059 18bd 7c3c 6fbd 63bf aebc
00000280: 76f2 27bd 0d6e de3a 3e71 75bd c955 dcbb
00000290: 9d5f d3bc b3a6 303c a73e c53c 2f6c 5c3d
000002a0: dc09 ecbc 6588 1abc dc4f efba dcd1 a7bb
000002b0: 8959 693d 49cc fa3c 93fe b9ba bf69 9ebb
000002c0: 4453 59bd 8f76 29bd 711d b73c ea08 4bbd
000002d0: 22b9 123c ceee aabb 170f 62bc 88c0 6bbd
000002e0: 9621 42bd acd2 f8b9 1f71 71bd 1ecf 5bbd
000002f0: 2070 3dbd 1371 28bc f7df 79bd 9562 14bd
00000300: a5fc 0dbc 5f2a 083d 002f a13c 8821 213d
00000310: 13f4 e33b 44c3 9d3b 3b2f 913c 75cb 5a3d
00000320: b976 d6ba 76d4 c4bb 2f2e b9bc b0a8 08bd
00000330: b3b7 4abd 75eb fdbc 7e06 ecbc 8fec 22bd
00000340: 91af a3bc 5adc eabc 3beb 83bd c352 e939
00000350: 983f 7bbb 2a6e b2bc ab28 18bd a9ec 703c
00000360: ec28 0dbc 3585 56bd 9354 1cbc 4a90 85bd
00000370: 02c6 97bc 137c 83bc cfd3 083d 052f dd3c
00000380: 8e74 073d ef16 7dbc 970a d03c 69d3 0d3d
00000390: 0c75 fd3c 7f75 80ba 84b3 50bd 5dc2 58bd
000003a0: 90fe 6fbc 4d90 49bd da38 2bb9 e5a8 14bc
000003b0: 6597 19bd 4941 32bb 04ca bc3a 4575 023d
000003c0: 2658 c73a ec0a 65bc 0a6d 2a3b ad9d d03c
000003d0: 16bc d63c 43cf 28ba a81d 03bd 7767 8dbb
000003e0: 0a57 883c 4d1d bc3c 1db2 abbc 4a12 22ba
000003f0: aaa9 683c 19e3 1bbc b268 26bc 8807 7c3c

bias f4 [200]
-0.008584055 -0.028908158 0.008005645 -0.051310245 -0.025540896 -0.049267124 -0.021977864 -0.019356338
-0.042309232 0.0023336948 0.007836929 -0.036658116 0.020667287 0.009523034 -0.014815543 -0.03913102
-0.0025030395 -0.02456696 0.015389726 -0.002567668 -0.04347355 -0.04666408 0.0037787457 -0.021948678
-0.025542637 -0.045484237 0.021234296 -0.056348827 0.022744346 -0.0061473832 -0.010657337 0.005084062
-0.021783832 -0.00052381225 -0.03703221 -0.0390689 -0.03948331 -0.007289086 -0.0051170154 -0.016537061
-0.035705384 -0.027009455 -0.07082568 -0.036311366 -0.033031497 -0.06132868 -0.011340027 -0.0009995834
-0.013312767 -0.0314402 -0.03521989 -0.020634614 0.0036463062 -0.01794522 -0.008552914 -0.0017956452
-0.038997952 -0.025154948 -0.042802304 -0.026117748 0.002743679 -0.030684251 -0.007824288 -0.07819759
0.01826956 -0.030565364 -0.058352523 -0.053128358 0.0031419387 -0.036770713 -0.008166993 -0.03162318
-0.00025226563 -0.0009455111 -0.04392075 -0.049462505 -0.052247614 0.0048404555 -0.015592805 -0.03799374
0.0067249453 0.02138289 -0.03804697 0.0002952067 9.519069e-05 -0.03678886 -0.0032592465 -0.01672104
-0.029178202 0.05371045 -0.032371655 0.012128052 -0.037829988 0.0116500305 -0.0039618416 -0.011662604
0.00815295 -0.028226908 -0.03533901 -0.043550685 0.00882025 0.004116028 -0.009892199 -0.0133383535
-0.05523865 -0.020356674 0.00724977 -0.0016121708 -0.033102777 -0.035947654 -0.0048036478 -0.051278394
-0.01157174 -0.0014084545 -0.013322263 -0.045197915 -0.031626746 -0.043956734 -0.048359726 0.00533672
-0.007996008 0.013821777 -0.045437694 -0.0110226 -0.011330225 0.006776773 0.0045162886 -0.0150359655
-0.04986651 -0.037563603 -0.04131728 -0.012861025 -0.00094556576 -0.012103423 -0.03664719 0.010259956
-0.007844075 0.0254138 0.029654894 -0.015672447 -0.003914251 -0.03456124 0.004196614 -0.03876363
-0.041396644 -0.039077733 -0.039899547 -0.028635573 -0.04554033 -0.04765168 -0.026931748 0.001362869
-0.039195325 0.019310381 0.00033493215 -0.050793156 -0.04880815 -0.019953402 -0.00089611724 -0.024258373
-0.035271913 -0.0329759 -0.017012838 -0.04243948 -0.010350113 -0.009149874 0.0137941465 -0.004532118
0.0034443347 0.018317612 -0.053134467 -0.0069432887 -0.05826425 -0.019801557 -0.03799534 -0.025143616
-0.026030729 -0.044215407 0.019021412 0.006259214 -0.015886119 -0.04654877 0.009731086 -0.041794598
-0.037473958 0.026562477 -0.04104711 -0.03198726 -0.028693732 -0.02081598 0.006889629 -0.046888255
0.0024733248 -0.021530675 -0.013990188 0.07434399 -0.009787531 -0.042536177 0.018625844 0.017249957
00000000: 23a4 0cbc cdd0 ecbc 1c2a 033c b12a 52bd
00000010: 243b d1bc 53cc 49bd ec0a b4bc 2f91 9ebc
00000020: 724c 2dbd e7f0 183b 7666 003c d226 16bd
00000030: 714e a93c 8006 1c3c e4bc 72bc d947 20bd
00000040: 090a 24bb a640 c9bc 3025 7c3c 5246 28bb
00000050: 5211 32bd d622 3fbd d5a4 773b b7cd b3bc
00000060: cb3e d1bc ae4d 3abd 8cf3 ad3c 07ce 66bd
00000070: 5a52 ba3c fd6f c9bb 1c9c 2ebc 3498 a63b
00000080: 0274 b2bc 7250 09ba 16af 17bd b606 20bd
00000090: 40b9 21bd 49d9 eebb a3ac a7bb bb78 87bc
000000a0: cf3f 12bd ef42 ddbc 0e0d 91bd 3abb 14bd
000000b0: 094c 07bd c833 7bbd 85cb 39bc 7404 83ba
000000c0: cb1d 5abc 70c7 00bd bb42 10bd ec09 a9bc
000000d0: def6 6e3b db01 93bc 8521 0cbc db5b ebba
000000e0: 51bc 1fbd c011 cebc 7851 2fbd e3f4 d5bc
000000f0: 4ccf 333b 8a5d fbbc 7131 00bc 0f26 a0bd
00000100: 0baa 953c 3764 fabc 0e03 6fbd 1f9d 59bd
00000110: fce8 4d3b e39c 16bd dace 05bc 4f87 01bd
00000120: 8542 84b9 2ddc 77ba 3fe6 33bd 3299 4abd
00000130: 9801 56bd af9c 9e3b f778 7fbc 539f 1bbd
00000140: ee5c dc3b 2c2b af3c 24d7 1bbd f9c5 9a39
00000150: 1da1 c738 eaaf 16bd 1599 55bb 90fa 88bc
00000160: 2007 efbc 7dff 5b3d 2498 04bd bdb4 463c
00000170: 9ef3 1abd c5df 3e3c 56d2 81bb 8214 3fbc
00000180: f393 053c 1e3c e7bc a3bf 10bd 3462 32bd
00000190: cf82 103c bfdf 863b e412 22bc 1c89 5abc
000001a0: ec41 62bd 0ac3 a6bc 7b8f ed3b 7a4f d3ba
000001b0: c796 07bd d93d 13bd eb67 9dbb 4b09 52bd
000001c0: 6597 3dbc e49b b8ba 9f45 5abc 7321 39bd
000001d0: 0c8b 01bd fa0b 34bd d914 46bd a7df ae3b
000001e0: b001 03bc bc74 623c e01c 3abd 2398 34bc
000001f0: 68a2 39bc b10f de3b 60fd 933b 6959 76bc
00000200: d340 4cbd 4bdc 19bd 4f3c 29bd 0cb7 52bc
00000210: d8df 77ba 6f4d 46bc 5d1b 16bd 6019 283c
00000220: 6f84 00bc 9a30 d03c d2ee f23c 8163 80bc
00000230: 1e43 80bb 1690 0dbd c083 893b 9dc6 1ebd
00000240: 878f 29bd f90f 20bd b56d 23bd 2695 eabc
00000250: 7f88 3abd 682e 43bd f89f dcbc 4ca2 b23a
00000260: 478b 20bd ce30 9e3c d599 af39 7c0c 50bd
00000270: 0eeb 47bd 5175 a3bc 69e9 6aba 7fb9 c6bc
00000280: 4879 10bd bd11 07bd 825e 8bbc 05d5 2dbd
00000290: 8593 29bc 5ae9 15bc d800 623c 2982 94bb
000002a0: 59ba 613b d10e 963c 87a3 59bd 8784 e3bb
000002b0: 7fa6 6ebd e036 a2bc 00a1 1bbd fcf9 cdbc
000002c0: 653e d5bc 371b 35bd cbd2 9b3c 181a cd3b
000002d0: 9b23 82bc eca9 3ebd 226f 1f3c d030 2bbd
000002e0: 4b7e 19bd 8d99 d93c 0421 28bd 1305 03bd
000002f0: 1e0f ebbc 4686 aabc 66c2 e13b e60d 40bd
00000300: 8117 223b 1961 b0bc 1a37 65bc a941 983d
00000310: e15b 20bc 6a3a 2ebd 3a95 983c c84f 8d3c

weight f4 [128, 200]
0.04589664 -0.025517533 -0.041195698 -0.017086713 -0.020996386 0.023286222 -0.017321287 -0.06321018
-0.09474059 0.041991737 -0.044153914 0.02442173 0.016044779 0.017204896 -0.034503836 0.004924229
-0.079057135 -0.05565974 0.02108407 0.025790606 0.01880174 0.04828939 -0.055017106 -0.020620521
-0.010238647 -0.03681467 0.008210586 0.08355437 -0.053432934 0.015761262 0.0028941734 -0.08478958
-0.057662126 -0.07687284 0.006285558 -0.08285339 -0.013807872 0.051623963 0.02821095 0.008732478
-0.028622927 0.05896386 -0.10606491 0.040562183 -0.050590213 -0.05561433 -0.006874066 0.025744798
-0.012294701 0.012978098 -0.046292305 -0.045530885 0.06593696 0.039564367 0.024808424 -0.041604135
0.030305764 0.0051085535 -0.019234264 0.0104308 -0.058535896 0.033778697 -0.014820144 -0.038980816
0.05817926 -0.018148497 -0.0042561414 -0.052082088 -0.10192498 0.021656295 0.034029845 -0.042588733
0.011098806 -0.027753556 -0.039361894 -0.0014210665 -0.026947713 -0.065861836 -0.033208728 -0.0175702
-0.063904546 0.053699456 0.013251831 0.0057521234 0.010087442 -0.05240399 8.1919476e-05 -0.04089849
-0.0048655397 -0.1618246 0.025540233 -0.019600231 -0.027608339 0.06348532 0.01456079 -0.066723414
-0.05458637 -0.060748532 0.010653469 0.031636234 0.027635302 -0.003993196 0.0043064402 0.03319603
0.044073384 -0.08623853 -0.032675806 -0.00846186 0.0360748 -0.034048706 0.01658464 0.056122657
0.027217625 0.024157535 0.04577843 0.03302256 -0.020227896 -0.030864542 -0.07102258 -0.065934196
-0.047728416 -0.05722675 0.043409392 0.02393295 -0.037562486 -0.014986394 -0.03492922 0.04327255
-0.007989397 -0.038941834 0.028098322 0.059385847 -0.05925135 0.040984552 -0.0018310151 -0.033885553
-0.034941684 -0.049301524 -0.08256428 0.0023838521 0.020631628 -0.053600755 -0.006016021 0.03354881
0.043176066 -0.12903585 -0.022921003 0.015128835 -0.038744703 0.026059594 0.036101844 -0.06152188
-0.02527701 0.012996682 -0.053530715 -0.042652544 0.03796454 0.005099817 0.027359454 0.014734676
0.033214368 -0.052984335 0.014553447 0.007331147 -0.0036062642 0.033176992 -0.039335202 0.028299408
-0.07232461 0.023319915 0.03273514 0.001085557 0.023536382 -0.09465006 0.040018894 0.014088237
-0.042481728 0.039646927 0.02051921 -0.06746303 -0.02317537 -0.010952708 -0.029643469 -0.017037287
-0.016008727 0.029880164 0.0059676412 0.0018610301 5.7841073e-05 -0.027340317 -0.07143107 0.027572563
0.001786087 0.04759358 -0.03034376 -0.050861593 -0.020794684 -0.0234113 0.017702209 -0.025564194
-0.06349033 0.011184769 0.055276107 0.044923536 0.044700045 0.033445504 -0.0374495 0.033966526
0.0042761797 0.024956059 -0.017936299 -0.011395089 -0.007900932 0.0049696434 -0.06943727 0.0504223
-0.03987923 -0.0654551 -0.0008268883 -0.032341238 0.053148333 0.022665992 0.006651479 0.022616051
-0.06386813 -0.028707517 -0.0066020996 0.0057804226 0.0022474874 0.019155128 -0.0773813 -0.022328109
-0.05233194 -0.028658882 0.02364219 -0.002827659 -0.0893374 -0.059977192 0.03472038 -0.049901374
-0.06563118 -0.0025501132 -0.012065591 0.035131197 -0.04688259 -0.010770956 0.009828091 0.055034634
-0.028403815 0.031553846 0.06043565 -0.029215563 -0.017135974 0.03972706 0.01719924 -0.055285227
00000000: 1dfe 3b3d 250a d1bc d2bc 28bd 6ff9 8bbc
00000010: 9d00 acbc bfc2 be3c 5fe5 8dbc 5774 81bd
00000020: 5b07 c2bd 87ff 2b3d bcda 34bd 1410 c83c
00000030: 5770 833c 48f1 8c3c e553 0dbd 6d5b a13b
00000040: b5e8 a1bd 78fb 63bd 80b8 ac3c d246 d33c
00000050: 1b06 9a3c 18cb 453d 9e59 61bd 5eec a8bc
00000060: 00c0 27bc fbca 16bd b285 063c 8e1e ab3d
00000070: 7edc 5abd c31d 813c 2cac 3d3b 29a6 adbd
00000080: 1f2f 6cbd 826f 9dbd 15f7 cd3b 0aaf a9bd
00000090: 6a3a 62bc a673 533d a61a e73c ab12 0f3c
000000a0: a17a eabc 1784 713d 8f38 d9bd 8824 263d
000000b0: af37 4fbd dacb 63bd d83f e1bb c1e6 d23c
000000c0: b76f 49bc 17a2 543c 009d 3dbd 987e 3abd
000000d0: f509 873d 3f0e 223d 093b cb3c 1969 2abd
000000e0: cb43 f83c a765 a73b 2d91 9dbc f2e5 2a3c
000000f0: 56c3 6fbd 885b 0a3d 30d0 72bc 59aa 1fbd
00000100: 604d 6e3d 28ac 94bc 1a77 8bbb 0754 55bd
00000110: 0bbe d0bd 8b68 b13c e162 0b3d 8671 2ebd
00000120: c4d7 353c 6d5b e3bc f039 21bd 1443 baba
00000130: 73c1 dcbc 92e2 86bd e005 08bd 61ef 8fbc
00000140: 63e0 82bd f6f3 5b3d 351e 593c 4f7c bc3b
00000150: cc45 253c 91a5 56bd 2fcc ab38 2d85 27bd
00000160: 1b6f 9fbb 59b5 25be c039 d13c aa90 a0bc
00000170: e22a e2bc 9704 823d 6190 6e3c 49a6 88bd
00000180: f595 5fbd 74d3 78bd e38b 2e3c ff94 013d
00000190: 6e63 e23c 5bd9 82bb 0a1d 8d3b 8ff8 073d
000001a0: 4b86 343d d49d b0bd 11d7 05bd 9da3 0abc
000001b0: 2bc3 133d a876 0bbd 83dc 873c dfe0 653d
000001c0: 7ff7 de3c 06e6 c53c 2a82 3b3d aa42 073d
000001d0: f9b4 a5bc a3d7 fcbc 4974 91bd 8208 87bd
000001e0: df7e 43bd 9966 6abd 0cce 313d 090f c43c
000001f0: 1fdb 19bd 7e89 75bc f111 0fbd 8f3e 313d
00000200: f6e5 02bc 7981 1fbd 742e e63c 933e 733d
00000210: 8bb1 72bd 6bdf 273d acfe efba 94cb 0abd
00000220: 031f 0fbd 65f0 49bd 7617 a9bd 673a 1c3b
00000230: a903 a93c 778c 5bbd 0b22 c5bb 7a6a 093d
00000240: 63d9 303d f921 04be d4c4 bbbc efde 773c
00000250: c4b2 1ebd ee7a d53c 87df 133d 5efe 7bbd
00000260: bb11 cfbc 09f0 543c 0643 5bbd 6fb4 2ebd
00000270: b580 1b3d 5e1c a73b ef20 e03c b669 713c
00000280: ca0b 083d 1a06 59bd 9571 6e3c 1e3a f03b
00000290: 1357 6cbb 99e4 073d f31d 21bd 29d4 e73c
000002a0: ed1e 94bd 6809 bf3c 4815 063d 4049 8e3a
000002b0: 5fcf c03c e4d7 c1bd daea 233d 59d2 663c
000002c0: 5201 2ebd d164 223d e717 a83c 0f2a 8abd
000002d0: 46da bdbc fd72 33bc dcd6 f2bc c891 8bbc
000002e0: bc24 83bc 3fc7 f43c 348c c33b cfed f33a
000002f0: 619a 7238 cdf8 dfbc 744a 92bd dbdf e13c
00000300: 231b ea3a 7cf1 423d 7a93 f8bc 3f54 50bd
00000310: 9d59 aabc 0ec9 bfbc 3904 913c 006c d1bc
00000320: 3807 82bd 5240 373c 3369 623d be01 383d
00000330: 6517 373d 27fe 083d a664 19bd 7c20 0b3d
00000340: 321f 8c3b a670 cc3c 25ef 92bc 78b2 3abc
00000350: e972 01bc 64d8 a23b 2135 8ebd 9d87 4e3d
00000360: 6758 23bd 530d 86bd 89c3 58ba 3f78 04bd
00000370: 11b2 593d 08ae b93c a6f4 d93b 4c45 b93c
00000380: 4bcd 82bd 072c ebbc 6d56 d8bb b369 bd3b
00000390: 954a 133b 37eb 9c3c 167a 9ebd 70e9 b6bc
000003a0: 045a 56bd 08c6 eabc 44ad c13c 3f50 39bb
000003b0: 87f6 b6bd a5aa 75bd f536 0e3d 6265 4cbd
000003c0: a469 86bd cd1f 27bb c2ae 45bc bbe5 0f3d
000003d0: f507 40bd aa78 30bc 0006 213c ff6b 613d
000003e0: 1eaf e8bc 9b3e 013d 5f8b 773d 7a55 efbc
000003f0: be60 8cbc d7b8 223d 6ce5 8c3c c372 62bd

bias f4 [128]
0.024351442 -0.106937505 0.0087674055 0.014682133 -0.117926836 -0.039220653 -0.05807317 -0.07745078
-0.047915533 -0.032566793 -0.058567923 -0.05788601 -0.16440964 -0.031487834 -0.09875464 -0.04779013
0.0037297877 0.008757384 -0.030495329 -0.08599746 0.008100223 -0.081410445 -0.007726507 0.002262851
-0.027736805 -0.10327125 -0.09508593 -0.08988271 -0.09932919 0.01051449 -0.073527195 -0.03063449
0.02907175 0.030630318 -0.03029447 -0.05014059 -0.05335724 -0.0013655734 0.0020276122 -0.043114603
-0.016444657 -0.07559983 -0.010840314 -0.11675175 -0.015177042 0.008150702 -0.07057065 -0.10165343
-0.040328693 -0.030963622 -0.0055982494 -0.005484434 0.05166818 0.024382481 -0.03787685 -0.06669744
0.040586654 0.06977598 -0.0005652387 -0.017443392 -0.018013932 -0.10695596 -0.046545822 -0.0105760535
-0.07711707 0.045726128 -0.12571843 -0.0248091 -0.055278108 -0.056676716 -0.05231258 0.08072416
-0.11291482 0.0012620556 -0.017506665 -0.03808344 -0.073548846 0.007937689 -0.043834012 -0.01604714
-0.03794594 -0.0844959 -0.03381234 0.033510342 0.0014135897 -0.07231585 -0.052511048 -0.12765764
-0.033582903 -0.043076932 -0.12961157 -0.035659824 -0.011712876 0.038043212 -0.048625685 -0.10659074
-0.14367467 -0.10429905 -0.10426824 -0.055729963 -0.042724546 -0.07791462 -0.10529823 0.035220318
-0.11825169 -0.006592615 0.02283509 -0.012873054 -0.07382248 -0.12507668 -0.017531801 -0.08844996
-0.081186526 -0.04191221 -0.034022056 -0.06306906 -0.031468228 0.022684144 0.028442647 0.024506837
-0.042047027 -0.06467814 -0.086134054 -0.095811576 -0.015646864 -0.041624147 -0.12065439 -0.037532702
00000000: ad7c c73c 0d02 dbbd 2aa5 0f3c 548d 703c
00000010: a083 f1bd d6a5 20bd 22de 6dbd 849e 9ebd
00000020: 1443 44bd c264 05bd ebe4 6fbd e119 6dbd
00000030: 005b 28be 63f9 00bd df3f cabd 95bf 43bd
00000040: 746f 743b 217b 0f3c 57d1 f9bc 701f b0bd
00000050: ccb6 043c 85ba a6bd a32e fdbb 574c 143b
00000060: 4c38 e3bc e17f d3bd 69bc c2bd 6d14 b8bd
00000070: 1a6d cbbd f844 2c3c 6d95 96bd 2ff5 fabc
00000080: e127 ee3c 6fec fa3c 1c2c f8bc 3860 4dbd
00000090: 1f8d 5abd 0afd b2ba b0e1 043b f098 30bd
000000a0: f2b6 86bc 15d4 9abd 939b 31bc 8b1b efbd
000000b0: 21a9 78bc 868a 053c 5887 90bd ac2f d0bd
000000c0: b32f 25bd 6ca7 fdbc 8571 b7bb c4b6 b3bb
000000d0: 03a2 533d c5bd c73c c224 1bbd ab98 88bd
000000e0: 313e 263d b6e6 8e3d 872c 14ba 72e5 8ebc
000000f0: f491 93bc ba0b dbbd d5a6 3ebd 2f47 2dbc
00000100: 8eef 9dbd 524b 3b3d 55bc 00be 743c cbbc
00000110: 4c6b 62bd d825 68bd b745 56bd b552 a53d
00000120: e33f e7bd 8f6b a53a 236a 8fbc 62fd 1bbd
00000130: c7a0 96bd 150d 023c 4b8b 33bd 4b75 83bc
00000140: 346d 1bbd 300c adbd cf7e 0abd 2442 093d
00000150: 3348 b93a 551a 94bd d315 57bd afb8 02be
00000160: 3a8e 09bd 7071 30bd e5b8 04be 0910 12bd
00000170: 5de7 3fbc 33d3 1b3d ba2b 47bd 3f4c dabd
00000180: 741f 13be be9a d5bd 968a d5bd 1a45 64bd
00000190: efff 2ebd b391 9fbd 99a6 d7bd 2e43 103d
000001a0: f12d f2bd dd06 d8bb a810 bb3c 80e9 52bc
000001b0: 3e30 97bd 1a14 00be da9e 8fbc 4125 b5bd
000001c0: 1f45 a6bd 23ac 2bbd b65a 0bbd 5a2a 81bd
000001d0: d4e4 00bd 19d4 b93c 8e00 e93c 90c2 c83c
000001e0: 8139 2cbd f975 84bd 0d67 b0bd dc38 c4bd
000001f0: da2d 80bc 157e 2abd a619 f7bd e4bb 19bd

weight f4 [200, 128]
0.05388563 -0.023613362 -0.07791909 -0.06575314 0.03911819 0.06037793 -0.04609786 -0.0938118
0.04244963 0.014795279 -0.09566094 0.06900509 0.04694137 -0.07002808 -0.013777368 -0.06733104
0.056257352 -0.095553555 0.009330965 0.022321709 -0.05687771 -0.0035776566 0.00443756 -0.022068616
-0.018449496 -0.04193909 -0.066021085 0.028797634 -0.027390026 -0.07857953 -0.006066511 -0.08720296
-0.023215117 0.0663121 -0.04828772 -0.036821533 0.0017952215 -0.107183225 0.037341185 0.077098615
-0.031794697 0.0058079623 0.05649593 -0.07196611 0.01961628 0.026231837 -0.009616903 0.068030134
0.08805463 0.0073582004 -0.044470605 0.056785066 0.0049424483 0.023952445 -0.06402535 0.040207546
-0.0026538628 -0.02261701 -0.07253599 0.007952321 0.037936825 -0.08981999 -0.06649008 -0.022877568
0.07368042 0.0077824914 -0.021832936 0.039647065 -0.07494481 -0.014147852 0.016625233 0.00712438
0.054432258 -0.093428314 -0.03247614 -0.033498917 -0.07473857 0.0362374 0.00175348 -0.07011465
-0.08130222 0.06769558 -0.0063409554 -0.08666428 -0.072491735 0.0550447 0.025313819 0.03135385
0.03402703 -0.10246334 0.03596777 -0.08323494 -0.03836521 -0.01898744 0.038227376 0.044184692
-0.039138712 -0.02516288 -0.018078143 -0.088244274 0.018036725 -0.068473384 -0.03666929 -0.057035938
0.085765265 -0.06668957 0.02873412 -0.026642382 0.014184601 0.036221456 -0.044409294 -0.07428739
-0.04708671 -0.07180624 -0.008717999 0.070807755 -0.06835187 -0.05000609 -0.06250514 0.006731884
0.02994436 0.018232705 -0.09169147 0.06622376 -0.0322594 -0.06674585 0.02991284 0.044680975
0.092736 0.044690948 -0.0049109193 0.014949948 -0.09451043 0.034307886 -0.071354695 -0.065078594
-0.0010882134 -0.015486821 0.0049292957 0.0031732928 -0.07428728 -0.11239917 -0.058819015 -0.11329408
-0.041862737 -0.009849482 0.0029746436 -0.034859683 -0.015101424 -0.085565 -0.04722931 0.0038691284
0.059403144 0.011678114 -0.060165867 -0.07477356 -0.041483745 0.010583714 -0.08450817 -0.023344316
-0.066797845 -0.09648515 0.0722082 -0.06658651 -0.0075964024 0.029252462 0.06534128 -0.034185458
0.015235452 -0.061387233 -0.035385963 0.03454533 -0.11429866 -0.08505214 0.0061370484 -0.038589038
-0.09458913 0.091414005 -0.10380741 0.062801875 -0.09978381 -0.082981504 0.06951698 0.0059159966
0.025902776 0.0895371 -0.045647707 0.08822371 0.024081213 -0.008146523 0.015012969 -0.035540216
-0.069349594 0.01199926 0.0076442636 -0.12302272 0.06691619 0.008158959 -0.056056816 -0.053778477
-0.09088048 -0.019394878 0.0028766938 -0.035127908 -0.019608593 -0.06426826 0.05830422 -0.021708606
-0.033617407 -0.046872567 -0.016332466 -0.04960913 -0.11783752 -0.06980981 0.083759606 -0.06728761
-0.059059005 -0.056556027 0.03403298 -0.09498754 -0.10191356 -0.021526124 -0.08773812 -0.0634346
-0.06975412 0.014132058 -0.038041424 -0.01662646 -0.13788298 -0.013182643 -0.0016517094 -0.048887502
0.01849851 -0.00567363 0.042660616 -0.068929136 -0.004750879 0.087885156 -0.019963322 0.058208372
0.062174406 0.0012427384 -0.006563621 -0.014999034 -0.03763209 0.06701524 0.04670603 -0.020758592
-0.004143037 0.032879744 -0.030292246 -0.091869034 0.03225453 -0.040923048 -0.07095142 -0.04973437
00000000: 2eb7 5c3d cf70 c1bc 0b94 9fbd 95a9 86bd
00000010: 653a 203d d94e 773d 1cd1 3cbd 6720 c0bd
00000020: aadf 2d3d e667 723c e2e9 c3bd 8a52 8d3d
00000030: 9845 403d e26a 8fbd 78ba 61bc dbe4 89bd
00000040: 1c6e 663d 95b1 c3bd e7e0 183c 04dc b63c
00000050: 9af8 68bd 1e77 6abb f468 913b 3ec9 b4bc
00000060: 6623 97bc 53c8 2bbd 1036 87bd 04e9 eb3c
00000070: 0c61 e0bc 4eee a0bd 95c9 c6bb 7797 b2bd
00000080: a12d bebc a3ce 873d 58c9 45bd 2dd2 16bd
00000090: a34d eb3a e182 dbbd 12f3 183d e1e5 9d3d
000000a0: 283b 02bd b850 be3b 4768 673d f862 93bd
000000b0: 52b2 a03c 26e4 d63c 3790 1dbc 6253 8b3d
000000c0: fc55 b43d 0f1d f13b cf26 36bd 7597 683d
000000d0: 43f4 a13b eb37 c43c b91f 83bd abb0 243d
000000e0: 6eec 2dbb 4f47 b9bc c08d 94bd 744a 023c
000000f0: a563 1b3d 8bf3 b7bd f32b 88bd bd69 bbbc
00000100: c3e5 963d 4504 ff3b fcda b2bc f664 223d
00000110: aa7c 99bd 64cc 67bc a431 883c a273 e93b
00000120: 5cf4 5e3d 5857 bfbd b305 05bd 2936 09bd
00000130: 8910 99bd ab6d 143d 07d5 e53a 4598 8fbd
00000140: c781 a6bd fba3 8a3d cac7 cfbb 0b7d b1bd
00000150: 8c76 94bd 8d76 613d ed5e cf3c e56c 003d
00000160: ed5f 0b3d 4dd8 d1bd f152 133d 1577 aabd
00000170: d724 1dbd 8c8b 9bbc 4f94 1c3d 02fb 343d
00000180: ea4f 20bd 6222 cebc 9d18 94bc 6ab9 b4bd
00000190: c1c1 933c c63b 8cbd 8a32 16bd 849e 69bd
000001a0: b3a5 af3d 8b94 88bd d163 eb3c 2041 dabc
000001b0: 8766 683c f35c 143d 85e6 35bd fd23 98bd
000001c0: fedd 40bd 260f 93bd f0d5 0ebc a803 913d
000001d0: 11fc 8bbd 30d3 4cbd b202 80bd 2397 dc3b
000001e0: e04d f53c c15c 953c bdc8 bbbd 53a0 873d
000001f0: 6f22 04bd 0cb2 88bd c60b f53c 6603 373d
00000200: 5fec bd3d db0d 373d c7eb a0bb a0f0 743c
00000210: af8e c1bd 6d86 0c3d 6922 92bd ed47 85bd
00000220: 62a2 8eba 6fbc 7dbc ee85 a13b 05f7 4f3b
00000230: ee23 98bd 8931 e6bd 35ec 70bd ba06 e8bd
00000240: 4378 2bbd b95f 21bc 3df2 423b 07c9 0ebd
00000250: f76b 77bc b43c afbd 8573 41bd 3491 7d3b
00000260: b650 733d 8f55 3f3c 7c70 76bd e122 99bd
00000270: dcea 29bd 5067 2d3c 9f12 adbd 943c bfbc
00000280: 4fcd 88bd 029a c5bd e5e1 933d 825e 88bd
00000290: 3eeb f8bb dca2 ef3c a6d1 853d 0d06 0cbd
000002a0: 1e9e 793c 2e71 7bbd dff0 10bd 677f 0d3d
000002b0: 6a15 eabd d12f aebd 4b19 c93b 8a0f 1ebd
000002c0: f2b7 c1bd 4437 bb3d fb98 d4bd 459e 803d
000002d0: 745b ccbd 35f2 a9bd eb5e 8e3d fada c13b
000002e0: 0f32 d43c 3a5f b73d 17f9 3abd a2ae b43d
000002f0: f745 c53c fe78 05bc f5f8 753c 9e92 11bd
00000300: 2907 8ebd 8b98 443c bb7c fa3b 56f3 fbbd
00000310: 5b0b 893d 28ad 053c d59b 65bd d246 5cbd
00000320: 8c1f babd 02e2 9ebc ea86 3c3b 48e2 0fbd
00000330: 33a2 a0bc 149f 83bd 68d0 6e3d 3fd6 b1bc
00000340: 68b2 09bd 73fd 3fbd aacb 85bc f132 4bbd
00000350: cc54 f1bd 72f8 8ebd 288a ab3d 16ce 89bd
00000360: dbe7 71bd 4ba7 67bd 2b66 0b3d d488 c2bd
00000370: 0eb8 d0bd 8e57 b0bc 0bb0 b3bd 00ea 81bd
00000380: 40db 8ebd 268a 673c 53d1 1bbd 3734 88bc
00000390: 3231 0dbe 03fc 57bc 2c7e d8ba 433e 48bd
000003a0: 308a 973c dce9 b9bb e6bc 2e3d b82a 8dbd
000003b0: 43ad 9bbb 22fd b33d 1f8a a3bc e76b 6e3d
000003c0: 97aa 7e3d 62e3 a23a a513 d7bb 82be 75bc
000003d0: 1b24 1abd 493f 893d d24e 3f3d ec0d aabc
000003e0: 50c2 87bb e9ac 063d 7227 f8bc d525 bcbd
000003f0: 531d 043d ed9e 27bd fa4e 91bd 44b6 4bbd

bias f4 [200]
-0.1467539 -0.030336045 -0.021048274 -0.09314777 -0.017040389 -0.01076501 0.020492721 -0.0004197741
-0.014258073 -0.033157535 -0.032018404 -0.0853238 -0.026894633 -0.0884378 -0.052472018 -0.13906394
-0.01618901 -0.090301484 -0.10674458 -0.09287854 -0.082333356 -0.043340176 -0.09875987 -0.028915675
-0.038141422 -0.08511537 0.0060322573 -0.051302887 -0.101913325 -0.015019904 -0.05329903 -0.07752044
-0.011470742 -0.04849832 -0.0781556 -0.09744326 0.0016148484 -0.15082672 -0.02861473 -0.047545258
0.017765809 -0.100672774 0.0096970145 -0.05597306 -0.020053219 -0.0066421167 -0.013874822 -0.05516784
-0.097665355 -0.09059863 -0.091437034 0.051153842 0.031568427 0.00877241 0.012188619 -0.05832548
-0.015720714 0.056126334 0.0052396534 -0.06976162 0.0033523298 -0.11459572 -0.07908858 0.009706877
-0.046678036 0.010857201 -0.07972245 -0.029643971 0.036172055 -0.013991617 -0.028135046 -0.053306114
-0.13725774 -0.09894872 -0.116143875 -0.096553154 -0.086566724 0.020427907 0.009397861 -0.076844424
-0.00029710354 0.03429131 0.046377633 -0.090429395 -0.038434166 -0.043868113 -0.055875327 -0.0783634
-0.08107763 -0.0070237713 -0.05469317 -0.005897293 -0.12650476 -0.08837672 -0.022221122 -0.06101019
-0.07896727 -0.04925014 -0.13297956 0.029294843 -0.0404045 -0.050644785 -0.030997798 0.011134568
-0.13386919 -0.08595197 -0.05961633 -0.051921736 -0.016765766 -0.02939464 -0.0959477 0.023888627
-0.0080145765 -0.007939606 -0.022126433 -0.062178522 -0.02155996 -0.10663921 -0.097378686 -0.10423311
-0.017964117 -0.018796617 -0.039821636 -0.109332554 -0.099836856 -0.07554929 -0.008768989 -0.057635628
-0.13808514 -0.028352577 -0.107787475 -0.08682681 0.039350785 -0.06325821 -0.046416007 -0.10664589
-0.048963513 -0.06693298 -0.044603568 -0.056967646 0.014350116 -0.017799597 -0.026007904 -0.08189605
-0.04865451 -0.09566799 -0.0016511212 -0.097746536 -0.008373598 -0.033239048 -0.055270173 -0.043571062
0.00048001268 0.040193006 0.014644197 -0.07809477 -0.05299399 -0.07914365 -0.079903625 0.026270868
-0.1203594 -0.0016839617 0.042818785 -0.08573656 0.013413738 0.0016262846 -0.02754633 -0.0020061173
-0.032758612 -0.0600903 -0.035615418 -0.09308488 -0.09749252 0.024011044 -0.060614225 0.0004663733
-0.0020798962 -0.09649205 0.03796833 -0.039909452 -0.08008808 -0.030053405 -0.0030924666 -0.00035013002
-0.09867 -0.019918988 -0.08544927 -0.070950724 0.0129978 -0.030677948 -0.086577475 -0.01791157
-0.099230066 -0.12178094 -0.07576401 -0.10444927 -0.028571814 -0.024498817 -0.0390342 0.014201423
00000000: a846 16be 4c83 f8bc 6e6d acbc 42c4 bebd
00000010: 4998 8bbc b95f 30bc 5ae0 a73c 2015 dcb9
00000020: b19a 69bc 32d0 07bd bb25 03bd 3fbe aebd
00000030: 2252 dcbc e11e b5bd e6ec 56bd c766 0ebe
00000040: d19e 84bc fcef b8bd e79c dabd 1b37 bebd
00000050: 649e a8bd 7885 31bd 9d42 cabd 91e0 ecbc
00000060: 2e3a 1cbd f850 aebd 3eaa c53b fa22 52bd
00000070: efb7 d0bd 0b16 76bc 1550 5abd 09c3 9ebd
00000080: c7ef 3bbc 2da6 46bd 0b10 a0bd 5590 c7bd
00000090: 52a9 d33a 5272 1abe 7069 eabc d1be 42bd
000000a0: 9a89 913c 872d cebd 3ae0 1e3c 0244 65bd
000000b0: a646 a4bc 1da6 d9bb 3953 63bc acf7 61bd
000000c0: c604 c8bd c68b b9bd 5743 bbbd b186 513d
000000d0: e54d 013d 28ba 0f3c c6b2 473c b3e6 6ebd
000000e0: bac8 80bc bae4 653d 66b1 ab3b 2edf 8ebd
000000f0: c3b2 5b3b 29b1 eabd 32f9 a1bd 9809 1f3c
00000100: 7831 3fbd 67e2 313c 8645 a3bd ead7 f2bc
00000110: 2629 143d 183d 65bc 787b e6bc 8357 5abd
00000120: 4b8d 0cbe a0a5 cabd d7dc edbd a9bd c5bd
00000130: e549 b1bd 6d58 a73c 7cf9 193c 9c60 9dbd
00000140: 90c4 9bb9 0b75 0c3d 79f6 3d3d 0c33 b9bd
00000150: 256d 1dbd 0daf 33bd 87dd 64bd fe7c a0bd
00000160: 070c a6bd aa27 e6bb f205 60bd 143e c1bb
00000170: 778a 01be dbfe b4bd 1209 b6bc d2e5 79bd
00000180: 98b9 a1bd 84ba 49bd cb2b 08be bdfb ef3c
00000190: 307f 25bd e870 4fbd 18ef fdbc c36d 363c
000001a0: 0115 09be 9607 b0bd 4130 74bd e3ab 54bd
000001b0: 5c58 89bc 07cd f0bc 3a80 c4bd 15b2 c33c
000001c0: 924f 03bc 1f15 02bc 7e42 b5bc e8ae 7ebd
000001d0: 839e b0bc a865 dabd 7a6e c7bd 2b78 d5bd
000001e0: 7c29 93bc 5dfb 99bc 031c 23bd bfe9 dfbd
000001f0: 4477 ccbd 96b9 9abd ceab 0fbc 5613 6cbd
00000200: 3166 0dbe aa43 e8bc aebf dcbd 41d2 b1bd
00000210: 4a2e 213d 858d 81bd b61e 3ebd 2969 dabd
00000220: f78d 48bd 2914 89bd 3bb2 36bd e856 69bd
00000230: c01c 6b3c 76d0 91bc 870e d5bc 1eb9 a7bd
00000240: f449 47bd 94ed c3bd 6f6a d8ba 562f c8bd
00000250: 6a31 09bc ab25 08bd fa62 62bd 9277 32bd
00000260: 36aa fb39 6ca1 243d 37ee 6f3c 27f0 9fbd
00000270: 3a10 59bd 1116 a2bd 83a4 a3bd 0136 d73c
00000280: fd7e f6bd 61b8 dcba c062 2f3d a696 afbd
00000290: 4cc5 5b3c 0e29 d53a d7a8 e1bc 1079 03bb
000002a0: e52d 06bd 3f21 76bd 79e1 11bd 49a3 bebd
000002b0: 29aa c7bd cfb2 c43c 9f46 78bd 9183 f439
000002c0: de4e 08bb a09d c5bd ae84 1b3d 1878 23bd
000002d0: 3805 a4bd 8f32 f6bc fbaa 4abb a891 b7b9
000002e0: 7f13 cabd 252d a3bc 0700 afbd 9d4e 91bd
000002f0: b9f4 543c 5250 fbbc 884f b1bd 49bb 92bc
00000300: 2239 cbbd 4968 f9bd 292a 9bbd 80e9 d5bd
00000310: 700f eabc beb1 c8bc 53e2 1fbd 16ad 683c

weight f4 [10, 200]
-0.025390564 0.07689295 -0.0067157727 0.069525816 0.021169791 -0.018875392 -0.08727119 -0.01156736
0.03919681 0.00032537893 -0.018866373 -0.048563916 -0.01937299 -0.01725872 -0.016206888 -0.018461458
-0.050797366 -0.1538229 -0.020505827 -0.032993246 0.008501771 -0.07151968 0.06079128 0.049900725
0.002526494 0.014317749 0.026318828 0.05922411 -0.07162135 0.04527663 0.0310556 0.07993352
0.058372542 0.050286163 -0.040828563 0.01707169 0.033187933 -0.00870935 0.015589812 -0.0204335
-0.01598529 -0.012543649 -0.022357333 -0.031823397 0.03409012 -0.02341957 -0.017051412 -0.012899079
-0.014097682 -0.020838778 -0.10267975 -0.006510979 -0.0550144 -0.012677395 -0.0222465 0.020140888
-0.05533407 0.020572647 -0.006754056 0.043339062 -0.03750876 -0.10030966 -0.0058832853 0.039054785
-0.14980039 -0.011559034 0.052798077 0.038642947 0.09203894 -0.067856394 0.040830214 0.01987898
-0.03405162 -0.00064758013 0.0035372232 -0.021639414 -0.08868597 -0.02017517 0.05709808 -0.050300635
-0.096899755 -0.023888532 -0.0407501 -0.012516017 0.03427357 0.007877405 -0.041176707 -0.021866804
-0.042755146 0.043995805 -0.021483233 0.059823472 0.0317356 0.05052111 -0.0208792 -0.06713567
0.045602426 0.034047145 -0.040671047 -0.026879111 -0.001980894 -0.0026018664 -0.018477473 0.006821563
0.04661454 0.0475231 0.09053024 -0.02549482 -0.04014129 0.0515641 -0.03119126 -0.022456385
-0.013208691 -0.03299358 0.05986678 0.04071301 0.08599839 -0.069049224 -0.027730873 0.03926035
-0.059103686 -0.006867438 0.02262731 -0.07754246 -0.07271352 0.011878115 0.1223111 -0.058394823
0.0041859155 0.065153435 0.007084611 -0.10372888 -0.07709254 0.018392695 0.0040895496 -0.11232821
-0.025936479 -0.02072922 0.028296936 -0.0066851038 -0.041412745 0.037938777 0.0675359 0.01624855
-0.060905285 -0.0043326975 -0.06554709 -0.04720975 0.012948775 -0.017194549 -0.054429643 -0.012130408
0.032644536 -0.015119143 0.06985811 -0.06994006 0.08984059 0.05208364 0.009023704 0.0048443405
-0.04662583 -0.034735184 -7.449268e-05 0.014491462 0.046667773 -0.015213553 -0.028044285 -0.06684075
0.010996514 -0.010535106 -0.037115302 0.014345506 0.0042452593 -0.035431717 0.039639585 0.037091594
-0.08367834 -0.005929296 0.031158406 -0.031530786 -0.019692788 -0.057405375 -0.025206614 -0.01370734
-0.0931065 -0.08880003 0.004393261 0.00055989245 0.0535579 -0.023607673 -0.07314575 0.10655288
0.044086926 -0.07460026 0.05561741 0.03862858 -0.030817362 0.054313287 0.014557526 -0.052263197
0.06712829 -0.0014034627 -0.06810939 0.021131836 -0.008538439 -0.036209248 0.009681721 0.022270598
0.028903184 -0.041173097 -0.07287465 -0.05043661 0.0075003663 -0.042183634 -0.0015895216 -0.05210039
0.05753718 -0.03316068 -0.060669575 -0.003489184 0.050941173 -0.019988196 -0.09940763 0.012027388
0.015360084 0.041168243 0.0059431763 -0.045679312 0.037344463 -0.01114453 -0.017106628 -0.029360656
-0.057790108 -0.07230692 -0.06423925 -0.01003905 0.001995385 0.03657342 0.0056351465 -0.074206
-0.024179552 -0.050377734 0.015621877 -0.06286669 -0.0068732845 -0.011341426 -0.0028853826 0.035407677
0.019857235 -0.020440536 -0.047245983 0.08481631 0.034315336 0.0043472447 -0.022031186 -0.06747067
00000000: dfff cfbc 0d7a 9d3d fc0f dcbb 8d63 8e3d
00000010: 456c ad3c 91a0 9abc 3dbb b2bd 0685 3dbc
00000020: d68c 203d 9f97 aa39 a78d 9abc f5ea 46bd
00000030: 1bb4 9ebc 2962 8dbc 4fc4 84bc 7c3c 97bc
00000040: e610 50bd c083 1dbe d6fb a7bc ed23 07bd
00000050: 034b 0b3c e978 92bd 4700 793d b464 4c3d
00000060: 8993 253b fe94 6a3c 959a d73c fb94 723d
00000070: 37ae 92bd fd73 393d 5068 fe3c 2fb4 a33d
00000080: 0c18 6f3d ddf8 4d3d da3b 27bd eed9 8b3c
00000090: 12f0 073d a9b1 0ebc 696c 7f3c 2864 a7bc
000000a0: 95f3 82bc e183 4dbc ba26 b7bc 4059 02bd
000000b0: 15a2 0b3d 66da bfbc 67af 8bbc a956 53bc
000000c0: f7f9 66bc 16b6 aabc c349 d2bd 0d5a d5bb
000000d0: c856 61bd d9b4 4fbc 4b3e b6bc 81fe a43c
000000e0: faa5 62bd f887 a83c 2151 ddbb 4d84 313d
000000f0: c9a2 19bd 276f cdbd 93c8 c0bb e9f7 1f3d
00000100: 4665 19be 1a62 3dbc cc42 583d 1148 1e3d
00000110: e97e bc3d 4bf8 8abd 953d 273d 3ed9 a23c
00000120: b679 0bbd 5ec2 29ba c2d0 673b 2445 b1bc
00000130: fda0 b5bd 6646 a5bc addf 693d 0a08 4ebd
00000140: 6173 c6bd e2b1 c3bc 94e9 26bd fb0f 4dbc
00000150: 7162 0c3d 3b10 013c e8a8 28bd 0322 b3bc
00000160: 0520 2fbd f234 343d 9bfd afbc 7509 753d
00000170: 30fd 013d 39ef 4e3d db0a abbc 6d7e 89bd
00000180: 9cc9 3a3d 0575 0b3d af96 26bd 9531 dcbc
00000190: e3d1 01bb 1384 2abb 125e 97bc 6b87 df3b
000001a0: e3ee 3e3d 95a7 423d eb67 b93d 83da d0bc
000001b0: 316b 24bd e134 533d d084 ffbc 74f6 b7bc
000001c0: 4469 58bc 4724 07bd de36 753d afc2 263d
000001d0: ed1f b03d ae69 8dbd db2b e3bc 76cf 203d
000001e0: b516 72bd 3f08 e1bb e95c b93c 95ce 9ebd
000001f0: d3ea 94bd 6d9c 423c 3e7e fa3d 692f 6fbd
00000200: 012a 893b 2a6f 853d 0626 e83b cf6f d4bd
00000210: b2e2 9dbd 47ac 963c a101 863b 550c e6bd
00000220: bd78 d4bc 53d0 a9bc face e73c b70e dbbb
00000230: 69a0 29bd b165 1b3d 4350 8a3d ae1b 853c
00000240: d277 79bd 4df9 8dbb 8d3d 86bd 035f 41bd
00000250: 1927 543c 95db 8cbc 9ef1 5ebd 9ebe 46bc
00000260: 47b6 053d 48b6 77bc c511 8f3d bc3c 8fbd
00000270: 58fe b73d a855 553d 28d8 133c 46bd 9e3b
00000280: bafa 3ebd 7b46 0ebd f438 9cb8 996d 6d3c
00000290: b526 3f3d 4442 79bc 21bd e5bc cee3 88bd
000002a0: b92a 343c 709b 2cbc 3706 18bd 6a09 6b3c
000002b0: d11b 8b3b d920 11bd 1e5d 223d 5bed 173d
000002c0: 8d5f abbd 8a4a c2bb ea3f ff3c 6d26 01bd
000002d0: c552 a1bc e621 6bbd 1a7e cebc c094 60bc
000002e0: 9fae bebd cadc b5bd 58f5 8f3b bfc5 123a
000002f0: 875f 5b3d e164 c1bc 70cd 95bd 6538 da3d
00000300: 7e94 343d 05c8 98bd 15cf 633d 0039 1e3d
00000310: b174 fcbc 9c77 5e3d b182 6e3c ef11 56bd
00000320: 8f7a 893d 65f4 b7ba f07c 8bbd ac1c ad3c
00000330: cfe4 0bbc 2650 14bd 15a0 1e3c d470 b63c
00000340: 5fc6 ec3c 1fa5 28bd 4e3f 95bd 9e96 4ebd
00000350: a2c5 f53b bfc8 2cbd 7f57 d0ba 3867 55bd
00000360: 1bac 6b3d 7ed3 07bd a980 78bd cbaa 64bb
00000370: b1a7 503d 49be a3bc 3a96 cbbd 860e 453c
00000380: dda8 7b3c 08a0 283d fabe c23b 3b1a 3bbd
00000390: 82f6 183d 8c97 36bc 3323 8cbc c285 f0bc
000003a0: 52b5 6cbd a715 94bd de8f 83bd d47a 24bc
000003b0: 01c5 023b 03ce 153d 09a7 b83b 51f9 97bd
000003c0: 3214 c6bc e258 4ebd e7f2 7f3c 40c0 80bd
000003d0: 4a39 e1bb 63d1 39bc b018 3dbb a407 113d
000003e0: a4ab a23c e972 a7bc 0185 41bd 2cb4 ad3d
000003f0: 3d8e 0c3d 5573 8e3b bf7a b4bc 102e 8abd

bias f4 [10]
0.038121175 -0.024983196 0.011870039 0.0046411585 0.030618869 -0.0123433275 0.0009966521 0.022375055
0.01967435 -0.008957928
00000000: f324 1c3d 8fa9 ccbc 8d7a 423c dc14 983b
00000010: 6cd4 fa3c ab3b 4abc 18a2 823a e44b b73c
00000020: 1a2c a13c 46c4 12bc
