Project_1/Part3/checkpoints/dnn_8_1.pth (torch, 184727 bytes, 6 tensors)

weight f4 [50, 784]
0	0x3b2dd94a	0.002652722
1	0x3c962bcc	0.01833143
2	0xbb93f51c	-0.0045153033
3	0x3cb9f9f3	0.022702193
4	0x3c20fdd3	0.009826141
5	0xbd0f735a	-0.035022117
6	0xbca7e76c	-0.020496093
7	0x3b70ce5c	0.0036744094
8	0xbbe82125	-0.0070840293
9	0xbd09dd0c	-0.033658072
10	0x3d039786	0.032126926
11	0xbcf9edde	-0.030508932
12	0x3c9c8c4c	0.019109868
13	0x3cfecfb8	0.031104907
14	0x3ce623bc	0.028093211
15	0xbcda5281	-0.026650669
16	0xbcfd196e	-0.030895915
17	0x3d0d6a00	0.034524918
18	0x3c2636ea	0.0101449285
19	0x3c641cf8	0.013922922
20	0xbcb0fe0e	-0.021605518
21	0x3d06268c	0.032751605
22	0x3c4d6fc1	0.012538851
23	0x3bfc9965	0.0077087157
24	0xba5865b7	-0.0008254903
25	0x3d0f7593	0.035024237
26	0x3bd86f1c	0.006605042
27	0x3d028c5c	0.03187214
28	0x3c328017	0.010894797
29	0x3d11c1de	0.035585277
30	0x3cf1b28e	0.029504087
31	0x3c8824e3	0.016619151
32	0x3cfb8721	0.030704083
33	0xbb8de04a	-0.004329716
34	0x3c876025	0.016525337
35	0x3cc2be1c	0.023772292
36	0xbcca96f3	-0.024730181
37	0x3b9160ee	0.0044366037
38	0xbca5920e	-0.020211246
39	0x3b49445c	0.0030710911
40	0xbc195c8e	-0.009360446
41	0x3d10dcb8	0.035366744
42	0xbc3bcdae	-0.011462612
43	0xbc2f83ca	-0.010712573
44	0xbca1d74b	-0.01975598
45	0x3b3222d2	0.00271814
46	0x3cc4c18e	0.024018075
47	0x3cbc7ae5	0.02300782
48	0x3cf5333a	0.029931653
49	0xbd02aecf	-0.03190499
50	0x3a7501b8	0.00093462644
51	0xbc875d07	-0.016523851
52	0x3c87c267	0.01657219
53	0x3cdd1ebe	0.026992198
54	0x3cee0f31	0.029059978
55	0xbd07acd2	-0.0331238
56	0xbbc3bbf7	-0.005973335
57	0xbbbf2e41	-0.0058343713
58	0x3ca481a7	0.020081354
59	0x3c2ccd5c	0.010547008
60	0xbd0c505b	-0.03425632
61	0x3c53d305	0.012928729
62	0x3c1f33b3	0.009716916
63	0x3bdead93	0.006795594
64	0xbd085f6d	-0.03329413
65	0xbd094034	-0.033508494
66	0x3d1d90fc	0.038468346
67	0x3ceab4ad	0.028650606
68	0x3bfc5c65	0.007701444
69	0x3c5720a6	0.013130343
70	0xbc7c738c	-0.015408408
71	0xbd0e8be0	-0.034801364
72	0xbae8a744	-0.0017750044
73	0x3c997f82	0.018737558
74	0xbc13e83f	-0.00902754
75	0x3c87f1de	0.016594823
76	0xbb161bc1	-0.0022904726
77	0x3c82e60e	0.01597884
78	0xbb4f4c9e	-0.003163136
79	0x3d055ddc	0.032560214
80	0xbcff26d1	-0.031146439
81	0x39a47093	0.00031364392
82	0x3b4abe4a	0.0030936175
83	0x3c9cb17e	0.019127604
84	0x3b41885c	0.002953074
85	0x3cd7b53a	0.026331533
86	0x3cbdd25c	0.023171596
87	0x3bab16ca	0.0052212225
88	0xb95fd5b8	-0.00021346554
89	0xbcb02861	-0.02150363
90	0xbd2cc5e2	-0.042180903
91	0xba02cdfd	-0.0004989801
92	0x3ce4d199	0.027931975
93	0x3d1468e3	0.03623284
94	0xbc85bbd3	-0.016324913
95	0xbcddd004	-0.027076729
96	0xbcb16d61	-0.021658601
97	0x3c83609e	0.016037282
98	0x3c688694	0.014192242
99	0x3d350072	0.044189878
100	0x3c8ddaaa	0.017316181
101	0xbcd4e80d	-0.025989557
102	0xbccce740	-0.025012612
103	0xbca00089	-0.019531505
104	0xbc0b7c88	-0.008513577
105	0xbb34bb9a	-0.002757764
106	0x3c5c069a	0.013429308
107	0xbc32a8e0	-0.010904521
108	0xbc88780d	-0.016658807
109	0x3bc5d281	0.006037057
110	0xbcdd63d1	-0.027025135
111	0x3ae5c3b8	0.0017529642
112	0x3afdb401	0.0019356014
113	0x3d01268a	0.031530894
114	0x3c92e0e7	0.017929507
115	0x3b295800	0.0025839806
116	0xbbef11e4	-0.007295834
117	0xbcdce6eb	-0.026965579
118	0xbbde4eb8	-0.0067842864
119	0x3cbc1eb5	0.022963861
120	0xbc3affa7	-0.011413491
121	0xbcb42c3f	-0.021993754
122	0x3d2297b7	0.039695468
123	0x3cee000e	0.02905276
124	0x3cb9bbcc	0.022672556
125	0xbc475c23	-0.012167963
126	0xbc86529a	-0.01639681
127	0x3c9e2351	0.01930395
128	0x3c98c2a7	0.018647505
129	0xbb652c3a	-0.0034968988
130	0x3bb9c218	0.0056688897
131	0xbb6dba03	-0.0036274202
132	0xbcca4e8d	-0.024695659
133	0xbb5e4fed	-0.0033922151
134	0x3d13ad28	0.036053807
135	0x3bcc869f	0.006241634
136	0xbca489a8	-0.02008517
137	0xbcad6a48	-0.021168843
138	0x3ba3a000	0.0049934387
139	0x3bb8b5ee	0.005636922
140	0x3bb2bddc	0.005454762
141	0xbcd67d11	-0.026182683
142	0x3ce48d6c	0.027899466
143	0x3cfb20f3	0.03065536
144	0x3c542906	0.012949234
145	0xbc964c2d	-0.01834687
146	0x3c2f8399	0.010712528
147	0x3cd1cb52	0.025609646
148	0xbbef67f3	-0.007306093
149	0x3c218b1f	0.009859829
150	0xbcf84044	-0.030304082
151	0xbcc4e6ea	-0.02403589
152	0x3ce48eaa	0.027900059
153	0x3cb51c4c	0.02210822
154	0xbc9ca6ff	-0.019122599
155	0xbc232bd2	-0.009959178
156	0xbc6e865f	-0.014558404
157	0xbd44d389	-0.0480533
158	0xbc812213	-0.015763318
159	0xbd3b0430	-0.04565829
160	0x3c4f2024	0.01264194
161	0xbd08b5d6	-0.033376537
162	0x3afe50d0	0.0019402746
163	0xba5e0b9e	-0.0008470359
164	0x3ca966c9	0.020678895
165	0xbc931953	-0.017956411
166	0xbcf03b38	-0.029325113
167	0xbc670825	-0.014101063
168	0x392b4b6e	0.0001633593
169	0xbd118190	-0.03552395
170	0xbcd77295	-0.026299754
171	0x3caf0b06	0.021367561
172	0x3cb4ebe9	0.022085147
173	0xbd3d40de	-0.04620444
174	0xbc4d0987	-0.0125144785
175	0x3c9765f2	0.018481229
176	0xbcf17f54	-0.02947966
177	0xbc3aa669	-0.011392214
178	0x3c7833c6	0.0151490625
179	0xbcf86aa3	-0.030324286
180	0x3cb2738f	0.021783618
181	0xbbfedba4	-0.007777648
182	0x3b8998bd	0.004199116
183	0x3be8ddfa	0.00710654
184	0xbc7b8e7b	-0.015353794
185	0x3c8f290b	0.017475626
186	0x3ca62351	0.020280512
187	0xbcf4cc11	-0.029882463
188	0xbd3acb43	-0.045604
189	0xbc8388e5	-0.016056487
190	0x3b44f91f	0.0030055714
191	0xbcbf939b	-0.023385813
192	0xbc5dd06a	-0.013538459
193	0xbce5ccce	-0.02805176
194	0xbce005c6	-0.027346503
195	0x3c53e953	0.012934047
196	0xbd08b435	-0.033374984
197	0x39bf58ad	0.00036496427
198	0x3c834dfd	0.016028399
199	0xbc943bb2	-0.018094871
200	0xbbff8a94	-0.007798502
201	0x3ca64845	0.020298133
202	0xbd32640c	-0.043552443
203	0xbbfababd	-0.0076516555
204	0xbd0bf8d2	-0.03417284
205	0xbd202059	-0.03909335
206	0x3b0a1081	0.0021066966
207	0x3c48f79d	0.012266067
208	0x3ca783c9	0.020448582
209	0xbcec204e	-0.028823998
210	0x3d0bdfb9	0.034148905
211	0x3c82f8dd	0.015987808
212	0xbc82bfe1	-0.015960636
213	0xbd05d8de	-0.032677524
214	0xbd2acede	-0.04170119
215	0x39b06553	0.00033644828
216	0xbb7439a5	-0.0037265804
217	0xbd385eb7	-0.045012202
218	0x3c81ad2b	0.015829643
219	0xbd114284	-0.035463825
220	0xbcd9cc4e	-0.026586678
221	0xbaf83e26	-0.001893942
222	0x3cb969b5	0.022633413
223	0xbc95e775	-0.018298844
224	0x3ba9adee	0.0051782047
225	0x3d14cdb9	0.036329005
226	0xbc78e2c8	-0.015190788
227	0x3b1294eb	0.0022366594
228	0xbc2df063	-0.010616395
229	0xbba436c1	-0.00501141
230	0xbcee63a0	-0.02910024
231	0xbd34553b	-0.044026595
232	0xbc9a1bc5	-0.01881207
233	0xbc5da683	-0.013528469
234	0x3cfe3e24	0.03103549
235	0x3c840812	0.01611713
236	0xba6a154f	-0.0008929567
237	0xbbc39d61	-0.0059696888
238	0xbd25497d	-0.040353287
239	0x3c59efe9	0.013301828
240	0x3d00f474	0.03148313
241	0xbd3b07e2	-0.045661815
242	0x3bcbe271	0.0062220623
243	0xbd4837a7	-0.0488812
244	0xbce3fb29	-0.027829723
245	0x3abb7e25	0.0014304562
246	0x3be47d76	0.006972964
247	0xbbf3d88f	-0.0074415873
248	0x3c588082	0.013214232
249	0xbc98f312	-0.018670592
250	0xbcc3bd61	-0.023894014
251	0x3babf70a	0.005247955
252	0xbcd8c187	-0.026459469
253	0x3cdf169b	0.027232459
254	0xbc02dc83	-0.007987144
255	0x3cb19102	0.02167559

bias f4 [50]
0	0xbd2efae1	-0.042719726
1	0xbd0d1b42	-0.034449823
2	0x3cc89490	0.024484903
3	0xbc94e357	-0.01817481
4	0xbd05ba8a	-0.0326486
5	0xbc874c76	-0.016515952
6	0x3c1cd638	0.009572558
7	0x3b16e444	0.002302424
8	0xbcee122a	-0.029061396
9	0xbc70ce73	-0.014697659
10	0xbc7d4af8	-0.0154597685
11	0xbd298af6	-0.04139229
12	0x3b9126a9	0.0044296575
13	0x3b28f889	0.0025782904
14	0xbce43144	-0.027855523
15	0xbd0407d7	-0.03223404
16	0xbd01da29	-0.031702194
17	0x3c57e14c	0.013176274
18	0x3abab5f5	0.0014244901
19	0x3b945458	0.004526656
20	0xbc08ab26	-0.008341586
21	0xbd1eadb6	-0.038739882
22	0xbced3f59	-0.02896087
23	0x3c86d41d	0.016458565
24	0x3c826c1e	0.015920695
25	0xbcab0ba8	-0.020879582
26	0x3b31e499	0.0027144311
27	0x3b85c7ac	0.0040826406
28	0xbcb0e0d0	-0.021591574
29	0x3cb48256	0.022034805
30	0xbc944b53	-0.018102324
31	0xbd5205cc	-0.05127506
32	0x3c29af61	0.010356755
33	0xbb5f53a5	-0.0034076956
34	0xbc4a3a4c	-0.012343001
35	0xbc85f25a	-0.016350914
36	0x3c2e67e3	0.010644886
37	0xbcba4afb	-0.022740832
38	0xbd1afc92	-0.037838526
39	0xbd727e04	-0.05920221
40	0xbd23e6f0	-0.04001516
41	0x3abe7e93	0.0014533572
42	0xbd38ca0c	-0.045114562
43	0xbcb1e3fc	-0.021715157
44	0xbd0ecdc4	-0.034864202
45	0xbcd77641	-0.026301505
46	0xbd889d9c	-0.066706866
47	0xbcbf3a5e	-0.023343261
48	0xbd043100	-0.032273293
49	0xbcd6b8b5	-0.026211122

weight f4 [100, 50]
0	0x3d09a6d3	0.03360636
1	0x3d1ed6d1	0.038779084
2	0x3dadd6ec	0.08488259
3	0xbdfe4971	-0.124163516
4	0x3e090142	0.13379386
5	0x3cfbd06e	0.030739035
6	0xbc97d1ec	-0.018532716
7	0x3d63afa2	0.05558742
8	0xbdeb7744	-0.114973575
9	0xbbd2f027	-0.00643732
10	0xbd4f2239	-0.050569747
11	0x3c9b5af7	0.018964274
12	0xbda56da6	-0.080775544
13	0xbcdabfb5	-0.026702741
14	0xbb959b7c	-0.0045656543
15	0x3c9e478c	0.019321226
16	0xbd396b1f	-0.045268174
17	0x3d829d45	0.06377653
18	0xbe11b9f9	-0.14231099
19	0xbd81dc9f	-0.06340908
20	0xbde66933	-0.11250534
21	0xbd8cfe1a	-0.068844035
22	0xbd177d91	-0.036984984
23	0x3d35f748	0.04442528
24	0x3e0cedcb	0.13762586
25	0x3d3b5c45	0.045742292
26	0xbdb2b21e	-0.087253794
27	0x3d08f124	0.033433095
28	0x3cc83f79	0.024444329
29	0xbcc4d2b8	-0.02402626
30	0xbbc7ff42	-0.006103427
31	0x3e134580	0.14381981
32	0xbcea03d3	-0.028566277
33	0xbdcc21d5	-0.099673904
34	0x3db97ad6	0.09056632
35	0x3d85c229	0.06531174
36	0x3c3db1f3	0.011578071
37	0x3c449f28	0.012000836
38	0x3d81cf4f	0.06338369
39	0x3de43dbe	0.11144589
40	0x3dadfcad	0.0849546
41	0xbc0900c4	-0.008361999
42	0xbe035f68	-0.12829363
43	0xbdcd83b2	-0.100348845
44	0x3daba1b7	0.08380454
45	0xbd93065a	-0.07178946
46	0xbd7bbb4d	-0.06145792
47	0xba93f0a2	-0.0011286924
48	0x37e4fd5b	2.7297696e-05
49	0xbdc80804	-0.09767154
50	0xbc80017b	-0.015625706
51	0xbdeee7f7	-0.116653375
52	0x3c9421d4	0.018082537
53	0xbd070312	-0.032961912
54	0x3d830925	0.063982286
55	0x3d1e9dd0	0.03872472
56	0xbe30976d	-0.17245264
57	0x3d46e463	0.04855765
58	0x3deacc76	0.11464779
59	0xbcd5c4e9	-0.02609487
60	0x3db2eb20	0.08736253
61	0xbc8d8b37	-0.017278297
62	0x3cdaf92e	0.026730146
63	0x3c7b9c53	0.015357095
64	0xbd45bedc	-0.04827772
65	0xbd8552d4	-0.06509939
66	0x3e1b7aaa	0.15183511
67	0x3dc676de	0.09690641
68	0xbbacd8db	-0.0052748746
69	0x3d63be79	0.05560157
70	0xbd02f51d	-0.03197204
71	0xbe09b746	-0.1344882
72	0xbc14672f	-0.009057804
73	0x3d96fe46	0.073727176
74	0x3d408c22	0.04700864
75	0x3df9defa	0.122007325
76	0x3aa84108	0.0012836764
77	0x3d027d4b	0.03185777
78	0xbdb28762	-0.087172285
79	0xbd53aae8	-0.05167666
80	0xbd42d0fb	-0.04756258
81	0x3d9a253d	0.07526634
82	0x3d5e566d	0.05428164
83	0x3d95f9fc	0.07323071
84	0xbd661a55	-0.056177456
85	0x3cc466d4	0.023974814
86	0xbdf925bf	-0.121654026
87	0x3cc7591c	0.024334483
88	0x3daa176b	0.08305248
89	0xbd83ac4a	-0.06429346
90	0x3e0db20f	0.13837455
91	0xbc967443	-0.018365985
92	0x3b97aeeb	0.004629006
93	0x3c875c4b	0.0165235
94	0xbd539737	-0.05165788
95	0xbca01979	-0.019543396
96	0xbd0bd65b	-0.034139972
97	0xbd995e6f	-0.07488715
98	0x3caf2081	0.021377804
99	0xbe0469ad	-0.12930937
100	0x3e0bfcc3	0.1367064
101	0x3dcf6f07	0.10128599
102	0xbdaf80af	-0.08569466
103	0xbc9ad644	-0.018900998
104	0xbd81d5c5	-0.063396014
105	0xbd0e3326	-0.034716748
106	0x3c4c43b9	0.012467318
107	0x3dd8ee26	0.10592298
108	0xbdf7bbc3	-0.120963596
109	0xbda318fa	-0.07963748
110	0x3dee6783	0.11640837
111	0x3defcfaa	0.11709531
112	0xbda8c8f2	-0.08241452
113	0xba89eccf	-0.0010522845
114	0x3db722f7	0.08942216
115	0x3caa8556	0.020815533
116	0x3dc91c80	0.09819889
117	0x3d7d6d49	0.0618718
118	0x3dbddaf5	0.09270278
119	0x3b9911a8	0.0046712942
120	0xbc9d48ea	-0.019199807
121	0xbbb03b6a	-0.0053781765
122	0xbd8beb9b	-0.068320476
123	0xbe004ed6	-0.12530074
124	0x3bde845d	0.0067906813
125	0xbc30d13e	-0.010792075
126	0xbdecc2f4	-0.11560622
127	0x3d4aacc1	0.049481157
128	0x3e0d6e0c	0.13811511
129	0x3dc25c33	0.09490242
130	0x3c470221	0.012146504
131	0x3df891d2	0.12137188
132	0x3dd9bd76	0.1063184
133	0x3d672ea2	0.056440957
134	0xbd05e990	-0.032693446
135	0x3dd55e0b	0.10418328
136	0xbdf97ced	-0.12182031
137	0xbe12cf10	-0.143368
138	0xbd99b32d	-0.07504878
139	0x3b0a1585	0.0021069956
140	0xbd4cbd2d	-0.0499851
141	0x3d6eac93	0.05827005
142	0xbcbbba55	-0.022915998
143	0xbe06b4ff	-0.13154982
144	0xbdc4e6f5	-0.09614364
145	0x3d54c34b	0.05194406
146	0x3d3feff4	0.046859697
147	0xbd1884e3	-0.037236106
148	0xbd468613	-0.048467707
149	0x3e1138a6	0.14181766
150	0x3dca22dc	0.0986993
151	0xbc8c4ee5	-0.017127464
152	0xbdf117b6	-0.117721006
153	0xbe0a74df	-0.13521145
154	0xbdaa66a2	-0.08320357
155	0x3e04e9ab	0.12979762
156	0xbde69379	-0.11258597
157	0xbd2bca48	-0.041940957
158	0xbdc7daa6	-0.09758501
159	0x3dc17638	0.094463766
160	0x3db0e692	0.08637728
161	0x3dc4fc08	0.09618384
162	0x3c8648f9	0.016392218
163	0x3d34a15b	0.044099193
164	0x3d4df41f	0.05028164
165	0xbe0878b0	-0.13327289
166	0xbc6e8fcd	-0.014560652
167	0xbc88a558	-0.016680405
168	0x3def578f	0.11686622
169	0xbd6521d6	-0.05594047
170	0x3dbb4c9d	0.09145472
171	0xbd9f6dc5	-0.07784609
172	0xbdd6786f	-0.1047219
173	0x3cb30b4e	0.021855976
174	0xbe145381	-0.14484979
175	0x3d94f41f	0.07273125
176	0xbdfe8246	-0.124271914
177	0x3bbd74b9	0.0057817367
178	0x3e42d707	0.19027339
179	0x3d43e9c7	0.04783037
180	0x3da926fb	0.08259388
181	0x3d5a6ce5	0.053326506
182	0xbdcd5337	-0.100256376
183	0xbde27429	-0.11057312
184	0x3be124f7	0.0068708616
185	0x39f52a03	0.00046761343
186	0x3d03d4d2	0.032185383
187	0x3d0c47ec	0.034248278
188	0x3d3c7b2f	0.046015915
189	0xbc28583d	-0.010274944
190	0x3d7fa3cf	0.06241208
191	0x3d7b0c8e	0.06129127
192	0xbde0b604	-0.10972217
193	0xbcefb131	-0.029259296
194	0x3ca04600	0.019564629
195	0x3debbedb	0.11511012
196	0x3c9d6bb2	0.019216392
197	0x3dfbd6c4	0.12296823
198	0xbc461fb9	-0.012092524
199	0x3d92dc87	0.071709685
200	0xbd03789b	-0.03209744
201	0x3d6f5fff	0.05844116
202	0xbc0e20c1	-0.008674801
203	0xbde01ebb	-0.10943361
204	0x3dad0828	0.08448821
205	0x3d69ce18	0.057081312
206	0xbcf2d8a1	-0.029644312
207	0xbd1da890	-0.03849083
208	0x3ad5439c	0.001627076
209	0xbe048e35	-0.12944873
210	0xbda2c047	-0.0794683
211	0x3d56b557	0.052419033
212	0x3bd556b0	0.006510578
213	0xbd4e12e0	-0.05031097
214	0x3d7f577a	0.062339284
215	0x3d959cab	0.07305273
216	0x3cd298f2	0.025707696
217	0x3d424074	0.04742475
218	0x3d3153b6	0.043292724
219	0x3c1e456d	0.009660107
220	0x3c5f6786	0.013635522
221	0x3dbcd09e	0.09219478
222	0x3da1a951	0.07893623
223	0xbe0089f8	-0.12552631
224	0x3d91fb2c	0.07127985
225	0x3d71cf95	0.059035856
226	0x3e05711f	0.13031434
227	0xbc8b470b	-0.01700165
228	0x3cea5ddc	0.028609209
229	0x3cefd615	0.029276887
230	0xbdae1056	-0.084992096
231	0x3e0ea740	0.13930988
232	0xbe179ba1	-0.14805461
233	0xbd0be919	-0.034157846
234	0x3dce97ea	0.10087569
235	0x3c8bad3c	0.017050378
236	0xbdbf3362	-0.09335972
237	0xbe10f2d4	-0.14155132
238	0x3d8bb8cf	0.06822359
239	0x3dba36b4	0.09092465
240	0x3d2f6016	0.042816244
241	0x3cba5b22	0.022748534
242	0xbde57f7a	-0.11205955
243	0x3c64cb02	0.013964416
244	0x3d369670	0.044577062
245	0x3c2ac109	0.010422
246	0x3d8ac98d	0.06776724
247	0x3ceb54ed	0.02872702
248	0x3c6d361a	0.014478231
249	0x3da2eb02	0.079549804
250	0x3df40199	0.11914367
251	0x3b8d7a0d	0.004317528
252	0x3e1461a3	0.1449037
253	0x3d79e662	0.061010726
254	0x3ca26851	0.019825133
255	0xbc97ed70	-0.018545836

bias f4 [100]
0	0xbd2cf66a	-0.042227186
1	0x3d316831	0.043312255
2	0xbd77df2e	-0.060515575
3	0xbbd1ba82	-0.0064004073
4	0x3d97a9d5	0.0740544
5	0xbd5e175a	-0.05422149
6	0xbce0df6c	-0.027450286
7	0xbd940bbd	-0.072288014
8	0x3da2caa5	0.079488076
9	0x3cd86c23	0.026418751
10	0x3d849c03	0.064750694
11	0x3d7c8c47	0.061657216
12	0x3db3eb42	0.08785106
13	0xbd2336fd	-0.039847363
14	0xbc9f8f6e	-0.019477572
15	0xbd2a6fa7	-0.041610386
16	0xbd413b2e	-0.04717558
17	0xbcacd942	-0.02109969
18	0xbbf4a4d9	-0.0074659404
19	0xbe0e4db0	-0.13896823
20	0xbe11185f	-0.14169453
21	0xbe09ecb0	-0.13469195
22	0xbc7d511a	-0.015461231
23	0xbde082d0	-0.109624505
24	0xbdeed6b1	-0.11662043
25	0x3ce333da	0.027734686
26	0xbe060fac	-0.13091916
27	0xbd837bd9	-0.064201064
28	0xbb9d70bc	-0.0048046988
29	0x3e08ee9d	0.13372274
30	0x3dbe1e4f	0.09283125
31	0xbd2a5c8c	-0.041592166
32	0x3d6424e6	0.05569925
33	0xbd40c554	-0.047063187
34	0x3bb00fd4	0.0053729806
35	0xbd6529dd	-0.055948127
36	0x3d8d6af4	0.06905165
37	0xbdf9dba5	-0.12200097
38	0xbdb731ea	-0.08945067
39	0xbcf1d7aa	-0.029521782
40	0xbdeb9b3a	-0.115042165
41	0xbcaca407	-0.021074308
42	0x3d603103	0.05473424
43	0xbcaa8646	-0.02081598
44	0xbd0829ef	-0.033243116
45	0xbdf7425a	-0.120732024
46	0xbdc864c6	-0.09784846
47	0xbceb5390	-0.02872637
48	0xbc302725	-0.01075152
49	0xbd1aaa5b	-0.03776012
50	0xbde02022	-0.10943629
51	0x3d9ca92b	0.07649454
52	0x3da0b20b	0.07846459
53	0xbd8a0307	-0.06738859
54	0x3d73f5b0	0.059560478
55	0xbda21edb	-0.079160415
56	0xbd0f7242	-0.035021074
57	0x3cbbc712	0.022922073
58	0xbd1f929d	-0.03895818
59	0xbe26a8f6	-0.16275391
60	0xbe1aa057	-0.15100227
61	0xbdb236c2	-0.087018505
62	0x3da6d18e	0.08145438
63	0x3dc1fc37	0.09471934
64	0xbde8001b	-0.11328145
65	0xbdf70d4a	-0.120630816
66	0xbe2f5d51	-0.17125441
67	0xbe0b31bb	-0.1359319
68	0xbca4b90c	-0.020107768
69	0xbc4a5534	-0.012349416
70	0x3d8d18b9	0.06889481
71	0xbdf46158	-0.11932629
72	0xbd433ab8	-0.04766342
73	0xbd3a709d	-0.045517553
74	0x3d89f63d	0.06736419
75	0xbdbb03ec	-0.091316074
76	0x3db65c60	0.08904338
77	0xbe0323d3	-0.12806635
78	0xbdefc77d	-0.11707971
79	0x3d8a77b3	0.06761112
80	0x3cb11b74	0.021619536
81	0xbe086073	-0.13318042
82	0xbc5282e7	-0.012848592
83	0x3d2ee43a	0.042698123
84	0x3d379710	0.0448218
85	0x3d3e608b	0.04647879
86	0xbe3a00ed	-0.18164416
87	0x3e0e14f9	0.13875188
88	0xbd593b39	-0.053034995
89	0x3cc5e963	0.024159139
90	0x3cf23450	0.02956596
91	0xbc8c9f05	-0.01716567
92	0xbc54ad11	-0.012980715
93	0x3e05dd19	0.13072623
94	0xbe2dc868	-0.1697098
95	0x3d929791	0.07157815
96	0xbdd1a869	-0.102372
97	0xbdbfa56a	-0.09357722
98	0xbad5b6a2	-0.0016305039
99	0xbd90ce37	-0.07070582

weight f4 [10, 100]
0	0xbd4c230b	-0.049838107
1	0xbc5df757	-0.01354774
2	0x3d8037e9	0.06260664
3	0x3d3f666b	0.046728533
4	0xbc0b88cd	-0.008516503
5	0xbcb2e82d	-0.021839226
6	0x3d41de55	0.047331173
7	0xbdabbea0	-0.08385968
8	0xbdba6b92	-0.09102549
9	0xbdbf2555	-0.093332924
10	0xbd9a756e	-0.07541929
11	0x3dacd822	0.084396616
12	0xbdcee877	-0.10102933
13	0x3db17973	0.08665743
14	0xbacf47cb	-0.0015814243
15	0xbd5fa88a	-0.05460409
16	0x3d848d5a	0.06472273
17	0xbd0fbe26	-0.03509345
18	0x3d7a1402	0.061054237
19	0xbe0b2e90	-0.13591981
20	0xbca20589	-0.01977803
21	0xbd8172d8	-0.06320733
22	0xbdfdac92	-0.12386431
23	0xbd69cca9	-0.057079945
24	0xbb7bba43	-0.0038410581
25	0x3d8b8259	0.06811971
26	0x3b700006	0.0036621108
27	0xbd2a1857	-0.04152712
28	0x3cc390f7	0.023872836
29	0xbb8eb2ba	-0.004354802
30	0xbd82fe10	-0.06396115
31	0x3d77ee50	0.060530007
32	0xbdac4f77	-0.08413594
33	0xbc0ab0cf	-0.008465006
34	0x3cf57cce	0.029966738
35	0x3ae005a1	0.0017091521
36	0xbd041378	-0.03224513
37	0x3d836093	0.064149044
38	0xbc980a6f	-0.018559663
39	0x3dc0e95b	0.09419509
40	0x3da5d0c3	0.08096459
41	0xbd2bddc8	-0.041959554
42	0x3cd48465	0.025942037
43	0xbd30ba3d	-0.04314636
44	0x3d62c58b	0.055364173
45	0xbb75b988	-0.0037494618
46	0x3d9c3c8a	0.076287344
47	0x3d026ba4	0.031840935
48	0xbcf6b4e8	-0.03011556
49	0xbbaf9ff8	-0.005359646
50	0xbe35c562	-0.17751077
51	0xbd8eb997	-0.06968992
52	0x3d37f698	0.044912905
53	0xbce9ef83	-0.02855659
54	0xbdc7e836	-0.097610876
55	0x3c7ddaef	0.015494092
56	0x3d782439	0.06058142
57	0xbdb27c15	-0.08715073
58	0xbcd2d886	-0.025738012
59	0xbd703855	-0.058647472
60	0xbd47a859	-0.048744533
61	0xbd04bf6b	-0.032409113
62	0x3d2eb23b	0.042650443
63	0x3d1711c0	0.036882162
64	0x3d0b5074	0.034012273
65	0x3c65b82f	0.014020964
66	0x3c8b33d9	0.016992496
67	0xbdc88a91	-0.097920544
68	0x3cd7d569	0.02634688
69	0x3d9dc188	0.07702929
70	0xbd91a6f9	-0.07111926
71	0xbcec490e	-0.028843429
72	0xbd4caf44	-0.049971834
73	0x3dca343b	0.098732434
74	0xbc1df0eb	-0.009639959
75	0xbdeac0c2	-0.11462547
76	0xbdd01da1	-0.10161901
77	0xbd617677	-0.055044618
78	0xbd12dc57	-0.035854664
79	0x3c6f5f18	0.014610074
80	0xbdc37ecc	-0.09545669
81	0xbd9f4b8a	-0.0777808
82	0x3dc2fdbd	0.09521053
83	0xbe02fba6	-0.12791309
84	0xbb5e5e1e	-0.003393061
85	0x3d4cab42	0.04996801
86	0xbcd48227	-0.025940968
87	0xbbe6262a	-0.0070235925
88	0x3d5c4da4	0.05378498
89	0xbdb3e6ec	-0.08784279
90	0xbdaaaf3f	-0.08334207
91	0xbd8a5ba5	-0.06755761
92	0xbd6625da	-0.05618844
93	0xbd9fda48	-0.07805306
94	0x3c7d1e03	0.01544905
95	0xbcd0aa7e	-0.025471922
96	0xbc0e573b	-0.00868779
97	0xbd017e13	-0.031614374
98	0xbd428fdd	-0.04750048
99	0xbdad28b7	-0.08455031
100	0x3d2defd0	0.04246503
101	0xbd14bce7	-0.036312964
102	0xbc23196e	-0.009954793
103	0xbd9e1b09	-0.0772
104	0xbd88f1fc	-0.0668678
105	0x3d0157d7	0.03157791
106	0x3da08f41	0.078398235
107	0xbcb33e93	-0.021880424
108	0xbca46d2d	-0.02007159
109	0x3c595c7a	0.013266677
110	0xbb212966	-0.0024591326
111	0xbdb5d74b	-0.088789545
112	0x3d1e509f	0.038651105
113	0x3d96d555	0.073649086
114	0x3ce50870	0.027958125
115	0x3d0bcbc4	0.034129873
116	0xbae71be3	-0.0017632212
117	0x3bc6f1f5	0.006071324
118	0xbdb6bcb3	-0.0892271
119	0x3d06a1e9	0.032869253
120	0xbd878267	-0.06616669
121	0x3d0e7be0	0.034786105
122	0xbd808111	-0.062746175
123	0xbe065d52	-0.13121536
124	0xbc26e788	-0.010187037
125	0xbc8f5593	-0.01749686
126	0x3c87f271	0.016595097
127	0x3c4e4a83	0.012591007
128	0x3aed93ee	0.0018125752
129	0x3b94aeee	0.004537455
130	0x3c56883a	0.013094002
131	0xbd82f8d1	-0.06395114
132	0x3cbf4734	0.023349382
133	0xbda6bac0	-0.081410885
134	0x3c094db7	0.008380345
135	0x3c14a4f5	0.009072532
136	0x3d6720fd	0.056427944
137	0x3d1d8322	0.038455136
138	0xbc05a050	-0.008155897
139	0xbd8ffa3d	-0.07030151
140	0x3caf5a0c	0.021405242
141	0x3bc0ef41	0.0058878963
142	0xbdb6f46a	-0.08933337
143	0x3da0daeb	0.07854255
144	0x3cdc90ca	0.02692451
145	0x3d650bc5	0.055919427
146	0xbc3cf70d	-0.011533511
147	0xbd4a7e7a	-0.049437024
148	0xbd5e10b1	-0.054215137
149	0xbda2dbe4	-0.07952097
150	0xbcb85e8e	-0.022506025
151	0xbdd3ac6f	-0.103356235
152	0xbc87447e	-0.016512152
153	0xbd90f20b	-0.07077416
154	0x3c49ea3c	0.012323912
155	0xbdefe9b9	-0.11714501
156	0xbd12787a	-0.035759427
157	0x3d3febe0	0.046855807
158	0xbda6dee6	-0.08147983
159	0xbde921c4	-0.113833934
160	0x3d0fff33	0.035155486
161	0xbba47980	-0.0050193667
162	0xbd40e129	-0.04708973
163	0xbcffc0c4	-0.031219848
164	0x3d31c00d	0.043396045
165	0x3d878f80	0.06619167
166	0x3d17ee50	0.037092507
167	0x3d5b7f5e	0.053588264
168	0x3d96e2db	0.07367488
169	0xbcabb395	-0.020959655
170	0x3a32f0a9	0.0006826022
171	0x3d9e556b	0.07731136
172	0x3cb40ebc	0.021979682
173	0xbe025ea4	-0.12731415
174	0x3d30d1c5	0.0431688
175	0xbd5de927	-0.05417743
176	0xbba6a0aa	-0.0050850706
177	0x3c8aa956	0.016926449
178	0xbcd7e2c5	-0.02635325
179	0xbd87d592	-0.06632532
180	0x3ae6cc10	0.0017608423
181	0xbd8917ae	-0.0669397
182	0xbd65b48e	-0.056080393
183	0x3d01a1dd	0.031648505
184	0x3cc33206	0.023827564
185	0xbd974a3e	-0.073872074
186	0xbe4a6fd3	-0.1976922
187	0xbdb6b9c3	-0.0892215
188	0x3d919cca	0.07109983
189	0x3cc5525b	0.024087122
190	0xbd96042a	-0.07325013
191	0x3d3251d5	0.043535072
192	0xbd74c9ee	-0.059762888
193	0xbdcdb0e7	-0.10043507
194	0xbd9d2ecd	-0.07674942
195	0xbd4ad726	-0.049521588
196	0xbdb3dfcc	-0.0878292
197	0x3cf5650a	0.029955406
198	0xbd035b0d	-0.032069255
199	0xbdc2879b	-0.09498521
200	0xbc24f087	-0.010067112
201	0x3d4cbdc7	0.049985673
202	0x3d72f306	0.059313796
203	0x3c850c09	0.01624109
204	0xbc2dcd31	-0.0106080035
205	0xbd2f6339	-0.042819235
206	0xbd9c1697	-0.07621496
207	0xbda6c725	-0.081434526
208	0x3d8e5178	0.06949133
209	0x3d879d07	0.066217475
210	0x3d9a8579	0.07544989
211	0xbcd8307c	-0.026390307
212	0xbd79455d	-0.060857166
213	0xbd9685a9	-0.073497124
214	0x3d5d58be	0.05403971
215	0xbcb084bd	-0.02154767
216	0xbde7e4f2	-0.11322965
217	0xbd92029c	-0.07129404
218	0xbc576adc	-0.013148036
219	0x3c935d22	0.017988745
220	0xbe00e943	-0.12588982
221	0xbd7d0977	-0.061776605
222	0x3d7b1622	0.061300404
223	0x3dd31025	0.10305814
224	0xbdb7c3ca	-0.08972891
225	0x3c119085	0.008884554
226	0x3d9748c7	0.07386928
227	0xbc71323c	-0.014721449
228	0x3d8de607	0.0692864
229	0x3dc9d607	0.098552756
230	0x3d7b7107	0.06138709
231	0x3d8ea25d	0.06964562
232	0xbbfd080c	-0.0077219065
233	0x3d72006c	0.059082434
234	0x3c2b5feb	0.01045988
235	0xbd9cac2a	-0.07650025
236	0xbc69a279	-0.014259928
237	0xbb682552	-0.0035422635
238	0x3da64a4a	0.08119638
239	0x3d2eded8	0.04269299
240	0xbcd882ee	-0.02642962
241	0xbd4e261e	-0.05032932
242	0xbd89e465	-0.06733016
243	0xbcd31553	-0.025767004
244	0x3c551a01	0.013006688
245	0x3d7b5d61	0.06136835
246	0x3da0cefe	0.078519806
247	0x3c1a1305	0.009403949
248	0xbd93bc84	-0.07213691
249	0xbd03f874	-0.032219365
250	0x3d00ccda	0.03144536
251	0x3bafb133	0.0053617
252	0x3d2d0a36	0.042246066
253	0xbcea4824	-0.028598852
254	0x3cce94d0	0.025217444
255	0xbcd91388	-0.026498571

bias f4 [10]
0	0x3d8e2a9c	0.06941721
1	0x3d9cbe02	0.076534286
2	0xbd408385	-0.047000427
3	0xbd4d40e6	-0.05011072
4	0xbd231270	-0.039812505
5	0x3d6eae19	0.0582715
6	0x3cc5e736	0.024158102
7	0x3b64f427	0.0034935565
8	0xbd2c6de8	-0.042097002
9	0x3da1fefd	0.07909963
