Project_1/Part3/checkpoints/dnn_0_1.pth (torch, 638559 bytes, 4 tensors)

weight f4 [200, 784]
00000000: dc24 c33a f368 80bc 7fa8 003d 976a a9bc
00000010: ea54 abbc 93df fdbb 3a89 94bc a165 bcbc
00000020: c3d6 c23c cae3 be3b 8a70 b33b aace 0ebd
00000030: f193 f2bc 959e c8bc 97ec 99bc acde b33c
00000040: d7fa 96bc 9175 ef3c f3a2 8abc d39b 46bc
00000050: 1773 bf3c cc1a a5bc f7d8 58bc b3a3 00bc
00000060: 73f6 913c 3ae4 e7bc 2aab e53c 5a47 cc3c
00000070: acc1 08bd 8518 ec3c 7a75 ee3c 17bb ca3c
00000080: 4a88 d8bb 2503 113a bc42 ebbc 5e80 bdbc
00000090: 5a59 e63c aa28 4b3c cae0 2abb 186c bd3c
000000a0: 8d3f b83c 1801 d53c ac50 0dbd 6f1d 73bc
000000b0: a5f6 f3bc ae8d 89bc 7e5b b9bc 0c12 1abb
000000c0: 73e6 24bc 2ea9 98bc 5a86 933c 25d2 dabc
000000d0: b7a5 3eba b8a1 dcbc 8cd2 d53c 2706 8d3c
000000e0: d36b 133c ca8f 23bb a5fa ef3c c5b0 3dbc
000000f0: 4ced 693c 0242 28bc 463e e4bc b3a2 5e3c
00000100: 904f 28bc e3ea a1bc 2833 933c 0741 023d
00000110: 6cab 5d3c 6d5b 023c eccf c7bb c257 92bc
00000120: a613 023c a610 52bd 00a0 033c cf66 c53c
00000130: 32ed debc 04b7 4a3d 56aa 4f3c 13de 4f3d
00000140: 1eb3 ddbc 59a7 ba3c 9c9f 00bd e140 6a3c
00000150: c035 0ebc 1cdf ddbc d229 98bc 1e76 133d
00000160: baba d03c 83cc 413d eaf7 a1bb 42b1 eebc
00000170: bf43 a23c 1701 053d 9405 c63b fff7 0cbd
00000180: 2e4a 0bbd 210c f4b9 2b47 a1bc 60f6 e9bb
00000190: 027d 73bb 9630 203c 68da d13c be43 adbc
000001a0: 238a 3b39 d3fd e83c 88ca 2a3d 65c9 8a3c
000001b0: 5543 073d 7093 c13c 25ba 39bb ac2a acbc
000001c0: 4a5d 0cbd d795 8abc 0fe9 1e3d 3b7f bd3c
000001d0: 054d 613b d331 16bd 9117 42bc 17b5 523c
000001e0: 0a22 3abd 238d 1c3c 6771 95bc 2c78 293d
000001f0: cbec 6e3c ef5e bfbc 5738 f93c bbfd f63c
00000200: 6d1f 003d 8d91 6ebb b97c 98bc 0c1d c73c
00000210: 8c8b 9fbc 5222 2c3d df10 1abc f85e 6cbc
00000220: 65f4 b4bb df16 3bbb dc9c 7f3c 2d15 313c
00000230: 03e1 e8bc ec11 fe3c e8f4 01bc fb7e a3bb
00000240: 7ead f33c 93c3 debc f6a3 45bc d855 1abd
00000250: 7a44 1abd 4438 a0bb 9982 f63c c139 613a
00000260: b34a 373c 42b4 733b ab52 08bc 6134 c5bc
00000270: 0ddc d4bb 8a94 753b 034c c0bc b5ff 003c
00000280: cacd 34bb 6589 893c 7e3b 9abc da15 60bd
00000290: 0edd 04bd a864 4f3d 465f 2d3d 0a65 4fbc
000002a0: 93d7 5bbb b5d2 c43c a17f 113c d92e 35bc
000002b0: 6e51 08bc d6e0 55bb d446 bdbc 7dac bb3c
000002c0: 470a 183c 28ab 5c3c 7bae 45bc 4252 1abd
000002d0: 5f26 243b e43e 3fbd 5dc8 6cbb 9fbe 33bc
000002e0: f3e8 9c3c ec6a ad3b 69e6 e53c 1adf a13c
000002f0: fd19 b33b 17d0 c13c f64f 0bbb e4c8 09bc
00000300: ce91 ebbb 63ca 123c 9a79 44bc 0109 753c
00000310: e58a 093c 8c18 a0bc 983e 00bc fdbf 293d
00000320: 7404 f83b eb64 3e3c 0178 5b3c 513d 6b3c
00000330: c705 13bc fcc1 bdbc 72e1 5339 d779 473b
00000340: 3803 643c 33ce 84bc 8ac3 b73c cb31 c4ba
00000350: f431 0b3b daac 6d3c 7c7f 42bb 17da 43bc
00000360: 2277 0fbb d11d c0bc b0cb 033b e75e cc3c
00000370: 919f 2c3c 862f 2ebd a0f9 d33c 4a80 3ebb
00000380: 6557 77bc c217 773b 5dac b3bc cbe7 593c
00000390: c5ae 90bc fabb f0bc e0f3 fe3b de89 b03c
000003a0: 1bec 1abc 6eac cbbc 605b f639 f97a 14bc
000003b0: 31be 0dbd 28c0 2ebd c716 803c 4d2e 39bd
000003c0: 93ec c2bc 4d3e 20bb 6283 24bc 17f9 f9bc
000003d0: 61da bebc 0c54 1abd fe23 c23b 7fb7 a93b
000003e0: 1043 30bd a8c1 6bbc c819 f6bc bb24 36bc
000003f0: 8398 e6bc 2623 aeba 10c3 01bc 173f 873d
0.0014888304 -0.015675044 0.03141069 -0.020680709 -0.020914514 -0.0077475994 -0.018131841 -0.02299768
0.023784047 0.0058254944 0.005476062 -0.03486506 -0.02961156 -0.02448968 -0.018789573 0.021956764
-0.018430157 0.029230865 -0.016923403 -0.012122112 0.023370309 -0.02015438 -0.013235322 -0.007851529
0.017817711 -0.02830707 0.028035719 0.024936367 -0.033387825 0.028820286 0.029108752 0.024747415
-0.006608044 0.00055317796 -0.028718345 -0.0231325 0.028118778 0.012399832 -0.0026073926 0.023122832
0.02249124 0.026001498 -0.034500763 -0.0148385605 -0.029780695 -0.016791191 -0.022626635 -0.0023509292
-0.010064709 -0.018635359 0.0180084 -0.026711533 -0.0007272618 -0.026932582 0.026101373 0.017214848
0.008997875 -0.002495753 0.029294321 -0.01157779 0.014277767 -0.010269644 -0.027861726 0.013588595
-0.010272875 -0.019765323 0.01796873 0.031800296 0.01352964 0.007956368 -0.0060977843 -0.017864112
0.007939255 -0.05128541 0.008033752 0.024096875 -0.027212713 0.049490944 0.012674889 0.050748896
-0.027062949 0.022784876 -0.031402215 0.014297695 -0.008679807 -0.027083926 -0.018574629 0.036001317
0.025479663 0.04731418 -0.0049428837 -0.029137257 0.019807694 0.032471742 0.0060431454 -0.034416195
-0.03400629 -0.00046548343 -0.019687256 -0.007139966 -0.0037153368 0.009777209 0.02561684 -0.021150466
0.0001788517 0.028441345 0.041697055 0.016941736 0.033023197 0.023629874 -0.002833971 -0.021016441
-0.034268655 -0.016917152 0.03879648 0.023131957 0.0034378183 -0.03666861 -0.011846439 0.012860558
-0.04544262 0.009555134 -0.018242551 0.04137437 0.014582823 -0.023360698 0.030422373 0.030150285
0.03127997 -0.0036402673 -0.01861416 0.024305843 -0.01947572 0.042024918 -0.009403436 -0.014426939
-0.005522298 -0.0028547568 0.015601363 0.010808271 -0.028427606 0.031014405 -0.007931925 -0.0049895025
0.029745813 -0.027192866 -0.012063017 -0.037679523 -0.03766296 -0.00488952 0.03009157 0.0008591675
0.011187243 0.00371863 -0.008320491 -0.024072828 -0.0064959587 0.003747257 -0.023473745 0.007873465
-0.002758848 0.016789148 -0.018827196 -0.05470834 -0.032437377 0.050633103 0.042327188 -0.012658367
-0.003354524 0.024026254 0.008880527 -0.011058533 -0.008320196 -0.0032635233 -0.023105063 0.022909397
0.009279794 0.013468541 -0.012065525 -0.037676103 0.0025047285 -0.046690837 -0.0036130168 -0.010970741
0.019154048 0.005292287 0.02806397 0.019759703 0.0054657445 0.023658795 -0.0021257377 -0.008409712
-0.007189012 0.008959386 -0.011991883 0.01495576 0.008394931 -0.019542955 -0.0078274235 0.04144286
0.00756889 0.01162074 0.01339531 0.014357881 -0.008973545 -0.023163788 0.00020206513 0.0030437612
0.013916783 -0.016211605 0.022432107 -0.0014968453 0.0021239491 0.014506543 -0.0029678037 -0.011953852
-0.0021891077 -0.023451718 0.002011042 0.024947597 0.0105360905 -0.04252579 0.025875866 -0.0029068165
-0.01509652 0.003770337 -0.021932775 0.013299893 -0.017661462 -0.02938651 0.007780537 0.021550115
-0.009455706 -0.024862494 0.00046988856 -0.009062522 -0.03460521 -0.042663723 0.015635861 -0.04521017
-0.023794448 -0.0024451197 -0.01004109 -0.030514283 -0.02329749 -0.03767781 0.0059247008 0.005179345
-0.043032706 -0.014389433 -0.03004159 -0.011117156 -0.028148895 -0.0013285622 -0.007920042 0.0660383

bias f4 [200]
00000000: a2a1 1e3b 8e34 9bbb f064 453c 28b0 41bd
00000010: 4d02 7e3c bf1e c4bb 7817 0abc b593 6abc
00000020: 1d34 e33c 1e09 503c daf8 48bd 4045 9fbc
00000030: 3329 56bd b86c ebbb ae38 49bd 4e35 613c
00000040: efb5 0fbd 45d3 733b 4003 a9bc af90 57bd
00000050: b775 ae3c 897c 30bd 25f2 2cbd 3dac 1abd
00000060: 6dbd 9bbc dade f4bc b9f3 0dbd 5abe 01bc
00000070: 0558 11bd 4ad2 29bd 8083 74bc 0948 12bd
00000080: b45d 02bd fc8a 88bc 51d7 9bbc bf27 3ebd
00000090: a37a d8bc 7bd6 0bbd b62b a73c a6f4 76bc
000000a0: 098d 42bd 5ad1 cb3b e617 3bbd f617 10bd
000000b0: 9782 16bd b468 bbbc 58f4 3ebd 0b24 16bd
000000c0: 6575 ffbc 4807 31bd 2d1b 15bb 5f6d 8dbc
000000d0: eaf7 a4bc f8d3 62bd b442 36bd 5587 23bc
000000e0: 7f3c 04bc 860a ebbc c6ba 1ebc dc64 92bc
000000f0: b272 3cbd 46b1 ddbc af71 483c 3941 1dbd
00000100: dac1 09bd 9522 5bbd 657b aa3c f0c0 7c3c
00000110: d10e 0cbb 6e10 62bd 9a64 0139 5f3c 25bd
00000120: 0cef 09bd 8b27 483c e168 0e3c 8e70 82bc
00000130: 23ba 20bd 5867 1cbd 24fe d2bb 7194 70bb
00000140: cf2c 3f39 eb6f 71bc af65 873c 9b55 15bd
00000150: 48c1 44bb a641 cfbc 60d2 8bbc 672b 52bd
00000160: 16cc a23c 58df 1bbd 38ab a4bd 8903 07bd
00000170: 4156 b1bc 0742 63bd 96d1 5f3c f9cd 8c3b
00000180: 51b5 cdbc 0082 2abd 5c47 3ebd c21f 98bc
00000190: 16f3 f6bc ba8f 17bd 5e7a e9bc c3bd b5bc
000001a0: f4e4 7cbb 1d1e 8ebc 546a 33bd 975c babc
000001b0: c124 903b 5507 45bd bbc0 85ba 8e95 0bbd
000001c0: 1473 23bd db51 0cb9 3ff8 093c 77a7 9bbc
000001d0: 479e bebc b008 48bb 5083 45bc 05d3 a0bb
000001e0: 3b59 1fbd ab21 873c 2394 90bc fcc9 cebc
000001f0: 8a29 acbc fe7b f03b 4791 f1bc 5b2f 04bd
00000200: 23a8 51bc 4fd3 753b 3aff ac39 2d20 13bd
00000210: 655b 49bd 2cb2 ebbc 0302 1ebd fabd 78bc
00000220: 20df e3bc 8e33 27bd de6e 5fbd 781c 1bbc
00000230: cf0e b2bb 924a e83a 221b b6bc b6a4 34bd
00000240: 542b 32bd f450 93bc d8e4 51bd e20c 24bd
00000250: cd8b 7f3c 0e3e 423c ba1d 60bc a0b1 00bd
00000260: 7362 803c 079d 203c 721f 903b 8c1e 3abd
00000270: 3fdb f23b 906b 41bc 459c f6bc 36ac 43bd
00000280: 8fd5 f93b 00e3 e73b 09d1 07ba 9a2f 413c
00000290: 9965 50bc e8ba 5dbd 14a3 b539 c0ad 09bd
000002a0: af8a d23b 2ae4 a53b a5ab 25bd add7 56bd
000002b0: 6784 463b ff71 b2bc 0a3d febc d06b 18bd
000002c0: caab 10bd e5a5 42bc 990f 9bbb 7a2a 33bd
000002d0: c905 f03b 7f8a 29b9 1e8b b0bb 8eaf 2ebd
000002e0: 5d1c fb3b 8c0f c5bc fb96 383c 7500 a7bc
000002f0: ea29 213c 94fd 46bd d2be d6bc 7a93 89bb
00000300: 7134 85bc 5634 a1bb 3286 00bd 262a 023c
00000310: 98a0 163c aef1 e5bc 4aca 923c 1176 66b8
0.0024205227 -0.0047364896 0.012047991 -0.047287136 0.015503478 -0.0059851105 -0.008428447 -0.014317443
0.02773481 0.012697486 -0.04906545 -0.0194422 -0.052285384 -0.007184591 -0.04912632 0.013745619
-0.035085615 0.0037204784 -0.020631433 -0.052628215 0.021296365 -0.043087516 -0.042223115 -0.037761915
-0.019011224 -0.02989142 -0.03465626 -0.0079189185 -0.035484333 -0.041460313 -0.01492393 -0.03571323
-0.031827644 -0.016667835 -0.01902357 -0.046424624 -0.026425665 -0.03414009 0.020406585 -0.015072977
-0.047497783 0.006220025 -0.04567709 -0.0351791 -0.036745634 -0.022877075 -0.046619743 -0.036655467
-0.031183908 -0.043219835 -0.0022751794 -0.017264066 -0.020137746 -0.05537793 -0.044497207 -0.009980996
-0.008071064 -0.028691541 -0.009688085 -0.01787036 -0.04600782 -0.02706207 0.0122341355 -0.03839228
-0.033632137 -0.053499777 0.020810792 0.015426859 -0.0021371136 -0.05519145 0.00012339876 -0.040340777
-0.03367524 0.012216459 0.008691997 -0.01592281 -0.039240014 -0.038184494 -0.0064389873 -0.0036709572
0.00018231872 -0.014736156 0.016527979 -0.036458593 -0.0030022431 -0.025299858 -0.017068088 -0.051310923
0.019872706 -0.038054794 -0.0804047 -0.032962356 -0.021647574 -0.05548289 0.013660809 0.004297015
-0.025110872 -0.041627884 -0.046454772 -0.01856983 -0.03014521 -0.037002303 -0.028500732 -0.022185212
-0.0038588615 -0.017348344 -0.043802574 -0.022749228 0.0043989127 -0.048102695 -0.0010204533 -0.034078173
-0.03990467 -0.00013381934 0.008421003 -0.019000752 -0.023268832 -0.0030522756 -0.012055233 -0.004907968
-0.038903456 0.016495546 -0.017648762 -0.025242798 -0.021015901 0.007339 -0.029488219 -0.032271724
-0.012796435 0.0037509983 0.00032996555 -0.035919357 -0.049159426 -0.028771482 -0.038576137 -0.015182013
-0.027816355 -0.04082065 -0.05454909 -0.009467237 -0.005433894 0.0017722419 -0.022229735 -0.044102393
-0.043498352 -0.017982937 -0.051243633 -0.04005135 0.015597296 0.011855615 -0.013678962 -0.031419396
0.015671944 0.009803063 0.00439828 -0.045439288 0.00741139 -0.01180543 -0.030103812 -0.047771655
0.007624335 0.007076621 -0.000518099 0.011791134 -0.012719535 -0.054133326 0.00034644513 -0.033612967
0.006425224 0.0050625997 -0.040446896 -0.05245178 0.003029132 -0.021782873 -0.031034965 -0.037212193
-0.03532008 -0.011880373 -0.004732084 -0.04374168 0.0073249084 -0.0001616869 -0.005387678 -0.04264789
0.0076632933 -0.024055265 0.011266465 -0.02038596 0.009836653 -0.048581675 -0.026214037 -0.004198489
-0.016260358 -0.004919569 -0.03137798 0.007944619 0.009193562 -0.028069343 0.017918725 -5.494623e-05

weight f4 [10, 200]
00000000: 41c9 7b3c 0bec 49bd 01a6 cebc 76d2 aebc
00000010: 18b5 e1bb c4db 80bb 0832 dbbc b1e6 dbbb
00000020: a28b 86bd d15a 8ebd 9721 ed3c fbb4 47bc
00000030: 72b3 3bbd dbc6 4b3d 507d 1c3d e45c 423d
00000040: ddb8 3fbd 1c87 04bd b158 b2bc 9238 f5bd
00000050: 89c7 16bd 545c 3b3a 05a9 2f3d 2fbe 4a3c
00000060: d9d8 043d d5fc bf3c 697b 163d 2f73 1c3c
00000070: 236c 933c b247 993c ad5a 7b3b 3e69 90bc
00000080: cb40 b83b 7ac0 afbd 7c31 21bd ae14 fabc
00000090: 39ff 973c 2c70 9a3d eb6c 343d 18de b13a
000000a0: 75f2 583d 8167 22bd fe54 703d 65e9 423d
000000b0: baa2 583a 9096 b73c 0b24 91bd 523e 483b
000000c0: 9166 7d3d f7ee 19bd 82d0 d73c 4119 77bd
000000d0: e065 863d 1fe2 2abc ce54 563d cc42 9abd
000000e0: 9c99 f83c ccf3 dc3c 2e03 953d 3d2b 983c
000000f0: a4c4 063d 42c2 c7bc e1a4 db3c 97ea 3b3c
00000100: eb5f 0e3c 49b0 2e3d 5eb8 15bd d08a 2ebc
00000110: 8e46 5c3d 8513 483d 3b5f 323d 570a 84bd
00000120: 9102 23bd 6f50 1b3d 7f52 76bd 65b2 9f3c
00000130: 8bd1 743c 2c6c 34bd 4a16 7bbd 52a9 b03c
00000140: e350 183d 6e2c 673d 0495 57bd d78a 21bc
00000150: 613d 0fbd 713d 533d 2942 953c fcc2 77bd
00000160: 2230 55bd 5d14 df3c 2a1b a6bd eb1a 1a3c
00000170: 1823 ac3c 12b5 e93c a2b9 0d3c bca2 61bd
00000180: 374e 4abd 474e 3ebc 10e8 68bd 1451 993c
00000190: 34d4 97bc bdd2 6d3d d651 913c e819 c4bc
000001a0: edea 9bbd 5ed9 9bbb 8d86 303c 54c6 ec39
000001b0: 0043 99bd d1d1 5d3c 0a68 8fbc db80 e8bb
000001c0: 067d 0ebd 22a3 4b3c f81e dd3c 6a92 18bc
000001d0: 6731 583c d326 c23c 81ae fb3c 5602 8abb
000001e0: a4a1 a5bc 3262 1bbb 5085 2b3c 8f13 59bc
000001f0: 57b2 d6bc 60da e9bc def0 2d3d 20cd 133a
00000200: 1ec1 413c f226 49bb dfdc 05bd f36a bd3c
00000210: 1f88 5fbd fb8f b3bc 6a7c 573d f6c3 8b3d
00000220: f4ea 6abd 0914 803c 372e 7ebd 3743 efbc
00000230: 2cf0 9bbb dd26 b23c 2b30 7cbd 3370 a73b
00000240: 4b31 47bd 16ea c73b adb2 ec3c fede d4bc
00000250: ce73 4dbd d942 5abd 7333 393d 4a54 fcbb
00000260: 655f e8bc 4a04 80bd dcff e63c f3b6 60bd
00000270: 27f5 bcba 9c2b be39 5886 ad3b ad58 e2bb
00000280: d4c0 c4bb 9d9a 313d 3ae0 0dbc df58 14bb
00000290: 309e 023c 765f 8c3c cd45 51bd faa5 e9bc
000002a0: e838 363d 286b debc 7fa3 9c3c 47de 853c
000002b0: d939 bc3d 528d 373d ab6a a63b 446f 143b
000002c0: dff4 493d df01 b9bd 50cb 703d afb9 643d
000002d0: 5a73 163a 7949 c43c 50f9 89bd fbde 913c
000002e0: f8f5 27bd 6f75 40bc decf b53c a218 673d
000002f0: f7e6 41bd 207e 823d 0981 59bd 8102 81bd
00000300: 7ecd 1cbd 6f9d 1bbd 9d67 d0bc c044 5d3c
00000310: d1aa a5bd 2324 06bd da6f 6bbd 6506 a4bb
00000320: a892 46bd 7215 993c 3d70 36bd 4d08 5a3b
00000330: e534 45bd 40c4 d0bc 6050 0a3d a6ce 693b
00000340: 02ba 9ebc 4cff 19bc d348 43bd cdf5 8c3c
00000350: c7b7 a4bc d177 b83b 9f53 62bd a903 113d
00000360: 774c 2c3d 6cca 183b b8c2 863d cf5d 86bb
00000370: 1737 d1bb eb0e 123d cd1b ca3c 96e6 473d
00000380: 5b94 5c3c 4e38 b33c 65b7 4e3c df37 933d
00000390: 8a30 00bd 88a0 313d d2f4 263d 0f60 67bd
000003a0: 38f2 dd3b 586e 20bd d7b2 a03c 6dc6 8bbc
000003b0: c9a7 f9bc e3c4 fcb8 2905 2d3d 3fa8 043c
000003c0: e0c1 4a3d 8940 353b 7245 24bd 1553 a03c
000003d0: 9743 313c 9646 283d d20c 84bd 7226 2bbd
000003e0: 5003 88bd 1431 13bd 4c7e a53b 81fd 1c3b
000003f0: 5017 0cbc f19e 6dbd a279 54bc cd93 af3c
0.015367807 -0.049297374 -0.025225641 -0.02134059 -0.006888043 -0.003932448 -0.026757255 -0.00671085
-0.065696016 -0.069509156 0.028946681 -0.012189145 -0.04582543 0.04975019 0.038205445 0.04745187
-0.04680716 -0.032355413 -0.021770807 -0.119736806 -0.036811385 0.0007147242 0.0428858 0.012374445
0.032433365 0.02343599 0.036738787 0.009548946 0.0179959 0.018710945 0.0038353608 -0.017628308
0.0056229583 -0.08581634 -0.039353833 -0.030527439 0.018554317 0.07540926 0.044049185 0.0013570217
0.0529656 -0.03964949 0.058674805 0.047585864 0.0008263994 0.022410661 -0.07086953 0.0030554724
0.061865393 -0.03758141 0.026344541 -0.06032682 0.065624 -0.010429888 0.05232697 -0.07532272
0.030346684 0.02697172 0.07275997 0.018575305 0.032902375 -0.024384622 0.026812019 0.011469505
0.008689861 0.042648587 -0.03655278 -0.010653213 0.053778224 0.04884674 0.04354785 -0.06447285
-0.03979737 0.037918504 -0.06013727 0.019494245 0.014942537 -0.044048473 -0.061300553 0.021565113
0.037186515 0.056438856 -0.052632347 -0.009859762 -0.034970645 0.051572267 0.018220024 -0.060488686
-0.052047856 0.02723139 -0.0811065 0.009405832 0.021012828 0.028528724 0.008650215 -0.055086836
-0.049390998 -0.011615342 -0.056861937 0.018715419 -0.018533804 0.058062304 0.017739218 -0.023938134
-0.07613168 -0.004756137 0.010774267 0.00045161194 -0.07483482 0.013538794 -0.017505664 -0.007095439
-0.0347872 0.012429031 0.026992306 -0.009312252 0.013195372 0.023700153 0.030722858 -0.0042117042
-0.020218678 -0.0023709652 0.010468796 -0.013249292 -0.026208086 -0.028546512 0.042466037 0.0005638171
0.011825828 -0.003069338 -0.032681342 0.023122286 -0.054573175 -0.021919241 0.052608885 0.06824486
-0.057352975 0.015634554 -0.062055793 -0.029206855 -0.0047588553 0.021747047 -0.061569374 0.0051098107
-0.048630994 0.0061009033 0.028893793 -0.025985237 -0.050159268 -0.053286407 0.04521508 -0.0077004777
-0.0283658 -0.06250818 0.028198175 -0.054861974 -0.0014416323 0.00036272116 0.005295556 -0.0069075436
-0.006004432 0.04336034 -0.008659417 -0.002263598 0.007972285 0.017135363 -0.051091958 -0.028521527
0.044487864 -0.027150705 0.01912093 0.016341342 0.09190721 0.044812508 0.005078634 0.0022649327
0.049305793 -0.0903356 0.058787644 0.055841144 0.00057392346 0.023960816 -0.06737006 0.01780652
-0.04100606 -0.011746748 0.022193845 0.056419976 -0.047339406 0.06371713 -0.053101573 -0.06299306
-0.03828191 -0.037991937 -0.025440032 0.013505161 -0.08089221 -0.032749306 -0.057479717 -0.005005645
-0.048479706 0.018686984 -0.044540633 0.0033269108 -0.048146147 -0.025484204 0.033768058 0.003567615
-0.019375805 -0.009399246 -0.047676872 0.01720705 -0.020107163 0.0056295176 -0.05525553 0.03540388
0.04206511 0.0023314012 0.065801084 -0.0041005383 -0.006384741 0.035658758 0.02467146 0.04880389
0.013463105 0.021877434 0.012616967 0.07188391 -0.03129629 0.043365985 0.040760823 -0.056488093
0.0067732595 -0.039167732 0.019616527 -0.01706239 -0.030475514 -0.000120529694 0.04224125 0.008096754
0.0495013 0.0027656874 -0.04010529 0.019570867 0.010819337 0.04108294 -0.06447758 -0.04178471
-0.06641257 -0.035935476 0.005050456 0.002395481 -0.00855048 -0.058012906 -0.012968453 0.021432782

bias f4 [10]
00000000: 68bc c13c 3c33 58b9 e6c1 a43c 0d63 3e3d
00000010: 4e27 4e3c f64f 073d 11a3 e53c 9ed8 dc3c
00000020: 6a0f 5b3a 1443 b23c
0.02364941 -0.00020618452 0.02011199 0.04648118 0.012582613 0.03303524 0.028031858 0.02695876
0.0008356484 0.021760501
