Project_1/Part2/checkpoints/cnn_1_2.pth (torch, 910831 bytes, 16 tensors)

weight f4 [32, 3, 4, 4]
000000 d0 c2 0d be 74 97 da bd 04 68 a0 bd c0 d7 83 3d
       -0.13843846 -0.10673419 -0.078323394 0.064376354
000010 6a f8 9b bb 0c a1 92 3d cf 9a 00 3e 7d cf ed 3d
       -0.004759838 0.071596235 0.12559055 0.11611841
000020 fc df 12 3b bc 2c ac bd a6 32 b7 3c 9e 97 04 3e
       0.0022411337 -0.0840697 0.022363018 0.12948462
000030 5e 9f 44 bd cf f2 8e 3d a5 5d 5a 3c 19 1a 9e 3d
       -0.048003547 0.06979906 0.013327991 0.077198215
000040 98 16 71 3d 1a 23 36 3e de b1 1e 3e cd 00 d3 3d
       0.058859438 0.17786828 0.15497538 0.10302887
000050 46 3a 5d be 2c 02 8f 3d e6 2e a7 3b c5 e2 a7 bd
       -0.21604261 0.06982836 0.0051020263 -0.0819755
000060 00 71 2d be ef fa f5 bd 2f 80 ca 3d 31 12 b2 3d
       -0.16937637 -0.120107524 0.0988773 0.08694876
000070 38 61 49 be 67 e8 10 be bc 8b a5 bd 3f 65 74 bd
       -0.19665992 -0.14151154 -0.08083293 -0.05966687
000080 2b 97 7f bc 83 6a c5 bc 2d 69 48 3e b3 66 30 bd
       -0.015600006 -0.02409864 0.19571371 -0.04306669
000090 b7 23 ee bd c7 5c af bd 53 cc fb 3d 71 68 6d bd
       -0.11627906 -0.08562618 0.12294831 -0.05796093
0000a0 b9 56 78 bd 0e 65 ae 3d 95 ef d1 3d 71 a0 ce 3b
       -0.06062958 0.085153684 0.10250775 0.006305747
0000b0 41 97 7f bd 57 8d 02 3c 94 8e 18 3c da 29 f5 3c
       -0.062400106 0.007968268 0.009311337 0.029927183
0000c0 a8 26 09 3d 7d 0b a1 3d 63 a5 03 bd 9e 4b c8 3d
       0.03348413 0.07863519 -0.032140147 0.09780048
0000d0 a1 fe d2 bb 3d 4b 1f be 13 f4 5d 3d 6e 36 01 3e
       -0.0064390455 -0.15556045 0.054187845 0.1261842
0000e0 4d dc fc 3a 27 2f c1 3d f2 90 1e 3e 26 46 fb bd
       0.0019291729 0.09432822 0.1548498 -0.12269239
0000f0 4a 6c b3 3d 6e 58 01 3e d8 01 e2 bd 5f a1 15 be
       0.08760889 0.1263139 -0.11035508 -0.1461234
000100 c1 91 ad bc 22 cb b8 bd 7a 2e ed bd b7 80 71 bd
       -0.021187665 -0.090231195 -0.1158113 -0.058960643
000110 89 64 ca bd 18 dc a9 bd 54 58 07 3e a0 3a 62 3e
       -0.09882457 -0.08293933 0.13217288 0.22092676
000120 8a 47 1d 3d f3 dc 61 bd a6 5d 29 3d 4f cc 17 bd
       0.038398303 -0.055142354 0.041349076 -0.03706008
000130 9d 90 0e 3c a3 58 d4 3d 91 c9 30 3d 2f c3 80 be
       0.008701471 0.103684686 0.04316098 -0.25148913
000140 76 a1 f0 bd c3 e1 63 3d 62 3d e6 bd 13 5f d0 3d
       -0.11749546 0.055635225 -0.112421766 0.10174384
000150 5b 30 53 be 6e 96 00 be 7a 00 1b 3d 5a 4a 01 3e
       -0.20623915 -0.12557384 0.03784225 0.12626019
000160 2e d5 e8 bd 6d 19 12 3d 1b e4 dc 3d 09 76 1c 3e
       -0.11368786 0.03566878 0.10785695 0.15279402
000170 97 ce 43 3e 86 c7 4f 3e 50 ff c8 bb 56 f9 bf bd
       0.19121777 0.20290956 -0.0061339512 -0.09373729
000180 3a f7 20 bc 24 14 5e bd 7a 73 72 3d c7 2c b3 3b
       -0.009824568 -0.054218426 0.05919216 0.0054679844
000190 a0 04 d8 3c 0a 65 31 bc fa ce 2e 3c 6f 80 87 3d
       0.026369393 -0.010827312 0.010669464 0.06616294
0001a0 41 73 88 3c fe 8f 7c 3d f2 27 05 be 71 67 ac bd
       0.01665652 0.06166076 -0.13003519 -0.084181674
0001b0 34 12 da 3d 2c 0a 87 ba dd d5 73 3d d5 3b 36 be
       0.10648003 -0.0010302714 0.059530128 -0.17796262
0001c0 00 56 10 3e 42 f4 9c bd ba f0 5e 3d 91 2b 81 bd
       0.14095306 -0.07663776 0.054428793 -0.06307138
0001d0 9c 87 7b 3d 8d 90 47 3d 4a e9 ea bd 9a 0a d3 bd
       0.061408624 0.04872184 -0.114702776 -0.103047565
0001e0 97 ac 12 3e 4d 57 87 3d e5 2a f9 bd 27 f3 24 be
       0.1432365 0.06608448 -0.121663846 -0.1610838
0001f0 e0 90 fe 3d b0 9a 16 3e df d2 c9 bd de 23 d8 3b
       0.124299765 0.14707446 -0.098546736 0.0065960726
000200 3f c2 df 3c a0 14 6d bd f9 fe 1c bc 68 ad 84 bd
       0.027314303 -0.057880998 -0.009582275 -0.06478387
000210 22 e2 a0 3d c7 c2 0a 3e 9a 34 e3 bd a9 2d 1a be
       0.078556314 0.13550864 -0.11094017 -0.1505648
000220 67 a9 2d 3e 7e 6b 66 bd 10 76 a6 3c 2c 21 20 bc
       0.16959153 -0.056254856 0.020319968 -0.009773534
000230 49 ea 17 3d 56 e8 ff 3d 17 f3 fa bd 34 ee 0f be
       0.037088666 0.124954864 -0.12253397 -0.14055711
000240 16 b8 90 bd ae e8 8c 3c 5e 4a 57 be 09 95 30 3d
       -0.070663616 0.017200794 -0.21024463 0.04311088
000250 c0 22 bf bd e2 ff 02 3e 81 02 38 be 08 45 15 3d
       -0.093328 0.12792924 -0.17969705 0.036442786
000260 a1 76 c2 bd cb 53 5e bd 0f ff 81 bd e7 18 0c 3e
       -0.09495283 -0.05427913 -0.06347477 0.13681374
000270 06 89 08 3e 67 91 0d 3d 6b dc 81 3d 0c 83 9d 3d
       0.1333352 0.034562495 0.063408695 0.07691011
000280 ff db b5 3d 2d 64 5a bd 1e 75 ee bd ab 9b 9f 3d
       0.088798515 -0.05331819 -0.11643432 0.07793363
000290 68 7c 9a 3d 55 7c d2 3d 12 f5 d4 bd f3 97 20 3e
       0.0754326 0.10277621 -0.10398306 0.15682964
0002a0 77 5f 4c 3d c8 44 61 3d 22 98 f0 bd 25 d5 82 3d
       0.04989573 0.054997236 -0.11747767 0.0638831
0002b0 d9 30 d9 bd 42 54 54 3b 76 3e 3a be 32 e1 bf bd
       -0.1060502 0.0032398854 -0.1818789 -0.093691245
0002c0 18 e4 06 bd c6 96 15 3e 57 dd 1f 3d 68 82 c1 bc
       -0.03293237 0.14608297 0.039029445 -0.023621753
0002d0 3d 02 f6 bc 54 4a 85 3d d1 07 0f be 31 f0 9d 3d
       -0.030030364 0.065083176 -0.13967825 0.077118285
0002e0 b8 dc a6 3d 10 bf 3b 3e 53 b7 7e bd 32 b1 44 3c
       0.081475675 0.18334603 -0.06218655 0.012005137
0002f0 5b 03 95 bd fd fa 89 3d dc d9 78 be 65 01 d0 3d
       -0.07276031 0.06737325 -0.24301857 0.10156516
000300 71 43 e1 bc 7d b4 df bd fa 0a e8 bd 20 e6 e3 3b
       -0.027497979 -0.10923097 -0.113302186 0.0069549233
000310 9d 5e c4 3c 11 00 11 be f4 7b a9 bd db e6 12 be
       0.023970896 -0.14160182 -0.08275595 -0.14345877
000320 26 48 8e bd 6f b5 f2 bd b5 e5 66 3d 51 8a ce 3d
       -0.06947355 -0.11851012 0.05637141 0.100849755
000330 3e 58 03 3e 7b 98 8f 3d a9 0d b0 bd f3 3d 3b 3e
       0.1282663 0.07011505 -0.085963555 0.1828535
000340 21 6d 29 be a2 66 b4 bd 8a 41 3d bd 80 4a dd bd
       -0.16545536 -0.08808638 -0.04620508 -0.10805225
000350 1b 94 5b be 39 b9 ae bd 81 b9 39 bd 8c 60 99 3c
       -0.21443217 -0.08531422 -0.045342926 0.018722795
000360 29 fe 1d be 5e 47 db bc e7 d0 d6 3c 16 a2 be 3b
       -0.15428986 -0.026767429 0.02622266 0.005817662
000370 8b d9 ae 3d 19 aa 88 3d 31 36 44 3e c6 f2 1d 3e
       0.08537587 0.066730686 0.19161297 0.15424642
000380 25 5d d1 bd 33 09 9f 3b 99 00 fe 3c 20 e5 f1 3d
       -0.10222844 0.0048533916 0.031006144 0.1181128
000390 6e e3 56 3d ac 7b 7f 3d dc 97 0b be b4 f2 63 3d
       0.052462988 0.062373802 -0.13632149 0.05565138
0003a0 8a 58 85 bc 0f b9 cc bb 5f 39 9a 3d 83 73 24 3c
       -0.01627757 -0.0062476466 0.07530474 0.010037306
0003b0 03 5e c0 bd 67 74 2b 3e 29 02 0f 3e fa 2e 85 3d
       -0.09392931 0.16743623 0.13965668 0.06503101
0003c0 da 4c 29 3e 19 1d 01 bd ec 82 c0 bd 13 df ea 3d
       0.16533223 -0.03152189 -0.09399971 0.11468329
0003d0 a5 cb ea 3d fb 07 12 3e ed 26 16 be 04 01 de 3d
       0.11464623 0.14260857 -0.14663287 0.108400375
0003e0 84 f3 3a 3e 74 0b 47 bc 02 8c f9 bd bb ac 87 bd
       0.18256956 -0.012148727 -0.121849075 -0.066247426
0003f0 79 2b d4 3d ea 2a a6 3d 99 f2 41 bd 73 bb 7a bb
       0.10359854 0.08113654 -0.0473505 -0.00382587

bias f4 [32]
000000 55 8c f3 3d 01 90 86 bc f8 bb 15 3e 32 02 87 bd
       0.118920006 -0.016426088 0.14622486 -0.065922156
000010 88 b8 65 3d 9f fd 7a 3d 14 bc 61 3c c7 fe b2 3c
       0.056084186 0.06127703 0.0137777515 0.021850003
000020 22 ef d9 3d 61 08 74 bd 9f 55 ea 3a 85 8f 14 3d
       0.10641314 -0.059578303 0.00178783 0.036269683
000030 69 56 ac bd 4d 44 a8 3d ce 91 be 3d 8e 69 1a bc
       -0.08414919 0.08216152 0.09305154 -0.00942458
000040 b8 86 88 3c fa 92 35 be 72 51 7c 3c 73 db 24 bd
       0.016665801 -0.17731848 0.015400277 -0.040248346
000050 de 4f cf bc 5d a2 0e bd f8 42 4e 3c e6 b0 2a 3e
       -0.025306638 -0.03482281 0.012589209 0.16669044
000060 28 04 af 3d e3 e1 94 bc c0 c2 e9 bb 49 25 d2 bd
       0.085457146 -0.018174117 -0.0071338117 -0.10261018
000070 59 a7 a4 3d 47 6f 75 bc 4c 66 f7 3d e8 3d 31 3c
       0.080397315 -0.014980144 0.120800585 0.010817982

weight f4 [32]
000000 1e af 7b 3f cb 1f 74 3f 29 b0 8b 3f c3 34 80 3f
       0.9831408 0.9536101 1.0913135 1.0016102
000010 ca 45 5d 3f dc 98 85 3f 6a e6 6e 3f 28 d2 7d 3f
       0.86434615 1.0437274 0.93320334 0.991488
000020 cb 79 85 3f 52 c0 68 3f 14 66 76 3f 3e ec 86 3f
       1.0427793 0.9091846 0.9624951 1.0540845
000030 5c 27 64 3f 8b 75 51 3f ad 2f 73 3f 9e dc 84 3f
       0.8912256 0.8181998 0.9499462 1.0379827
000040 e8 82 72 3f 01 5f 86 3f 88 21 8d 3f 6a 5c 67 3f
       0.94731 1.0497743 1.1025858 0.9037539
000050 74 f5 72 3f 3f ec 90 3f 58 c6 69 3f 01 36 93 3f
       0.9490578 1.1322097 0.91318274 1.1500856
000060 0d 67 6e 3f 08 d3 86 3f 52 6d 80 3f db 23 6d 3f
       0.93125993 1.0533152 1.0033362 0.92632836
000070 fd 8c 5b 3f ef c8 4e 3f 0b ba 75 3f b9 1c 8a 3f
       0.85762006 0.8077535 0.95987004 1.0790015

bias f4 [32]
000000 8c 05 e9 bd 01 9b 1a be 55 91 08 be d7 15 5b bd
       -0.11378011 -0.15098192 -0.1333669 -0.053487625
000010 d7 14 a5 be 38 f6 71 3d 63 83 7b be 23 b4 9c bd
       -0.32242462 0.059072703 -0.24561839 -0.07651546
000020 59 b1 35 be 1f e7 34 be 02 0b 97 bd 8d 5f b7 bd
       -0.17743434 -0.1766629 -0.073751464 -0.08953772
000030 82 5e 7b be 83 84 52 be 75 b3 41 be 81 24 99 bc
       -0.2454777 -0.20558362 -0.18916114 -0.018694164
000040 f5 c3 51 be fc b2 ba bd 82 50 6d 3d ab aa 40 be
       -0.20484908 -0.0911617 0.057938106 -0.18815105
000050 21 25 5b bd b0 86 22 bd a6 e4 86 3d 5a 21 98 bd
       -0.053502206 -0.03967923 0.0658658 -0.07428236
000060 c6 82 58 be 6e 69 ba bc c2 f2 7d 3d f1 12 fa bd
       -0.21143636 -0.02275535 0.06199909 -0.12210644
000070 a0 de 94 be da 4f 88 be af c6 86 3b 18 cd 99 bd
       -0.290761 -0.26623422 0.0041130404 -0.07509822

running_mean f4 [32]
000000 ae 3e f6 3d 54 4e 2c bd 35 5c 1f 3e 69 79 97 bd
       0.12023674 -0.042066887 0.15562518 -0.07396204
000010 53 fb dc 3c d3 db 43 3d ba f5 a5 3d f8 6f 0a 3d
       0.02697531 0.047817063 0.08103509 0.033798188
000020 0e d8 ad 3d 08 1d 1d be 09 e5 5e bc 77 68 21 3d
       0.08488475 -0.15343106 -0.013604411 0.039406266
000030 10 4b 60 bd f3 6c 46 bc c1 2c 00 3e a8 11 83 bc
       -0.054759085 -0.012110936 0.12517072 -0.01599963
000040 dc 3f ab 3a 0c b1 34 be fa 33 2b 3d ab e5 0a bd
       0.0013065296 -0.17645663 0.041797616 -0.033910435
000050 ee 4e 25 bd 9c 5e 17 bd b8 7c 05 bd 5b e7 2e 3e
       -0.040358476 -0.03695546 -0.032589644 0.17080443
000060 9c 4c 86 3d c2 20 93 bc f8 36 e0 bd 09 3a c9 bd
       0.06557581 -0.017959956 -0.109479845 -0.098255225
000070 b4 a5 c6 3d 56 18 07 be 25 91 20 3e 24 f3 47 3c
       0.09699574 -0.13192877 0.15680368 0.012203965

running_var f4 [32]
000000 6a 22 b6 3d cd 9d 8f 3d 27 1b f2 3d 43 16 98 3c
       0.08893283 0.0701252 0.11821585 0.018565303
000010 8d b4 32 3e 4a 98 51 3d 39 36 ba 3d 6d a8 13 3e
       0.17451687 0.051170625 0.090923734 0.14419718
000020 74 93 3c 3e f3 8d 2f 3e 1f de d8 3c f2 ad d4 3d
       0.18415624 0.17143993 0.026473103 0.1038474
000030 3c 47 b3 3e 4b 14 d8 3e 93 f3 e4 3d 62 83 c5 3c
       0.35015285 0.42202982 0.111792706 0.0241105
000040 dd 88 7f 3d eb e7 63 3c 54 0c 27 3d de 8e bb 3c
       0.062386382 0.013910274 0.04078324 0.022895273
000050 89 d9 e4 3d 9d 56 8a 3d 3e c6 79 3d e3 17 13 3d
       0.11174304 0.067548014 0.060980074 0.035911452
000060 2f 7d 37 3d 83 f8 d6 3c a9 ab 33 3e e2 35 cc 3d
       0.04479712 0.026241546 0.17545952 0.09971215
000070 9a b1 2d 3d ca 9a fd 3e 5d 9c 8f 3d 19 7d af 3c
       0.042405702 0.49532157 0.07012246 0.021421956

weight f4 [32, 32, 4, 4]
000000 45 c5 7c bc d4 7b ea bc e4 19 9b 3d f0 26 59 3b
       -0.015427892 -0.028623499 0.075732976 0.003313478
000010 0a e9 31 bd 8e cd 80 bd 79 00 bc 3c cb 32 22 3d
       -0.043435134 -0.062892064 0.022949444 0.03959922
000020 37 e6 fc bb 90 ef 90 bc 3d 3f 17 3b 02 31 d5 b9
       -0.0077178734 -0.017692357 0.0023078464 -0.0004066304
000030 77 25 5a 3d 22 f8 f9 3b fe 62 28 bd 42 e1 c2 bc
       0.053258386 0.0076284567 -0.04111003 -0.023789052
000040 0e 46 ad 3d fb f4 bc 3d 18 2e 66 bd 9a af 4e bd
       0.084606275 0.09226414 -0.056196302 -0.050460435
000050 25 1a 29 3d f9 84 6f bc c2 43 90 bd 34 68 ce bd
       0.0412847 -0.0146191055 -0.07044174 -0.10078469
000060 b0 78 29 3d 4d 17 95 bd 09 11 54 bd c6 45 ce bc
       0.041374862 -0.07279835 -0.05177406 -0.025179755
000070 48 fc 96 bd 68 eb d2 bd bb 5e 88 bc 3f d1 ef bc
       -0.073723376 -0.102988064 -0.016646734 -0.029274581
000080 02 d8 0e 3c a8 67 84 3c 21 4d 21 bd cc 43 86 3c
       0.008718492 0.016162708 -0.039380196 0.01638975
000090 21 de 91 3d ea 2b ac 3c ff a1 a8 bc bf 67 c0 bc
       0.07122446 0.021017034 -0.020585058 -0.02348697
0000a0 23 95 c4 3d 8d 3d 71 3d 9d ff a8 3c dc f3 cb 3c
       0.09598758 0.05889659 0.020629698 0.024896555
0000b0 2a 4b c9 3d 59 b3 fa 3d 35 c6 a4 3c ba e3 9e bd
       0.098287895 0.12241239 0.020114044 -0.07758279
0000c0 80 aa 57 bb bd 3e a9 bc ca 60 5a bd ef de f9 bc
       -0.0032908022 -0.020659799 -0.05331496 -0.03050181
0000d0 25 89 4d 3d af 0d d9 bc 93 7c b5 bd 0b 95 89 bd
       0.05017962 -0.026495783 -0.08861651 -0.06717881
0000e0 86 f0 ff 3c 27 5f c5 bd 74 8e 6f bd 88 6a 62 bd
       0.03124262 -0.096372895 -0.058485463 -0.055277377
0000f0 9f 1a 76 3d 11 d2 54 3b e2 cc da bb 5c 51 9f bd
       0.06008398 0.0032473842 -0.006677256 -0.0777919
000100 6d 9d 35 3d 42 b4 de 3c 02 37 04 3d 90 70 6c bc
       0.044339586 0.027185563 0.032279022 -0.014431134
000110 ca 52 bf 3d 15 98 98 3b f8 7e 2f bd 6d 66 28 bc
       0.09341963 0.0046568015 -0.042845696 -0.010278326
000120 22 19 d6 3b 79 2b b2 3b e4 60 af 3c 1d 72 0c bc
       0.006533758 0.0054373113 0.021408506 -0.008572129
000130 59 5e 24 bd cd 0a 9b bd e3 f0 b9 bc 39 90 e3 3b
       -0.04012904 -0.075704195 -0.022697872 0.006944683
000140 4e 01 12 3d 68 ea a1 3d 10 4d e7 3d 71 4b d0 3c
       0.035645775 0.079060376 0.112939954 0.025426598
000150 4f fa c5 3d f7 af 35 3d ef a8 64 3c bb 78 26 3d
       0.09666883 0.044357266 0.0139562925 0.04064248
000160 05 b9 78 3d 87 57 ce 3c 6a bc 89 bc fd 30 d1 3c
       0.060723323 0.02518822 -0.016813476 0.025536055
000170 9f 90 2f 3d 2f 67 d7 3c 61 4b 09 3c 8f 32 33 be
       0.04286253 0.026294319 0.008379788 -0.17499755
000180 8e 59 5c bd a7 f5 9d 3d 33 b7 d0 3d 1d b7 54 3b
       -0.053796344 0.0771287 0.101911925 0.0032457777
000190 0b 42 e7 bd c1 05 1e 3c c2 39 41 3d 68 c8 d7 3b
       -0.112918936 0.0096449265 0.047174223 0.0065851696
0001a0 6e 3f 6a bd 10 4b d0 3c 84 9e cc 3c e7 e2 35 bd
       -0.057189398 0.025426418 0.02497793 -0.044405844
0001b0 c1 0b 3b bd 46 33 31 3d 1d 67 7d bc 05 62 8f 3d
       -0.045665506 0.04326179 -0.015466479 0.070011176
0001c0 c7 62 a0 bb 3a ef 91 3b 8e ec 60 3d b9 98 54 bb
       -0.0048945877 0.004453567 0.054913096 -0.0032439663
0001d0 17 2f 6f 3d 92 00 13 3d ac 6f 60 bc 95 5d 82 bd
       0.058394518 0.035889216 -0.0136985 -0.063655056
0001e0 85 83 41 3d 3c 47 6a 3d 1f 43 f7 bc 77 15 27 bc
       0.047244567 0.05719684 -0.030183373 -0.010197989
0001f0 c7 af 02 bd 6c 6a f0 bc 4d d9 19 3d d6 a5 d1 3c
       -0.031905916 -0.02934762 0.03756075 0.025591772
000200 ea 99 a2 bd 28 e9 53 bd a5 c4 af 3d 4f 73 a4 3d
       -0.07939513 -0.051736027 0.08582429 0.08029806
000210 1e 15 7d bd 37 4c 19 bd 7c 05 33 3c 0b c5 06 3d
       -0.061787717 -0.0374262 0.010926601 0.03290276
000220 af 03 53 bd 08 8c 16 bd f8 e3 73 3c 6a 66 0e 3d
       -0.051517185 -0.036754638 0.014885895 0.03476564
000230 30 23 06 3d 69 a6 43 bd 28 47 fa bc 11 0a 3f 3d
       0.0327484 -0.047766123 -0.030551508 0.04664046
000240 d9 88 94 3d 1d ed 7c bc 71 b5 5c bc e1 31 5e bd
       0.07252664 -0.015437392 -0.013470993 -0.054246787
000250 08 6d e5 3d 0f c7 2f bc aa 28 69 bc 7e c0 0a bd
       0.11202437 -0.010728612 -0.0142308865 -0.03387498
000260 49 38 93 3d 8d a7 a4 bd 67 17 93 bd e3 17 be 3c
       0.0718847 -0.0803977 -0.07182198 0.02320475
000270 81 9f 43 bb c7 2e 8b bd 6a d9 fb bc 13 03 19 3c
       -0.002984971 -0.067960314 -0.03074332 0.009339112
000280 cf f5 a9 3b 01 9f 83 3d c5 8d b3 3d 26 df 6f 3d
       0.0051867734 0.06426812 0.08767275 0.05856242
000290 52 9d 49 bd b7 3b d3 3c 1f 45 0c 3c b5 17 9f bc
       -0.049222298 0.02578531 0.008561402 -0.019420484
0002a0 1f dc 9a bb 3a 8d b3 bd 22 47 5f ba b1 13 97 bc
       -0.0047259475 -0.08767171 -0.00085173745 -0.018442007
0002b0 db 17 cb bd 1d 18 02 be 76 ed d7 bc 70 ca 78 3c
       -0.099166594 -0.12704511 -0.026358347 0.015184984
0002c0 d4 d6 1e 3d 00 22 2e bc ce b3 81 3d c5 94 4a 3d
       0.038779095 -0.010628223 0.06333123 0.049458284
0002d0 97 24 80 3d 46 61 60 3d f2 af 49 3d 90 bf 88 3c
       0.06256979 0.054780267 0.04924006 0.016692907
0002e0 dd ae ad 3d e4 c9 8b 3d ca 9d a3 3b d6 a8 e7 3c
       0.08480618 0.06825617 0.004993175 0.02827875
0002f0 05 0c 5f 3d 22 36 97 3c bc 9d ca bb 85 db 70 bd
       0.054454822 0.01845843 -0.006183354 -0.0588031
000300 f4 a3 cf bc 3e 10 45 bd f2 78 ab bd e3 cf 6b bd
       -0.025346734 -0.048111193 -0.08372678 -0.057571303
000310 cf 84 52 bc 37 38 fb bd 61 94 2d be d4 60 c0 bd
       -0.012849047 -0.122665815 -0.16951133 -0.093934685
000320 e3 70 39 bb 1d b4 e9 bd 05 cf 12 be 7c c1 c0 bd
       -0.0028296045 -0.11411307 -0.14336784 -0.09411904
000330 5e 35 a5 bc 3d 78 aa 39 e4 85 32 bd c0 a3 76 bd
       -0.020167049 0.0003251451 -0.04358472 -0.060214758
000340 9f f9 be 3c e2 fc ca bc 60 0f e1 bc 83 f6 8c bd
       0.023312388 -0.024778787 -0.027473152 -0.06882956
000350 87 4c 71 3d d6 a0 89 bc 91 53 94 3c a4 d1 3e bd
       0.058910873 -0.016800325 0.018106254 -0.046586648
000360 7d 70 62 bb f4 81 e2 bc 67 ad df bb a2 b0 67 bd
       -0.0034551912 -0.027649857 -0.006826091 -0.056564935
000370 65 53 5d bd 38 9d 73 bd 00 77 04 bd 7a d0 71 bd
       -0.05403461 -0.059476107 -0.03234005 -0.05903671
000380 5e 18 d6 3d d8 36 00 3d 96 dd 23 bd a8 5b 72 bd
       0.104538664 0.031302303 -0.040006243 -0.05916944
000390 7c cf e9 3d 2c a2 12 3d 84 5a d4 bd 36 45 83 bc
       0.11416528 0.03579919 -0.10368827 -0.016024213
0003a0 da ff 6b 3d 53 4b 68 3b b7 ca 8a 3c e6 77 88 3c
       0.057617046 0.0035445287 0.016942365 0.016658735
0003b0 64 a2 db ba 6c 00 e1 bc b6 9b cc bc 06 9d b2 bd
       -0.001675677 -0.027466021 -0.024976593 -0.08721356
0003c0 f4 9b 48 bd 4d 43 35 bd f1 b1 52 bd 2f 89 f8 bc
       -0.048976853 -0.044253636 -0.05143923 -0.030338852
0003d0 85 7f ff bc 94 a9 1e be d6 cf b8 bd 98 07 5b bd
       -0.031188736 -0.15494376 -0.090240166 -0.05347404
0003e0 2e 2e a1 bd 8d 61 01 be da 5d 06 bd 23 7c 8a 3c
       -0.07870136 -0.12634869 -0.032804348 0.016904896
0003f0 23 bb 38 bd 6f fc 84 bd 62 4e 97 3c 75 87 21 3d
       -0.045100342 -0.064934604 0.018469993 0.039435823

bias f4 [32]
000000 0a 72 f2 bc 87 23 08 bd 71 b4 9c 3c b7 0f 2a bd
       -0.029595394 -0.033237007 0.01912901 -0.041518893
000010 7d 4f f7 bc de 62 89 bd e5 6e 80 3c 13 57 7f bd
       -0.03018927 -0.067083105 0.015677879 -0.0623389
000020 31 8c 72 3c 8c c0 88 bc a3 5f a5 bc bc 73 22 bd
       0.014803932 -0.016693376 -0.020187205 -0.039661154
000030 51 d4 42 39 b3 3f 2a 3d 75 f8 3d bd 54 38 5f bd
       0.00018580376 0.041564655 -0.046379525 -0.054497078
000040 55 a4 fb bc 88 41 e2 bc eb 0e 4f bd 6c 05 84 bc
       -0.030718008 -0.027619138 -0.050551336 -0.016115867
000050 0f dd 20 bd b0 98 59 3d fe e1 e2 bc b3 e6 bf bb
       -0.039273318 0.05312413 -0.027695652 -0.005856359
000060 e4 ee 85 bd 0e 2f db bc 90 61 0a bd 60 2b 58 bd
       -0.065397054 -0.026755836 -0.03378445 -0.05277574
000070 3b 9b 12 3d b7 09 17 bd 75 c1 19 3c dd 3b 8c bc
       0.03579257 -0.0368745 0.009384503 -0.017118389

weight f4 [32]
000000 b5 d9 82 3f 21 36 86 3f 20 c3 86 3f ad 21 77 3f
       1.0222689 1.0485269 1.0528297 0.9653576
000010 0e 0e 77 3f 06 98 68 3f fd 0d 90 3f 62 d2 87 3f
       0.9650582 0.9085697 1.1254269 1.0611079
000020 ee 04 7e 3f e2 42 76 3f 3c 90 79 3f dd da 7a 3f
       0.9922627 0.96195805 0.9748571 0.9799021
000030 b8 9c 7a 3f 7a 56 6a 3f 4d 63 64 3f b7 b4 61 3f
       0.97895384 0.915382 0.8921402 0.88166374
000040 38 0d 77 3f f5 5d 6b 3f 50 6a 78 3f a6 32 77 3f
       0.96504545 0.9194024 0.9703722 0.9656166
000050 da a9 80 3f ec 0b 6b 3f c6 18 6e 3f 65 35 76 3f
       1.0051835 0.91815066 0.9300655 0.96175224
000060 56 f6 84 3f 3a e4 84 3f 28 d4 80 3f e3 ea 64 3f
       1.0387676 1.0382149 1.0064745 0.8942091
000070 c8 a6 83 3f 3a 8f 82 3f e4 9d 80 3f 97 84 78 3f
       1.0285273 1.0199959 1.0048184 0.97077316

bias f4 [32]
000000 11 fc 06 be de 06 41 be 0c 39 f8 bd 2a 8f 8b be
       -0.13182093 -0.18850276 -0.12120256 -0.27257663
000010 60 55 47 be fa 98 01 be 5f 81 11 be 88 15 89 be
       -0.19466162 -0.12656012 -0.14209507 -0.2677424
000020 e3 af d8 bd 27 0a 88 bd 15 f3 44 be 90 8e 6b be
       -0.10580423 -0.066425614 -0.19233353 -0.23003602
000030 ca cc 26 be 5d ad 5a be 13 f8 73 be 6b b2 00 be
       -0.16289058 -0.21355195 -0.23825102 -0.12568061
000040 db b3 ef bd c8 83 41 be 9f 3f 7a be 83 7f 09 be
       -0.117042266 -0.18897927 -0.24438332 -0.13427548
000050 1a f7 58 be 57 b8 2a be 16 55 0c be 36 3a fe bd
       -0.21188012 -0.16671883 -0.13704333 -0.124134466
000060 82 dd 1b be 3a 28 4c be 3b cc 53 be 18 bd 72 be
       -0.15221217 -0.1993722 -0.20683376 -0.23704946
000070 00 62 44 be c5 ef 06 be a1 f4 36 be 46 f8 b9 bd
       -0.19178009 -0.13177402 -0.17866756 -0.090805575

running_mean f4 [32]
000000 b5 41 77 bf ac c8 d0 3e 50 0f c5 bf 6f 3d 1c c0
       -0.96584636 0.407781 -1.5395298 -2.4412496
000010 e1 e9 fd c0 52 c4 9b c0 4a 97 5c 3d 26 eb 32 3f
       -7.9347997 -4.867715 0.053855218 0.6989006
000020 c6 ca a4 3f 0d 30 93 bf 72 c9 33 c0 48 99 31 40
       1.2874382 -1.1499039 -2.8091702 2.7749805
000030 d7 d5 0d c0 e9 be dc 40 eb 52 13 c1 8e 65 a6 bf
       -2.2161767 6.8983045 -9.207744 -1.2999742
000040 d9 49 23 bf c1 8b 50 bf 77 c3 15 be b0 93 0c 3d
       -0.6378456 -0.8146325 -0.14625345 0.034320533
000050 65 49 26 c0 22 66 f8 3f af cd 94 bf 34 da 97 bf
       -2.5982296 1.9406168 -1.162527 -1.1863465
000060 85 bb 14 bf 63 98 f1 bf 5b 23 a3 bf b3 de ba c0
       -0.5809863 -1.887463 -1.2745165 -5.839685
000070 7e dd ae bf 21 d6 86 3f c5 ba 4e c0 f1 10 4f bf
       -1.3661344 1.0534097 -3.2301495 -0.80885226

running_var f4 [32]
000000 52 34 44 40 36 2d 8c 40 45 7c 63 40 a0 53 ac 40
       3.0656934 4.380519 3.5544598 5.385208
000010 05 0a 95 41 cf 05 6b 41 dc 77 70 40 4f 45 88 40
       18.629892 14.688918 3.7573156 4.2584605
000020 aa fb b4 40 1e f9 c8 40 3a 8f f3 40 c2 2f ad 40
       5.6557207 6.28041 7.6112337 5.41208
000030 8a d7 83 40 27 48 39 41 9a e2 82 41 46 cf 1b 41
       4.120061 11.580115 16.360645 9.738104
000040 42 27 a9 40 2c 8e b1 40 34 ce 88 40 4c 17 8d 40
       5.286042 5.548605 4.2751713 4.409094
000050 9b e9 b8 40 f6 d6 e1 40 de 0b cb 40 3f 34 02 41
       5.7785163 7.0574903 6.3451986 8.137755
000060 aa 62 60 40 d2 b9 bc 40 a1 7e d8 40 bc 88 2e 41
       3.506022 5.897683 6.7654576 10.908382
000070 41 1a e3 40 fd 4e 6b 40 7f ed 26 41 9e 5c 91 40
       7.096955 3.676696 10.432982 4.542556

weight f4 [256, 800]
000000 cd 1a 1c bc 9c 3b 0d 3d 1c cc bc 3d a9 2e 89 3d
       -0.009527874 0.034480676 0.09218618 0.06698353
000010 5a af f3 bc 3d 41 4b bd 2a 68 7a bc 10 2c 71 3d
       -0.0297467 -0.049622763 -0.015283624 0.058879912
000020 eb 6c 7e 3d c4 ae 2c bd 36 c2 bb bc c1 c0 f8 3c
       0.06211559 -0.042158857 -0.022919755 0.03036535
000030 a0 fe 2b bc a5 9a 2e 3c 61 c3 16 3c 50 7a 7c bd
       -0.010497719 0.010656987 0.009201855 -0.061640084
000040 58 9a 13 bd 33 3b a4 bd 86 2e 9c bd 5c 08 19 bd
       -0.036035866 -0.08019104 -0.07626061 -0.037361488
000050 e6 ef 81 bd af 48 0e bd 7e 28 29 bd 83 06 29 bd
       -0.06344585 -0.034737285 -0.041298382 -0.041265976
000060 cf 67 e8 3c fd b6 c8 bc 97 58 be 3d 38 a3 d7 3c
       0.028369812 -0.024501318 0.09294241 0.026322946
000070 9c 2b f3 3c 2d 57 68 bd 21 98 2c bd 63 83 e2 bc
       0.02968388 -0.056723762 -0.04213727 -0.02765054
000080 55 f7 59 bd 8e a2 02 3d 54 b2 bc bc 5d 4d 86 bd
       -0.05321439 0.031893305 -0.023034252 -0.065577246
000090 41 9b a9 3c 8a 04 35 bd 94 13 3c bd 51 cb 52 3d
       0.020703914 -0.044193782 -0.04591711 0.05146343
0000a0 c0 e0 4f bd 81 ab 51 39 24 26 3e bb 5f 95 52 3d
       -0.050751448 0.00019995683 -0.0029014433 0.051411983
0000b0 0a f9 e8 3d 95 d6 10 3d da 52 83 3d a6 90 93 3d
       0.113756254 0.03536089 0.06412287 0.07205324
0000c0 6d 9d c1 3d a2 16 dc 3d 36 c5 10 bd 87 c9 3a 3d
       0.09453855 0.10746504 -0.035344325 0.045602348
0000d0 6f 45 e0 3c 76 5f b5 3c 5e f2 98 3d a1 57 70 3c
       0.027376859 0.022140246 0.07468103 0.01466933
0000e0 df f2 43 3c a3 90 7d 3d bc c4 b9 3d c7 07 64 3d
       0.01195976 0.061905514 0.09070727 0.05567148
0000f0 bc 0f 0c bd 43 4c e9 3c 5b e7 6f 3c bc 29 8a bc
       -0.034194693 0.028478747 0.014642562 -0.016865604
000100 d9 64 0c bd b4 3c 03 be a1 53 e5 bd b2 db c6 bc
       -0.034275863 -0.12816125 -0.111975916 -0.02427468
000110 8a 86 0d bd 36 28 99 3c c0 27 cc bd 51 85 01 be
       -0.034552135 0.018695932 -0.09968519 -0.12648512
000120 ba c3 48 bd 0a 88 0e bb 44 72 1b 3c 2a dc 86 3d
       -0.049014784 -0.0021748566 0.009487692 0.06584962
000130 2f 68 f8 3a a1 71 08 3d c1 06 34 bc ae 8a 6c bb
       0.0018951948 0.03331149 -0.010987938 -0.0036093402
000140 f0 06 99 3c c8 0c 01 3d 5e 4f 7f bd 0a 43 9d bd
       0.018680066 0.03150633 -0.06233155 -0.07678802
000150 9d eb 66 bb 86 7a 91 3d cc fa ad 3c 6e c5 91 bd
       -0.0035235651 0.071034476 0.021237753 -0.07117735
000160 d8 c4 bc bd bc d3 9d 3c 43 2b 7e 3d 38 f0 07 3d
       -0.092172325 0.019266002 0.062052976 0.033188075
000170 a4 94 67 3d 59 f0 0f bd 6e a6 22 3b a4 d4 26 3c
       0.05653824 -0.035141323 0.0024818438 0.010182533
000180 7c d7 93 bc e4 dd 04 3d 3b de 06 bd bc a4 c7 bc
       -0.018047087 0.032438174 -0.03292678 -0.024370544
000190 5a cf 2f 3d e4 d3 25 bc d7 bd 2d 3d cd e8 0d 3c
       0.042922355 -0.010121319 0.042417374 0.008661461
0001a0 e6 fd 34 bc de 68 80 bc 07 ae 69 bd ea 09 a4 3c
       -0.011046862 -0.015675005 -0.05705073 0.020024259
0001b0 ad 54 ec bc eb dd 15 bc c8 b5 32 3d 55 3b 41 bd
       -0.02884897 -0.009147148 0.04363039 -0.047175724
0001c0 12 ac aa bd dd ce df bd 40 01 b9 bd b8 87 e6 3b
       -0.08333601 -0.10928128 -0.090334415 0.007035222
0001d0 46 d9 f9 bc 20 39 ab bd af 06 ce bd c4 9e 85 bc
       -0.030499112 -0.08360505 -0.100598685 -0.016311057
0001e0 d8 16 a0 3d 30 df 21 bd 6a 00 33 3b 16 ac f5 bc
       0.07816857 -0.03951949 0.002731348 -0.029989284
0001f0 64 2e 54 3c 25 95 4b 3d c1 53 9e 3c 46 5d 00 3d
       0.0129505135 0.049702782 0.019327046 0.031338952
000200 56 25 80 bc 69 79 2a 3d 8e ef b0 3c f6 23 69 bd
       -0.015642803 0.041619692 0.021598604 -0.05691906
000210 04 67 dc bd 60 52 8c bd 19 e1 92 bc 73 74 ef 3c
       -0.10761836 -0.06851649 -0.0179296 0.029230332
000220 ca 6f 3e bd b9 9d 01 be 46 49 a0 bd 2b fd fc bc
       -0.04649333 -0.12657823 -0.07826476 -0.030882439
000230 14 2a 41 3d ab 94 d5 bc 5a 22 35 bd 3d b0 82 bd
       0.04715927 -0.026071867 -0.044222213 -0.06381271
000240 78 38 31 bd 7c 1b 95 3c d3 af 01 3d 75 11 f0 3c
       -0.043266743 0.018201582 0.03166182 0.0293052
000250 91 fa 21 bd 4e d6 68 3d 7e 66 a4 3d 87 cd 22 3d
       -0.0395456 0.056845002 0.08027361 0.039746787
000260 c9 45 82 3c c8 c3 ab 3b 6d fc e4 3c 0e d4 21 3c
       0.015902417 0.005241845 0.027952397 0.009877218
000270 b6 e8 35 3c 2e 9e cc 3c f0 a1 bc bc b3 5c 8c bc
       0.011102846 0.02497777 -0.023026437 -0.017134046
000280 03 f5 dd 3b 29 a2 04 bc d1 95 23 3d c5 9f 6c 3d
       0.0067735924 -0.008095303 0.039937798 0.057769556
000290 bb 7f 83 bb a6 3e 97 3c 4e 3f be bb 12 c7 31 3c
       -0.0040130294 0.01846249 -0.0058058864 0.010850685
0002a0 58 3c 89 3c 79 d1 7e bd 10 1b b9 3d 8c 19 89 3d
       0.016752407 -0.062211487 0.09038365 0.06694326
0002b0 06 d5 00 bd 7f d4 bf bc 56 03 25 bd f7 ba db 3c
       -0.031453155 -0.023416756 -0.040286385 0.02682255
0002c0 2b 77 72 3d ce 35 87 3d f4 20 54 3d c6 95 16 3d
       0.05919568 0.06602059 0.05178924 0.03676393
0002d0 76 38 0d 3d cb 85 1f 3d 2d 2e 2a bd 89 42 2f 3d
       0.034477673 0.038945954 -0.041547943 0.042788062
0002e0 b3 38 a4 3d d8 e7 48 3c d6 44 9a 3d b5 04 28 bc
       0.08018627 0.012262307 0.07532661 -0.0102550285
0002f0 dd 69 2e bd bd ee 33 bc 12 f6 a7 bc 2b fc f2 3c
       -0.042581428 -0.010982213 -0.020503078 0.029661259
000300 2e 1e 0a 3d f5 1e 28 3c 2d af fe 3c 99 ea ab 3d
       0.033720188 0.010261287 0.03108939 0.08394355
000310 df cf 60 3d 4b 96 68 3d ad 9a 01 3c 13 66 89 3d
       0.05488574 0.056783956 0.007910413 0.06708922
000320 cc 36 c7 bc 5f 41 19 bc 4c d4 a7 3c 17 9d ce 3c
       -0.024318121 -0.009353965 0.020486973 0.02522139
000330 2e 09 c6 bd e9 ab 20 bd b5 db d2 bc 07 fd 06 bd
       -0.0966972 -0.039226446 -0.02573953 -0.03295615
000340 63 43 19 bd 9a 27 5c 3d af ea 60 bd a3 e1 33 bd
       -0.03741778 0.053748704 -0.05491131 -0.043916356
000350 fc 14 35 3d 43 b5 b1 3c 04 fd 27 bc 36 ba ae bd
       0.044209465 0.021692878 -0.010253195 -0.08531611
000360 82 d2 8b bd 5f 10 e9 bc ea 18 5a bd 26 fc a0 bd
       -0.068272606 -0.02845019 -0.053246416 -0.078605935
000370 c0 15 29 be e6 60 14 be 23 60 aa bd d0 13 fb bd
       -0.16512203 -0.14490089 -0.08319118 -0.12259638
000380 aa c5 fd bd 0a 9b 0e bd c3 03 b1 bd 60 8b 8b 3c
       -0.12391217 -0.034815826 -0.086432956 0.017034233
000390 ef 29 0b bd bd d6 30 3c ef ca 79 bd 38 e1 f2 bd
       -0.033975538 0.010793385 -0.06098455 -0.11859363
0003a0 ed 8c c4 bb bb ff 65 bd 5b 87 2b bd 3d bc 74 bc
       -0.005998245 -0.056152087 -0.041877132 -0.014937458
0003b0 de 30 dc bd e5 04 40 bd 79 c3 ef bc 8f 9e 22 3c
       -0.10751508 -0.046879668 -0.029268013 0.009925499
0003c0 54 35 50 3b be 4c 60 3c 55 7e 0d bd ee 13 5d bd
       0.0031770067 0.013690172 -0.034544308 -0.053974085
0003d0 d4 63 83 bd f8 3d 22 bc 07 83 3e 3d e4 84 42 bd
       -0.06415525 -0.00990247 0.046511676 -0.047490016
0003e0 ef 98 87 bc 4a 5e 83 bd 6a b6 0a 3d 97 64 f4 3c
       -0.016552417 -0.064144686 0.03386537 0.029833121
0003f0 d0 59 61 3d 67 40 95 3d 1c 7c 08 3d b9 23 a7 3c
       0.055017292 0.072876744 0.033321485 0.020402776

bias f4 [256]
000000 f9 d7 65 bd c4 6d c8 3c ae 8f c2 3c 4f d1 78 3c
       -0.05611417 0.024466403 0.023750152 0.015186622
000010 dc c9 63 3c da 3e 6d bd ef 23 ef bb 48 90 41 3c
       0.0139031075 -0.057921268 -0.007297985 0.0118141845
000020 8e 06 c8 3c 0c 5a ae 3d 8b d3 4e bc 8e 7f 06 3d
       0.024417188 0.08513269 -0.012623678 0.03283649
000030 5b 23 c7 3c f8 c1 07 3e ba 3c 02 bd a4 b4 17 bc
       0.024308851 0.13257587 -0.031796195 -0.009259377
000040 f1 7b e8 3b c8 a1 d7 bc 3b ff 38 3c 42 69 47 bc
       0.007094853 -0.02632226 0.01129132 -0.0121710915
000050 b1 7b 60 3d fe 40 01 3d b9 94 81 bc b5 e5 b8 3c
       0.05480546 0.031556122 -0.015817987 0.02257047
000060 12 77 54 3c 09 79 4d bc 64 32 c5 bc 2d 07 bf bb
       0.012967842 -0.012541064 -0.02407188 -0.005829713
000070 29 4d f6 3b ee b1 b7 3d 13 bd cb 3b ec 50 17 bc
       0.0075165224 0.08969484 0.0062176078 -0.009235602
000080 b4 b4 12 3d ea 4e 0e bd a0 ed c5 bc 3d d4 15 bc
       0.035816863 -0.034743227 -0.02416116 -0.00914484
000090 38 ef f0 3b 3a 7a e6 bc c2 1b 24 bd 92 fe 89 3c
       0.007352736 -0.028134454 -0.040065534 0.016845021
0000a0 38 11 67 bc a5 40 da 3b 3a b6 8f b9 40 1d db ba
       -0.014103226 0.0066605383 -0.00027410855 -0.0016717091
0000b0 d4 5d e6 39 26 1c 1a 3d 6e 38 61 3c df 01 c6 bc
       0.00043938926 0.0376245 0.013746364 -0.024170814
0000c0 c1 df f4 bc 10 66 15 3c 66 a8 62 3c 02 e7 4c 3c
       -0.02989185 0.009118572 0.013834095 0.012506248
0000d0 e5 ff 66 3d 7d 23 8a 3c 10 ca 21 3c bd 5f d0 3c
       0.056396384 0.016862625 0.009874836 0.025436277
0000e0 e4 12 09 bb 09 81 04 bd fa 67 11 bb 61 2a 64 3d
       -0.00209158 -0.03234962 -0.002218722 0.05570448
0000f0 a2 69 14 3c 16 6d bd 3c a7 23 ce bc 28 9c 40 bc
       0.009058388 0.023123305 -0.025163485 -0.011755981
000100 62 c0 fe 3b 64 24 e8 bc 92 7d 30 3c c0 1d 85 bc
       0.0077743987 -0.028337665 0.010772126 -0.016249537
000110 60 72 da bc d8 3d 2c bd 34 42 97 bc 19 ba 0f 3c
       -0.026665866 -0.042051166 -0.018464185 0.0087723965
000120 ec 47 f4 ba 63 a9 b7 3b 9c ba 18 bd 18 e5 0a bc
       -0.0018637157 0.0056049093 -0.03728734 -0.008477472
000130 10 3a cd 3c f4 66 a2 3c d8 1a 5d 3b 10 62 3b 3d
       0.0250521 0.019824483 0.0033737924 0.045747817
000140 42 a8 8d 3b 43 cc b8 3c 52 e8 c1 bc c9 1d 24 bc
       0.0043230364 0.022558337 -0.02367035 -0.010016867
000150 4a 90 d7 3c 13 c7 d6 3d ec e9 12 bd aa ce 81 bc
       0.02631392 0.10487189 -0.035867617 -0.015845615
000160 ac 9c be 3c 00 ec 5d bd c9 5a dd 3b 62 e6 2c 3d
       0.023268066 -0.054180145 0.006755207 0.042211898
000170 a6 53 31 3c 07 67 ee 3a 01 ce f9 3c 59 41 e2 3c
       0.010823166 0.0018188664 0.030493738 0.02761905
000180 2d dd 6a bc 91 cb 0a bc ce 9d 26 3d 98 fa cd 3b
       -0.014334959 -0.008471386 0.040677838 0.0062859766
000190 ce ca 64 bc 01 e7 be bc 29 49 8b 3c 26 b6 7c bb
       -0.013964368 -0.02330351 0.017002659 -0.0038560717
0001a0 25 b0 ce 3c 02 bc df bc 5c 4a 05 3c e5 2d 90 bd
       0.025230477 -0.027311329 0.008135404 -0.07040004
0001b0 a8 41 29 bd 94 48 9c 3b 7a 3d fe bc 8a e1 7c 3a
       -0.04132238 0.004769394 -0.031035174 0.0009646645
0001c0 09 c1 6e bd e6 28 61 bd bc ca ff bb 26 0a bf 3d
       -0.05828956 -0.054970644 -0.0078061502 0.093281075
0001d0 81 29 38 bd d5 ca ef ba 4a ad e1 3c e2 66 0b bd
       -0.044961456 -0.0018294702 0.027548451 -0.034033664
0001e0 35 db 9d 3d 9e f8 8a bd 52 76 02 bd 67 26 49 bc
       0.07707826 -0.06785701 -0.03185112 -0.012277222
0001f0 b1 a1 2d 3c c4 82 8b 3b 8c 1b 84 bc 4c 77 29 bd
       0.010597632 0.004257532 -0.016126417 -0.041373536
000200 b6 92 46 bd 8d dc 52 3d 8a 47 95 bd 46 11 3d 3d
       -0.04847976 0.051479865 -0.072890356 0.04615905
000210 4e 26 8f 3d f0 63 d4 3b 4d 36 d8 bc 14 c9 1b 3c
       0.06989728 0.00648164 -0.02639308 0.00950839
000220 ff 09 25 bd 1c 31 cf bc 4a cc a4 bb 98 e9 fb bb
       -0.040292736 -0.025291972 -0.005029236 -0.0076877587
000230 77 c0 e5 3c 2c f2 95 3c db 6d 33 3d ed 6f b6 3b
       0.028045876 0.018303953 0.04380594 0.005567542
000240 57 18 32 3d 0c 94 5c 3d 4d 72 56 3c 1a f8 03 bd
       0.043480244 0.053852126 0.013088775 -0.03221903
000250 c0 73 8a 3d 83 ec 07 3d 7f b0 84 3c 27 1d 0d bd
       0.06760359 0.03318454 0.016197441 -0.03445163
000260 a5 d7 68 3b 5a 8d a5 3d 18 41 8e 3b bd f8 3c 3d
       0.0035528925 0.08083601 0.004341256 0.046135653
000270 59 93 ba 3d 52 9c d8 bc 8a 85 39 3c 57 de 5e 3d
       0.091101356 -0.026441727 0.011323342 0.05441126
000280 3b 3f bb 3c d6 e8 db bc fe 6f dd bc f5 4f 04 3c
       0.0228573 -0.026844423 -0.027030941 0.008075704
000290 45 b4 59 3d 85 b5 fd bc fe 20 95 bc de 13 39 bc
       0.053150434 -0.030970344 -0.018204208 -0.011296241
0002a0 44 45 18 3d aa fe 41 3d 4b b7 0c bd 31 42 76 3d
       0.03717543 0.047362007 -0.03435449 0.06012172
0002b0 a6 ab 35 bc 6c 4c 82 3b 44 dd 34 bd cd 51 a5 3d
       -0.011088287 0.0039763954 -0.044156328 0.08072243
0002c0 a5 f4 8d bc 47 3b a5 3a f1 52 be 3c 1b 77 39 3c
       -0.01732857 0.0012606167 0.023232909 0.011319901
0002d0 ae 3a 78 3c 57 c5 87 3d bc d3 ad 3c 6b 94 f8 bc
       0.015150709 0.066294365 0.021219127 -0.030344209
0002e0 70 5f 36 3c 39 2d 72 bc 23 d1 8a bc 14 da 26 3d
       0.0111311525 -0.01478129 -0.016945427 0.04073532
0002f0 fb ba bb bc 7e 83 de 3c a8 5d 37 3a 45 aa ec bc
       -0.022916308 0.02716231 0.0006994852 -0.028889785
000300 f6 f5 fd 3a 79 cc 46 bd b7 1b 2a 3c 7a ea de 3b
       0.001937567 -0.048534844 0.010382584 0.006802854
000310 41 4d a1 bc 3c b3 60 3c 66 d0 72 3c 91 7e 19 3d
       -0.019690158 0.013714608 0.014820194 0.03747422
000320 10 0e b2 3c cd c2 b5 3c 5e 0c df bc 69 5d a3 3c
       0.021735221 0.022187615 -0.027227577 0.019942002
000330 f0 07 de 3c 37 8a 4d 3d a4 11 a2 bc f2 d9 4d bd
       0.027103394 0.05018064 -0.019783802 -0.050256677
000340 4d 44 0e bd e3 2c f6 3c 33 21 90 bb 0b 86 c2 bc
       -0.034733105 0.0300507 -0.004398489 -0.023745557
000350 1e fb 81 bc 41 e5 d9 bc ab 5d 5e 3d 79 f2 eb bc
       -0.015866812 -0.026598575 0.054288547 -0.028802143
000360 a7 fa 66 ba 7a 3c 2d 3c 11 31 cc bb 3c c7 87 bc
       -0.0008811154 0.010573501 -0.006231435 -0.016574495
000370 ce 28 ee bc 4a 17 14 bd 24 ec 68 bc be b2 0f 3d
       -0.029072192 -0.036155023 -0.014216457 0.03508257
000380 0f cb 7d bd 25 c6 52 bc eb 82 d8 3c 85 e1 bc 3c
       -0.06196123 -0.012864624 0.026429614 0.023056755
000390 ad 36 68 3d 37 bf 57 bc 19 36 8b bb a8 d7 a8 3b
       0.056692768 -0.013168148 -0.0042483923 0.0051526614
0003a0 5f f2 bd 3c f3 e8 df 3b 1b 59 83 3c 0e d1 9d 3c
       0.02318686 0.0068331896 0.0160337 0.019264724
0003b0 8f 6d 9b bc 97 0b 36 3d 9b 0e 76 bd f3 b3 c0 3d
       -0.01897314 0.044444647 -0.060072523 0.094093226
0003c0 28 24 36 3c 09 9f f0 bc 90 ac 9a 3c 2a 3e 18 bc
       0.011117019 -0.029372709 0.018881112 -0.009292165
0003d0 00 50 f9 bc e9 12 1d bd ff 6d db 3a 34 d8 4d 3c
       -0.030433655 -0.038348112 0.0016741155 0.012563754
0003e0 02 78 b8 3c ff aa 5f 3d 25 d3 7e bc 50 eb 8a 3c
       0.022518162 0.054606434 -0.0155532705 0.016957909
0003f0 85 9d e9 3c 9c ee f0 bc a7 9b f7 bc ac 33 5a bc
       0.028517494 -0.029410653 -0.030225588 -0.013317984

weight f4 [10, 256]
000000 13 d7 af 3d 38 40 5e bd 0e d5 f0 bc 94 70 21 3d
       0.08585944 -0.054260463 -0.029398467 0.039414003
000010 70 68 bb bc 50 6c 13 3d 0d 86 db bc 63 54 23 bd
       -0.022876948 0.035991967 -0.026797319 -0.0398754
000020 48 ee 13 bd 2f 9d 81 3c 34 d6 28 3d 8a 33 d2 bd
       -0.036115915 0.015822021 0.041219905 -0.102637365
000030 a2 e2 a4 3d 75 83 08 be 94 28 ab bd 0b cd e5 3c
       0.08051039 -0.13331397 -0.08357349 0.028051874
000040 97 aa ed 3c fe f7 11 bd b2 02 b2 3d 15 23 40 3c
       0.029012008 -0.035636894 0.0869192 0.011727114
000050 b0 ab 19 bd 91 cd 67 3d 44 9e 11 bd 47 46 8a bc
       -0.03751725 0.056592528 -0.035551324 -0.016879214
000060 95 b4 ad 37 0f d7 d5 bc cf 94 05 3c 2c 75 5b bb
       2.0707297e-05 -0.026103524 0.0081531545 -0.0033486588
000070 9f b7 05 3d db 58 9b 3d 2e 90 09 3b a5 a7 d4 3c
       0.032645818 0.07585307 0.0020990479 0.025958845
000080 4a 3f d0 3d 51 34 96 3c 54 e7 ee bc ac 44 91 3c
       0.101683214 0.018335493 -0.02916304 0.01773294
000090 35 23 e6 3c aa dd 2b bd 8a 02 97 bd 33 ef 45 3d
       0.02809296 -0.041959442 -0.07373531 0.04832382
0000a0 d3 f7 4b bc 72 36 1f 3d 55 a5 89 3c 7e d1 43 3d
       -0.012449223 0.038870282 0.01680247 0.04780721
0000b0 6c 95 2b bd 43 74 b7 bd 70 aa 5a 3d 83 3f 21 3d
       -0.041890547 -0.08957722 0.053385198 0.03936721
0000c0 ec bc 08 b9 98 71 1a 3d 4b 7e 68 3d 00 2f e2 3c
       -0.0001304035 0.037705988 0.056761067 0.027610302
0000d0 8d aa 46 bd e0 0b 64 3d 19 68 04 3d 76 8e 9b 3d
       -0.048502494 0.055675387 0.032325838 0.07595532
0000e0 f7 73 c1 bd 07 3a 09 bd 36 de 34 bd bd 74 0a bd
       -0.09445947 -0.033502605 -0.04415723 -0.033802737
0000f0 1e 11 98 3d 20 a6 47 bd 0c 1a 02 be 84 4f 85 3d
       0.0742514 -0.048742414 -0.12705249 0.06509307
000100 72 97 91 3d 8a c8 3b 3c 00 5a 13 bd d7 95 69 3c
       0.07108964 0.011461386 -0.035974503 0.014256916
000110 c2 4f d9 bc b2 1c 6f bc 3b 36 52 bd af 91 02 3d
       -0.02652729 -0.014594244 -0.05132125 0.031877216
000120 a1 ff 11 bd db 55 1e bd f1 90 a5 3d 6e 75 ce 3b
       -0.035644177 -0.038656097 0.08084286 0.00630062
000130 1b 11 d6 bb 8a b8 39 3c 3c 91 52 bc 22 2a 55 bd
       -0.006532801 0.011335501 -0.012852009 -0.052042134
000140 6e ef f5 bc b4 c7 24 bc 50 3d 7f bb a1 09 41 bd
       -0.030021396 -0.010057379 -0.0038946457 -0.047128323
000150 30 81 fa 3c f0 29 bc bc ca 12 6a 3d ea 08 be 3c
       0.03057918 -0.022969216 0.057146825 0.02319761
000160 01 f3 08 3c 65 c0 8d 3d 1d 5b 9b bd 7f 72 3e bd
       0.008358718 0.06921462 -0.07585738 -0.04649591
000170 af 7b 87 bd 74 dd 8e bb 81 a6 53 3d 64 00 91 bc
       -0.06615388 -0.0043598954 0.051672462 -0.017700382
000180 e2 8a b6 bb 83 18 49 bc 58 c6 b9 3d af 87 24 bd
       -0.0055707553 -0.01227391 0.09071034 -0.04016846
000190 01 01 59 3d 20 96 73 3c 5e fd c7 bd 7e 23 d9 3d
       0.052979473 0.014867336 -0.09765123 0.10602473
0001a0 b6 ac b9 3d d4 b2 c5 3c fa a8 d7 3d f4 58 97 bc
       0.09066145 0.024133123 0.105302766 -0.018475033
0001b0 1f e0 d7 3c 86 c6 3c 3d c6 08 82 bb 94 59 bd 3b
       0.026351986 0.046087764 -0.003968331 0.005778501
0001c0 f4 e1 b0 bb 35 56 a5 3d 3a 62 1e 3d 00 a8 8c bc
       -0.0053980295 0.08073083 0.038667895 -0.017169952
0001d0 84 77 44 3d 26 e2 f1 bb 9e 16 f7 bb 3c cb 31 3d
       0.04796554 -0.0073816953 -0.007540538 0.04340671
0001e0 34 54 2e b9 30 79 b9 3d 29 e5 1c bc 45 5d 49 3c
       -0.00016625301 0.09056318 -0.00957612 0.012290304
0001f0 96 29 89 bc d6 70 82 bc a0 8b 35 3d f0 83 a8 3c
       -0.016743463 -0.015922945 0.04432261 0.020570725
000200 c9 59 23 3d aa d6 51 3c 6e 67 ef 3c 46 c2 43 bd
       0.039880548 0.012807528 0.029224124 -0.047792695
000210 9c 4b 38 bd e1 54 c5 bd 11 47 17 be 7b 30 0c 3c
       -0.04499398 -0.0963533 -0.14773203 0.0085564805
000220 fe 7f c6 bc 3a d5 99 3d cd e9 c3 3c 4f 08 fa bc
       -0.024230953 0.07511373 0.023915196 -0.03052154
000230 d4 92 ea bb 42 70 51 3c 38 48 a7 bd 13 f6 88 3c
       -0.0071586166 0.012783112 -0.081680715 0.0167189
000240 c1 5f f7 bd 26 61 b7 3d 56 59 5e bd 5e db a0 3d
       -0.120788105 0.089540765 -0.054284416 0.07854341
000250 cc eb 0d bd e8 e1 ee 3d dc c7 4f 3d 81 7b 06 3d
       -0.0346487 0.11664182 0.05072771 0.032832626
000260 1d e8 2f 3d 03 29 df bd 6f 21 ff bc 32 1b 21 3d
       0.04294597 -0.10896494 -0.031143872 0.039332576
000270 ad 05 92 bc 90 88 78 bd b5 c3 39 bc 48 9f 8a bd
       -0.017824972 -0.06067711 -0.011338164 -0.06768662
000280 90 6d 6c 3c 47 ad ab bc 50 86 73 bd 99 eb 06 3d
       0.014430419 -0.020956649 -0.059454262 0.032939527
000290 bd 87 ba bd bd e0 30 3d ac 28 11 39 7e 12 2e bd
       -0.09107921 0.043183077 0.00013843429 -0.042498104
0002a0 ef 2d b3 3c 3b b6 02 be fe 1d 31 3d 10 fd c5 bd
       0.021872489 -0.12764828 0.043241493 -0.096674085
0002b0 f7 28 58 3d 79 99 88 3d 6b 9c 0a 3d 77 2b d0 bd
       0.052773442 0.066698976 0.033840578 -0.1016454
0002c0 90 7d f2 3a df ea db 3c 07 71 5f bd 0e df 2f 3c
       0.0018500555 0.026845394 -0.05455115 0.010734333
0002d0 2c 6c 14 bd 54 2f 80 bd ac cc 55 bd 5d 97 03 3d
       -0.036235973 -0.06259027 -0.052197143 0.032126773
0002e0 8a 8e 9d 3a 95 a4 20 3c 79 c1 f4 3d b0 cc bf 3c
       0.0012020629 0.009804864 0.119509645 0.023413032
0002f0 a0 2f d1 3a 18 ee 63 3b 73 f0 f2 bc 63 16 37 bd
       0.0015959628 0.0034779366 -0.02965567 -0.044699084
000300 f1 eb df 3b f8 72 46 3d 81 d5 89 3d b4 0c 33 bd
       0.0068335463 0.048449486 0.06730176 -0.043713287
000310 bc 1d 86 3b d4 a6 96 3c e3 ef cb 3d 49 16 99 bc
       0.0040929 0.018390097 0.09957864 -0.018687384
000320 19 fd 99 bd 19 e0 b8 bc 98 b4 c8 3c e3 95 31 3d
       -0.07518978 -0.022567796 0.024500176 0.043355834
000330 89 1a c7 38 3b d8 fb bc 7c df de bc da 35 ee bc
       9.494002e-05 -0.030742755 -0.027206175 -0.029078413
000340 c3 8e e3 bb ad f2 1d 3d c0 2d a7 3c 84 74 e0 bc
       -0.0069445088 0.03856151 0.020407557 -0.027399309
000350 f9 01 bb 3d 15 69 0a bd 7c 01 8c b8 7d e6 59 bd
       0.09131236 -0.03379162 -6.675997e-05 -0.053198326
000360 65 65 8c 3c 2b 31 0a 3d 48 41 75 bd 17 aa 35 3d
       0.017138192 0.033738296 -0.05987671 0.044351663
000370 81 9c 48 3d 87 a6 51 3d 54 35 a6 3d 85 be 5c 3c
       0.04897738 0.051184203 0.0811564 0.013473158
000380 de dc d9 3c 60 30 26 bc 47 f0 f5 bc e3 52 92 bc
       0.026594575 -0.010143369 -0.0300218 -0.01786179
000390 ad 9d 90 3c a6 77 22 bc 12 4d 92 3c f4 32 02 ba
       0.01765331 -0.009916222 0.017859016 -0.0004966699
0003a0 78 6e e5 bb 50 36 35 bc 04 ff c8 3d d2 c2 90 bd
       -0.0070016943 -0.011060312 0.09814265 -0.07068409
0003b0 32 7d 52 3d 62 9d 22 3d 52 ca 0d bd 4b 61 8b bd
       0.051388927 0.039700873 -0.034616776 -0.068056665
0003c0 35 79 c8 bc 58 eb e1 3c c4 b0 d4 bc 3d c0 ac 3d
       -0.024471859 0.027578041 -0.025963195 0.08435104
0003d0 21 24 25 bd 63 4e 89 bd 8f f5 74 3c 94 57 dd bc
       -0.04031766 -0.06704404 0.014951124 -0.0270193
0003e0 bf 9a 4a 3c ff 9d b1 bd 5d 0d 96 3c 17 ee 82 bc
       0.012365996 -0.086727135 0.018316919 -0.01598267
0003f0 85 74 b4 bc af 09 4d 3d d0 83 ef 3b df 3a 17 bd
       -0.022028217 0.050058063 0.0073094144 -0.03692138

bias f4 [10]
000000 94 67 fc bc b1 12 b4 bd 78 37 97 bd c4 c2 be 3c
       -0.030811109 -0.087926276 -0.07383627 0.02328623
000010 56 4d d6 3c cd 8b 78 bc c3 98 82 3c 25 07 8f bd
       0.026159924 -0.01517005 0.015941983 -0.069837846
000020 d4 ae 4e 3c 99 20 8e 3d
       0.012614924 0.06939811
