Project_1/Part2/checkpoints/cnn_1_10.pth (torch, 911299 bytes, 16 tensors)

weight f4 [32, 3, 4, 4]
000000 94 99 8f 3d ee a2 9c 3d 3d 72 2d bd 98 80 9f bd
       0.070117146 0.07648264 -0.042345274 -0.07788199
000010 8b ce 10 3e da 4e 1a 3e a9 78 16 3e 68 9d 44 3e
       0.1414129 0.15069142 0.14694466 0.1920067
000020 e1 fa 07 3e 50 ff c5 3d 6b f5 f7 3c d0 4e 20 3e
       0.13279296 0.096678376 0.030268392 0.15655065
000030 fd 54 10 be c0 63 53 3d eb b9 6b 3b ca e1 8c bd
       -0.1409492 0.0516088 0.003596897 -0.06879003
000040 5f 33 3e be 2b 92 84 be 02 c2 17 be 82 44 da bc
       -0.18574284 -0.25892767 -0.14820102 -0.026643995
000050 44 cb 32 be 7a d8 d6 be 58 91 b7 be 73 c2 bd be
       -0.17460352 -0.41962034 -0.35853076 -0.37062415
000060 ca 9d 9b be 6b 19 90 be e7 f0 a7 be 39 e6 b3 be
       -0.3039382 -0.28144392 -0.3280098 -0.35136583
000070 40 9e 2e be de 85 a3 bd fd 88 51 be 1b f8 89 bd
       -0.17052555 -0.079845175 -0.20462413 -0.067367755
000080 15 80 5b ba 0c a9 b9 3d c1 5b 3b 3e 1e 99 99 3d
       -0.0008373273 0.09065446 0.1829672 0.07499908
000090 15 57 28 be 03 fa 20 bd eb cc 01 bd 4f fb ca 3c
       -0.16439469 -0.03930093 -0.031689566 0.024778036
0000a0 25 ef a7 bd ac 03 35 3d 44 1f e9 3d 45 8f b9 3c
       -0.0819991 0.044192955 0.113829166 0.022651324
0000b0 f1 88 ac bd 60 b2 8c bd c6 67 b1 bc 34 8b 7f 3d
       -0.08424557 -0.0686996 -0.021655928 0.062388614
0000c0 88 67 5d be 26 7b 93 3d af 58 d9 3d 68 7a 78 3e
       -0.21621525 0.07201223 0.10612618 0.24265444
0000d0 85 b8 a3 be dc c2 c7 bd c5 d6 e3 3d d5 69 81 3e
       -0.31976715 -0.09753963 0.111249484 0.25276056
0000e0 f9 08 9d be c2 da 9f bd 18 54 37 3e e1 28 90 3e
       -0.30670908 -0.078053966 0.17903173 0.28156188
0000f0 56 44 70 be a4 f9 52 be 4b 20 0e bd 38 03 91 3d
       -0.23463568 -0.20603043 -0.034698766 0.07080692
000100 c9 af 18 bd 38 49 9a 3d 93 80 f7 3d 59 91 29 3d
       -0.037277017 0.075334966 0.120850705 0.04139838
000110 ef 2e f1 bc 8d a8 c3 bc fa 1c 70 3d 97 f3 2b 3e
       -0.029441325 -0.023884082 0.058621384 0.16792141
000120 2c 9e f8 bd 03 14 b8 bd cd 66 27 3e d8 cb ee 3d
       -0.12139544 -0.08988192 0.16347809 0.11659974
000130 34 b8 33 be 37 ad 62 be b9 ad 08 3e cc aa 56 3e
       -0.17550737 -0.22136389 0.1334752 0.20963591
000140 e7 ba 78 3d b2 19 8c bc 62 2f 2e bd 7e 5d 51 bd
       0.06072512 -0.017102096 -0.042525657 -0.05111455
000150 ec d2 1f be ad ec a9 bd 0d b0 01 3e 19 3d 1b bc
       -0.15607804 -0.082970954 0.12664814 -0.009475016
000160 56 ec 16 bc b0 ab cd bd 01 3e 5e 3d 4a 4c 43 3d
       -0.00921162 -0.100425124 0.05425835 0.047680177
000170 af bb c5 bd fb af 5b bd 7b cf 2d bd 3d 34 64 3c
       -0.096549384 -0.053634625 -0.042434197 0.01392847
000180 23 90 4d 3e a5 b8 94 bd 72 c7 6a be 1a 71 01 3e
       0.20074515 -0.07261781 -0.22927645 0.12640801
000190 a7 4a dc 3d 45 36 c5 be c1 70 c1 bd ee 6f 90 3d
       0.10756426 -0.38517967 -0.09445334 0.07052599
0001a0 6d 2e 54 be 09 88 8d be 18 3b 96 3e 5a 5a 1b 3e
       -0.20720835 -0.2764285 0.2934196 0.15171185
0001b0 4f 6a 34 be 94 82 1d 3e 1d a9 4a 3e 77 b1 ce 3d
       -0.17618679 0.15381843 0.19791074 0.100924425
0001c0 31 28 20 3e 11 e8 41 3d 93 2f 08 be 7b ef 38 bd
       0.15640332 0.047340456 -0.13299398 -0.04515026
0001d0 d0 e4 54 bd 20 87 7e be c1 5f 76 3c bc b2 50 3e
       -0.051976025 -0.24856234 0.015037478 0.20380682
0001e0 30 0d 48 3d 02 27 fd bd 1f ba c5 3d 4e b7 76 3c
       0.0488407 -0.12360956 0.096546404 0.015058352
0001f0 8a 4c d5 3c 35 17 5c bb 50 ec 64 3e 91 25 38 be
       0.026037473 -0.0033583168 0.22355771 -0.1798308
000200 6c d5 b1 3d d2 72 46 3d 8e 0e 8a bd cc 04 8c bc
       0.08683285 0.048449345 -0.06741057 -0.017092131
000210 18 ba 70 3e 7f 80 71 bd 8f a3 4e be f3 59 f2 3d
       0.23508489 -0.058960434 -0.2017958 0.11833563
000220 68 4f 28 3d f5 ab 1e be 2c e0 90 3d 6e f7 1b 3c
       0.041091353 -0.15495284 0.070740074 0.009519441
000230 47 ac 82 bd 50 c4 a4 bd a7 b4 e8 3d a2 a1 51 be
       -0.063805155 -0.08045256 0.11362582 -0.20471814
000240 66 3a 76 bc db 8f e1 bd c1 15 92 3d 24 d5 62 3e
       -0.015028572 -0.110137664 0.071330555 0.22151619
000250 58 7c 01 be 77 13 67 3e fc b3 31 3f 8f 2f 99 3e
       -0.1264509 0.22566019 0.6941526 0.29919097
000260 25 86 a2 3b 96 6c a0 3e d9 9b 3d 3f c8 24 dd 3e
       0.004959839 0.31332844 0.7406593 0.43192124
000270 0a 16 d3 bd 6e aa 5d 3b 7f ff 6d 3d 5f 7e 24 bd
       -0.10306938 0.0033823508 0.05810499 -0.04015958
000280 83 cd e8 bd ee 12 5d bd 25 41 51 bd c6 a5 f9 bd
       -0.11367323 -0.05397313 -0.051087517 -0.12189822
000290 2b 13 6f bd 8e 84 70 bd b6 a9 c4 3c 8e b6 c3 bd
       -0.05836789 -0.058720164 0.024006706 -0.09556304
0002a0 0d 56 ed bd 85 c8 7e 3c 3a a0 a8 3d 83 6b ef 3b
       -0.115886785 0.015550737 0.08233686 0.0073065176
0002b0 e6 86 64 bd 65 6a b0 3b d2 dd 01 be 57 32 a5 bd
       -0.05579271 0.005383777 -0.12682274 -0.08066242
0002c0 8a 92 e4 bc ca 85 ef 3d 50 b3 b5 bb 8a bc c0 3d
       -0.027901907 0.1169544 -0.0055450574 0.09410961
0002d0 94 a8 33 be 54 5f b6 3d 1e 59 4b 3e b0 1f 2c 3e
       -0.17544776 0.08904901 0.19858214 0.16808963
0002e0 08 39 52 3d 17 ac e7 bc da 01 dc 3d d9 43 cd bd
       0.05132392 -0.028280301 0.10742541 -0.100227065
0002f0 02 db bd bd a5 4f 59 3d c8 d5 30 3e 44 f3 ad 3d
       -0.09270288 0.05305447 0.17269051 0.08493665
000300 a2 c4 12 3d 91 17 55 3e 5d 3f 82 bc 10 a8 06 3e
       0.035832055 0.20809771 -0.015899355 0.13150048
000310 40 cc ad bd 57 e2 64 bd e8 e4 e9 3d 15 73 ef bd
       -0.08486223 -0.055879917 0.114206135 -0.11691872
000320 cc ea 43 be 90 e0 49 be 61 91 96 3d cd 25 2e 3d
       -0.19132537 -0.1971457 0.073519476 0.04251652
000330 2e bf 90 be 97 ef 68 be 34 77 21 bd a0 62 d8 3c
       -0.2827086 -0.22747646 -0.03942032 0.026414216
000340 09 02 a4 bd 74 5d d7 bb cd 29 b1 bd ee 91 4b bd
       -0.08008201 -0.00657242 -0.08650551 -0.049699716
000350 03 59 48 bd 13 4c 2c 3e 80 75 88 bc a4 14 f8 bc
       -0.048913013 0.16825895 -0.01665759 -0.03028328
000360 90 19 e9 bc a2 0d 14 be 30 06 05 3e 81 a6 6a bd
       -0.028454572 -0.14458326 0.12990642 -0.057287697
000370 b1 b0 5e be 72 2c 0d 3d 45 21 b2 bc 2b d1 ac 3d
       -0.2174709 0.034466214 -0.02174438 0.08438333
000380 0d 2d e8 bd c2 89 99 3d 97 ad 5e be 04 54 af be
       -0.11336718 0.07496978 -0.21745907 -0.34243786
000390 b2 e5 01 3d b6 b1 6d 3e 09 65 4d 3d 08 e6 a9 bd
       0.031713195 0.23212323 0.050145183 -0.08295828
0003a0 df 03 25 3b 22 69 75 3e fd ec aa 3e bb de 71 3e
       0.002517931 0.23965886 0.33383933 0.23620121
0003b0 5e 2e 9a 3b 25 63 6e 3e 1f 37 ce 3e b7 0a ae 3e
       0.0047052344 0.23280008 0.4027643 0.3399255
0003c0 86 e0 53 3c 52 83 58 bc 63 3a 6b 3e 58 63 0b be
       0.0129319485 -0.013214903 0.22971492 -0.13612115
0003d0 6c b1 53 3b 4a 75 69 be 6d a0 8a 3e e5 ca 72 be
       0.0032301797 -0.22798648 0.2707552 -0.2371021
0003e0 a3 e3 09 3d ce df 19 be 57 9a 7e 3e 2b f3 f9 bd
       0.033664357 -0.15026781 0.24863563 -0.12204584
0003f0 d6 7c 58 3d d7 d2 14 be 03 ee 6f 3e 46 fe 3d bd
       0.052853428 -0.14533554 0.23430638 -0.046385072

bias f4 [32]
000000 d9 8c 3c be c2 7b 4a ba b6 58 98 be c0 f5 f0 bd
       -0.18413104 -0.000772413 -0.2975518 -0.11765623
000010 e6 17 18 be 63 fc 06 bd 07 be ab 3b 8b e6 a9 3d
       -0.14852867 -0.03295554 0.005241159 0.08295926
000020 64 0b 37 3c 26 43 cf bd fd f4 4e 3d 75 16 04 be
       0.011172149 -0.101202294 0.050526608 -0.12899192
000030 32 e0 f2 bd 77 66 57 3d 3b 8a 54 be f7 1c bd 3d
       -0.11859168 0.052587952 -0.20755856 0.0923404
000040 04 84 b0 bc e5 b8 10 bd 74 c9 8c be 16 67 5d be
       -0.021547325 -0.03533258 -0.27497447 -0.21621355
000050 d6 d0 6c 3d 11 31 02 bd f8 77 38 bd 0c 13 0e 3e
       0.05781635 -0.031785075 -0.045036286 0.13874453
000060 1a 1b c1 3d f1 68 0f 3e f8 67 6a bd ff 66 8f bc
       0.09428997 0.14004876 -0.05722806 -0.017505167
000070 dd 6b 8b 3c 3b 4c a1 3d 54 fe 0d 3c 71 7e 2d be
       0.017019207 0.07875868 0.008666594 -0.16942765

weight f4 [32]
000000 68 b1 52 3f 5b 53 87 3f a1 0c 98 3f 45 0a 47 3f
       0.8230195 1.0572313 1.1878854 0.77750045
000010 52 06 53 3f 8e bd 98 3f 20 e9 90 3f 2c 11 57 3f
       0.8243152 1.1932847 1.1321144 0.8401058
000020 ec 1a 5a 3f f8 74 85 3f 68 10 a2 3f 3d 48 6b 3f
       0.8519733 1.0426321 1.2661257 0.919071
000030 3a dd 5c 3f 76 82 54 3f 5e 90 85 3f b3 bf 26 3f
       0.86275065 0.8301157 1.0434682 0.6513626
000040 1c ba 77 3f e1 5a 8a 3f 5e 57 7b 3f f2 10 46 3f
       0.96768355 1.0808984 0.98180187 0.77369606
000050 2a 27 8c 3f 6d cb 85 3f b6 e9 65 3f ed 4d 9e 3f
       1.0949452 1.0452706 0.8980974 1.2367531
000060 bf 87 60 3f 69 dd 60 3f 48 74 84 3f 48 59 47 3f
       0.8770713 0.87837845 1.0347986 0.7787061
000070 ee 63 3b 3f 16 18 5f 3f 33 f8 73 3f 32 13 67 3f
       0.73199356 0.8714613 0.95300597 0.90263665

bias f4 [32]
000000 c2 a0 ce be 77 d9 6e bd 15 4f 8b be db 47 98 be
       -0.40357023 -0.05831286 -0.27208772 -0.2974232
000010 5c 1a c6 be 17 18 76 be 4e db 19 be 30 be fa bd
       -0.38691986 -0.24032627 -0.15025064 -0.12243307
000020 1e 51 8b be 17 ef d1 be 7e 58 80 be 53 95 b6 3e
       -0.27210325 -0.41002724 -0.25067514 0.356608
000030 14 f2 72 be a2 8a 8d be 8c 8b ba be c3 84 b2 b9
       -0.23725158 -0.2764483 -0.3643459 -0.0003404972
000040 b5 58 73 bd 83 f5 9e bd e9 ba da 3d da 01 63 be
       -0.05941077 -0.077616714 0.106801815 -0.22168675
000050 97 66 c9 be 98 06 9b be a4 e0 33 be 0f 71 1c be
       -0.39336082 -0.30278468 -0.17566162 -0.15277503
000060 8f 29 7c be ef 04 5d be 3b 12 2e be 67 9e 6f be
       -0.24625228 -0.21583913 -0.16999142 -0.2340027
000070 64 7a 96 be 24 83 78 be 4e 56 ba be c8 73 bd be
       -0.29390252 -0.24268776 -0.3639397 -0.37002397

running_mean f4 [32]
000000 80 d6 b8 bd 12 9e f8 3c 36 8d 91 be 61 c6 5d be
       -0.09025288 0.030348811 -0.28428048 -0.21657707
000010 f6 93 8a be 0e c3 04 bd 4f 35 37 bb d9 c0 a6 3d
       -0.2706601 -0.03241258 -0.0027955358 0.081422515
000020 61 b5 f7 3b 8f b8 f5 bd 82 81 5e 3d ef 75 88 be
       0.007559464 -0.119980924 0.054322727 -0.26652476
000030 86 81 f0 bd 32 d0 3f be ef 4c 51 be fa bf 0f 3e
       -0.11743455 -0.18731764 -0.20439504 0.14038077
000040 e0 08 43 bc 6c f3 27 bd b1 ce 60 be 56 70 6c be
       -0.011903971 -0.04100363 -0.21953847 -0.23089728
000050 60 c6 8a 3d 26 74 d3 bc 2b 5c 26 bd 37 1e 0c 3e
       0.06776118 -0.02581222 -0.040615242 0.13683401
000060 0b 0b a0 3d ab 6d 60 3e 42 7d 2d bd de 42 10 bd
       0.07814606 0.21916835 -0.042355783 -0.03522002
000070 a8 41 f2 bc 95 56 3c 3d b8 74 50 3e 54 cc 13 be
       -0.029572323 0.04598101 0.20357025 -0.14433414

running_var f4 [32]
000000 5b 85 bf 3f 92 4b c3 3e 13 90 95 3d 19 4d ce 3f
       1.4962572 0.38143593 0.073028706 1.6117278
000010 6b ab 96 3e 18 03 0b 3d 1a 76 03 3e 4a 41 0d 3e
       0.29427657 0.033938497 0.12838021 0.13794437
000020 81 9e a6 3e c6 2b a8 3d 72 13 2c 3d fd 4f a8 3e
       0.32542804 0.08211474 0.042010732 0.32873526
000030 15 0a e5 3e 9f e5 d0 3f 77 9d c8 3c 97 09 ac 3d
       0.44734254 1.6320075 0.024489148 0.084002666
000040 1d 9b a1 3d a8 06 ad 3e db 39 83 3d 7c a1 d1 3e
       0.07890914 0.3379414 0.064075194 0.40943515
000050 e8 83 cc 3d c3 7c fc 3c 6e 4d b5 3d 93 dc 27 3d
       0.099860966 0.03082121 0.08852659 0.04098184
000060 40 4c 45 3e d3 d7 d4 3e 18 e0 b7 3d c2 7a a0 3e
       0.19267368 0.4157091 0.08978289 0.31343657
000070 1b 56 71 3e 90 51 77 3e e7 a6 6c 3f 54 49 76 3e
       0.23568003 0.24152207 0.9244217 0.2405141

weight f4 [32, 32, 4, 4]
000000 fe 35 d7 bd 97 6f b2 3c 8e cd 12 3c 60 b0 65 3c
       -0.10508345 0.021781726 0.008960141 0.014019102
000010 42 e9 93 bc 7e 29 d6 3d d8 ff 1f 3e 58 ab 52 3e
       -0.018055562 0.10457133 0.1562494 0.20573175
000020 c1 a2 e7 bd 6a 3c 39 3d c2 ea 0a 3e a7 fc 9c 3e
       -0.1131034 0.04522363 0.13566115 0.30661508
000030 3a 9e 2e be 18 f3 d5 bd b0 6c 7d 3d e3 8e 4c 3e
       -0.17052546 -0.10446757 0.06187123 0.19976382
000040 d9 c9 3c bd 1a a4 6a bc 20 29 30 be 74 9e ad bd
       -0.046090934 -0.014321351 -0.17203188 -0.08477488
000050 43 f7 c7 3c 47 71 bc bd 07 a6 29 be 25 e9 a7 bd
       0.024409896 -0.092012934 -0.1656724 -0.08198766
000060 b2 cd 8b 3d 28 a3 ba 3c df 45 b7 3b 22 0b 3b be
       0.06826343 0.022782877 0.005593046 -0.18265966
000070 5b 38 81 3d 92 8a 85 3c 5d 7c 1b 3e 2c d0 ef 3c
       0.06309577 0.016301427 0.1518416 0.029274069
000080 4a 61 a7 3d a8 a1 0d be 13 51 af bd b0 2d 54 be
       0.08172853 -0.13831198 -0.085603856 -0.20720553
000090 38 2b 3a be f2 07 45 bd 8c cb 83 3d 62 5d 2c be
       -0.18180549 -0.04810328 0.06435308 -0.16832498
0000a0 ae 1b 27 be 98 9c 08 3d c0 cb e0 bb 77 ae 8a bd
       -0.16319153 0.033352464 -0.0068602264 -0.06771558
0000b0 46 9b bb bd fb 08 02 be 0e 03 66 be 1e 61 8d be
       -0.091604754 -0.12698738 -0.22462103 -0.27613157
0000c0 f8 96 d9 bc db 11 a9 3c e9 92 34 3a e0 7d a0 bd
       -0.026561245 0.020638397 0.00068883464 -0.07836509
0000d0 d6 cb 25 3d 1c dc 69 3d f6 f0 19 3d 07 a1 0c be
       0.040477596 0.05709468 0.037583314 -0.13733302
0000e0 81 f4 75 3d 6e 3f e8 bb 62 ee 9c bd ef 50 68 bd
       0.06004763 -0.0070876395 -0.076626554 -0.05671781
0000f0 a0 c7 6e bd 04 6e 5c bd c1 5c b6 bd b8 e8 c6 bc
       -0.058295846 -0.053815857 -0.0890441 -0.02428089
000100 13 c4 57 3d c4 7a ac bd ce b0 45 bd af d9 ac 3d
       0.052677225 -0.08421853 -0.048264317 0.08439957
000110 4e 99 6f 3e 59 e7 01 bd 5b 04 f2 3b 71 e0 9c bd
       0.23398325 -0.03171477 0.007385773 -0.07659996
000120 12 b5 44 3e 6c ce 19 be d1 37 bc bd f5 fc 28 be
       0.19209698 -0.1502015 -0.09190334 -0.16502745
000130 27 b0 8b 3e 61 bf a8 bd ea a5 1e be 2a 87 03 be
       0.2728283 -0.08239628 -0.15492979 -0.1284453
000140 80 a0 75 bd e2 19 6c 3d c8 da f9 3b 8e 29 cf 3d
       -0.059967518 0.05764187 0.0076249577 0.10115348
000150 a1 bb 3f 3d 39 c9 1c 3d 26 82 9b bc a8 55 86 bd
       0.046809796 0.03827784 -0.018982958 -0.065593064
000160 6f 70 88 3d c5 a6 12 bd 19 3e b3 bd b2 e5 c3 bd
       0.0666207 -0.035803575 -0.087520786 -0.09565295
000170 0a 7e e6 bd e3 b6 d5 bd dc 02 d0 bd 05 5f aa bd
       -0.11254509 -0.104352735 -0.101567954 -0.08318905
000180 c7 a0 e8 bd e2 ae 3f 3d ae 59 d9 3c 65 47 85 bd
       -0.11358791 0.04679764 0.02653202 -0.06507758
000190 4b ab ce 3d ea a2 9a 3d 4c 0d 09 bd a5 19 16 be
       0.10091265 0.07550605 -0.033459947 -0.1465822
0001a0 ac 51 75 3d a6 30 0b 3c b8 f5 86 bd 40 f9 6b be
       0.05989234 0.008495485 -0.06589836 -0.230443
0001b0 d1 6a 23 3d c3 48 c9 bd a4 0f 3d be f0 a1 8e be
       0.03989679 -0.09828331 -0.18462998 -0.27857924
0001c0 c7 34 38 bc 77 e9 6b bc 36 8f c4 bc 4a d7 c4 bc
       -0.011243052 -0.014398924 -0.02399407 -0.02402844
0001d0 45 10 c7 3d 85 cd d0 3d 08 72 0a bc 93 c8 fb bc
       0.097199 0.1019545 -0.008450039 -0.03073529
0001e0 dd f7 89 bd 59 01 e7 3c 27 54 6e 3d f6 1a e7 bc
       -0.06736729 0.028198885 0.058185723 -0.028211098
0001f0 04 39 8e bb 8b 24 73 bd e9 bc 6a 3d 74 20 c5 3c
       -0.004340293 -0.059361022 0.057309065 0.024063326
000200 cf cb c2 bd d6 d3 ca 3d c7 b6 59 3c 85 a2 94 3d
       -0.0951153 0.09903686 0.013288206 0.07257561
000210 3c 51 aa bd e8 d8 a4 bd c7 59 db bb 43 c8 d7 3c
       -0.083162755 -0.08049184 -0.006694052 0.02634061
000220 e1 49 12 be a3 72 0e be 56 ae 02 3e fb 75 88 3e
       -0.14285995 -0.13910918 0.12761816 0.26652512
000230 b4 00 a9 be 77 1d 2d be 90 63 8d bd 61 e0 0f 3e
       -0.3300835 -0.16905771 -0.06903756 0.14050438
000240 30 18 23 bd 26 b8 7d bd 73 9d 85 bc 5c ed 9a 3d
       -0.03981799 -0.061943196 -0.01631043 0.07564804
000250 85 2c 31 bd 64 a1 34 bd 8c cf a9 bd 12 ce 1a 3e
       -0.043255348 -0.044099227 -0.082915395 0.15117672
000260 7d 5d 17 3c 08 00 27 bd 78 40 fb 3b 76 5a a8 3d
       0.009238598 -0.040771514 0.0076675974 0.08220379
000270 1d 8b 3f 3d 8d 16 97 3d 94 93 29 3d af 07 c1 3d
       0.04676353 0.07377348 0.041400507 0.09425294
000280 3b 4a 0d 3e b1 8e fd bc 27 3b 2e bd 3c 69 08 bd
       0.13797848 -0.03095183 -0.04253688 -0.033303484
000290 86 8e 55 3d 0b ca 7b 3d 22 76 c9 3c 72 ac 9e bd
       0.052137874 0.06147198 0.024592463 -0.07747735
0002a0 53 bd 40 3e 5a d3 9b ba 38 75 7c bd 2e ef 5e 3c
       0.18822221 -0.0011888549 -0.061635226 0.01360683
0002b0 24 d8 77 3e 07 99 8a ba a2 ab 89 bc d9 b2 49 3d
       0.24203545 -0.001057417 -0.016805474 0.049242828
0002c0 32 6e c3 3d bc de 1d be fa ee e3 bd 54 2e 0d be
       0.095425025 -0.15416998 -0.111295655 -0.13787204
0002d0 73 57 8a 3e 75 85 90 bd 84 86 5c be 34 da 78 be
       0.27019843 -0.07056705 -0.21535689 -0.24301988
0002e0 0d 6f f7 3e 8c 63 6a 3d ef 26 55 be 08 7d a9 be
       0.48326913 0.05722384 -0.20815633 -0.33103204
0002f0 cf f1 21 3f 0d 8a 88 3e 3a 74 9e bc 6a 0b 87 be
       0.63259596 0.26667824 -0.01934253 -0.26375896
000300 34 10 1c be d3 bd 9b 3a 93 98 3a bb a6 6f b9 3d
       -0.15240556 0.0011882134 -0.002847229 0.090544984
000310 95 3c 00 bc e0 e7 9e bc e0 96 c6 bc c8 ae 06 bd
       -0.007826944 -0.019397676 -0.024241865 -0.03288153
000320 84 05 ee bd 1b 55 cd 3a 41 c4 7b 3d 56 06 7d 3e
       -0.11622146 0.0015665622 0.06146646 0.24709448
000330 61 a2 35 be 13 99 b8 3c 4c 2d 88 3d a0 9b 40 3e
       -0.17737724 0.022533929 0.06649265 0.18809366
000340 51 47 00 3b 6a 73 b4 bd f1 6a f2 bd c4 5c 05 be
       0.0019573758 -0.08811076 -0.11836804 -0.13023669
000350 19 e8 04 3e 5c 25 7f bd 21 3c 4f bd f0 c5 cb bd
       0.12979163 -0.062291488 -0.050594453 -0.09949863
000360 f4 35 97 3e 8b 08 1a 3d 27 11 b7 bd 1f db f8 bd
       0.2953335 0.037605803 -0.089388184 -0.12151169
000370 45 a1 51 3e a0 b6 29 bd 4f 29 5d be 96 fb 9f be
       0.20471676 -0.04143393 -0.21597789 -0.31246632
000380 a8 93 54 3d 72 7d 76 bd 99 3d 6b bc 78 63 59 3d
       0.05189863 -0.060178228 -0.014357948 0.053073376
000390 1e 52 0e 3d 90 2b fb bc 62 a7 3a bd fb 31 09 be
       0.03474628 -0.03066042 -0.045569785 -0.13397972
0003a0 ec 15 9a 3d 18 91 84 3c d6 bf bf 3d ae ea 88 bd
       0.075237125 0.016182467 0.09362762 -0.066853866
0003b0 f2 37 82 3c 6f da fd 3d fe 31 c9 3d 3b 08 8e bd
       0.015895817 0.123951785 0.098239884 -0.069351636
0003c0 a3 4d 4c 3c 91 43 3f bd 19 0c 9a 3d 40 49 6a 3d
       0.012469682 -0.046695296 0.07521839 0.057198763
0003d0 04 4b 02 bd c3 b0 fc 3b 07 99 e9 bb 03 4b 0d 3d
       -0.03180982 0.0077115013 -0.007128838 0.034495365
0003e0 2c 18 d1 3c 49 dd 0a 3d 39 60 1b bd 92 dc 6b 3c
       0.025524221 0.03390244 -0.037933562 0.01439585
0003f0 53 63 34 3d 7f b5 fe 3d 09 aa 46 3b ce 9a 37 bd
       0.044040035 0.124369614 0.0030313751 -0.044825368

bias f4 [32]
000000 5b 45 66 bb 9e 87 af bd 18 8a b1 bd 44 74 bc bb
       -0.0035136554 -0.08570789 -0.086689174 -0.0057511646
000010 aa e7 35 bc 4e 75 0b be 9f 4e 2f bc c2 bb 96 bc
       -0.011102596 -0.13618967 -0.010699897 -0.018400077
000020 56 be ef 3c 73 ef d5 bc c1 60 58 bd 5f 9c 55 3c
       0.029265564 -0.026115155 -0.052826647 0.01303777
000030 7b a1 7b bd 88 73 43 3d 6b 92 3b bd d8 f3 aa bd
       -0.061433297 0.0477176 -0.045793932 -0.08347291
000040 ce 0f d3 bd 8b da 34 bd 7e 29 1f bc ef a8 1e 3d
       -0.10305749 -0.04415373 -0.009714482 0.038735326
000050 ad e6 a6 bd 86 0a ac bd a3 c3 6a bd 2c 5b 7d bc
       -0.08149467 -0.08400445 -0.05731548 -0.015463632
000060 9a 80 cf bc 14 61 c5 bc 79 cf 74 bb 12 8a d7 bb
       -0.025329877 -0.024094142 -0.0037355109 -0.0065777386
000070 d3 6a 85 bd 4c 9c b3 bd 5d cb 00 bd 0e dc 48 bd
       -0.06514516 -0.08770046 -0.031443942 -0.049037986

weight f4 [32]
000000 a1 9d 8b 3f 31 bf 87 3f f3 fe 79 3f f2 fa 69 3f
       1.090748 1.0605222 0.97654647 0.9139854
000010 8e 9a 75 3f 8a 7e 65 3f 29 1e 76 3f 63 dc 85 3f
       0.95938957 0.8964621 0.9613977 1.0457882
000020 85 c5 68 3f f6 c9 92 3f 37 42 61 3f bc 2c 7f 3f
       0.9092639 1.1467884 0.8799166 0.99677634
000030 8e ca 6e 3f 6b 07 86 3f 22 c6 65 3f 04 52 52 3f
       0.93277824 1.0471014 0.8975545 0.82156396
000040 96 3c 8f 3f 47 3d 82 3f ff ab 72 3f 55 a9 a1 3f
       1.1190364 1.017495 0.94793695 1.2629801
000050 4a e4 77 3f 7e c2 70 3f 69 3e 6e 3f 77 7f 61 3f
       0.96832716 0.9404677 0.9306398 0.8808512
000060 20 7d 7d 3f 2c bb 86 3f cc ab 77 3f 21 9f 67 3f
       0.9901905 1.052587 0.96746516 0.90477186
000070 b0 b7 87 3f 61 84 81 3f eb e9 5b 3f eb 02 83 3f
       1.0602932 1.0118524 0.85903805 1.0235265

bias f4 [32]
000000 cf 4d 00 bf 6c 84 f0 be 7e 54 0a bf b3 ed 00 bf
       -0.50118726 -0.4697603 -0.54035175 -0.503627
000010 9e 40 c1 be 9a 2e a1 be 69 db 02 bf 65 38 05 bf
       -0.37744612 -0.31480867 -0.51116043 -0.52039176
000020 21 21 e5 be ed e5 19 bf d2 63 9e be 45 23 b7 be
       -0.44751838 -0.60116464 -0.30935532 -0.35769096
000030 ad 6e 06 bf 43 37 c4 be 8b c5 bb be 24 ea b1 be
       -0.5251263 -0.3832341 -0.3667415 -0.34748948
000040 70 40 ef be 2f 51 10 bf 96 c1 8f be aa ce e5 be
       -0.4672885 -0.56373876 -0.28077382 -0.44884235
000050 ea 6c ae be 87 05 f0 be 5a 2a 0c bf c5 70 02 bf
       -0.3406747 -0.46879217 -0.54752123 -0.5095332
000060 24 f7 99 be 28 37 15 bf 84 d3 ef be f3 a3 a2 be
       -0.30071366 -0.58287287 -0.4684106 -0.31765708
000070 62 13 ee be 07 d0 d3 be b7 c0 49 be c9 a4 e9 be
       -0.46499163 -0.4136965 -0.19702421 -0.45633534

running_mean f4 [32]
000000 46 55 71 bf c7 80 37 bf ef 5e 53 c0 81 48 45 c0
       -0.9427074 -0.71680874 -3.3026693 -3.0825503
000010 21 1d 45 bf f9 b1 48 c0 75 54 2f bf 6c 86 b9 bf
       -0.7699757 -3.1358626 -0.68488246 -1.4494147
000020 a0 38 1b c0 e6 cd 80 c0 f3 92 af bf fe fe ad 3e
       -2.425331 -4.025134 -1.371672 0.33983606
000030 42 5d fe be 9b f6 c3 bf 31 55 28 c0 ed 5b 4f bd
       -0.49680525 -1.5309633 -2.6301997 -0.050624777
000040 a3 8d 97 c0 94 8a 51 c0 7e d0 d2 3f ea 91 ba bf
       -4.7360396 -3.2740831 1.6469877 -1.457578
000050 74 4b 97 c0 22 f5 70 bf e1 09 ad be 5f fe 71 3f
       -4.7279606 -0.94124043 -0.337966 0.94528764
000060 5b 43 fa bf 2c 4e 88 bf b8 c6 8e 3f 36 ba 3d c0
       -1.9551805 -1.0648856 1.1154394 -2.9644904
000070 2c b2 b6 c0 5c ad 0b c1 41 cb 15 3f 0f 3e 0b bf
       -5.7092495 -8.729824 0.58513266 -0.5439157

running_var f4 [32]
000000 97 67 57 41 0b ee 24 41 0b 5c 7a 41 fe 37 81 41
       13.4627905 10.308116 15.647471 16.15234
000010 3c 48 8c 41 03 41 58 41 e6 a4 78 41 4e 5c 65 41
       17.53527 13.515872 15.540258 14.335035
000020 af b9 94 41 62 97 b8 41 45 10 41 41 98 0d 7d 41
       18.590666 23.073917 12.066472 15.815819
000030 2f 7f 1f 41 43 9c 3a 41 17 eb 2c 41 fd 33 41 41
       9.968551 11.66315 10.807395 12.075192
000040 30 e2 bd 41 50 ce 6a 41 88 c9 2f 41 38 9f 6b 41
       23.735443 14.675369 10.986702 14.726372
000050 59 8c 6f 41 54 ee 4b 41 96 fd 6a 41 d0 38 68 41
       14.971765 12.745686 14.686911 14.51387
000060 4e 56 4e 41 db 7c 29 41 09 e1 2d 41 7c 54 4f 41
       12.8960705 10.592982 10.86744 12.958126
000070 a1 35 c4 41 75 32 16 42 be c5 4d 41 69 21 7c 41
       24.526186 37.549274 12.860777 15.758157

weight f4 [256, 800]
000000 5d c9 1c 3e 54 ab 46 3e 21 6c 14 bc d3 2f cf bd
       0.15311189 0.19401294 -0.009058983 -0.101165436
000010 42 09 af bd c2 47 ab bd 2f ab 0a 3e 70 e5 81 3e
       -0.08546688 -0.08363296 0.13541864 0.2537036
000020 6d 92 af 3c fd dd 6d bd 6b fc 10 be 59 51 89 bd
       0.021432126 -0.058073033 -0.1415879 -0.06704969
000030 55 97 31 3e f7 4f 2c 3e f7 4b c9 3d 8c 67 48 3d
       0.17342885 0.16827379 0.09828942 0.048926875
000040 dc b9 5e 3d b8 fa 61 bd 4b f8 8e 3e dd fe 87 3e
       0.054376468 -0.055170745 0.27923808 0.26561633
000050 25 23 97 3e 61 0c 0c 3e ba 61 81 bd 6c 59 a3 bd
       0.29519 0.13676597 -0.06317468 -0.0797604
000060 ec ac 49 3c ad 42 11 be cd ba 5e bc 35 c1 15 be
       0.012309294 -0.14185591 -0.013594341 -0.14624484
000070 ad a7 04 3d dc 12 1e 3e 7f f3 01 3e 48 00 11 bb
       0.03238647 0.15436882 0.12690543 -0.0022125412
000080 a9 40 14 3e 89 4f 22 3c 69 bb dc bd 53 2b 96 bd
       0.14477791 0.009906658 -0.10777933 -0.07332482
000090 8a e0 0a be 0c c9 b7 bb 3c b7 5f 3e e2 b9 87 bd
       -0.13562217 -0.0056086835 0.21847242 -0.06627251
0000a0 5c f9 36 bd 1f 11 34 3c c5 1c 93 bd de 96 f3 bb
       -0.0446714 0.01099041 -0.07183222 -0.0074337563
0000b0 0d de 2e bd 6e f4 1b be 45 ff e9 3c 62 81 0e be
       -0.042692233 -0.15229961 0.028564105 -0.13916543
0000c0 93 dc 04 bd ba af 12 3e 7c 78 30 3e 95 ab 51 3e
       -0.03243692 0.14324847 0.17233461 0.2047561
0000d0 6f a4 d1 3c 1e 9a 6f bd 0a ec d0 bc d1 25 0f bd
       0.025591103 -0.058496587 -0.025503177 -0.034948174
0000e0 70 7d e3 bd 22 b1 87 3d 65 4a ae bd 94 33 9c bd
       -0.1110791 0.06625582 -0.085102834 -0.07627025
0000f0 9d 37 bf 3d ec 85 77 be 05 06 39 be 8e 33 14 bd
       0.09336779 -0.24172181 -0.18068703 -0.03618198
000100 dc a2 8f 3d ec 2d 04 be b7 9d ab bc c0 92 24 bd
       0.07013485 -0.12908143 -0.020949228 -0.040179014
000110 54 f1 ee 3d ee 07 df 3c d0 01 20 bd ba 63 3b bc
       0.116671234 0.02722546 -0.03906423 -0.011437351
000120 4b d8 b0 bd 36 2c 0a 3e 34 2e 89 3e 55 a0 f1 3d
       -0.086350046 0.13493428 0.26793063 0.11798159
000130 6c 28 99 3d 6d 0b a9 bd 95 7d 49 bd ba ea 1b 3b
       0.07478413 -0.082541324 -0.04919203 0.002379103
000140 00 2a a4 bd ff 16 16 be a2 d9 28 bd d7 6c f8 3c
       -0.08015823 -0.1465721 -0.041223176 0.030325336
000150 19 f9 9a bc aa c7 85 bd e0 ad 2a 3d 44 98 c1 3d
       -0.018917607 -0.065322235 0.041669726 0.094528705
000160 03 66 0e be 6f bf 36 bc 77 07 cc bd c6 eb 98 bc
       -0.13906102 -0.01115404 -0.09962361 -0.018667113
000170 79 ca eb 3c d1 c8 10 bd 04 f8 e9 bc af 7a 77 bc
       0.02878307 -0.035347763 -0.028560646 -0.015104934
000180 da 33 51 be 8f 7e eb bd 60 83 36 be 69 27 8e 39
       -0.20429936 -0.114987485 -0.17823553 0.00027113713
000190 b1 82 16 3e 5e d8 95 bd db 8f 6d bd c8 95 95 bd
       0.14698292 -0.073166594 -0.05799852 -0.07303959
0001a0 a3 e3 06 bd 23 9d 44 bc 7c df ec 3d 43 ee ff 3d
       -0.032931935 -0.012000355 0.11566064 0.12496617
0001b0 de 36 2d 3e bf 87 93 3d 9c 47 f9 3c 9a 37 97 bd
       0.16915461 0.07203626 0.030429654 -0.07383652
0001c0 99 63 2a be 50 6e f3 bd 38 aa f6 3d b6 10 a4 3c
       -0.16639556 -0.11886275 0.120441854 0.0200275
0001d0 1d 1c c0 bb d5 4a b5 bc ee 7b c3 bd 88 34 21 be
       -0.0058627264 -0.02213041 -0.09545122 -0.15742695
0001e0 4b 51 56 3d 79 7d e5 3d 81 ed 8f 3d bb 11 f3 bc
       0.05232362 0.11205573 0.07027722 -0.02967154
0001f0 69 be 33 be e1 8f 0e bd d4 7e 84 bd 5c c5 1e 3d
       -0.17553104 -0.034805182 -0.06469503 0.038762435
000200 48 e9 0b bd 20 17 3b bd 29 1a b9 3c 31 35 82 3d
       -0.03415802 -0.04567635 0.022595482 0.06357802
000210 02 87 83 3d cd 53 43 ba 98 66 e1 bd 71 e1 1d 3e
       0.06422235 -0.0007451147 -0.11005896 0.1541803
000220 1d 93 8f 3c 96 04 40 3b ae e3 00 be 16 51 93 bd
       0.017526204 0.0029299608 -0.12586853 -0.071932
000230 d6 cc e8 3d 31 5b 2f 3e 5a a2 f8 3d 30 c5 bc bd
       0.11367194 0.1712463 0.12140341 -0.09217298
000240 ae 8d 03 be bc 50 71 be 5d 74 b5 3d 2b eb 75 3c
       -0.12847015 -0.23565954 0.08860085 0.015009682
000250 71 49 aa 3d 78 e7 00 be f3 84 39 bd 83 5a f2 3c
       0.08314789 -0.12588298 -0.045292806 0.029584175
000260 c6 f1 b9 3d 12 1a 0d 3e 38 55 28 be 24 b6 42 3e
       0.09079318 0.13779476 -0.16438758 0.19014794
000270 d4 e8 91 3b fa 46 80 3d 2c 4e 37 3c a8 ad 0a 3e
       0.004452804 0.06263538 0.011188071 0.13542807
000280 a6 95 00 bd 84 d0 0a be 50 e7 66 3d 00 9a 8a 3d
       -0.031392716 -0.13556105 0.05637294 0.067676544
000290 96 5a a4 bd 17 f4 8b 3e aa a2 2a 3e 40 bd f4 3d
       -0.080250904 0.27334663 0.16663614 0.11950159
0002a0 1b 86 a2 3d 2f f9 27 3d d2 d6 1b 3e a3 92 9a 3d
       0.07935735 0.041009124 0.15218666 0.075475
0002b0 32 f7 60 3c 43 f5 bd 3c c7 56 0a 3e 49 11 d8 3d
       0.013730811 0.023188239 0.13509665 0.10550172
0002c0 36 fd dc bd 2b 4e c5 bd 0d c1 1e be 4b 0f c9 3c
       -0.10790484 -0.0963405 -0.1550333 0.024543425
0002d0 1f 2d 42 be 9a cd 10 3d 15 06 3f 3d fd 7d 16 3e
       -0.18962525 0.035352327 0.04663666 0.14696498
0002e0 e3 a2 b3 bc dd 90 7d be f5 e0 3d be 2e 1d 55 be
       -0.021928256 -0.24762292 -0.18542846 -0.20811912
0002f0 d2 89 92 bd c3 8c 45 be 59 51 6d bd 7a b7 67 be
       -0.071551934 -0.19291978 -0.057938907 -0.22628585
000300 bf b9 8f be 58 38 a4 bc 7a ba 87 be 08 c6 7f be
       -0.280714 -0.020046398 -0.26509458 -0.24977887
000310 7a 4f 31 be 50 d5 c3 be f2 eb 17 bd 3f 36 da 3d
       -0.17315474 -0.38248682 -0.03709025 0.10654878
000320 3f 61 10 be e2 b6 0a be 6e 13 0c bd e3 d0 64 bb
       -0.14099596 -0.13546327 -0.034198217 -0.0034914545
000330 25 45 1a 3d 23 91 a3 bd db 2f 51 bd b4 6c ff bb
       0.037663598 -0.07986667 -0.05107103 -0.007794941
000340 a9 89 00 3e 5a 95 6e 3d 74 b5 9d bd 1d 12 88 bc
       0.12552513 0.0582479 -0.07700625 -0.0166102
000350 be 89 28 bd 05 84 bd 3d 6a 67 99 bd 28 5f e4 bc
       -0.041146986 0.09253696 -0.07490428 -0.027877405
000360 20 4d 44 bd 75 69 55 3d dc 51 65 3c 2a bc ee bb
       -0.047925115 0.052102525 0.013996568 -0.0072856145
000370 50 81 9e 3d 9c 83 b6 3d 16 c8 87 bb 9f 51 9b 3d
       0.07739508 0.08911821 -0.004143725 0.07583927
000380 65 7f 73 3e 72 43 4f bd 6c b8 36 be 7a 88 68 be
       0.23779066 -0.05060143 -0.17843789 -0.22708312
000390 7e dd aa 3d 9a f7 87 3d 06 21 1c bd f7 dd 37 be
       0.083430275 0.06639023 -0.03811743 -0.17955767
0003a0 d0 85 74 be d1 74 e5 bc 21 a3 13 3c 20 91 90 3d
       -0.2387917 -0.028009804 0.009011061 0.070589304
0003b0 cd dc 70 be e2 a7 45 be e4 31 8e 3c 75 27 ce bd
       -0.23521729 -0.19302323 0.017357774 -0.100661196
0003c0 08 57 5d be db 4c 14 be 5c f5 0c 3e 88 5a c6 3d
       -0.21615231 -0.14482443 0.13765472 0.09685236
0003d0 e1 94 55 3c d8 91 65 be 8e 8f 98 3d 71 3b 39 3e
       0.013035984 -0.22418916 0.07449256 0.18089081
0003e0 f9 85 3f 3e be 79 c0 3c 85 32 26 3e b1 4f 49 3d
       0.1870345 0.023495551 0.16230209 0.049148265
0003f0 d1 53 9d bc 32 a8 92 bc 4d 03 bd bd d9 d9 4b 3d
       -0.019205006 -0.017902467 -0.09229145 0.049768303

bias f4 [256]
000000 94 d5 e0 3c 82 ba 13 3d f7 f9 55 bc 1f c1 60 3d
       0.027445592 0.03606654 -0.013060085 0.054871675
000010 d7 67 67 bc 89 9e 4d bd 2d d9 ec 3a 78 5d c8 3c
       -0.014123878 -0.05020002 0.0018070095 0.024458632
000020 60 28 c0 bd f0 5f 33 bd a4 15 83 3c 2e 19 f7 39
       -0.09382701 -0.043792665 0.01600153 0.00047130272
000030 89 92 f9 bb 03 24 93 3e 79 4f 88 bc 8d 2e 35 bd
       -0.0076163453 0.28738412 -0.016639458 -0.044233847
000040 e9 ec 96 3d 8b 93 20 3c 6b 0e c9 3d 11 e0 e3 3b
       0.07369406 0.009800802 0.09817203 0.006954201
000050 c3 2b 2a 3c a8 a3 0f bc 7e 8d b8 bc ac 0f ce bc
       0.01038641 -0.008767046 -0.022528406 -0.025153957
000060 e7 fa a9 3c 17 87 e9 bb 47 1a 1a bd 71 81 06 bc
       0.020749522 -0.0071266997 -0.037622716 -0.008209572
000070 c8 54 98 bc b8 81 0e 3e 74 7b 06 bd a6 5a b7 bc
       -0.018595114 0.13916671 -0.032832578 -0.022382092
000080 cc 53 4d bc 87 e8 8b bd 9a 65 1a bd a9 be 21 bd
       -0.012532186 -0.068314604 -0.03769455 -0.03948847
000090 b7 d6 41 3e 3c 13 28 bc 0f d5 d3 bd 40 b4 bd bc
       0.18929563 -0.010258492 -0.10343372 -0.023157239
0000a0 f1 6c e4 bd 61 b7 c2 bb 05 ba 8f bc ed e5 64 bb
       -0.111535914 -0.0059422706 -0.017544756 -0.0034927086
0000b0 cc 0d 97 bc 10 df 0a be 86 19 da 3c 60 a8 69 bc
       -0.018439196 -0.13561654 0.026623499 -0.014261335
0000c0 a9 2c 1f bc 33 00 5f 3b 84 4e 34 3c 71 ba ec 3c
       -0.009715238 0.0034027218 0.011005048 0.028897496
0000d0 dd 2f 4e 3e 25 4c 12 3e 87 f7 ef 3d 00 5a fe 3c
       0.20135446 0.1428686 0.11717134 0.031048775
0000e0 af 1b 67 bc 4d 3a c5 bb f8 d8 4a bb e1 36 e8 bc
       -0.014105721 -0.006018913 -0.0030952077 -0.02834648
0000f0 8b df 7d 3c a8 e1 db bb 09 23 dd bb 13 21 92 3e
       0.015495191 -0.00671025 -0.0067485613 0.2854086
000100 72 7f 2d bd 12 6d 34 bd 43 62 80 3d d9 5a 0b bd
       -0.04235787 -0.04404933 0.06268742 -0.034022186
000110 c1 61 3f bc b0 d1 a6 ba 0c b8 56 3e 0f 40 79 3c
       -0.011681021 -0.0012727287 0.20968646 0.015213027
000120 a2 ea 5b 3c 38 8c 29 be 3c 71 e0 bc 14 24 32 bd
       0.01342264 -0.16557395 -0.027397744 -0.043491438
000130 47 26 14 bd 62 7c db bd 58 39 0c 3e f4 1e 0f 3e
       -0.036169317 -0.107170835 0.1369375 0.13976651
000140 18 2b e2 3d 8e 4c f3 bc 20 de bb bc ad 6b e1 3c
       0.11043376 -0.02969959 -0.022933066 0.027517164
000150 e4 b4 51 3e 86 3f 5d bc 74 48 2c bc 3d 4c 09 bd
       0.2047916 -0.013503915 -0.010515321 -0.033519972
000160 67 76 a3 3d c4 4b 0c bd 71 09 9d bd 9e f2 9c 3c
       0.07981568 -0.034251943 -0.076678164 0.019158658
000170 ad 85 46 bd 34 6e 20 be e3 26 96 3d 78 ec 2f bb
       -0.048467327 -0.15667039 0.07331636 -0.0026843827
000180 c2 a2 ea bd e1 43 4f bd a5 c4 d3 3c c5 65 f2 bc
       -0.11456825 -0.050601844 0.025850603 -0.029589543
000190 85 6a bc 3c 9f ec 45 bd f9 4d 2d bd 62 5f b1 3d
       0.023000011 -0.048321363 -0.04231069 0.08660771
0001a0 24 bc 22 3e 10 0f 24 bd fd d5 62 3d cb 31 3c bc
       0.15892082 -0.040053427 0.055379856 -0.011486481
0001b0 d4 51 ae 3b 9d c8 f2 bd 9b f0 63 bd 4d 66 83 3d
       0.0053198133 -0.1185467 -0.05564938 0.06415997
0001c0 c4 2a 30 bd c8 69 94 3d e9 8c a1 bc 66 6d e5 bd
       -0.043009534 0.07246739 -0.019720512 -0.11202507
0001d0 9a 0d 53 bc 7b 17 bd 3c b4 bd 05 bd 5b 48 a5 bd
       -0.012881661 0.023082485 -0.032651618 -0.08070441
0001e0 b2 31 b2 3d c0 09 61 3c d5 55 af bc f6 a4 72 bc
       0.08700885 0.013735235 -0.021403233 -0.014809838
0001f0 6e 10 3d 3e d2 bc b7 bc 9c 0d b8 bd 87 30 92 3b
       0.18463299 -0.022428904 -0.08986971 0.0044613513
000200 38 1f 5c 3d ed 84 cc 3d 95 6f db 3b f3 85 96 3b
       0.05374071 0.09986291 0.006696651 0.0045936047
000210 32 2e cd bc 61 f2 22 3d b1 b0 94 3c 57 21 b4 bb
       -0.025046442 0.03978193 0.01815066 -0.0054971385
000220 62 28 69 bb eb 97 23 3e f6 da 37 bc 5f 2c e9 bc
       -0.0035577049 0.15975921 -0.011221638 -0.02846354
000230 b7 1d eb bc 28 7c e1 3b df 93 37 39 16 d4 39 3d
       -0.028700693 0.0068812557 0.00017507326 0.045368277
000240 80 65 64 bd 63 69 7b 3d 98 4a 08 be 35 a8 c0 3c
       -0.05576086 0.0613798 -0.13309705 0.023517707
000250 96 4c 7b 3c 8a aa f8 bd d8 9c 6c 3e 0a 4a bd bd
       0.015338084 -0.12141903 0.23106706 -0.092426375
000260 2f a7 7c bc 80 e3 41 bd 16 1c c9 bc 43 20 a1 3c
       -0.015420719 -0.0473361 -0.024549525 0.019668704
000270 43 b4 c2 3c d3 48 8d bc ea e5 9b 3d d3 3e d3 bc
       0.023767596 -0.01724664 0.07612212 -0.025786793
000280 27 1e 18 bd f2 e0 cd 3c 8b 1d 2b bd 94 35 e0 bc
       -0.03713813 0.025131676 -0.04177622 -0.027369298
000290 af 5f 38 bd 0a b0 ba 3b 31 a8 47 3e 88 42 aa bd
       -0.045013126 0.005697255 0.19497754 -0.08313471
0002a0 aa f3 3a bc 51 37 15 bd b1 9b 0a 3e e0 f4 3d bd
       -0.011410633 -0.036429707 0.13535954 -0.04637611
0002b0 9c d1 cb 3d f9 0a 4d 3c 62 3b 30 bd 70 19 81 3e
       0.09952089 0.012514823 -0.043025382 0.2521472
0002c0 bd 7b 9a 3d da 24 68 bd cc d0 2c 3e e3 28 88 3d
       0.075431325 -0.05667577 0.16876525 0.066484235
0002d0 da dc 58 3c a7 b4 2d 3e c9 9e 0e 3e 7d e2 14 3b
       0.013236249 0.16963445 0.13927759 0.0022718005
0002e0 4c d4 03 bd f6 25 1e 3e 69 96 78 bd 05 f3 74 bd
       -0.032184884 0.15444168 -0.060690317 -0.059802074
0002f0 f4 cd 03 3e e4 21 2d bd e4 b1 cc bd 5e 8b 87 bb
       0.12871534 -0.04226865 -0.099948674 -0.004136487
000300 29 3f 2f 3e 4c 27 df bc 49 e9 f0 bc 74 8f c9 3c
       0.17113937 -0.027240418 -0.029408114 0.024604537
000310 0a bd 06 3d 74 60 5f 3c cc a8 c1 3d 38 af 00 be
       0.032895125 0.013633836 0.094560236 -0.1256684
000320 08 9e b5 bd 87 8e 79 3c dc 80 b2 bc 02 61 ad bc
       -0.08868033 0.015231735 -0.02178996 -0.021164421
000330 aa d0 db 3b b9 9f 01 3d c3 72 97 3e c2 3b 0c 3d
       0.0067082243 0.031646464 0.29579744 0.034236677
000340 f2 55 a7 3d 9c ba 0d bd 33 fc 89 3c 4e aa 06 3e
       0.0817069 -0.034601793 0.01684389 0.13150904
000350 bd 57 89 bc ff d0 e7 bd e7 6a e3 3d 5d a8 45 bd
       -0.01676547 -0.1131916 0.111043744 -0.048256267
000360 81 6b 1d 3c 1e 29 6c 3c 1d e8 89 3c 9d eb 61 bd
       0.00960815 0.0144141 0.016834313 -0.05515634
000370 bc 49 ad bd 99 a6 8d bd b5 90 47 bd 0a ce 10 bd
       -0.08461329 -0.069165416 -0.048721988 -0.035352744
000380 00 fb 00 be cf 8e d9 3d 80 32 73 3b ed 5e d7 3c
       -0.12595749 0.10622942 0.0037108958 0.026290381
000390 8e 15 ba 3d 38 fe 6d bc 0e 1a a7 3d e0 42 4f bd
       0.090861425 -0.0145259425 0.081592664 -0.050600886
0003a0 56 77 5d 3d 2c da af 3d 23 6e 45 be 08 10 8c 3d
       0.054068886 0.08586535 -0.19280295 0.06838995
0003b0 ac 91 40 3c 4c 3b c0 bd c5 7e c7 3c 23 09 2d bd
       0.011753481 -0.0938631 0.02435244 -0.04224504
0003c0 3d 97 9b 3d 89 2f 36 3e ef e7 4f bd f8 63 ea 3d
       0.07597206 0.1779157 -0.0507583 0.11444849
0003d0 a8 0b 20 3c 12 50 fd bc 23 84 09 be 86 9d 9c bb
       0.009768404 -0.03092197 -0.13429312 -0.0047795204
0003e0 8b 92 e7 3d d8 1e 3b 3e 36 ef 2a 3c d2 7c fd 3b
       0.11307248 0.18273485 0.010433009 0.007735827
0003f0 2c 54 b3 bc 9a 45 52 bd 56 8b 5f bc 37 e7 14 bd
       -0.021890722 -0.05133591 -0.01364406 -0.036353316

weight f4 [10, 256]
000000 c5 b2 50 be 07 dd 8a be 9b 7b fd 3d d5 44 d7 3c
       -0.20380695 -0.27121755 0.123770915 0.026277939
000010 c9 f1 15 bd 49 61 40 3d b7 7d 2b 3d 52 f1 5a bd
       -0.036607537 0.04696778 0.041867938 -0.053452797
000020 71 24 26 bd 22 05 dc 3c 86 09 13 be cf bf c2 3c
       -0.040562097 0.026857916 -0.14359102 0.023773102
000030 4e ab 20 bd 3a 8b 95 be d3 cf a5 3c 9a 97 73 bc
       -0.03922587 -0.29207784 0.0202407 -0.014867688
000040 5f 75 3f 3d 73 f9 d5 bc 11 eb 36 be 81 ff 48 3d
       0.046742793 -0.026119923 -0.17863108 0.049071793
000050 d1 98 0a 3d da 51 0a 3d a3 96 37 bd b3 87 98 bc
       0.033837143 0.033769466 -0.044821393 -0.018619394
000060 fd 19 4a bd fd f4 b0 be 6e 5e f8 bb 9b 1a 51 3d
       -0.04934119 -0.3456191 -0.0075796163 0.051050764
000070 7b a6 ae 3c 0d e0 dc bd c7 9b 62 bc de 79 8c be
       0.021319618 -0.10784922 -0.0138310855 -0.27436727
000080 a2 0a 82 bd 23 d1 4a 3e a8 6d 34 3d 62 66 fb bc
       -0.06349684 0.19806342 0.04404989 -0.030688468
000090 43 2f 5a be 04 1a 63 3d 68 38 0d 3e e0 39 50 bd
       -0.21307091 0.055444732 0.13791049 -0.050836444
0000a0 22 eb 3d be 10 63 62 3d d6 d6 ef 3c a4 96 80 bd
       -0.18546727 0.055270255 0.029277246 -0.062787324
0000b0 a7 91 38 bd 5e 23 4a be ab 9c cb 3d 66 fe 31 be
       -0.04506078 -0.19740054 0.099419914 -0.17382202
0000c0 e1 27 15 bc 90 c6 01 3c fe 51 dd 3b cf 27 22 be
       -0.009103746 0.007920876 0.006754159 -0.15835498
0000d0 8e ac 5e 3d cc 4b fb bd a6 64 0e bc f8 40 45 bd
       0.05436378 -0.122703165 -0.008690989 -0.048157662
0000e0 2f 71 21 3d 54 cd 20 3c 48 21 b4 bc b5 8c 1d 3d
       0.03941458 0.009814579 -0.021988526 0.038464267
0000f0 81 e2 b3 3d 0b a5 99 bc b3 6e 27 3d 3a 7d be bd
       0.087834366 -0.018755456 0.040877055 -0.09301229
000100 25 0b 8b bd 48 5b cd bc 2b cf a5 bd 2e bb 09 3d
       -0.06789235 -0.02506794 -0.08096155 0.033625774
000110 2c 84 8a be a8 03 24 bd 22 a4 8b be 84 8d 5d 3d
       -0.27053964 -0.04004255 -0.2727366 0.054090038
000120 94 75 d8 3b 3c e7 db 3d 46 ea d8 bc 8f 3b 26 3d
       0.0066058133 0.10737464 -0.026478898 0.040584143
000130 b3 4b 1d 3d f7 15 15 3e 71 d2 30 be 1d 9d 31 be
       0.03840227 0.1455916 -0.17267777 -0.1734509
000140 09 ac af 3d 5c 5a 55 bd 85 5b 45 bc 9f e4 42 be
       0.08577735 -0.052088127 -0.012045746 -0.19032525
000150 8b 42 b4 be 22 f8 0d 3d 81 d9 f7 3c c1 8d 7f bd
       -0.35207018 0.034660466 0.030255081 -0.062391046
000160 22 0a ad bd 06 ee 98 3c 45 e6 dd 3e c0 65 b0 bb
       -0.08449198 0.018668186 0.43339744 -0.0053832233
000170 a0 7f 2a 3e cd c5 16 3e f3 ff b2 3e 24 71 6a bc
       0.16650248 0.14723893 0.349609 -0.014309201
000180 f3 ad 27 3d 21 23 9a 3d a2 3f 08 3d a6 cb 46 3c
       0.040937375 0.075262316 0.03326381 0.0121335145
000190 1d 4f e5 3c ed 38 97 3d 6f 8a 2c 3d 65 98 11 bd
       0.027991826 0.073839046 0.042124208 -0.035545725
0001a0 46 11 39 be 00 34 76 bd 7d 06 b0 bd 04 0c d5 3c
       -0.18072996 -0.060108185 -0.085949875 0.026006706
0001b0 fa 25 15 3d 04 3a 29 3d fc cf 4d be 87 6f 8f 3d
       0.03641317 0.041315094 -0.20098871 0.07003694
0001c0 20 b9 e1 bc b5 c7 d7 3c 44 b9 a9 3d 18 23 06 be
       -0.027554095 0.026340345 0.0828729 -0.13099325
0001d0 e5 7c 4b 3c ae 57 ec 3c 85 f3 c7 3c 94 d3 1d 3c
       0.012419914 0.028850403 0.024408111 0.009632964
0001e0 6b 76 ff bc 78 18 67 bd 9b 00 3b bd ef d0 94 3e
       -0.031184396 -0.05641982 -0.045654874 0.29065654
0001f0 f2 b0 c5 bd d2 52 0c bd 2c 4f 10 be 06 75 ae bb
       -0.0965289 -0.03425867 -0.14092702 -0.005324009
000200 d7 58 1d 3c 60 25 e5 bd 00 bf 2e 3d 4a 95 db 3c
       0.009603701 -0.11188769 0.04266262 0.026804585
000210 21 34 30 3d c2 14 00 3e ee 26 14 bd a9 b6 1f bc
       0.043018464 0.12507918 -0.03616994 -0.009748139
000220 cf c4 2a 3d f8 0f e8 bd 0e ff 1b 3d db 94 1b be
       0.041691598 -0.11331171 0.038085036 -0.15193503
000230 f6 d3 fd 3c 98 9e 92 3c cb 7f ad 3c 08 19 94 3d
       0.03098486 0.017897889 0.0211791 0.07231337
000240 d9 1c 02 3d 84 a6 27 3c b1 c6 15 3e 03 ee 55 be
       0.031765793 0.0102325715 0.14626576 -0.20891576
000250 52 e8 84 3d ba c6 88 bd 68 a8 b5 bd 10 5f 33 3e
       0.06489624 -0.06678529 -0.088700116 0.17516732
000260 06 ba fe bc eb 1f 01 bd 30 15 18 bd ba 6c 0d 3d
       -0.031094562 -0.03152458 -0.03712958 0.034527518
000270 ee 60 0b 3d fd 6c 72 be 27 75 0b 3e 89 8f 46 3d
       0.034027986 -0.23674388 0.13618909 0.04847673
000280 24 96 ff 3b 15 c7 b9 bc 44 df b0 bc 52 31 84 3c
       0.0077998806 -0.022677938 -0.021590836 0.016136799
000290 4f 77 11 bd 59 b7 95 ba d4 4e 28 be 1e 2d ba bd
       -0.035514172 -0.001142244 -0.1643632 -0.09090637
0002a0 2a a2 3c 3d 11 4a 9c 3c ad d4 02 3d 7b 3f e9 3b
       0.04605309 0.019078286 0.031941105 0.007118163
0002b0 eb 68 60 bc ce 9f 9c bc bc 4e 2b bd 5d a2 6f 3b
       -0.013696889 -0.01911917 -0.041823134 0.0036565282
0002c0 a0 64 85 be b5 74 17 bd 28 dc 4e be cf a9 d4 bc
       -0.26053333 -0.036976535 -0.2020117 -0.025959877
0002d0 10 a7 e3 3c 3a 25 8d 3d ae 20 eb bc 27 e2 46 3e
       0.027789623 0.06891866 -0.028702106 0.19422208
0002e0 69 52 44 bb 9a 5b a0 be bd 13 ec bd 3a e6 78 bd
       -0.0029956347 -0.31319886 -0.11527202 -0.060766436
0002f0 2e 44 0b 3e c8 28 25 3e 59 ae 0f be 24 76 bd bd
       0.13600227 0.16128838 -0.14031352 -0.09251049
000300 63 6d 8c be b1 d9 b8 3d 18 11 9f bc 4c f8 ea bd
       -0.27427205 0.09025896 -0.01941733 -0.1147314
000310 63 65 b7 3d 5b 43 f4 bc f2 a3 21 bd 87 9d b3 3c
       0.08954885 -0.029817274 -0.03946299 0.0219257
000320 5f 57 01 3d 41 dc 5a 3d e1 33 3a bd 22 b3 c2 3c
       0.031577464 0.053432707 -0.04545963 0.023767058
000330 1e 73 0b bd 29 a6 01 3e e9 32 94 bd 0b 0d 1f bc
       -0.03404533 0.12661041 -0.07236273 -0.0097076995
000340 b7 83 14 3e 55 c1 91 bd bc 0e 90 bd cf 80 5e be
       0.1450337 -0.07116953 -0.0703406 -0.21728824
000350 09 ab 43 3d 48 59 8d 3c bd be 1d 3c 48 e3 ab 3d
       0.047770534 0.017254487 0.009627995 0.0839296
000360 72 b3 ec 3b d5 64 c9 bd 32 12 4e 3d 8d 2a 91 3d
       0.00722354 -0.09833685 0.05031032 0.07088194
000370 d7 38 71 3e 32 88 be 3c af 6c c9 3d a4 c5 72 3d
       0.23556839 0.023258302 0.09835183 0.059270516
000380 4b 9f 52 be 43 f0 94 3d a1 f5 26 bd 6d 68 7f 3e
       -0.20568578 0.07272389 -0.040761594 0.24942179
000390 97 a6 35 bd 0d 18 04 3e 0e 7e e6 3d 0c d5 1c 3b
       -0.044348326 0.128998 0.11254512 0.0023930697
0003a0 3d 84 71 3d 38 5c a5 3e bc 64 9c 3d 71 b7 b2 bd
       0.058964003 0.3229692 0.07636401 -0.08726395
0003b0 98 04 1a bc 5b 4b 37 be c3 28 cc bc d9 3b 31 3d
       -0.009400509 -0.1789984 -0.02492178 0.043269966
0003c0 3e bc 82 be 18 3e 0b 3e 83 25 0a 3d ca 79 d0 3d
       -0.25534242 0.13597906 0.03372718 0.101794794
0003d0 da ac b8 bc 5d 14 d6 3c 1b 40 89 3d 6c 23 93 3b
       -0.02254336 0.026132757 0.0670168 0.0044903066
0003e0 d8 2a 94 3d 05 d0 65 be dc 6c 48 3e c1 44 7c bd
       0.07234734 -0.22442634 0.19572777 -0.061589006
0003f0 3e 01 09 bd dd cf 3d bb bd f0 2e bd 4a fb d4 3d
       -0.03344845 -0.0028963007 -0.042710055 0.10399492

bias f4 [10]
000000 f6 fc d2 bc 0e 3a 8f be 0a 3a 69 be 06 c8 9f 3d
       -0.025755387 -0.2797398 -0.22776046 0.07801823
000010 02 ef a5 3e 3f fb 4b 3d 35 0c 8e 3d 8d 99 af bd
       0.3240891 0.049800154 0.06935922 -0.08574209
000020 93 88 c6 bd 40 79 91 3d
       -0.09694018 0.07103205
