Project_1/Part2/checkpoints/cnn_1_100.pth (torch, 911319 bytes, 16 tensors)

weight f4 [32, 3, 4, 4]
0.101965204 0.4172743 -0.17134272 0.13517241 0.10719645 0.54289883 0.48003313 0.09430897
-0.39187348 -0.3034968 0.08813851 0.49582016 -0.14521663 -0.014502233 -0.0019633328 0.21806946
0.15949507 0.3243775 -0.80071354 -0.44179597 -0.2674459 0.32359698 -0.021458719 -0.5092554
-0.70371336 -0.4069012 0.046968624 0.09453174 -0.6153938 -0.3187663 -0.096524425 -0.1363849
0.4544522 0.15971218 -0.59298295 -0.91035426 0.4371755 0.60257393 0.3721301 -0.46389237
-0.08410351 0.206088 0.63655365 0.22645554 -0.18984401 0.09156132 0.5184631 0.6036304
-0.1648668 -0.48812756 0.1645793 0.7097774 0.065178595 -0.3061574 -0.3275545 0.6584659
-0.033119977 -0.048487913 -0.48295027 0.20683068 -0.12907372 0.10536847 -0.21490411 0.22824132
0.21218698 -0.40425533 -0.034110613 0.36227217 0.5369008 -0.23640312 -0.62100536 0.18248332
0.22747162 0.20077057 -0.5971926 -0.20261432 0.17655526 0.4177285 -0.09656292 -0.24754807
0.1517652 -0.6407242 -0.32089928 0.049543194 0.6028598 -0.214652 -0.9197833 0.07832442
0.6618486 0.3726614 -0.7145491 -0.41915813 0.45564738 0.618135 0.0043116906 -0.13310795
-0.50480175 0.15934841 0.4932001 -0.04467974 0.37876517 0.58845097 -0.23133944 -0.26967323
0.44106156 -0.52728075 -0.49725136 0.28847712 -0.26338482 -0.24802408 0.3068224 0.02709282
-0.6145194 -0.22176483 0.25930196 0.022081455 0.2075888 0.440924 -0.33850244 -0.19791654
0.43688616 -0.6991148 -0.48703873 0.540291 -0.25796056 0.005050663 0.63409626 0.1451103
-0.5988506 0.18176872 0.4530879 0.05109715 0.2993933 0.8043898 -0.21772203 -0.34557426
0.6691629 -0.4820293 -0.47224393 -0.06244114 -0.11595921 -0.07825315 0.31489062 -0.22206943
-0.51223314 -0.41334257 -0.47365525 -0.1406461 0.3797313 0.011634911 0.08243493 -0.15180555
0.37121195 0.46836987 0.5708514 0.45608068 0.024862865 0.14455196 0.1582932 0.30501968
-0.24693394 -0.38449693 -0.28796074 -0.0047088307 0.45389235 0.33844522 0.20969294 -0.2497149
-0.12530386 0.12268032 0.123717226 0.028047128 -0.6184564 -0.64048797 -0.8839623 -0.5878552
-0.27837184 -0.4113578 -0.3571748 -0.13228856 0.56026715 0.5708957 0.43442258 0.17236745
0.3388487 0.50296974 0.496455 0.5472574 -0.4939873 -0.38532558 -0.28783068 -0.077414125
0.40959826 -0.5177463 -0.10542489 0.16315448 0.6586949 -0.8651322 0.07268893 0.015883934
0.6035153 -0.76127887 -0.03122934 0.051342353 0.45367607 -0.35419643 -0.052768663 0.0574218
0.38534233 -0.5227718 -0.0060307872 -0.04697417 0.6419663 -0.78178024 0.49568108 0.09428846
0.22150119 -0.55343753 0.5094194 -0.062437266 -0.021682886 -0.19080281 0.19223738 -0.10605813
0.18691765 -0.5176 0.2302387 0.09850858 0.14861971 -0.7535024 0.6398665 0.03096786
0.045593936 -0.48123562 0.45218638 -0.10363004 -0.057772815 -0.30339733 0.1743697 -0.030626584
0.08136078 -0.0929798 -0.15937603 -0.06726791 -0.085033946 -0.008801719 -0.28101128 -0.77878684
0.3457767 0.24417247 -0.1095198 -1.1773752 0.2639037 -0.052067798 -0.7314286 -1.1126515
00000000: 22d3 d03d faa4 d53e 7774 2fbe a36a 0a3e
00000010: d089 db3d 6bfb 0a3f e7c6 f53e 1025 c13d
00000020: a4a3 c8be ef63 9bbe f781 b43d 24dc fd3e
00000030: abb3 14be c69a 6dbc 42ab 00bb 9a4d 5f3e
00000040: ad52 233e cf14 a63e 90fb 4cbf 1533 e2be
00000050: abee 88be 81ae a53e 32ca afbc 905e 02bf
00000060: 8f26 34bf 5b55 d0be 2c62 403d db99 c13d
00000070: 738a 1dbf 5635 a3be 99ae c5bd 7ca8 0bbe
00000080: f5ad e83e 978b 233e bbcd 17bf fa0c 69bf
00000090: 78d5 df3e 4942 1a3f d687 be3e 4d83 edbe
000000a0: 763e acbd bc08 533e 2ef5 223f f6e3 673e
000000b0: 7866 42be 8084 bb3d ffb9 043f 8687 1a3f
000000c0: d8d2 28be dbeb f9be 7a87 283e f9b3 353f
000000d0: 5b7c 853d aac0 9cbe 39b5 a7be 3991 283f
000000e0: d0a8 07bd 439b 46bd 4245 f7be 6ccb 533e
000000f0: e72b 04be 6dcb d73d d30f 5cbe 18b8 693e
00000100: 8b47 593e 8efa cebe 92b7 0bbd bd7b b93e
00000110: 5572 093f a913 72be 35fa 1ebf e8dc 3a3e
00000120: 52ee 683e cd96 4d3e 9de1 18bf 217a 4fbe
00000130: e7ca 343e 83e0 d53e c8c2 c5bd 3e7d 7dbe
00000140: 5668 1b3e 8006 24bf e94c a4be ceed 4a3d
00000150: 0555 1a3f bccd 5bbe eb76 6bbf 8e68 a03d
00000160: e96e 293f 7acd be3e b1ec 36bf e59b d6be
00000170: 9d4a e93e 183e 1e3f 1549 8d3b 734d 08be
00000180: b03a 01bf 3b2c 233e b984 fc3e 1a02 37bd
00000190: 82ed c13e b9a4 163f 3fe4 6cbe 9c12 8abe
000001a0: d2d2 e13e dffb 06bf bb97 febe 46b3 933e
000001b0: 60da 86be 06fa 7dbe d317 9d3e c3f1 dd3c
000001c0: 2551 1dbf 5216 63be 3ac3 843e 2be4 b43c
000001d0: 2992 543e cac0 e13e 3150 adbe a2aa 4abe
000001e0: 8baf df3e 30f9 32bf 245d f9be 8350 0a3f
000001f0: 6813 84be 0880 a53b 2254 223f cb97 143e
00000200: 464e 19bf 9421 3a3e 23fb e73e 3f4b 513d
00000210: 144a 993e 7dec 4d3f 86f2 5ebe 1cef b0be
00000220: 434e 2b3f 8bcc f6be f5c9 f1be 48c2 7fbd
00000230: 067c edbd 3043 a0bd 5839 a13e 2b66 63be
00000240: b621 03bf a3a1 d3be f182 f2be 8805 10be
00000250: 246c c23e 5ba0 3e3c a5d3 a83d ea72 1bbe
00000260: 7e0f be3e 2dce ef3e 5123 123f 6883 e93e
00000270: 35ad cb3c 6e05 143e 9d17 223e 8a2b 9c3e
00000280: 40dc 7cbe c8dc c4be 976f 93be 894c 9abb
00000290: 9464 e83e b148 ad3e bfb9 563e 43b5 7fbe
000002a0: a84f 00be d23f fb3d 755f fd3d 17c3 e53c
000002b0: 2953 1ebf 05f7 23bf 5a4b 62bf ae7d 16bf
000002c0: c186 8ebe 7d9d d2be 9edf b6be a776 07be
000002d0: ab6d 0f3f 3826 123f a36c de3e 1881 303e
000002e0: 947d ad3e a0c2 003f 5a2f fe3e 1019 0c3f
000002f0: e7eb fcbe 6549 c5be 8b5e 93be 4c8b 9ebd
00000300: ddb6 d13e 068b 04bf 01e9 d7bd f811 273e
00000310: 3ba0 283f 4e79 5dbf efdd 943d 061f 823c
00000320: fb7f 1a3f 2ce3 42bf acd4 ffbc 5c4c 523d
00000330: 3b48 e83e 3c59 b5be f423 58bd 1f33 6b3d
00000340: 974b c53e 5fd4 05bf e99d c5bb fd67 40bd
00000350: e757 243f c022 48bf e9c9 fd3e 4f1a c13d
00000360: 35d1 623e 15ae 0dbf 4f69 023f 38be 7fbd
00000370: 4fa0 b1bc d061 43be e0d9 443e 0135 d9bd
00000380: 5767 3f3e 6f81 04bf b2c3 6b3e debe c93d
00000390: c42f 183e 89e5 40bf 4ace 233f 4fb0 fd3c
000003a0: b5c0 3a3d 8464 f6be f984 e73e fd3b d4bd
000003b0: 30a3 6cbd e556 9bbe f88d 323e 9ae4 fabc
000003c0: 7ba0 a63d 326c bebd 7833 23be c2c3 89bd
000003d0: 4726 aebd 1635 10bc b6e0 8fbe 935e 47bf
000003e0: a509 b13e 5908 7a3e eb4b e0bd 3bb4 96bf
000003f0: 631e 873e 0b45 55bd e83e 3bbf 5d6b 8ebf

bias f4 [32]
-0.14528231 -0.057554413 0.17487727 -0.13084131 0.4559292 0.07908407 0.19650677 0.020761749
0.24926384 -0.12903132 -0.17040458 -0.30052516 -0.54425454 -0.052898586 0.090286136 -0.303565
-0.28470105 -0.1539023 -0.32771763 0.49057144 0.35454372 -0.19001363 -0.022433328 -0.048988324
-0.22640027 -0.5186999 0.47298142 -0.4867278 0.081755854 -0.669047 -0.072086595 -0.117561795
00000000: e3c4 14be 2dbe 6bbd 0713 333e 44fb 05be
00000010: 8d6f e93e d4f6 a13d 1239 493e 8b14 aa3c
00000020: 053f 7f3e c920 04be 8a7e 2ebe 6fde 99be
00000030: 4454 0bbf 30ac 58bd f0e7 b83d df6c 9bbe
00000040: 56c4 91be 9198 1dbe 9bca a7be 2e2c fb3e
00000050: c186 b53e ef92 42be 19c6 b7bc fba7 48bd
00000060: 79d5 67be 84c9 04bf 9f2a f23e 6334 f9be
00000070: 9d6f a73d aa46 2bbf 23a2 93bd 3dc4 f0bd

weight f4 [32]
1.0015448 1.2399137 0.8153799 0.9693314 1.2723724 1.1499875 1.1428384 0.9317381
0.9809295 1.0946075 0.9058893 0.95618784 1.3814102 1.2170372 0.9137439 1.0232432
1.1013215 1.2267858 0.95675194 1.0667382 0.9752484 0.74680376 1.2386951 1.0057901
0.7053672 1.0694605 0.93572974 1.2861061 1.152804 0.9735623 0.92049366 0.95726985
00000000: 9f32 803f 7eb5 9e3f bdbc 503f 1a26 783f
00000010: 19dd a23f ca32 933f 8748 923f 6386 6e3f
00000020: 321e 7b3f 191c 8c3f 5ce8 673f bac8 743f
00000030: 0dd2 b03f e0c7 9b3f 1feb 693f a2f9 823f
00000040: 1af8 8c3f 5107 9d3f b2ed 743f e18a 883f
00000050: e1a9 793f 882e 3f3f 908d 9e3f bbbd 803f
00000060: f292 343f 15e4 883f fc8b 6f3f 209f a43f
00000070: 158f 933f 613b 793f 79a5 6b3f a30f 753f

bias f4 [32]
-0.67928004 -0.19748533 -0.17804591 -0.25865707 -0.3732962 -0.6778042 -0.6454271 -0.46117213
-0.34170887 -0.20696366 -0.4152925 -0.18092605 -0.31343317 -0.31618237 -0.10447779 -0.8003643
-0.4874863 -0.32659975 -0.64117277 -0.18719092 -0.14256318 0.2707518 -0.4561755 -0.31582955
-0.1574526 0.18025123 -0.2936685 -0.19039892 -0.17992774 0.16521704 -0.1273371 -0.90710104
00000000: 4ce5 2dbf 9839 4abe ab51 36be b36e 84be
00000010: ae20 bfbe 9384 2dbf b63a 25bf c11e ecbe
00000020: 77f4 aebe 48ee 53be 38a1 d4be ae44 39be
00000030: 507a a0be a8e2 a1be 74f8 d5bd ade4 4cbf
00000040: ce97 f9be 1538 a7be e623 24bf faae 3fbe
00000050: 15fc 11be fb9f 8a3e d68f e9be 69b4 a1be
00000060: 413b 21be c793 383e b85b 96be eff7 42be
00000070: fa3e 38be a82e 293e a864 02be c637 68bf

running_mean f4 [32]
-0.2790458 -0.03143228 0.16042301 -0.18348025 0.47895887 0.45710054 0.22611281 -0.008851211
0.21604103 -0.14988625 -0.87724596 -0.28017768 -0.52846587 -0.054066256 0.20805866 -0.4088689
-0.28094155 -0.13140728 0.19632082 0.50257146 0.38058862 -0.57860994 -0.022583136 -0.0345117
-0.31304216 -0.40191177 0.49913108 -0.48907697 0.119273655 -0.71413296 -0.09830323 -0.09843965
00000000: 17df 8ebe 22bf 00bd ee45 243e 3fe2 3bbe
00000010: 193a f53e 1509 ea3e 1e8a 673e ab04 11bc
00000020: dc39 5d3e c87b 19be 3193 60bf 7373 8fbe
00000030: 8a49 07bf 9474 5dbd 540d 553e 4457 d1be
00000040: 92d7 8fbe a18f 06be 5308 493e 86a8 003f
00000050: 83dc c23e c81f 14bf 4500 b9bc 245c 0dbd
00000060: 1047 a0be 61c7 cdbe 1c8e ff3e 4c68 fabe
00000070: bf45 f43d 6bd1 36bf 3453 c9bd ba9a c9bd

running_var f4 [32]
0.8486161 1.0274986 0.25239095 0.8881491 0.42682263 6.94719 2.133561 2.7652464
1.5790541 3.9118712 13.639768 0.48458022 0.41248682 0.2819622 3.6616693 1.0884455
0.9031138 0.31988418 6.342673 0.30917057 1.9851155 4.281987 0.6397635 4.739806
5.111727 0.85570854 0.30512244 0.22107835 3.147065 0.31814736 0.28284368 4.8981414
00000000: e83e 593f 1385 833f 6339 813e bd5d 633f
00000010: 7f88 da3e 614f de40 438c 0840 ccf9 3040
00000020: 721e ca3f 195c 7a40 7d3c 5a41 e61a f83e
00000030: 7931 d33e 595d 903e ca58 6a40 2f52 8b3f
00000040: 7732 673f dcc7 a33e 2df7 ca40 9b4b 9e3e
00000050: 4418 fe3f 0a06 8940 8ac7 233f 7eac 9740
00000060: 4593 a340 b70f 5b3f 0239 9c3e 5d62 623e
00000070: 8369 4940 36e4 a23e e3d0 903e 93bd 9c40

weight f4 [32, 32, 4, 4]
-0.16148058 0.26384905 0.21513814 -0.5252922 0.3075632 0.16501728 -0.029962366 -0.3651158
-0.46392807 -0.09274129 -0.20097758 -0.4274183 -0.15940465 -0.20358849 -0.19092555 -0.25434986
-0.27237427 0.040126987 0.072900474 0.6828462 -0.5082176 -0.06111693 0.6348001 0.8957169
-0.016858248 0.16349359 0.6128018 0.71565914 -0.74776274 0.24278346 -0.069566555 0.09165321
0.15498993 0.016940227 0.6590423 -0.012322709 0.1255983 -0.36181355 -0.19463953 -0.04172343
0.011528808 0.01603806 0.035133902 -0.24744952 -0.08541595 -0.10958306 -0.08630123 0.21045823
-0.48114413 0.10951509 -0.38350314 -0.16129726 -0.24989916 -0.6189929 -0.7187067 -0.27384713
-0.024197742 -0.29841524 -0.534582 -0.2491104 0.8178477 0.38799176 0.09628726 0.06903228
-0.21252304 -0.15587166 -0.20093308 -0.52423024 -0.025339361 0.23777872 0.14792281 -0.28413767
-0.07030565 0.1893967 -0.21146455 0.07374713 0.09779265 0.27906346 -0.3316024 -0.2578519
-0.30267853 -0.6067971 -0.47361505 0.23866601 -0.14090881 -1.0541518 -0.21115936 0.6382542
0.0508619 0.00020488462 -0.14953792 0.3525383 -0.008658572 0.646153 -0.0069035394 0.4270596
0.18572423 0.25029078 -0.94451773 0.5571298 0.19906865 0.23732643 -1.0871937 0.66838485
-0.15262409 0.2982598 -0.0046171863 0.618072 0.3996589 0.50976485 -0.0841121 0.3211797
0.027291477 -0.27603537 -0.021606855 0.1849775 0.2498242 -0.2633231 -0.65122294 0.22884713
0.33692983 -0.18249035 -0.40108445 0.17917036 0.58746743 -0.09824502 -0.1903792 -0.282744
-0.20232862 -0.38486028 0.027693452 0.40977103 0.49374837 -0.09489066 -0.060750887 -0.24018326
-0.24198267 -0.401589 -0.2901501 -0.6673822 0.27037278 0.2231913 0.30453146 0.009984364
0.20105995 0.8800824 0.3023279 0.39789557 0.4230539 0.39485434 0.5077734 1.0762616
-0.1660055 0.8356337 0.6799223 1.0148339 -0.37021682 0.9726408 0.68688524 0.7076309
0.46580875 -0.09353448 -0.39338002 0.26517627 0.4549448 -0.16781282 -1.1077564 -0.37588418
0.07393557 -0.042120256 -0.4175567 -0.44820175 -0.061469305 -0.25172567 -0.5464019 -0.19981521
-0.33792213 -0.008965022 0.21289538 0.80956674 0.06480714 -0.4159815 0.07947637 -0.21730654
0.124049544 -0.22003534 -0.3480494 0.109139204 -0.3099592 0.23381098 -0.29382527 0.018877933
-0.4497291 0.46790123 -0.41272917 -0.40247008 0.11477968 -0.30341697 0.3752332 0.49379757
-0.17696325 -0.5232236 0.09533525 0.2570888 -0.19134088 0.060576025 0.10260517 0.06079888
-0.052315243 -0.829623 -0.18302579 0.196866 0.37514815 -0.6827295 -0.48922923 -0.141576
0.3732769 -0.17003758 0.0038566503 -0.22576676 -0.16817361 -0.2296457 -0.04835039 -0.08660146
-0.14663163 -0.4308421 -0.18810846 1.0753031 0.69271004 0.6252886 -0.1476123 0.5814333
0.14025049 0.47571644 -0.17661239 -0.8360136 0.08522343 -0.14870316 -0.1548488 -0.011659694
-0.104116865 0.36248207 -0.37294704 0.26610327 -0.0338112 0.1675528 -0.5331274 0.11899733
-0.16658938 -0.18720289 -0.07345756 0.29470426 0.20157126 0.2291393 -0.8624874 -0.23100787
00000000: 2a5b 25be 3917 873e 2c4d 5c3e 8d79 06bf
00000010: ec78 9d3e 4afa 283e a373 f5bc 75f0 babe
00000020: fb87 edbe 25ef bdbd 11cd 4dbe 92d6 dabe
00000030: f93a 23be 8079 50be fd81 43be 253a 82be
00000040: a474 8bbe 325c 243d d84c 953d 02cf 2e3f
00000050: 8c1a 02bf bf55 7abd 4282 223f b44d 653f
00000060: 4f1a 8abc dd6a 273e 94e0 1c3f 7035 373f
00000070: 616d 3fbf 3a9c 783e e978 8ebd aeb4 bb3d
00000080: aeb5 1e3e 3bc6 8a3c ffb6 283f 30e5 49bc
00000090: d79c 003e a03f b9be 964f 47be 30e6 2abd
000000a0: 53e3 3c3c 4062 833c 91e8 0f3d 6863 7dbe
000000b0: 8fee aebd 156d e0bd b3be b0bd 5d82 573e
000000c0: 8658 f6be 7349 e03d 865a c4be 1c2b 25be
000000d0: 91e5 7fbe 5276 1ebf 2afd 37bf b135 8cbe
000000e0: 583a c6bc e2c9 98be 5eda 08bf cc16 7fbe
000000f0: 785e 513f dba6 c63e 4132 c53d cc60 8d3d
00000100: a49f 59be d29c 1fbe 67c1 4dbe f433 06bf
00000110: 7e94 cfbc 447c 733e 1479 173e 7e7a 91be
00000120: 69fc 8fbd 35f1 413e 2a8a 58be bc08 973d
00000130: 8347 c83d 68e1 8e3e cac7 a9be 2a05 84be
00000140: aef8 9abe 0e57 1bbf ac7d f2be dd64 743e
00000150: 664a 10be 72ee 86bf 293a 58be a164 233f
00000160: 9154 503d 4cd6 5639 7820 19be e67f b43e
00000170: afdc 0dbc 486a 253f 1637 e2bb 8ea7 da3e
00000180: 7e2e 3e3e 1d26 803e eacb 71bf 0fa0 0e3f
00000190: a7d8 4b3e b305 733e 2a29 8bbf 451b 2b3f
000001a0: 7d49 1cbe 82b5 983e c44b 97bb f739 1e3f
000001b0: 17a0 cc3e f37f 023f f742 acbd aa71 a43e
000001c0: 6092 df3c 8254 8dbe dc00 b1bc be6a 3d3e
000001d0: ead1 7f3e 49d2 86be 8cb6 26bf e756 6a3e
000001e0: 1182 ac3e c0de 3abe f15a cdbe 6f78 373e
000001f0: 4464 163f af34 c9bd c4f2 42be d2c3 90be
00000200: 3c2f 4fbe 680c c5be 61dd e23c 82cd d13e
00000210: 96cc fc3e 0956 c2bd ecd5 78bd 9af2 75be
00000220: 4eca 77be 139d cdbe 8e8e 94be 8fd9 2abf
00000230: 4d6e 8a3e 438c 643e 8ceb 9b3e 7595 233c
00000240: a9e2 4d3e 154d 613f b9ca 9a3e f8b8 cb3e
00000250: 859a d83e 592a ca3e 70fd 013f f1c2 893f
00000260: 59fd 29be 17ec 553f 630f 2e3f 14e6 813f
00000270: 0f8d bdbe fdfe 783f b6d7 2f3f 4c27 353f
00000280: 7c7e ee3e 018f bfbd 1b69 c9be 2fc5 873e
00000290: 86ee e83e 20d7 2bbe f6ca 8dbf e473 c0be
000002a0: 886b 973d 4a86 2cbd fec9 d5be b37a e5be
000002b0: 3dc7 7bbd 30e2 80be ffe0 0bbf 5c9c 4cbe
000002c0: 2104 adbe 07e2 12bc 3f01 5a3e c43f 4f3f
000002d0: 9bb9 843d 87fb d4be 82c4 a23d 9b85 5ebe
000002e0: b00d fe3d f250 61be 8833 b2be 6084 df3d
000002f0: f9b2 9ebe 256c 6f3e 4470 96be e5a5 9a3c
00000300: e542 e6be c090 ef3e 3d51 d3be 8f10 cebe
00000310: 9c11 eb3d 7859 9bbe 911e c03e 09d3 fc3e
00000320: db35 35be fbf1 05bf 213f c33d 25a1 833e
00000330: ddee 43be 911e 783d a922 d23d 3f08 793d
00000340: 8248 56bd 2c62 54bf 1d6b 3bbe 3e97 493e
00000350: 6b13 c03e 5cc7 2ebf 417c fabe 4df9 10be
00000360: 261e bf3e 551e 2ebe dbbf 7c3b 672f 67be
00000370: b435 2cbe 3e28 6bbe 0f0b 46bd 1b5c b1bd
00000380: 9a26 16be 5697 dcbe 819f 40be 88a3 893f
00000390: 7255 313f ea12 203f ae27 17be d0d8 143f
000003a0: d39d 0f3e 1b91 f33e e1d9 34be fd04 56bf
000003b0: 9f89 ae3d a445 18be af90 1ebe 4d08 3fbc
000003c0: 393b d5bd 4097 b93e eaf2 bebe b03e 883e
000003d0: 9d7d 0abd f692 2b3e 0a7b 08bf dfb4 f33d
000003e0: 6896 2abe 1db2 3fbe eb70 96bd 7ae3 963e
000003f0: b268 4e3e 7ea3 6a3e f9cb 5cbf 548d 6cbe

bias f4 [32]
-0.11911159 -0.11961541 -0.115922034 -0.08049423 -0.015151952 -0.22904429 -0.23884849 -0.08017021
0.0037067796 -0.19369541 -0.08212628 -0.19690423 -0.17817725 -0.20797122 -0.116043024 -0.049067263
-0.0692769 -0.01164824 -0.13791765 -0.13572277 -0.12002978 -0.12083253 -0.15859069 -0.19658938
-0.09847888 -0.05871043 -0.160957 0.056226604 -0.11328656 -0.28957033 -0.2501392 -0.21867521
00000000: c7f0 f3bd edf8 f4bd 8868 edbd 29da a4bd
00000010: e53f 78bc 968a 6abe b394 74be 4730 a4bd
00000020: 71ed 723b 1758 46be d331 a8bd 43a1 49be
00000030: 1974 36be 68f6 54be f7a7 edbd c1fa 48bd
00000040: 0ce1 8dbd 42d8 3ebc 493a 0dbe e9fa 0abe
00000050: 2cd2 f5bd 0c77 f7bd 9965 22be ba4e 49be
00000060: 4caf c9bd 597a 70bd e9d1 24be de4d 663d
00000070: c902 e8bd 9042 94be 3f12 80be 65ec 5fbe

weight f4 [32]
0.89006126 1.0145217 1.125801 0.9861836 0.9982951 1.0132269 0.93011224 0.94746673
1.1249869 1.2432613 0.8852966 0.84233314 1.2129157 1.0964723 0.8371934 1.1439042
0.92999643 1.0697894 0.8484357 0.8933057 1.0017275 1.0253736 1.0776201 0.93902695
1.0213487 0.90359384 1.0125535 0.9119781 1.0279944 1.0103937 0.8146266 1.0046577
00000000: 0edb 633f d9db 813f 3f1a 903f 8776 7c3f
00000010: 4590 7f3f 6bb1 813f d61b 6e3f 2e8d 723f
00000020: 92ff 8f3f 3023 9f3f cca2 623f 25a3 573f
00000030: d240 9b3f 3459 8c3f 4f52 563f 746b 923f
00000040: 3f14 6e3f dcee 883f 1533 593f afaf 643f
00000050: 9b38 803f 713f 833f 75ef 893f 1264 703f
00000060: 8ebb 823f ed51 673f 5a9b 813f 6677 693f
00000070: 5295 833f 9554 813f 5e8b 503f a098 803f

bias f4 [32]
-0.61248255 -0.6707512 -0.65404344 -0.65573555 -0.71564066 -0.6298782 -0.5549791 -0.6525966
-0.88255036 -0.7888665 -0.5383 -0.52234536 -0.8155339 -0.77271724 -0.6007058 -0.89120483
-0.6427575 -0.8313206 -0.5344124 -0.67489356 -0.65746933 -0.66878015 -0.91971606 -0.65265703
-0.6297411 -0.5222836 -0.7428315 -0.7892241 -0.7835268 -0.6270738 -0.5077631 -0.58979654
00000000: a8cb 1cbf 5ab6 2bbf 646f 27bf 49de 27bf
00000010: 3a34 37bf b33f 21bf 1c13 0ebf 9210 27bf
00000020: d2ee 61bf 28f3 49bf 07ce 09bf 6db8 05bf
00000030: d4c6 50bf ccd0 45bf dbc7 19bf 0026 64bf
00000040: c18b 24bf 6dd1 54bf 40cf 08bf d3c5 2cbf
00000050: e94f 28bf 2d35 2bbf 8372 6bbf 8814 27bf
00000060: b636 21bf 61b4 05bf 352a 3ebf 970a 4abf
00000070: 3695 48bf e987 20bf c3fc 01bf e8fc 16bf

running_mean f4 [32]
-6.6575813 -5.34765 -7.906073 -5.587235 -5.7588944 -6.3054895 -7.2628098 -7.3861566
-10.028158 -11.49389 -3.125663 -5.278744 -18.634157 -13.202203 -5.2014155 -4.3238053
-3.7755892 -7.32121 -6.1593294 -3.5759373 -6.1938515 -8.230586 -2.5487757 -8.541318
-4.0980535 -1.2825648 -11.836255 9.590383 -3.1582422 -26.226503 -12.4887495 -7.1276593
00000000: e80a d5c0 f31f abc0 8dfe fcc0 a1ca b2c0
00000010: dd48 b8c0 92c6 c9c0 f068 e8c0 655b ecc0
00000020: 5673 20c1 f9e6 37c1 dd0a 48c0 79eb a8c0
00000030: c112 95c1 393c 53c1 ff71 a6c0 9d5c 8ac0
00000040: 41a3 71c0 5a47 eac0 3a19 c5c0 28dc 64c0
00000050: 0834 c6c0 7bb0 03c1 241f 23c0 3da9 08c1
00000060: 4123 83c0 152b a4bf 4d61 3dc1 3572 1941
00000070: a420 4ac0 e1cf d1c1 ebd1 47c1 c915 e4c0

running_var f4 [32]
109.69389 176.8534 144.93158 92.659966 156.85081 116.041725 113.71961 115.85303
128.13884 258.31363 137.41899 111.45918 301.22528 202.69719 95.75451 147.76036
127.688324 143.6818 128.47426 117.064384 116.83132 138.84212 127.826385 134.5595
111.65108 156.00247 144.4441 145.67262 108.63278 303.6976 133.62842 141.05542
00000000: 4663 db42 78da 3043 7cee 1043 e751 b942
00000010: cfd9 1c43 5d15 e842 7170 e342 c0b4 e742
00000020: 8b23 0043 2528 8143 436b 0943 1aeb de42
00000030: d69c 9643 7bb2 4a43 4f82 bf42 a7c2 1343
00000040: 6c60 ff42 8aae 0f43 6979 0043 f720 ea42
00000050: a3a9 e942 95d7 0a43 1ca7 ff42 3b8f 0643
00000060: 5a4d df42 a200 1c43 b171 1043 31ac 1143
00000070: fc43 d942 4bd9 9743 e0a0 0543 300e 0d43

weight f4 [256, 800]
-0.39600033 -0.095595025 0.8645583 0.63744193 1.2052592 -0.045961853 -0.12672299 0.80329245
-0.07070993 -0.25929713 0.1002015 0.27403787 0.38853186 -0.11447024 -0.042195566 0.2160624
0.51135784 0.39638743 0.32685715 -0.719801 -0.57354844 0.5690545 0.39296898 -0.028822832
-0.34127256 -0.194307 -0.7597398 -0.27082554 -0.009607315 -1.0223353 0.02254286 0.3689419
-0.07736479 -0.20203926 -0.60534346 0.452775 0.4303457 -0.11635372 -0.08592076 -0.7547849
0.018083252 -0.05103303 -0.34868643 -0.35030165 -0.7834053 0.09911125 0.2383429 -0.41667512
-0.17817843 0.19045644 0.56697065 0.05785311 0.10030258 0.29938278 0.44226795 0.18553741
0.32564637 -0.3724678 -0.45696265 0.009475772 0.3016909 -0.14354113 -0.045319494 0.04858378
0.14884011 -0.26425365 -0.23037723 -0.33476216 0.1601439 -0.10760321 0.075203575 -0.38726068
-0.75491476 0.31592432 0.21229239 0.30309236 0.5042414 0.44615167 -0.094491385 -0.06310201
0.10250102 0.63197595 0.24819389 -0.3284366 0.15384358 -0.36323354 0.1145427 -0.31737548
-0.026704948 -0.37731794 -0.4044232 -0.37205234 -0.48434865 0.04246138 -0.61245304 -0.26324162
0.38749814 0.633353 0.050951187 -0.40217105 0.044569682 0.13853991 0.17494819 -0.34921828
0.32486165 -0.37646398 0.09154503 -0.24931708 -0.5068852 0.63479465 -0.28908783 -0.3666827
-0.48933056 0.29310757 -0.03097891 0.07603261 -0.18891633 0.024890883 0.12652579 0.37943187
0.20733391 0.3688949 -0.12144324 0.21860126 0.3061885 -0.20373876 0.26380378 0.2817134
0.2649474 0.7136563 0.098512344 -0.14420818 -0.7568518 -0.25704837 0.3037838 0.11335056
-0.15545343 -0.20147906 0.20713557 0.04072279 0.10525007 0.05922744 0.076613545 0.10040902
0.54833966 -0.2847444 -0.38938433 0.111231856 -0.5667722 -0.04823158 0.28380436 0.27913076
0.4934731 0.18417202 0.5948338 -0.06695363 0.18361111 0.05168975 0.4889563 0.14755128
0.66106737 0.39667884 0.19462177 0.22086492 -0.14169738 0.42681587 0.1666896 0.029118598
-0.6012687 0.16486393 0.31063414 0.110746495 0.03286222 -0.39222103 -0.48028398 0.06929089
0.43196243 0.04384083 0.31749216 0.1386256 -0.40031743 0.46259063 -0.039738327 -0.34433508
-0.13978048 0.13847744 -0.31320742 0.16093451 0.118906334 0.093493626 -0.31608793 0.14883366
-0.09494562 -0.119513795 -0.66600466 -0.5611272 0.32838017 -0.15930198 -0.14142035 -0.39797077
0.0817935 -0.43468732 -0.6030062 0.7009387 0.2756984 0.45120677 -0.1783054 -0.23471864
-0.28493685 -0.7532096 -0.2316974 0.41913682 0.34486267 -0.29104275 -0.10136461 0.2158284
0.29870272 -0.09366702 -0.13460317 -0.4710782 -0.4389385 0.09450422 -0.6100017 0.21115342
0.05238612 -0.25353485 0.44546062 0.1838517 0.016794093 -0.1691335 -0.075201154 0.17461711
0.11568858 0.0016855168 0.09609338 0.3280989 -0.10969091 -0.5207408 -0.1148612 -0.33583125
-0.039333243 -0.11998811 -0.7322466 -0.07429623 -0.046459142 0.1012173 -0.091558345 -0.20865542
-0.312559 0.48698208 0.37215173 0.2297495 0.016977463 0.39455646 0.37076586 -0.03871378
00000000: 8ec0 cabe 53c7 c3bd b153 5d3f 652f 233f
00000010: ef45 9a3f 7f42 3cbd acc3 01be 93a4 4d3f
00000020: 5ed0 90bd 98c2 84be 7236 cd3d b14e 8c3e
00000030: a6ed c63e 606f eabd 42d5 2cbd 763f 5d3e
00000040: 59e8 023f 4bf3 ca3e d259 a73e e144 38bf
00000050: 12d4 12bf 8ead 113f 3b33 c93e dc1d ecbc
00000060: 47bb aebe 6af8 46be 4f7e 42bf a5a9 8abe
00000070: 0068 1dbc e2db 82bf ceab b83c f4e5 bc3e
00000080: 6e71 9ebd 61e3 4ebe caf7 1abf 20d2 e73e
00000090: 4656 dc3e dc4a eebd 39f7 afbd 9539 41bf
000000a0: 5423 943c 0308 51bd 0787 b2be bd5a b3be
000000b0: 408d 48bf d7fa ca3d 2910 743e 7156 d5be
000000c0: 6874 36be 0307 433e fd24 113f 62f7 6c3d
000000d0: 706b cd3d b348 993e f270 e23e 85fd 3d3e
000000e0: 1fbb a63e 19b4 bebe 02f7 e9be 4540 1b3c
000000f0: 3b77 9a3e 72fc 12be efa0 39bd c9ff 463d
00000100: 8b69 183e 414c 87be 02e8 6bbe f265 abbe
00000110: c3fc 233e 125f dcbd 5504 9a3d 0847 c6be
00000120: 1842 41bf d5c0 a13e 2d63 593e ec2e 9b3e
00000130: f715 013f fe6d e43e b384 c1bd a03b 81bd
00000140: 0eec d13d 2dc9 213f 8a26 7e3e d828 a8be
00000150: 2c89 1d3e bff9 b9be 5d95 ea3d 0a7f a2be
00000160: 56c4 dabc d12f c1be 8f10 cfbe a57d bebe
00000170: 8cfc f7be fceb 2d3d b9c9 1cbf 9bc7 86be
00000180: 2866 c63e 6c23 223f 31b2 503d 5de9 cdbe
00000190: b38e 363d 68dd 0d3e 9e25 333e bdcc b2be
000001a0: 4454 a63e e3bf c0be f67b bb3d fa4c 7fbe
000001b0: 3ac3 01bf e781 223f 5203 94be d6bd bbbe
000001c0: 8989 fabe 3212 963e 7cc7 fdbc fcb6 9b3d
000001d0: 4873 41be f7e7 cb3c fa8f 013e e544 c23e
000001e0: 574f 543e cbdf bc3e 3cb7 f8bd 02d9 5f3e
000001f0: bdc4 9c3e e5a0 50be 4a11 873e bd3c 903e
00000200: 30a7 873e 2eb2 363f d7c0 c93d 4fab 13be
00000210: 0ac1 41bf d89b 83be 8d89 9b3e 5724 e83d
00000220: 2f2f 1fbe 8750 4ebe 591b 543e f1cc 263d
00000230: 598d d73d 7998 723d 90e7 9c3d 3fa3 cd3d
00000240: fd5f 0c3f 05ca 91be 625d c7be 87cd e33d
00000250: fc17 11bf 7a8e 45bd ce4e 913e 3aea 8e3e
00000260: 82a8 fc3e 9797 3c3e 0747 183f fc1e 89bd
00000270: 8d04 3c3e a2b8 533d 7b58 fa3e af17 173e
00000280: b63b 293f 7d19 cb3e ee4a 473e 6a2a 623e
00000290: 1e19 11be 9c87 da3e aeb0 2a3e 208a ee3c
000002a0: bfec 19bf 17d2 283e 700b 9f3e 0fcf e23d
000002b0: 899a 063d 32d1 c8be c8e7 f5be 62e8 8d3d
000002c0: 2e2a dd3e 7192 333d 558e a23e dff3 0d3e
000002d0: 68f6 ccbe aed8 ec3e a8c4 22bd b04c b0be
000002e0: 9d22 0fbe 08cd 0d3e b95c a0be 04cc 243e
000002f0: 2a85 f33d 9679 bf3d 47d6 a1be da67 183e
00000300: d972 c2bd a6c3 f4bd 487f 2abf 08a6 0fbf
00000310: 7221 a83e 0f20 23be 7fd0 10be d3c2 cbbe
00000320: 5a83 a73d 568f debe 9d5e 1abf b870 333f
00000330: 5728 8d3e 9304 e73e b195 36be 155a 70be
00000340: 3ee3 91be 58d2 40bf 1542 6dbe 1a99 d63e
00000350: d791 b03e 8e03 95be 4098 cfbd 1f02 5d3e
00000360: 90ef 983e 7fd4 bfbd 6ad5 09be 2931 f1be
00000370: 8cbc e0be 6e8b c13d 1229 1cbf 9a38 583e
00000380: d492 563d 52cf 81be 6a13 e43e 9f43 3c3e
00000390: c493 893c 5531 2dbe 1003 9abd d4ce 323e
000003a0: 22ee ec3d 8fec dc3a 9bcc c43d 94fc a73e
000003b0: a1a5 e0bd 454f 05bf 593c ebbd 13f2 abbe
000003c0: e51b 21bd 54bc f5bd 8374 3bbf 9f28 98bd
000003d0: f14b 3ebd 044b cf3d f182 bbbd c4a9 55be
000003e0: bc07 a0be b755 f93e ac8a be3e 7443 6b3e
000003f0: 5214 8b3c 4e03 ca3e 06d5 bd3e 5792 1ebd

bias f4 [256]
0.45681325 0.012971613 0.28084198 0.17724198 -0.16385527 0.21311706 -0.033707235 -0.34090468
0.16360572 -0.07232241 -0.07358228 -0.023354549 -0.35759154 -0.074602015 -0.05708185 0.027997138
-0.11251528 -0.05259882 -0.06351815 -0.23035395 -0.07601977 -0.031188598 0.37972793 -0.18005748
-0.045573033 0.023978207 0.35464117 0.19750582 0.4727605 -0.0119867325 0.15772077 -0.08834096
-0.22574362 -0.048617072 0.31659573 -0.011537526 -0.044320993 -0.035826225 0.28620073 -0.39117128
-0.47219184 -0.11712056 -0.05883003 0.051959496 -0.09354795 -0.34086946 -0.11092176 -0.012344037
-0.058157552 -0.15084481 -0.41303027 -0.021437397 -0.30373913 0.005780782 -0.020362465 -0.01633373
-0.0034589714 -0.046532445 0.28187618 -0.0023573413 -0.056922637 -0.04071347 -0.19638704 0.057275176
0.15665805 0.3047738 -0.0036073397 0.32641777 0.10925255 -0.08521693 -0.023268584 -0.25155354
-0.19427668 -0.19433786 -0.03629501 -0.15950026 0.025373716 0.17841645 0.30852386 -0.059262764
0.016202161 -0.01873521 -0.05837227 -0.44480476 0.3143857 -0.058232833 -0.1117195 0.30567443
0.02215698 -0.4278588 0.4916098 -0.03386417 0.0014279238 -0.035288643 -0.101641394 -0.019941445
-0.06366922 -0.020665124 -0.05447966 0.07043991 0.45710433 -0.057809148 -0.036148135 -0.21884763
0.0051749186 0.016158208 -0.056321055 0.22652997 -0.099096395 0.0016900238 -0.036199067 -0.0118162725
-0.030482268 -0.03593411 -0.00025049274 -0.04365797 -0.5007713 0.059900947 0.23094608 -0.061461784
-0.013088671 0.011788735 0.3095097 -0.027435988 0.009222479 -0.01390759 -0.42372805 0.6874783
0.59336287 -0.2739726 -0.10422697 -0.38681775 0.09717087 0.14015788 0.5058632 -0.03990391
-0.12184136 -0.03243752 -0.028078673 -0.093375355 -0.023574712 -0.4506047 -0.0098266695 -0.17984201
-0.058018263 0.37799156 -0.025263945 0.00430942 -0.043497767 -0.21848173 -0.013448189 -0.038079336
-0.014887555 -0.9823328 0.06969779 -0.038121883 -0.013277152 -0.041636154 0.039748624 -0.29310963
-0.026024919 -0.051941797 -0.35360983 -0.6551794 -0.009097138 0.0070363474 0.007002702 -0.016612515
0.14194842 0.14941472 -0.011142346 -0.0057378206 0.4197305 -0.24820128 0.030057231 -0.03383002
-0.0076318593 -0.010160989 -0.4772057 -0.022403883 -0.12168877 -0.0037221117 0.01303863 0.2611215
0.101228826 0.024332246 0.01909003 -0.025313402 0.08024659 -0.078495264 0.096689634 0.06636582
-0.36059114 0.06504574 -0.016295074 -0.1061251 0.010057383 0.0495344 -0.012298415 -0.016372219
-0.006142113 0.62452817 -0.039603163 -0.029128527 0.012008797 0.0043576034 -0.1786027 0.13885053
-0.040814094 -0.009605609 0.009974371 0.30417272 -0.07117931 -0.24555844 0.49444237 -0.035001907
0.07466825 -0.32459834 -0.023934614 0.010800635 0.23600441 -0.05502357 -0.15506431 -0.03915658
0.27367368 0.30186516 0.020173585 -0.040315155 -0.19168638 -0.95761156 -0.46003148 0.02687499
0.3942185 -0.010295217 -0.3609821 0.006673191 0.0077689537 0.041271966 0.0072747013 -0.046755534
-0.18147169 0.22017862 -0.028135272 -0.063347444 -0.43782035 -0.015698273 -0.024939537 0.102505274
-0.05273463 -0.32240382 -0.026067847 -0.047029495 0.082335904 0.5136408 0.068510905 0.2689648
00000000: 6de3 e93e e386 543c 85ca 8f3e ec7e 353e
00000010: adc9 27be 5c3b 5a3e 9910 0abd 0f8b aebe
00000020: 4288 273e c61d 94bd 4eb2 96bd 0a52 bfbc
00000030: 3d16 b7be f1c8 98bd a8ce 69bd 415a e53c
00000040: 696e e6bd dc71 57bd ce15 82bd e8e1 6bbe
00000050: 41b0 9bbd 3b7f ffbc b36b c23e fd60 38be
00000060: caaa 3abd f26d c43c 8793 b53e f73e 4a3e
00000070: aa0d f23e 0064 44bc 8e81 213e 1bec b4bd
00000080: 5629 67be b222 47bd d618 a23e e407 3dbc
00000090: ee89 35bd 85be 12bd e788 923e 9a47 c8be
000000a0: 21c3 f1be e7dc efbd c2f7 70bd 7bd3 543d
000000b0: 1196 bfbd 7186 aebe f32a e3bd a53e 4abc
000000c0: 9d36 6ebd 1077 1abe b478 d3be 7b9d afbc
000000d0: b283 9bbe b76c bd3b 2fcf a6bc 51ce 85bc
000000e0: e9af 62bb ce98 3ebd 1352 903e a07d 1abb
000000f0: b627 69bd 2bc3 26bd af19 49be 6099 6a3d
00000100: f86a 203e 500b 9c3e 1e69 6cbb 3b20 a73e
00000110: cdbf df3d 3786 aebd c29d bebc a0cb 80be
00000120: 77f0 46be 8100 47be 14aa 14bd 0954 23be
00000130: 8adc cf3c cdb2 363e d7f6 9d3e 83bd 72bd
00000140: 65ba 843c 957a 99bc c317 6fbd 73bd e3be
00000150: 2af7 a03e 8d85 6ebd 31cd e4bd 5c81 9c3e
00000160: 8e82 b53c 4f10 dbbe 48b4 fb3e 28b5 0abd
00000170: 2c29 bb3a d38a 10bd 5d29 d0bd 3e5c a3bc
00000180: 0265 82bd e849 a9bc 1026 5fbd cd42 903d
00000190: 9409 ea3e 49c9 6cbd 1110 14bd 9819 60be
000001a0: 5d92 a93b 385e 843c e8b0 66bd 79f7 673e
000001b0: 0df3 cabd ca83 dd3a 7945 14bd 0a99 41bc
000001c0: f3b5 f9bc a52f 13bd 9154 83b9 b3d2 32bd
000001d0: 8c32 00bf b25a 753d 217d 6c3e 5abf 7bbd
000001e0: dd71 56bc 8a25 413c 0e78 9e3e 70c1 e0bc
000001f0: e119 173c a9dc 63bc e2f2 d8be 94fe 2f3f
00000200: a1e6 173f 2346 8cbe f374 d5bd fa0c c6be
00000210: 8501 c73d 8c85 0f3e 4080 013f 4872 23bd
00000220: f787 f9bd 34dd 04bd 3f05 e6bc 943b bfbd
00000230: c11f c1bc a9b5 e6be 0a00 21bc 8128 38be
00000240: 8fa4 6dbd 1c88 c13e 55f6 cebc 0936 8d3b
00000250: b72a 32bd adb9 5fbe cb55 5cbc 14f9 1bbd
00000260: eeea 73bc 2a7a 7bbf b7bd 8e3d b125 1cbd
00000270: 6988 59bc ac8a 2abd 74cf 223d 7712 96be
00000280: 3632 d5bc ecc0 54bd 590c b5be d6b9 27bf
00000290: 2a0c 15bc 2991 e63b ec76 e53b f816 88bc
000002a0: ed5a 113e 2c00 193e 638e 36bc 5404 bcbb
000002b0: ebe6 d63e 7a28 7ebe 953a f63c 5991 0abd
000002c0: ad14 fabb 477a 26bc 4e54 f4be 5988 b7bc
000002d0: f637 f9bd acee 73bb fa9f 553c b8b1 853e
000002e0: 0f51 cf3d 6b54 c73c b262 9c3c 0d5e cfbc
000002f0: 5358 a43d 20c2 a0bd 3705 c63d ceea 873d
00000300: 679f b8be b336 853d 3f7d 85bc 1e58 d9bd
00000310: b9c7 243c 95e4 4a3d 4b7f 49bc 081f 86bc
00000320: c743 c9bb 14e1 1f3f ed36 22bd f39e eebc
00000330: 8cc0 443c 3aca 8e3b a0e3 36be d52e 0e3e
00000340: ae2c 27bd d860 1dbc 8b6b 233c 87bc 9b3e
00000350: 75c6 91bd ac73 7bbe 8d27 fd3e 295e 0fbd
00000360: abeb 983d c131 a6be 8612 c4bc 26f5 303c
00000370: 24ab 713e 6560 61bd 2ec9 1ebe a662 20bd
00000380: f51e 8c3e 128e 9a3e 1343 a53c 8121 25bd
00000390: 6f49 44be 0826 75bf 3f89 ebbe f028 dc3c
000003a0: 02d7 c93e 45ad 28bc a5d2 b8be c9aa da3b
000003b0: b592 fe3b cb0c 293d 9e60 ee3b bb82 3fbd
000003c0: b7d3 39be 8176 613e f17b e6bc 4ebc 81bd
000003d0: fd29 e0be aa99 80bc 004e ccbc 49ee d13d
000003e0: 4400 58bd 1d12 a5be 3d8c d5bc 00a2 40bd
000003f0: ba9f a83d f77d 033f 724f 8c3d c1b5 893e

weight f4 [10, 256]
-0.56617236 -0.11865576 0.15151848 -0.22050714 0.09092606 0.039900564 0.052299034 -0.3302541
0.834738 0.29872993 -0.046448193 -0.028912324 0.38749692 0.92810696 0.034328844 0.06061633
-0.034223627 -0.012444964 -0.033872284 0.25269935 -0.35293406 0.82182753 -0.5083013 0.3395904
-0.29181856 0.022264017 -0.52694607 -0.53040874 -0.6418538 0.022044446 0.058915224 0.010510712
-0.5490744 0.04932127 -0.14621837 0.020405894 -0.014463845 -0.004339153 -0.35805646 -0.3644106
0.27496874 0.37587562 0.053344365 -0.23736374 -0.012361262 0.30968335 0.15857144 -0.0024482047
-0.059166264 -0.35461304 0.1128976 0.055102192 -0.8884528 0.013164464 0.04509726 0.010887904
-0.03979804 -0.31200138 -0.9525699 -0.0120739015 0.030398278 0.19148964 0.5020888 -0.023986747
-0.11280888 -0.4887071 0.035898056 -0.43207252 -0.546322 0.21204895 -0.037600238 0.5236104
-0.9839567 0.45293406 -0.025793226 -0.6183428 0.1280911 0.011745682 -0.46134374 -0.06200406
0.040886197 0.068644166 -0.0027203846 -0.2831573 0.111374505 -1.2407248 -0.046761442 -0.72496384
-0.040157855 0.45713723 -0.12568249 -0.056386482 -0.018418228 -0.0010265096 -0.03575997 -0.027880276
-0.07892956 0.5389355 0.0020441383 -0.36943626 -0.48694956 -0.063374154 0.035565164 0.5991472
0.38640827 0.018336972 0.020810867 -0.27532163 0.15795688 -0.049317375 0.042622607 0.05259531
0.01744751 -0.092452414 0.004752007 0.015937572 -0.31640214 -0.26163724 -0.49416295 -0.33869946
0.043599866 0.0423829 -0.27902892 -0.023318503 0.041063882 -0.033080377 -0.4232883 -0.6974483
-0.38958728 -0.12601545 -0.46417838 0.008432274 0.29195333 0.019395513 0.49293378 0.01201427
0.3051757 0.0035437797 0.012799217 0.1757791 -0.08189973 0.022538422 0.0028382677 -0.27534342
-0.82728446 -0.6490334 0.025602523 -1.0624208 0.074679464 0.007270166 0.022823967 -0.010050864
-0.010733259 -0.080934726 -0.23958208 -0.021072416 0.0054845577 -0.027892152 -0.29515415 0.062312882
0.046286587 0.023048824 -0.39311612 -0.11341069 0.03008678 -0.014324194 -0.04988552 0.5939092
0.53592026 0.064907305 -0.00034980243 -0.4611824 -0.49860665 -0.18983877 -0.9539861 0.026781537
0.00562789 0.023024837 -0.31115922 -0.028599944 -0.11680107 -0.68777436 -0.011683553 -0.04833992
-0.77018523 0.032327812 0.47799087 0.013481472 -0.3285317 0.005028953 0.14798822 0.8745167
0.07071468 0.27991283 0.04436411 -0.7265195 -0.20483834 0.1990894 0.10524654 0.035323236
-0.117322825 0.3719608 0.051537585 -0.017723275 0.011181379 0.4410923 0.29476735 0.35218686
-0.051865026 0.94049096 -0.019298764 -0.62958217 0.0037772004 -0.21043517 -0.77664 -0.15831311
-0.47249255 0.2661408 0.04349254 -0.03935285 -0.57946146 0.28514102 0.7010045 0.048639506
-0.20239595 -0.045702167 0.050969 -0.022248944 0.8302571 -0.083062224 -0.36090344 -0.047475126
-0.120948 -0.46676552 -0.9245146 0.018404715 -0.042152654 -0.1516834 0.026404012 -0.005768922
-0.5696336 -0.5473881 0.043516908 0.40296134 0.5720176 0.021781886 -0.044228535 -0.62576264
-0.02110857 0.04860092 -0.034407213 -0.03489259 -0.3696874 -0.3855449 0.1410181 -0.78943306
00000000: acf0 10bf cb01 f3bd a927 1b3e a0cc 61be
00000010: 7137 ba3d c66e 233d 8337 563d 1117 a9be
00000020: 64b1 553f 21f3 983e 7640 3ebd 8ad9 ecbc
00000030: ff65 c63e 6b98 6d3f 679c 0c3d d448 783d
00000040: 132e 0cbd f6e5 4bbc aabd 0abd cf61 813e
00000050: c6b3 b4be 4a63 523f 0920 02bf cbde ad3e
00000060: 3e69 95be 0763 b63c f0e5 06bf dec8 07bf
00000070: 8850 24bf 8e96 b43c 1751 713d 1f35 2c3c
00000080: 2490 0cbf 1a05 4a3d 45ba 15be 432a a73c
00000090: c3f9 6cbc 742f 8ebb 2d53 b7be 0794 babe
000000a0: b4c8 8c3e c572 c03e 9f7f 5a3d 7b0f 73be
000000b0: e486 4abc d18e 9e3e 8d60 223e 0f72 20bb
000000c0: 5358 72bd d78f b5be db36 e73d d6b2 613d
000000d0: a571 63bf c4af 573c e8b7 383d 2e63 323c
000000e0: 4503 23bd a5be 9fbe 9fdb 73bf 9dd1 45bc
000000f0: cf05 f93c dc15 443e e488 003f db7f c4bc
00000100: 5808 e7bd d137 fabe d709 133d 9c38 ddbe
00000110: c2db 0bbf 5c23 593e b502 1abd 550b 063f
00000120: 96e4 7bbf f9e6 e73e 514c d3bc b74b 1ebf
00000130: 502a 033e f670 403c 3f35 ecbe f8f7 7dbd
00000140: 4978 273d 5095 8c3d 7b48 32bb fef9 90be
00000150: 5118 e43d 12d0 9ebf ed88 3fbd 3b97 39bf
00000160: 907c 24bd e40d ea3e e9b2 00be 83f5 66bd
00000170: d3e1 96bc f28b 86ba 0c79 12bd 2d65 e4bc
00000180: d2a5 a1bd adf7 093f f3f6 053b c026 bdbe
00000190: 7451 f9be 4fca 81bd c7ac 113d b661 193f
000001a0: 4ed7 c53e 6b37 963c 8d7b aa3c f5f6 8cbe
000001b0: 73bf 213e 0401 4abd 0b95 2e3d 2e6e 573d
000001c0: 15ee 8e3c b157 bdbd b9b6 9b3b 838f 823c
000001d0: 76ff a1be 51f5 85be ed02 fdbe 046a adbe
000001e0: c695 323d b199 2d3d e1dc 8ebe 7206 bfbc
000001f0: 9a32 283d 4a7f 07bd 3eb9 d8be f98b 32bf
00000200: fc77 c7be 320a 01be caa8 edbe 8527 0a3c
00000210: e87a 953e 57e3 9e3c d161 fc3e 80d7 443c
00000220: fd3f 9c3e c23e 683b cfb3 513c 70ff 333e
00000230: 0cbb a7bd 7fa2 b83c 3b02 3a3b d0f9 8cbe
00000240: eac8 53bf 0e27 26bf 62bc d13c 68fd 87bf
00000250: 8cf1 983d 933a ee3b 54f9 ba3c 61ac 24bc
00000260: 8dda 2fbc 1bc1 a5bd 0155 75be 0fa0 acbc
00000270: ceb7 b33b 157e e4bc 721e 97be cb3b 7f3d
00000280: 0197 3d3d e3d0 bc3c 8446 c9be dd43 e8bd
00000290: 8d78 f63c 06b0 6abc c254 4cbd 6f0a 183f
000002a0: 1232 093f 1fee 843d b065 b7b9 1920 ecbe
000002b0: 5f49 ffbe 1865 42be 6f38 74bf f464 db3c
000002c0: 2a6a b83b 959e bc3c 4350 9fbe 6e4a eabc
000002d0: 6635 efbd fb11 30bf 606c 3fbc 1400 46bd
000002e0: dc2a 45bf 2b6a 043d 38bb f43e 64e1 5c3c
000002f0: 4f35 a8be eac9 a43b 398a 173e 54e0 5f3f
00000300: dcd2 903d bc50 8f3e 24b7 353d 2ffd 39bf
00000310: 24c1 51be 17de 4b3e 7f8b d73d 19af 103d
00000320: f346 f0bd a571 be3e 1319 533d 6730 91bc
00000330: 1a32 373c dad6 e13e bfeb 963e d651 b43e
00000340: 6c70 54bd 04c4 703f 7118 9ebc 4c2c 21bf
00000350: e88a 773b 517c 57be e1d1 46bf d51c 22be
00000360: 8bea f1be 9b43 883e 3c25 323d 7430 21bd
00000370: 9657 14bf 01fe 913e 0875 333f 383a 473d
00000380: e240 4fbe 3232 3bbd dfc4 503d 6b43 b6bc
00000390: bb8b 543f 871c aabd 56c8 b8be 4775 42bd
000003a0: 96b3 f7bd e4fb eebe fdac 6cbf 7cc5 963c
000003b0: 43a8 2cbd e552 1bbe 3a4d d83c 3a09 bdbb
000003c0: 82d3 11bf a021 0cbf c93e 323d f350 ce3e
000003d0: bf6f 123f ed6f b23c fb28 35bd fb31 20bf
000003e0: e1eb acbc c211 473d 94ee 0cbd 88eb 0ebd
000003f0: ab47 bdbe 2466 c5be 0c67 103e 4918 4abf

bias f4 [10]
-0.33970544 -0.5700637 -0.6570222 0.4298888 0.514216 0.2855377 0.6072994 -0.14508817
-0.62067425 0.5195643
00000000: dfed adbe b2ef 11bf 9b32 28bf 631a dc3e
00000010: a9a3 033f ff31 923e f977 1b3f fe91 14be
00000020: 82e4 1ebf 2a02 053f
