Project_1/Part2/checkpoints/cnn_1_10.pth (torch, 911299 bytes, 16 tensors)

weight f4 [32, 3, 4, 4]
0.02478251 -0.020011302 -0.25721988 -0.09572027 0.09544831 0.1343714 -0.16253322 -0.26723573
0.29528007 0.2684125 0.18068328 -0.04176782 0.019682683 0.15053754 -0.103116155 -0.06568779
0.0013099293 -0.101485625 0.08555506 0.058310308 0.031250227 -0.23102179 -0.1152579 0.02852969
-0.041481186 -0.07670347 -0.06074805 0.11860336 0.006186047 -0.020828428 0.023590649 -0.07211641
0.11538016 0.074986756 0.31268188 0.09321915 -0.274736 -0.122942135 0.16204536 0.060191993
-0.10501554 -0.049891923 0.02538469 0.1673816 -0.13623783 -0.2291881 -0.07261867 0.017476076
0.23025377 0.15997334 0.2035675 0.06902852 0.17300333 -0.0467587 -0.031577144 -0.12744586
0.029008208 -0.07229802 0.050555743 -0.13335124 -0.18072404 0.0062766946 -0.14067087 0.0722861
0.25106117 0.1322992 0.17597818 0.06724027 0.050579827 -0.043756407 0.13329682 -0.044379316
-0.17404397 -0.09941878 -0.26032245 -0.1606602 -0.19096105 -0.16911244 -0.10336723 -0.116093345
0.09392387 0.18430193 0.20853832 0.055278666 0.093927756 0.17039894 0.15813157 0.06078841
0.13512373 -0.1778041 0.017614912 -0.09292739 -0.1362526 -0.18703893 -0.23172045 -0.18919641
-0.086904496 0.010367874 0.0050335065 0.10669037 -0.19593593 -0.15650062 -0.035846367 0.081303835
-0.30538732 -0.36169714 -0.29677764 0.0012489299 -0.27218595 -0.19013241 -0.20961942 -0.07518667
0.17886114 0.124033295 0.109975845 -0.14932726 0.2567529 0.20966324 -0.0037640834 -0.035937186
0.0485503 0.07502987 -0.051589526 0.08604583 0.12978609 0.061138015 0.07939255 0.23225428
-0.00814984 0.07831039 -0.18433364 0.029020576 0.006712441 0.057714887 0.061928105 -0.022593679
0.12226289 0.17563495 -0.014608624 0.10952136 0.09619247 0.045773488 0.11976155 0.192119
-0.0773717 -0.08520357 -0.035205778 0.08867847 -0.26928338 -0.11470842 0.03059811 0.04144001
-0.26488262 0.003160734 -0.028458137 0.02709334 -0.056466103 0.0778652 0.0898653 0.004401093
-0.15124315 0.007019538 0.13177423 -0.08992202 -0.066666335 0.06515887 0.2242501 0.153078
-0.025062075 0.16362219 0.09366241 0.3048966 -0.2269073 -0.11325828 0.03147649 0.123256214
0.096740164 0.31394622 0.31495026 0.054151867 0.15308365 0.36643836 0.38125792 0.39704174
-0.103169814 -0.000302745 0.29748464 0.19339006 -0.09220056 -0.018139385 -0.040131852 0.062974475
0.09557557 0.062104374 -0.21545708 0.009867831 0.09530297 -0.27480596 -0.18458977 0.20265336
-0.10978219 -0.31770724 0.12264392 0.27485263 -0.14345157 0.17946558 0.14878356 0.03057258
0.04212615 0.13814786 -0.07542312 -0.14540982 0.03159695 -0.04203322 -0.208857 0.047608264
-0.09261787 -0.27407044 0.1356401 0.08343132 -0.1030644 0.14028002 0.2387918 0.06506098
0.19916296 0.07540468 -0.0023383398 -0.18231894 0.21142444 -0.09067505 -0.2804102 0.12152609
-0.024531292 -0.20332327 0.15834846 -0.08017426 -0.049118567 -0.0015198395 -0.04157672 -0.04312289
0.13989621 -0.09971195 0.14845566 0.19141255 -0.13404407 -0.14893141 -0.1251634 -0.012623108
-0.12062842 -0.17580323 -0.057636734 -0.024103403 0.029437335 0.099948026 -0.123850554 -0.040878303
00000000: b104 cb3c beee a3bc 53b2 83be fd08 c4bd
00000010: 677a c33d a898 093e 1c6f 26be 1fd3 88be
00000020: f32e 973e 5d6d 893e 0a05 393e bc14 2bbd
00000030: 943d a13c 8326 1a3e 902e d3bd 5287 86bd
00000040: efb1 ab3a b2d7 cfbd 7e37 af3d cad6 6e3d
00000050: 3d00 003d fa90 6cbe 550c ecbd 19b7 e93c
00000060: 2de8 29bd b516 9dbd f3d2 78bd 52e6 f23d
00000070: 53b4 ca3b 61a0 aabc 2d41 c13c c5b1 93bd
00000080: 6f4c ec3d a892 993d d717 a03e afe9 be3d
00000090: 32aa 8cbe 16c9 fbbd 38ef 253e e18b 763d
000000a0: 6312 d7bd 795b 4cbd 8ef3 cf3c 1566 2b3e
000000b0: ee81 0bbe 49b0 6abe 19b9 94bd fd29 8f3c
000000c0: a5c7 6b3e 0dd0 233e 0074 503e d35e 8d3d
000000d0: c927 313e 0d86 3fbd 0957 01bd 2b81 02be
000000e0: 9fa2 ed3c fc10 94bd 8a13 4f3d 3a8d 08be
000000f0: b90f 39be bbac cd3b 060c 10be bc0a 943d
00000100: 178b 803e 7179 073e a033 343e 44b5 893d
00000110: cb2c 4f3d eb39 33bd f67e 083e 16c7 35bd
00000120: 9538 32be 139c cbbd fc48 85be 1c84 24be
00000130: 4b8b 43be d02b 2dbe 33b2 d3bd 59c2 edbd
00000140: 285b c03d a5b9 3c3e 128b 553e e26b 623d
00000150: 325d c03d 0f7d 2e3e 3eed 213e 45fd 783d
00000160: e05d 0a3e 4712 36be 264d 903c b750 bebd
00000170: cd85 0bbe 2287 3fbe 2048 6dbe b4bc 41be
00000180: fcfa b1bd 04de 293c 1df0 a43b 7b80 da3d
00000190: 6ea3 48be b341 20be a4d3 12bd a082 a63d
000001a0: ba5b 9cbe 5e30 b9be 3df3 97be 22b3 a33a
000001b0: f55b 8bbe 12b2 42be 79a6 56be 78fb 99bd
000001c0: 6027 373e 2b05 fe3d 043b e13d 3fe9 18be
000001d0: 1e75 833e f6b1 563e d7ae 76bb df32 13bd
000001e0: aedc 463d 43a9 993d 8a4f 53bd cc38 b03d
000001f0: a5e6 043e db6b 7a3d 9098 a23d 11d4 6d3e
00000200: e886 05bc 3361 a03d f5c1 3cbe 8fbc ed3c
00000210: 09f4 db3b 7266 6c3d 53a8 7d3d 6116 b9bc
00000220: f764 fa3d a6d9 333e 0359 6fbc bc4c e03d
00000230: 8f00 c53d fb7c 3b3d 8b45 f53d d8ba 443e
00000240: 0e75 9ebd 367f aebd ef33 10bd 0f9d b53d
00000250: 83df 89be 40ec eabd e3a8 fa3c 00bd 293d
00000260: b29e 87be 5124 4f3b 0a21 e9bc daf2 dd3c
00000270: 0049 67bd ca77 9f3d 4c0b b83d 0b37 903b
00000280: 7cdf 1abe 2704 e63b d3ef 063e 0929 b8bd
00000290: 5c88 88bd 0372 853d d1a1 653e 7bc0 1c3e
000002a0: fb4e cdbc 938c 273e 14d2 bf3d 681b 9c3e
000002b0: 635a 68be f5f3 e7bd 7eed 003d c16d fc3d
000002c0: b51f c63d 8fbd a03e 2941 a13e 59ce 5d3d
000002d0: f6c1 1c3e cf9d bb3e 3d34 c33e 0e49 cb3e
000002e0: b24a d3bd bfb9 9eb9 e84f 983e 0b08 463e
000002f0: a6d3 bcbd 0c99 94bc 4c61 24bd c3f8 803d
00000300: 20bd c33d 2861 7e3d c8a0 5cbe afac 213c
00000310: 342e c33d 5eb3 8cbe 1a05 3dbe 5d84 4f3e
00000320: 7cd5 e0bd 86aa a2be bc2c fb3d 7cb9 8c3e
00000330: f8e4 12be d3c5 373e b85a 183e 5973 fa3c
00000340: 788c 2c3d a276 0d3e 7077 9abd 50e6 14be
00000350: ce6b 013d 072b 2cbd 9cde 55be e200 433d
00000360: 70ae bdbd f652 8cbe 3de5 0a3e 0ade aa3d
00000370: 6e13 d3bd 91a5 0f3e d685 743e b13e 853d
00000380: 60f1 4b3e c56d 9a3d d53e 19bb d1b1 3abe
00000390: a67f 583e d7b3 b9bd ed91 8fbe ace2 f83d
000003a0: d9f5 c8bc fa33 50be 1926 223e 6732 a4bd
000003b0: 8d30 49bd 5a35 c7ba 5a4c 2abd a1a1 30bd
000003c0: f440 0f3e c735 ccbd c304 183e a701 443e
000003d0: d942 09be 7a81 18be d62a 00be 27d1 4ebc
000003e0: 080c f7bd c305 34be 7f14 6cbd 8074 c5bc
000003f0: 9126 f13c 8db1 cc3d 5ca5 fdbd 0270 27bd

bias f4 [32]
-0.24384242 0.057423685 -0.12836735 -0.1291825 -0.094726704 0.07974157 -0.042768665 -0.13254915
-0.099812314 -0.13417795 -0.09019467 0.22607476 0.24742007 0.07697719 0.083013624 -0.1045656
-0.060447473 -0.08045679 -0.29158595 0.009184668 0.22288086 -0.12200365 -0.046908583 -0.13701116
-0.2396644 -0.1294347 0.103216454 -0.1554315 0.008643598 -0.059665278 0.14342919 0.10843288
00000000: d4b1 79be 1935 6b3d bb72 03be 6b48 04be
00000010: 1300 c2bd 8c4f a33d 322e 2fbd f7ba 07be
00000020: 666a ccbd f265 09be fcb7 b8bd 2480 673e
00000030: b05b 7d3e 38a6 9d3d 0c03 aa3d 7d26 d6bd
00000040: c597 77bd 88c6 a4bd c14a 95be 4a7b 163c
00000050: e13a 643e 0ddd f9bd 3723 40bd a74c 0cbe
00000060: 966a 75be 888a 04be 2663 d33d 6f29 1fbe
00000070: e19d 0d3c 9463 74bd 1adf 123e 0f12 de3d

weight f4 [32]
0.8816571 0.9316271 0.6314612 0.7479605 1.0599215 0.7748429 0.92249155 0.61828667
0.71436906 1.0036204 1.1604553 0.7388068 0.67526233 0.81806624 0.82850844 0.9076463
1.4903556 0.64364564 0.98518807 1.1514171 1.0741963 0.70369864 1.1336777 0.8289757
1.1657212 0.8877787 0.96700865 1.1223606 0.68587255 0.74685603 1.0697155 1.0090395
00000000: 48b4 613f 1d7f 6e3f 71a7 213f 577a 3f3f
00000010: 82ab 873f 1b5c 463f 6828 6c3f 0948 1e3f
00000020: e4e0 363f a276 803f cd89 943f 7122 3d3f
00000030: fedd 2c3f ca6c 513f 2119 543f 825b 683f
00000040: f9c3 be3f f6c5 243f 4935 7c3f a361 933f
00000050: 447f 893f 9825 343f 5a1c 913f c037 543f
00000060: 5a36 953f 7745 633f e18d 773f 83a9 8f3f
00000070: 5895 2f3f f531 3f3f 70ec 883f 3528 813f

bias f4 [32]
-0.64718 -0.19114429 0.13878423 -0.4173646 -0.25258395 -0.28415644 -0.10480017 0.2849662
-0.46998116 -0.37238455 -0.13933952 -0.29863086 -0.34318635 -0.5209457 -0.29115877 -0.23834297
-0.1960432 0.069742344 -0.20427181 -0.12291007 -0.24172762 -0.28667703 -0.17964377 -0.3036105
-0.11603386 -0.18564567 -0.055355307 -0.16714871 -0.4342124 -0.29443246 0.21672544 -0.2445603
00000000: 97ad 25bf 54bb 43be 741d 0e3e d0b0 d5be
00000010: af52 81be f47c 91be 79a1 d6bd 17e7 913e
00000020: 5fa1 f0be 30a9 bebe 05af 0ebe 25e6 98be
00000030: 1fb6 afbe b35c 05bf c312 95be 2e10 74be
00000040: 8cbf 48be 13d5 8e3d a12c 51be 46b8 fbbd
00000050: 7287 77be 55c7 92be 89f4 37be d672 9bbe
00000060: 29a3 edbd e619 3ebe 3fbc 62bd 0829 2bbe
00000070: 1651 debe dabf 96be 46ed 5d3e 046e 7abe

running_mean f4 [32]
-0.23209235 0.07851803 -0.21264371 -0.34994888 -0.07165185 0.06996459 -0.05067922 -0.27170128
-0.13636412 -0.03862981 -0.09392836 0.20013548 0.24486099 0.08845287 0.07777554 -0.045889895
-0.05574354 -0.16678013 -0.28333008 0.01139179 0.23027992 -0.1969057 -0.043047003 0.00838926
-0.24923334 -0.15675595 0.0129168965 -0.15345897 -0.12960018 -0.049806103 0.1844852 0.11728932
00000000: 9ea9 6dbe 10ce a03d 46bf 59be 802c b3be
00000010: 35be 92bd 9849 8f3d 0495 4fbd 6e1c 8bbe
00000020: 09a3 0bbe 4b3a 1ebd 835d c0bd 51f0 4c3e
00000030: d7bc 7a3e c726 b53d c848 9f3d 0bf7 3bbd
00000040: 5753 64bd 69c8 2abe a410 91be a1a4 3a3c
00000050: 80ce 6b3e a6a1 49be 0e52 30bd 1b73 093c
00000060: 0637 7fbe a284 20be 64a1 533c 5924 1dbe
00000070: e9b5 04be 7c01 4cbd b0e9 3c3e 6235 f03d

running_var f4 [32]
0.028522547 0.5084769 0.25198948 1.7669115 0.10974931 0.30596334 0.5029771 0.3720201
0.3107037 0.8020808 0.08620174 0.22343044 0.060034756 0.09452754 0.13021351 0.33643752
0.06335153 0.5289559 0.052304313 0.37119278 0.07424762 1.4195096 0.079790734 0.37127694
0.053746443 0.33943367 0.11377282 0.089982614 0.41746035 0.1265985 0.060747735 0.14498924
00000000: 1ea8 e93c 8b2b 023f c404 813e 282a e23f
00000010: 3fc4 e03d 3aa7 9c3e 1bc3 003f 6b79 be3e
00000020: 8e14 9f3e 2b55 4d3f 8a8a b03d f3ca 643e
00000030: 01e7 753d a897 c13d b156 053e 8a41 ac3e
00000040: 72be 813d a769 073f 0c3d 563d fb0c be3e
00000050: 230f 983d 7eb2 b53f 5369 a33d 0318 be3e
00000060: 3b25 5c3d 40ca ad3e b901 e93d ce48 b83d
00000070: 5dbd d53e 0aa3 013e 9ed2 783d 0f78 143e

weight f4 [32, 32, 4, 4]
-0.1315614 0.020646024 -0.06634365 0.06723125 0.021053523 0.15845425 0.13181521 0.1349015
0.0039713094 0.007872197 0.18768242 0.24596137 -0.18566383 -0.031871922 0.016425153 0.10111615
0.32331374 0.17701863 -0.06422406 -0.12981506 -0.04137817 0.1702893 -0.006404851 -0.18243946
-0.169909 0.10213441 0.07030117 -0.073794544 -0.11937462 0.0035254767 0.057398416 0.030514376
-0.049781665 0.03678335 0.11687895 0.11928478 -0.07326978 -0.04919738 0.032982342 0.015423152
-0.0069554453 -0.031320713 -0.033327386 0.06796029 0.009513136 -0.029355006 -0.05675653 -0.16525239
-0.048102044 -0.114276476 -0.050686717 -0.00462049 0.087791175 -0.0060190484 -0.01753727 0.12842144
0.18283731 0.0067229834 -0.03060713 0.14749731 0.059628982 0.095655635 0.15100361 0.11375508
0.18314393 0.01953829 -0.30576965 -0.17739514 0.13215542 0.009368586 -0.23295903 -0.21780653
-0.009453339 0.11207583 -0.1488356 -0.2826739 -0.0055268654 -0.032696486 0.022606043 -0.17232542
0.17903541 0.04899861 -0.049237642 -0.1256621 0.15520309 0.024025038 -0.043942336 -0.12226605
0.09987318 0.116733976 0.04099283 -0.10259494 0.15995957 0.06818316 0.11422335 0.11060653
-0.09740418 -0.14313078 0.065800644 0.2217531 -0.012255186 0.11756545 0.10348413 0.1494506
0.032203022 0.012900747 0.017747829 0.17797148 0.14715095 -0.050399337 -0.0034147864 0.07467563
-0.021159038 0.020660333 0.04781465 -0.013762711 0.0065346677 0.09503869 0.044744387 -0.02443346
0.0452277 0.0015772419 -0.0151415495 -0.059668854 0.06752287 0.065273255 -0.027228639 -0.0288977
0.25921872 0.22521475 0.01388639 0.061659966 0.052564625 0.25342593 0.064890765 -0.03582645
-0.028871113 0.17503162 0.051082585 -0.111699015 -0.0163485 0.029672064 0.009994785 -0.12700152
-0.13596 -0.30549705 -0.17027405 -0.06579674 0.18026447 -0.03773806 -0.11663486 -0.08578016
0.21944453 0.09127773 -0.028070254 -0.093605876 0.06841863 0.12885034 0.1110028 -0.06288337
-0.1757742 0.1930623 0.18286978 0.12623496 0.019229187 0.12371054 0.12781921 0.06957954
0.17959373 0.16168486 0.16537075 0.002398474 0.0641055 0.16848607 0.07202347 0.15200473
0.0033483221 0.026087608 -0.020328369 -0.14325595 -0.06866115 0.01942423 0.17582822 0.016873505
0.055270754 -0.030952208 0.07956675 0.026065776 0.01541234 0.0396605 -0.050452918 -0.059227146
-0.022344714 0.047915664 0.026720244 -0.01410733 -0.13921304 0.025164977 -0.015050626 -0.18331407
-0.091334455 -0.011686879 -0.13597557 -0.02749114 0.009724827 -0.14476128 -0.29441938 0.035914272
0.24362078 -0.064837985 -0.17836283 -0.046023607 0.05487195 0.0017752503 -0.15897715 -0.1473598
0.130935 0.053770114 -0.01664558 0.04671813 0.10999858 -0.06008971 -0.084199466 -0.055886384
0.09208225 -0.11855698 -0.20634109 -0.1557184 -0.06743279 -0.040811803 -0.027203161 -0.17664833
0.017341862 0.10156783 0.06393796 -0.25573844 -0.06301655 -0.06935542 -0.10237873 -0.29440582
0.035952214 -0.0007407688 0.18625441 0.07340858 0.04025089 0.1344844 0.2051678 0.23918797
-0.11567824 -0.013770654 0.1976502 0.2747067 0.013409736 -0.05164539 -0.022082875 0.21065682
00000000: 08b8 06be da21 a93c 2edf 87bd 8ab0 893d
00000010: 7078 ac3c d541 223e 91fa 063e 9e23 0a3e
00000020: c221 823b 63fa 003c d22f 403e 4cdd 7b3e
00000030: a91e 3ebe 228c 02bd 0b8e 863c fc15 cf3d
00000040: 6189 a53e 5f44 353e e787 83bd 3dee 04be
00000050: 287c 29bd 5160 2e3e c9df d1bb 69d1 3abe
00000060: a0fc 2dbe d82b d13d 0ffa 8f3d 9821 97bd
00000070: ae7a f4bd af0b 673b 9a1a 6b3d 49f9 f93c
00000080: dce7 4bbd 23aa 163d 3b5e ef3d 944b f43d
00000090: 770e 96bd 3183 49bd 7e18 073d 63b1 7c3c
000000a0: 81ea e3bb 264a 00bd 4c82 08bd c42e 8b3d
000000b0: fcdc 1b3c e979 f0bc 8979 68bd ec37 29be
000000c0: a606 45bd c909 eabd e09c 4fbd 7b67 97bb
000000d0: dccb b33d 703b c5bb 52aa 8fbc e980 033e
000000e0: b439 3b3e 794c dc3b cebb fabc 8909 173e
000000f0: 853d 743d 1ae7 c33d b1a0 1a3e 6cf8 e83d
00000100: 158a 3b3e c40e a03c d78d 9cbe 12a7 35be
00000110: c053 073e b37e 193c d08c 6ebe ad08 5fbe
00000120: 2de2 1abc 0388 e53d 5c68 18be a2ba 90be
00000130: b51a b5bb c0ec 05bd 4f30 b93c 1376 30be
00000140: 0f55 373e c4b2 483d 69ad 49bd 91ad 00be
00000150: 8fed 1e3e 28d0 c43c e1fc 33bd 9f66 fabd
00000160: 4f8a cc3d 3912 ef3d 19e8 273d 4c1d d2bd
00000170: 71cc 233e 9da3 8b3d efed e93d ad85 e23d
00000180: d87b c7bd e090 12be 7dc2 863d 3f13 633e
00000190: fac9 48bc 28c6 f03d 7def d33d 9409 193e
000001a0: 51e7 033d a85d 533c e563 913c 283e 363e
000001b0: bdae 163e 896f 4ebd 9cca 5fbb 89ef 983d
000001c0: b855 adbc dc3f a93c 4bd9 433d fe7c 61bc
000001d0: c420 d63b a5a3 c23d e445 373d ae28 c8bc
000001e0: ae40 393d 75bb ce3a 4314 78bc 5467 74bd
000001f0: 6e49 8a3d fcad 853d 980e dfbc dfba ecbc
00000200: 51b8 843e b29e 663e be83 633c 298f 7c3d
00000210: 014e 573d 0bc1 813e 73e5 843d c1be 12bd
00000220: 1d83 ecbc 7d3b 333e f93b 513d 74c2 e4bd
00000230: 4aed 85bc d412 f33c 2bc1 233c b00c 02be
00000240: 1939 0bbe 1c6a 9cbe 525c 2ebe 71c0 86bd
00000250: 4097 383e 3993 1abd 42de eebd 82ad afbd
00000260: 11b6 603e d2ef ba3d 97f3 e5bc 70b4 bfbd
00000270: 111f 8c3d 58f1 033e 7055 e33d ffc8 80bd
00000280: 27fe 33be 20b2 453e 3742 3b3e bd43 013e
00000290: 8786 9d3c f45b fd3d 0ae3 023e b87f 8e3d
000002a0: 6be7 373e b790 253e f356 293e b72f 1d3b
000002b0: bf49 833d 9d87 2c3e 0b81 933d 21a7 1b3e
000002c0: 866f 5b3b aeb5 d53c ae87 a6bc b0b1 12be
000002d0: 389e 8cbd 901f 9f3c 500c 343e 4e3a 8a3c
000002e0: 9663 623d 7c8f fdbc e4f3 a23d e587 d53c
000002f0: 0a84 7c3c 0c73 223d b8a7 4ebd 2a98 72bd
00000300: 430c b7bc 3743 443d 6ae4 da3c 6e22 67bc
00000310: dd8d 0ebe c826 ce3c e796 76bc afb6 3bbe
00000320: 8f0d bbbd 537a 3fbc 2e3d 0bbe 1935 e1bc
00000330: e154 1f3c 4d3c 14be 23be 96be d81a 133d
00000340: ba77 793e c7c9 84bd bfa4 36be 4083 3cbd
00000350: 69c1 603d 84af e83a e8ca 22be 7de5 16be
00000360: d313 063e 0d3e 5c3d 505c 88bc 835b 3f3d
00000370: ef46 e13d a120 76bd c570 acbd 1fe9 64bd
00000380: 9e95 bc3d 00ce f2bd 144b 53be a574 1fbe
00000390: 341a 8abd 472a 27bd 2ad9 debc 4de3 34be
000003a0: 8510 8e3c cb02 d03d e8f1 823d 26f0 82be
000003b0: d20e 81bd 370a 8ebd f1ab d1bd 5cbc 96be
000003c0: a142 133d 2730 42ba 7ab9 3e3e 3d57 963d
000003d0: 1ede 243d 47b6 093e 8217 523e b1ed 743e
000003e0: b7e8 ecbd 4f9e 61bc d064 4a3e 5ba6 8c3e
000003f0: 82b4 5b3c 1e8a 53bd 25e7 b4bc 6cb6 573e

bias f4 [32]
-0.006428429 -0.0602925 -0.03679098 -0.05129146 -0.0007453408 -0.03913052 -0.061517786 -0.066124514
-0.1086154 -0.027415961 -0.09710539 0.018726453 -0.09994908 -0.022330476 -0.044700317 -0.06205769
-0.1184506 -0.042813692 -0.028428549 -0.025601901 -0.04104979 -0.030699002 -0.06315245 -0.050949126
0.03189519 -0.07669904 -0.069797985 -0.026192354 -0.046162248 -0.038858954 -0.098994665 0.0061541176
00000000: 92a5 d2bb 45f5 76bd 23b2 16bd fe16 52bd
00000010: f962 43ba 5347 20bd 13fa 7bbd 4a6c 87bd
00000020: c071 debd 7097 e0bc 31df c6bd 3868 993c
00000030: 1ab2 ccbd 67ee b6bc ae17 37bd 3430 7ebd
00000040: 3a96 f2bd 695d 2fbd fde2 e8bc 14bb d1bc
00000050: d323 28bd 797c fbbc 1256 81bd 08b0 50bd
00000060: 88a4 023d 6314 9dbd 3ff2 8ebd 5991 d6bc
00000070: a014 3dbd 912a 1fbd b7bd cabd 7ba8 c93b

weight f4 [32]
1.0223051 0.96608496 0.86021227 0.8794163 1.0274951 1.1663885 1.0999784 1.0598927
1.0860846 0.8147199 1.0245327 1.1012332 0.8897186 0.9630474 0.9774982 0.9401442
1.0436947 0.8947995 0.92512035 1.0008653 0.9846693 1.0369368 1.0191799 0.99336624
0.78972185 0.98342246 0.9747027 1.0454165 0.89569247 0.99345547 0.9079993 0.8387383
00000000: e5da 823f 5851 773f df36 5c3f 6d21 613f
00000010: f684 833f 384c 953f 18cc 8c3f 90aa 873f
00000020: d204 8b3f 7c91 503f e323 833f 36f5 8c3f
00000030: 99c4 633f 468a 763f 523d 7a3f 4aad 703f
00000040: ca97 853f 9411 653f b0d4 6c3f 5b1c 803f
00000050: 4a13 7c3f 58ba 843f 7d74 823f 404d 7e3f
00000060: 362b 4a3f 93c1 7b3f 1e86 793f 35d0 853f
00000070: 1a4c 653f 1953 7e3f a472 683f 8eb7 563f

bias f4 [32]
-0.47537524 -0.3872922 -0.41197225 -0.4295779 -0.52656937 -0.59407425 -0.46728012 -0.51231676
-0.47019428 -0.2637463 -0.45244965 -0.3532401 -0.37648287 -0.4526028 -0.45972222 -0.3812818
-0.4837022 -0.34351072 -0.41113392 -0.5245346 -0.43661016 -0.5238768 -0.3382592 -0.52670443
-0.3936317 -0.44313547 -0.43172267 -0.3896972 -0.21233232 -0.54080135 -0.5036117 -0.16209565
00000000: 6264 f3be 2a4b c6be 07ee d2be a2f1 dbbe
00000010: 40cd 06bf 4015 18bf 573f efbe 3127 03bf
00000020: 4ebd f0be c109 87be 7ba7 e7be e3db b4be
00000030: 5dc2 c0be 8ebb e7be b660 ebbe 5e37 c3be
00000040: d1a7 f7be a3e0 afbe 2580 d2be e647 06bf
00000050: 5e8b dfbe ca1c 06bf 4f30 adbe 1ad6 06bf
00000060: 188a c9be a7e2 e2be c10a ddbe 6486 c7be
00000070: a56d 59be f571 0abf b2ec 00bf 67fc 25be

running_mean f4 [32]
0.14783385 -0.7560923 -2.815871 -1.1118733 -4.5386233 -6.3346853 -0.90250206 -1.0875899
-1.6860636 -5.1665506 0.7825168 -0.93371737 -5.1950836 -2.1221125 -2.889792 -1.5905143
-1.6536453 -1.508161 -2.1171744 -3.394831 -1.2391118 -0.39115208 -1.9660325 -3.0300426
2.6837857 -3.257712 -3.0949311 -0.81875235 -1.9207313 -10.952386 -2.4630404 -0.67696166
00000000: c261 173e 448f 41bf 3b37 34c0 dd51 8ebf
00000010: 673c 91c0 beb5 cac0 600a 67bf 2536 8bbf
00000020: efd0 d7bf 6254 a5c0 0553 483f 1a08 6fbf
00000030: 203e a6c0 b1d0 07c0 5af2 38c0 f995 cbbf
00000040: a6aa d3bf 6b0b c1bf c97f 07c0 e944 59c0
00000050: 379b 9ebf 1645 c8be f4a6 fbbf 38ec 41c0
00000060: 25c3 2b40 5a7e 50c0 5a13 46c0 c199 51bf
00000070: 86da f5bf f93c 2fc1 74a2 1dc0 5c4d 2dbf

running_var f4 [32]
10.0735 12.774022 13.689588 12.705635 21.23323 26.344023 17.107533 6.7895246
12.966671 14.978812 11.0798025 10.06399 27.396158 21.776 12.422923 12.294368
14.826477 13.811719 11.735448 19.75086 13.942759 13.346392 14.2270975 12.06047
15.602303 20.73287 16.598095 12.207794 13.377261 37.694447 11.210472 13.777943
00000000: 0e2d 2141 6562 4c41 8d08 5b41 484a 4b41
00000010: a8dd a941 8fc0 d241 3adc 8841 c943 d940
00000020: 7c77 4f41 37a9 6f41 df46 3141 1a06 2141
00000030: 552b db41 3f35 ae41 4bc4 4641 bbb5 4441
00000040: 4039 6d41 cdfc 5c41 65c4 3b41 c301 9e41
00000050: 8a15 5f41 d28a 5541 31a2 6341 aff7 4041
00000060: 08a3 7941 ebdc a541 e6c8 8441 2053 4341
00000070: 4309 5641 1dc7 1642 185e 3341 7472 5c41

weight f4 [256, 800]
-0.15004103 -0.085303955 -0.18076013 -0.34170884 -0.18935977 -0.15448944 -0.14416164 -0.07357138
0.21093948 -0.0014551989 -0.014888562 -0.19396466 -0.055339057 0.014538947 -0.09596583 -0.0038373847
-0.11753673 0.15099186 0.16189566 -0.12058259 0.25381422 0.11729836 0.29657903 0.109971456
-0.14029267 -0.27033734 -0.09397745 0.05837635 -0.13479802 -0.26318172 0.07160946 -0.11173305
-0.08552947 -0.058800124 -0.091313004 0.17599155 0.06082336 -0.047212057 -0.09708447 0.05859591
-0.07781742 -0.05491985 0.08263249 0.11195156 0.052527457 0.011099226 0.123779856 0.10845258
0.12427407 0.21178073 0.11933835 0.07976154 0.04011579 0.036540005 0.25004223 0.12756261
-0.020998778 -0.07700355 -0.0023709387 0.1778318 -0.036682904 -0.036797073 -0.13926245 -0.0222754
-0.12171034 -0.010792512 -0.042120624 0.06222231 0.040401004 -0.06807915 0.03408106 -0.0103456415
0.2369664 0.05947729 0.16488916 -0.11701122 -0.065419845 -0.119327046 -0.1392848 -0.08458055
-0.051406167 -0.13632923 -0.16725065 -0.09081268 -0.17445688 0.026331997 -0.0214889 -0.26418474
0.0041438066 0.016801545 0.2692793 0.11657215 0.020470899 0.05268786 -0.0067228875 0.04002685
-0.055972528 0.024092965 0.084110655 -0.14641559 0.102745295 0.16991872 -0.05212315 -0.15145947
-0.051901754 0.109326415 0.15920097 0.16091788 -0.037840083 0.05329084 0.016212637 -0.10271179
-0.055707864 0.02654866 0.07160306 -0.11989666 -0.07095977 -0.2405299 -0.17107289 -0.17736879
-0.15372033 0.0127243195 0.009344461 -0.060211603 -0.11756903 -0.12385354 0.013793544 0.22592579
0.090041965 0.19371696 0.009261613 -0.042172406 0.15475792 0.111886255 0.050131585 -0.08319524
-0.15351768 -0.0208532 0.04295741 -0.06981828 -0.061998133 -0.17456207 -0.13928206 -0.042254787
0.039395444 -0.034639873 -0.016621856 -0.055280108 0.11588225 0.044815138 0.041783597 -0.053381074
0.063595265 0.13176504 0.051671468 -0.028174715 -0.12381246 -0.0924094 0.066739894 0.018523702
-0.06491426 -0.050886318 -0.04584717 -0.053514097 -0.0918553 -0.14707695 -0.11135053 0.09857654
0.096012145 -0.03984526 -0.22753766 -0.09679024 0.029083822 0.0987831 0.21520256 0.03097706
-0.06205323 -0.3414496 -0.23931757 -0.24238454 -0.3196376 -0.020319434 -0.21321943 -0.15726054
0.003764956 -0.32889116 0.016633814 -0.04002851 -0.16677254 -0.09872905 -0.053520553 -0.00075163523
-0.076828144 -0.08806385 -0.14086612 -0.034398384 0.116298795 -0.3032576 -0.2799368 0.056879766
0.13451737 0.08225154 -0.058127437 -0.12196734 -0.39691752 -0.15559547 -0.10439726 -0.061159693
-0.13605262 0.0026714199 -0.17410867 0.051639304 0.03135854 -0.35901672 -0.06474426 -0.18350412
0.043623794 -0.13798869 -0.41624802 -0.091205336 -0.08955257 -0.15468112 -0.051529154 -0.21883057
0.18517755 -0.08189871 -0.045923643 -0.040545672 -0.007085588 -0.18430959 0.026564594 0.10455969
0.09237009 0.21884058 0.18559478 -0.020427845 0.15237916 0.052710984 0.057922784 0.09157999
0.055387847 0.083648086 -0.018999157 -0.16590251 0.03530248 0.1390565 0.005907647 0.00033610527
-0.14998724 -0.06930481 0.13820618 -0.20214647 -0.19578244 -0.08787229 -0.005307559 -0.3862318
00000000: 5ba4 19be d7b3 aebd 2f19 39be 76f4 aebe
00000010: 87e7 41be 7b32 1ebe 1c9f 13be 97ac 96bd
00000020: 8500 583e 5fbc beba 28ef 73bc ac9e 46be
00000030: 35ab 62bd c334 6e3c bc89 c4bd a27c 7bbb
00000040: 19b7 f0bd 9c9d 1a3e fac7 253e 01f4 f6bd
00000050: f0f3 813e 1f3a f03d 35d9 973e b738 e13d
00000060: e2a8 0fbe a869 8abe 4077 c0bd 0a1c 6f3d
00000070: 7e08 0abe c1bf 86be fba7 923d 4cd4 e4bd
00000080: 132a afbd 66d8 70bd 5002 bbbd 2137 343e
00000090: ea21 793d 6e61 41bd 39d4 c6bd 4402 703d
000000a0: bd5e 9fbd a3f3 60bd 393b a93d dc46 e53d
000000b0: 0827 573d 87d9 353c 4b80 fd3d 631c de3d
000000c0: 6783 fe3d 0cdd 583e aa67 f43d 055a a33d
000000d0: 7450 243d f9aa 153d 8905 803e c69f 023e
000000e0: a105 acbc 0ab4 9dbd c061 1bbb 8a19 363e
000000f0: d040 16bd 87b8 16bd d19a 0ebe e67a b6bc
00000100: 4543 f9bd 14d3 30bc ad86 2cbd d2dc 7e3d
00000110: 867b 253d 156d 8bbd 9598 0b3d c480 29bc
00000120: 52a7 723e 759e 733d b4d8 283e 94a3 efbd
00000130: d7fa 85bd bd61 f4bd ada0 0ebe 9138 adbd
00000140: 468f 52bd e499 0bbe c143 2bbe 00fc b9bd
00000150: d3a4 32be 33b6 d73c 7d09 b0bc 3943 87be
00000160: c5c8 873b 65a3 893c fade 893e 61bd ee3d
00000170: 96b2 a73c 3acf 573d ab4b dcbb 32f3 233d
00000180: 7343 65bd 9c5e c53c 3542 ac3d f8ed 15be
00000190: 206c d23d 2cff 2d3e 167f 55bd 3118 1bbe
000001a0: ef96 54bd 87e6 df3d 9405 233e a8c7 243e
000001b0: 34fe 1abd 7f47 5a3d 5dd0 843c 8f5a d2bd
000001c0: ee2d 64bd 937c d93c a0a4 923d 618c f5bd
000001d0: 5b53 91bd 784d 76be bb2d 2fbe 2aa0 35be
000001e0: dd68 1dbe aa79 503c 8319 193c 71a0 76bd
000001f0: 08c8 f0bd eda6 fdbd 51fe 613c 1759 673e
00000200: ec67 b83d bd5d 463e 05be 173c f9bc 2cbd
00000210: dc78 1e3e 9f24 e53d c756 4d3d 4462 aabd
00000220: bd33 1dbe 55d4 aabc 1cf4 2f3d e3fc 8ebd
00000230: c1f1 7dbd 66c0 32be f59f 0ebe 5b13 2dbd
00000240: 1e5d 213d 8ae2 0dbd 8f2a 88bc 656d 62bd
00000250: ac53 ed3d 1490 373d 4725 2b3d 1da6 5abd
00000260: 3c3e 823d 6aed 063e 76a5 533d a9ce e6bc
00000270: 6391 fdbd 2441 bdbd edae 883d 05bf 973c
00000280: c4f1 84bd 2c6e 50bd 3eca 3bbd 9931 5bbd
00000290: a21e bcbd 579b 16be bf0b e4bd 7fe2 c93d
000002a0: 04a2 c43d c934 23bd a2ff 68be f639 c6bd
000002b0: 3241 ee3c cb4e ca3d 0f5e 5c3e 9ac3 fd3c
000002c0: 872b 7ebd 7bd2 aebe aa0f 75be a733 78be
000002d0: 8aa7 a3be f174 a6bc 3256 5abe e808 21be
000002e0: 7bbd 763b 6c64 a8be a343 883c eff4 23bd
000002f0: 6cc6 2abe 7532 cabd 5e38 5bbd 6309 45ba
00000300: 1358 9dbd d25a b4bd 353f 10be 52e5 0cbd
00000310: 102e ee3d 9544 9bbe e053 8fbe c2fa 683d
00000320: ecbe 093e 7f73 a83d 0917 6ebd 03ca f9bd
00000330: c638 cbbe 6b54 1fbe 3bce d5bd 9682 7abd
00000340: 6151 0bbe fd12 2f3b 8b49 32be bc83 533d
00000350: d071 003d 0ad1 b7be a398 84bd 81e8 3bbe
00000360: ddae 323d e84c 0dbe 761e d5be ddc9 babd
00000370: 5667 b7bd ba64 1ebe 3c10 53bd 1f15 60be
00000380: 2f9f 3d3e 83ba a7bd 6e1a 3cbd 3813 26bd
00000390: 382e e8bb a7bb 3cbe fe9d d93c 6423 d63d
000003a0: 882c bd3d bf17 603e 8f0c 3e3e 4c58 a7bc
000003b0: 4809 1c3e 79e7 573d 7140 6d3d 4a8e bb3d
000003c0: 5ede 623d b04f ab3d 1fa4 9bbc 59e2 29be
000003d0: 5599 103d d464 0e3e ef94 c13b 4937 b039
000003e0: 4196 19be aeef 8dbd ec85 0d3e 7cff 4ebe
000003f0: 317b 48be 63f6 b3bd 08eb adbb 2dc0 c5be

bias f4 [256]
0.098519124 -0.0037061232 -0.020142656 0.17927045 -0.011458799 -0.033130486 -0.02904193 0.09613917
0.0717149 -0.051348295 0.004056691 0.017742047 -0.025530102 -0.0066863983 -0.07907465 -0.068523675
0.05462584 -0.0363721 -0.012918375 -0.06648817 -0.013753467 -3.5048106e-06 -0.028813047 -0.26485282
-0.031324036 -0.005614667 0.036708772 -0.008053438 0.02341935 -0.023902625 -0.049651396 0.25673863
-0.06695464 -0.0065362845 -0.03168927 0.01781379 0.0026939507 0.0020894588 -0.023538616 -0.041605
-0.063000455 0.008318346 -0.0012190862 0.014763065 -0.013365262 -0.045457963 -0.010806502 0.114169426
0.200138 0.20623653 -0.030611007 -0.00853437 0.053105365 0.124894604 0.18542728 0.01235067
0.13900521 0.072364844 0.015416499 0.008163679 0.092493795 -0.03786291 0.004865489 -0.007900819
0.0036906016 -0.0690305 -0.036642887 -0.034480903 0.06529357 -0.029587237 0.009784344 0.18667911
-0.076613486 -0.04196114 0.02338082 0.008096351 -0.024538139 0.014389782 0.024081143 -0.037080135
0.012050247 -0.022568235 -0.07853532 -0.021807749 -0.027431976 -0.040077683 -0.008397683 -0.018131396
-0.025171893 -0.01752719 -0.0828034 0.08427707 -0.013984179 0.23367271 -0.037476096 0.073905975
-0.023862498 -0.012328216 -0.011050265 -0.010918497 -0.04610126 0.043836616 0.116347834 -0.017144568
-0.16305211 0.017350698 0.07279842 0.049481235 -0.02959093 -0.009246564 0.10391045 -0.1885488
-0.03499264 0.024224544 -0.016201135 -0.0056214454 -0.034625936 -0.06791122 0.1015961 0.01444403
0.09240334 0.058180284 -0.16551319 -0.032074623 0.029208718 0.004704843 -0.0002847428 -0.024446882
0.17320691 -0.020746553 0.007832689 -0.06732527 -0.033981536 0.24681392 0.008023065 0.02336204
-0.0014980698 -0.021853978 0.022548907 -0.019132461 0.013644437 -0.057197303 0.024140747 -0.032059785
-0.0535716 0.01677301 0.031339154 -0.021500748 -0.068622574 0.1210084 -0.05828359 0.1233885
-0.0036974042 0.193234 0.14685124 -0.03112125 0.03442274 0.05193562 0.12899728 0.12652737
-0.04011559 -0.02524602 -0.029280765 -0.023646388 -0.059522707 0.021344775 -0.013480241 0.024927642
-0.012110322 -0.029915856 -0.0029598277 0.012968133 -0.011731929 -0.018404828 -0.060943812 0.022348547
0.1593815 0.03298029 0.20254233 0.012514286 -0.0433343 -0.08042183 -0.13705306 0.029204667
-0.04434113 -0.08965027 0.085745536 -0.03903213 -0.022591362 0.0047136606 -0.028542541 0.19207692
0.20459637 0.013436578 0.094115354 -0.057198714 0.084765956 -0.030685745 0.04460268 0.03136449
-0.028229857 0.069161125 -0.025782188 0.14682038 -0.005587632 -0.11311239 0.00916531 -0.011902536
-0.077099614 -0.04590521 0.07200313 -0.13045636 -0.08052511 -0.08557356 -0.011031665 0.011005164
-0.054447934 -0.03339803 0.12120021 -0.016033182 0.05429181 0.16963941 0.0016012896 -0.048061732
-0.0028111693 0.14176704 0.23265079 -0.01394672 0.03802287 -0.0008268171 -0.018844526 -0.031063536
0.0032100582 -0.0017693772 -0.00055385235 0.005179503 0.04515581 -0.01212721 0.13793483 -0.0909313
0.124128446 0.036462955 -0.025511777 -0.007417469 0.02169645 -0.0061295363 0.002623886 -0.021039909
-0.110907994 -0.017972756 -0.019454373 -0.07405852 0.23300317 -0.037598733 -0.017746625 -0.01433872
00000000: 65c4 c93d 6ee2 72bb 3602 a5bc ac92 373e
00000010: b0bd 3bbc d5b3 07bd 57e9 edbc 9de4 c43d
00000020: 43df 923d 9752 52bd feed 843b c557 913c
00000030: 8124 d1bc 9319 dbbb e4f1 a1bd 2456 8cbd
00000040: 58bf 5f3d e9fa 14bd 98a7 53bc f32a 88bd
00000050: 3956 61bc 3034 6bb6 5709 ecbc ca9a 87be
00000060: a24d 00bd 3efb b7bb f05b 163d 91f2 03bc
00000070: f0d9 bf3c 70cf c3bc 435f 4bbd 3f73 833e
00000080: 841f 89bd 542e d6bb 9ccc 01bd 3aee 913c
00000090: fe8c 303b 4def 083b 0ed4 c0bc 016a 2abd
000000a0: 6206 81bd ac49 083c bfc9 9fba c8e0 713c
000000b0: f9f9 5abc 2132 3abd c10d 31bc a9d1 e93d
000000c0: faf0 4c3e ab2f 533e efc3 fabc bed3 0bbc
000000d0: 0385 593d bec8 ff3d a6e0 3d3e 775a 4a3c
000000e0: 6257 0e3e 0534 943d 7c95 7c3c f4c0 053c
000000f0: 636d bd3d 2416 1bbd ae6e 9f3b 7072 01bc
00000100: 05de 713b dd5f 8dbd da16 16bd d93b 0dbd
00000110: a3b8 853d ef60 f2bc 834e 203c cf28 3f3e
00000120: 88e7 9cbd 72df 2bbd 2289 bf3c 8fa6 043c
00000130: 3504 c9bc 1fc3 6b3c d145 c53c 57e1 17bd
00000140: 666e 453c 05e1 b8bc 20d7 a0bd 2aa6 b2bc
00000150: 06b9 e0bc 7f28 24bd 6f96 09bc 4b88 94bc
00000160: 4935 cebc 2e95 8fbc d494 a9bd 7599 ac3d
00000170: e61d 65bc e647 6f3e 8980 19bd 045c 973d
00000180: 497b c3bc 49fc 49bc 2c0c 35bc 7fe3 32bc
00000190: add4 3cbd 068e 333d c647 ee3d c472 8cbc
000001a0: 22f7 26be 0d23 8e3c 5717 953d d6ac 4a3d
000001b0: ae68 f2bc e67e 17bc 01cf d43d f012 41be
000001c0: 7154 0fbd 8d72 c63c 3eb8 84bc 1a34 b8bb
000001d0: edd3 0dbd 0a15 8bbd 9e11 d03d a7a6 6c3c
000001e0: f63d bd3d 734e 6e3d 4a7c 29be ae60 03bd
000001f0: 1f47 ef3c 152b 9a3b 8849 95b9 d444 c8bc
00000200: 275d 313e adf4 a9bc ae54 003c d5e1 89bd
00000210: 3930 0bbd cabc 7c3e 2c73 033c c061 bf3c
00000220: e25a c4ba 1d07 b3bc 7cb8 b83c aebb 9cbc
00000230: eb8c 5f3c b847 6abd d1c2 c53c 1f51 03bd
00000240: e56d 5bbd 8d67 893c 7c5d 003d 5622 b0bc
00000250: fe89 8cbd 41d3 f73d c6ba 6ebd 1cb3 fc3d
00000260: 2650 72bb 22df 453e 2c60 163e fef1 febc
00000270: dcfe 0c3d 72ba 543d dd17 043e 6490 013e
00000280: 3f50 24bd bed0 cebc 37de efbc 12b6 c1bc
00000290: 15ce 73bd 3ddb ae3c 3bdc 5cbc 0e35 cc3c
000002a0: 5f6a 46bc 1912 f5bc abf9 41bb 4b78 543c
000002b0: 4737 40bc b9c5 96bc 38a0 79bd 4d14 b73c
000002c0: e734 233e 5716 073d 4267 4f3e b808 4d3c
000002d0: 4f7f 31bd 33b4 a4bd a357 0cbe a03e ef3c
000002e0: 0b9f 35bd 909a b7bd 5b9b af3d 28e0 1fbd
000002f0: 8511 b9bc 0d75 9a3b 0cd2 e9bc d0af 443e
00000300: b681 513e 1825 5c3c 8dbf c03d 3349 6abd
00000310: c699 ad3d ac60 fbbc 4db1 363d 0d78 003d
00000320: 4d42 e7bc 59a4 8d3d 2b35 d3bc 1558 163e
00000330: 7418 b7bb 78a7 e7bd 192a 163c db02 43bc
00000340: 67e6 9dbd 1a07 3cbd 6176 933d 5a96 05be
00000350: 59ea a4bd 3141 afbd 28be 34bc 014f 343c
00000360: cc04 5fbd 5fcc 08bd d137 f83d 0558 83bc
00000370: 1761 5e3d f4b5 2d3e 5de2 d13a 61dc 44bd
00000380: 983b 38bb 612b 113e 023c 6e3e c980 64bc
00000390: debd 1b3d c2be 58ba d65f 9abc f578 febc
000003a0: d75f 523b 72ea e7ba 6730 11ba d2b8 a93b
000003b0: 4cf5 383d 35b1 46bc ca3e 0d3e 303a babd
000003c0: 0e37 fe3d 2e5a 153d 13fe d0bc 3d0e f3bb
000003d0: c1bc b13c 47da c8bb 81f5 2b3b e35b acbc
000003e0: bb23 e3bd 9a3b 93bc c75e 9fbc feab 97bd
000003f0: 6298 6e3e 2101 1abd 5f61 91bc f3ec 6abc

weight f4 [10, 256]
0.2230155 -0.042593498 0.011845081 -0.17683652 0.017593207 0.18188943 0.061409075 0.050523236
-0.04089545 0.009449767 -0.014128133 -0.04745032 0.018982388 0.0023030431 -0.07803057 0.0037052524
-0.18281965 -0.1273275 -0.054058712 0.2615386 -0.025277335 -0.029662535 0.042174343 0.10416566
0.06195988 0.23476642 -0.21216063 -0.034483068 -0.022799628 -0.047477197 0.17364077 -0.2628341
-0.028260222 0.05800951 -0.024919119 -0.045009244 -0.051716648 0.10298855 -0.045362268 0.04212533
-0.03414852 -0.17875554 0.003905987 0.02521895 -0.09071414 0.12074857 0.037165273 0.002133878
-0.1371341 -0.22023472 0.08745245 -0.04335355 -0.1603753 0.13125713 0.22151825 0.025197102
-0.11224449 -0.13207448 -0.028371269 -0.20384918 -0.1306404 -0.010381738 -0.17119922 0.021373393
-0.05328048 -0.15029886 -0.03342837 0.15531863 -0.12646836 -0.04769031 0.010402368 -0.100576036
-0.18195558 0.022663347 0.0005836959 -0.03663395 0.030920865 -0.034241736 -0.015221586 -0.035453223
0.04231858 0.046161514 -0.31935972 -0.064191565 -0.013212614 0.024786642 -0.019385269 0.018590402
0.0014985972 0.103187494 0.13633949 0.10308521 0.030667573 -0.10507453 0.022525668 -0.31436223
0.16738357 0.009333439 0.017659947 -0.03278558 0.005004566 -0.32698703 -0.28453076 -0.039418317
0.08127865 -0.00079025055 0.1458029 0.124911204 0.04075289 0.0985918 -0.30291617 0.06732045
-0.054034468 -0.21540888 -0.029773459 0.046898995 -0.042877086 0.083608516 -0.11158128 0.09856788
-0.008331994 -0.2099263 0.053780865 -0.05018404 0.052858528 -0.020111324 -0.0001604544 -0.24579278
0.16470243 0.053065993 0.015684413 0.010256536 -0.0023480295 -0.10476888 0.1424354 -0.08634953
-0.24885301 -0.0021738485 -0.015830133 0.04380169 -0.053170454 0.01684447 0.02985816 -0.026141765
-0.050161984 -0.0027058846 0.22009483 -0.03189187 -0.04968294 0.01868663 -0.34436145 -0.2301165
0.0001953565 -0.16868752 -0.13820606 -0.05456009 0.062462445 -0.32622302 0.080686815 -0.07327444
-0.034530133 -0.14764644 0.032388117 -0.011504164 0.1782706 0.0059379516 0.01638766 -0.03517988
-0.065991886 -0.017438652 -0.0025531698 0.04855293 0.03826684 -0.0003762305 0.013759158 0.011954115
0.0030481813 0.0054040914 -0.031722374 -0.014605787 -0.21561792 -0.0025137889 0.15347129 -0.034484033
0.13868247 0.051728044 0.05829655 0.018512292 0.052013002 -0.012961053 -0.007196078 -0.32012412
-0.0029540816 -0.011990146 -0.10995101 -0.0019208785 -0.32469055 -0.042572893 0.11602781 -0.1851102
0.07603712 -0.13081928 -0.0034211215 -0.34303278 0.022301475 0.11056522 -0.022785297 0.072965756
0.14319806 -0.0048501305 0.13049428 -0.08466077 0.028313229 -0.0055604866 0.04113229 0.24820395
-0.0373088 0.035137564 -0.10405028 0.016621288 -0.0026251993 -0.16076021 0.035876036 -0.038678177
0.05038892 -0.10947056 -0.33904642 -0.026015583 -0.21449915 0.06798091 0.0061081965 -0.025620501
0.03917998 0.03731912 0.11091397 -0.04001439 0.13453376 0.050171826 -0.046517607 0.28688735
0.041552674 0.12067988 -0.16765076 0.22243415 -0.043762803 0.0020208328 -0.036981523 0.052384216
0.12152236 0.012783788 -0.01589493 0.052028704 -0.09859664 -0.024652228 -0.033057492 0.044355758
00000000: 2d5e 643e 8576 2ebd df11 423c a214 35be
00000010: a11f 903c 3941 3a3e 1588 7b3d 74f1 4e3d
00000020: fd81 27bd 32d3 1a3c af79 67bc 445b 42bd
00000030: f480 9b3c a7ee 163b 7ece 9fbd d2d3 723b
00000040: 1335 3bbe 2462 02be ab6c 5dbd 63e8 853e
00000050: 6a12 cfbc d8fe f2bc 01bf 2c3d ce54 d53d
00000060: a5c9 7d3d 9c66 703e a340 59be 1e3e 0dbd
00000070: 49c6 babc 7377 42bd e3ce 313e 3192 86be
00000080: fb81 e7bc 619b 6d3d 2e23 ccbc 9d5b 38bd
00000090: d6d4 53bd a9eb d23d c9cd 39bd 9c8b 2c3d
000000a0: 52df 0bbd b10b 37be 96fb 7f3b f997 ce3c
000000b0: 56c8 b9bd 074b f73d 9d3a 183d 88d8 0b3b
000000c0: e26c 0cbe 3685 61be 451a b33d 7e93 31bd
000000d0: 6c39 24be 4568 063e aed5 623e 276a ce3c
000000e0: 70e0 e5bd 883e 07be dd6a e8bc d7bd 50be
000000f0: 99c6 05be 2a18 2abc d94e 2fbe 4117 af3c
00000100: a23c 5abd f2e7 19be 30ec 08bd d90b 1f3e
00000110: ec80 01be ea56 43bd b26e 2a3c cffa cdbd
00000120: 9052 3abe 7ca8 b93c 2b03 193a 7b0d 16bd
00000130: c14d fd3c 1041 0cbd f663 79bc 6637 11bd
00000140: 3f56 2d3d db13 3d3d 1e83 a3be de76 83bd
00000150: b879 58bc 5b0d cb3c dbcd 9ebc e64a 983c
00000160: 946c c43a f753 d33d 949c 0b3e 571e d33d
00000170: 903a fb3c 5131 d7bd c087 b83c 16f4 a0be
00000180: 9966 2b3e 48eb 183c 98ab 903c 2c4a 06bd
00000190: 58fd a33b d86a a7be 04ae 91be 1a75 21bd
000001a0: 6c75 a63d d128 4fba 5b4d 153e 72d1 ff3d
000001b0: 81ec 263d 7fea c93d d417 9bbe 4edf 893d
000001c0: 3f53 5dbd 2594 5cbe 78e7 f3bc 2919 403d
000001d0: e29f 2fbd f13a ab3d ba84 e4bd f5dd c93d
000001e0: ea82 08bc ecf6 56be 5349 5c3d c88d 4dbd
000001f0: 2f82 583d 81c0 a4bc a63f 28b9 1ab1 7bbe
00000200: c1a7 283e ba5b 593d 997c 803c 080b 283c
00000210: 66e1 19bb 1191 d6bd 96da 113e 06d8 b0bd
00000220: 53d3 7ebe 2077 0ebb 32ae 81bc 6769 333d
00000230: 43c9 59bd 6afd 893c 1a99 f43c 4127 d6bc
00000240: a776 4dbd 3655 31bb 8a60 613e 0da1 02bd
00000250: 5780 4bbd b414 993c 2550 b0be a9a3 6bbe
00000260: 9cd8 4c39 6cbc 2cbe e485 0dbe 677a 5fbd
00000270: 9fd8 7f3d b406 a7be 213f a53d e910 96bd
00000280: 786f 0dbd a130 17be 67a9 043d f67b 3cbc
00000290: 918c 363e 2693 c23b 6a3f 863c c718 10bd
000002a0: c126 87bd 81db 8ebc 1553 27bb 70df 463d
000002b0: b1bd 1c3d ce40 c5b9 176e 613c 31db 433c
000002c0: ffc3 473b ce14 b13b 52ef 01bd 1c4d 6fbc
000002d0: f2ca 5cbe 61be 24bb 9427 1d3e 213f 0dbd
000002e0: c702 0e3e c9e0 533d 5dc8 6e3d 17a7 973c
000002f0: 960b 553d 995a 54bc 14cd ebbb 4fe7 a3be
00000300: 4499 41bb 5172 44bc ff2d e1bd fdc5 fbba
00000310: d73d a6be ea60 2ebd fd9f ed3d 878d 3dbe
00000320: 59b9 9b3d 7df5 05be e534 60bb fea1 afbe
00000330: 95b1 b63c 0570 e23d 3ba8 babc 126f 953d
00000340: 83a2 123e d8ed 9ebb 4ba0 053e a062 adbd
00000350: 25f1 e73c be34 b6bb 557a 283d 2d29 7e3e
00000360: 1dd1 18bd 68ec 0f3d 5018 d5bd 5e29 883c
00000370: 890b 2cbb 539e 24be c0f2 123d 026d 1ebd
00000380: 9d64 4e3d 1a32 e0bd 7e97 adbe a21e d5bc
00000390: aaa5 5bbe 9339 8b3d 4427 c83b 16e2 d1bc
000003a0: 307b 203d efdb 183d dd26 e33d 21e6 23bd
000003b0: 38c3 093e f980 4d3d 3f89 3ebd e6e2 923e
000003c0: 2333 2a3d 0327 f73d a4ac 2bbe c7c5 633e
000003d0: a040 33bd f36f 043b f079 17bd d590 563d
000003e0: b7e0 f83d 1873 513c 1636 82bc 0d1c 553d
000003f0: 09ed c9bd 78f3 c9bc 4b67 07bd 62ae 353d

bias f4 [10]
-0.15383711 -0.18777847 -0.22933799 0.13433017 0.22230724 0.030188328 -0.032383498 0.058340188
-0.025099006 0.114832506
00000000: 7a87 1dbe 0049 40be 94d7 6abe d98d 093e
00000010: 82a4 633e 834d f73c 8fa4 04bd 1ff6 6e3d
00000020: 6e9c cdbc 4e2d eb3d
