Project_1/Part2/checkpoints/cnn_2_100.pth (torch, 911575 bytes, 16 tensors)

weight f4 [32, 3, 4, 4]
0	0xbd62a1f0	-0.055330217
1	0x3dda7582	0.10666944
2	0x3e8698e4	0.2628852
3	0xbcefe4e9	-0.029283958
4	0x3c87aa40	0.016560674
5	0x3f22fb89	0.6366506
6	0xbed073b9	-0.4071329
7	0xbe9f90bc	-0.3116511
8	0x3e864637	0.26225445
9	0xbee1a8b9	-0.44074038
10	0xbf3ef845	-0.7459758
11	0x3f0b7250	0.544713
12	0xbd2c42a5	-0.042055745
13	0xbeb797f4	-0.3585812
14	0x3f22b7ae	0.6356152
15	0xbd808171	-0.06274689
16	0xbe3b2202	-0.18274692
17	0xbe27f453	-0.16401796
18	0x3e49bfa3	0.1970201
19	0xbe47774b	-0.194791
20	0xbe1f779b	-0.1557297
21	0x3f263114	0.6491864
22	0xbef3678c	-0.47539937
23	0xbe2ec365	-0.17066725
24	0x3d65a5ec	0.05606644
25	0xbee29c8e	-0.44260067
26	0xbf424ded	-0.75900155
27	0x3f2a2f32	0.66478264
28	0xbe5b84c4	-0.21437365
29	0xbe31c364	-0.17359692
30	0x3f4bf5c2	0.7967187
31	0x3eecb8fa	0.46234876
32	0xbcab1334	-0.02088318
33	0xbe1b6569	-0.15175404
34	0x3eddcb5b	0.4331921
35	0x3ce94e66	0.028479766
36	0x3e36302c	0.17791814
37	0x3f45c762	0.7725736
38	0x3de25a05	0.11052326
39	0xbefd8361	-0.49514297
40	0x3f0841c8	0.53225374
41	0xbea75043	-0.32678422
42	0xbf3afdea	-0.7304369
43	0x3d84a933	0.06477585
44	0xbe25e606	-0.16201028
45	0xbeb069e7	-0.34455797
46	0x3e0f045f	0.13966511
47	0xbe43b93b	-0.19113629
48	0xbf09c7fe	-0.5382079
49	0xbeefa558	-0.46805835
50	0xbf078ae2	-0.52946293
51	0xbf1e9c06	-0.6195682
52	0xbf3e02f8	-0.7422328
53	0xbf234ef2	-0.63792336
54	0xbf30e2f8	-0.69096327
55	0xbd162979	-0.036660645
56	0x3b11809e	0.0022201906
57	0x3e7822ea	0.24232069
58	0x3eb3a11a	0.35083848
59	0x3ef6f0ce	0.48230594
60	0x3f4069d0	0.7516146
61	0x3f3be231	0.73392016
62	0x3f255544	0.6458323
63	0x3f4eeedc	0.8083322
64	0xbe2ea27f	-0.17054175
65	0xbe065f19	-0.13122214
66	0xbe41a82f	-0.18911813
67	0xbe1f0b18	-0.15531576
68	0xbe97e31c	-0.29665458
69	0xbed75e1a	-0.4206398
70	0xbe2e8cea	-0.17045942
71	0x3dad6f8d	0.08468542
72	0x3d449573	0.04799409
73	0x3e9f9845	0.3117086
74	0x3ea42d34	0.32065737
75	0x3ea5e65f	0.32402322
76	0x3f0334a8	0.5125222
77	0x3e221f29	0.15832199
78	0x3e7505d0	0.23927999
79	0x3e8e18c1	0.2775326
80	0x3ed9f003	0.42565927
81	0x3ebcbb01	0.36861423
82	0x3eabed51	0.33579496
83	0x3e64d1e2	0.22345689
84	0xbc4a5bc7	-0.012350983
85	0x3dd6acbd	0.10482166
86	0x3de0db96	0.10979383
87	0x3ddb2cb2	0.10701884
88	0xbd4046db	-0.046942573
89	0x3da36602	0.07978441
90	0xbde9cfd7	-0.114165954
91	0xbe278d57	-0.1636251
92	0xbe33b6a4	-0.1755014
93	0xbee744c5	-0.45169654
94	0xbeea18cb	-0.4572204
95	0xbf0b7ef8	-0.54490614
96	0xbd506be6	-0.05088415
97	0x3f0478b1	0.5174666
98	0x3e8f00ae	0.27930206
99	0x3cfe9c96	0.031080525
100	0xbf301a00	-0.6878967
101	0xbd7ecd0e	-0.062207274
102	0x3f4662e6	0.7749466
103	0x3f055d02	0.52095044
104	0xbe658e9e	-0.22417685
105	0xbf7364c6	-0.95075643
106	0xbe699abb	-0.22812931
107	0x3f50a4a4	0.8150122
108	0xbbc129dd	-0.005894883
109	0xbe54c776	-0.20779213
110	0xbf226b92	-0.6344539
111	0x3e052116	0.13000903
112	0xbe172c20	-0.14762926
113	0x3e308e3a	0.17241755
114	0x3d9a7674	0.075421244
115	0x3d9f2e67	0.077725224
116	0xbee59e03	-0.44847116
117	0xbe3240ef	-0.17407583
118	0x3ee6dfd1	0.45092633
119	0xbd98de18	-0.07464236
120	0x3e211698	0.15731275
121	0xbf46df6c	-0.77684665
122	0xbe9ba829	-0.30401734
123	0x3eb3b064	0.35095513
124	0x3f14f171	0.5818091
125	0x3e55a396	0.20863184
126	0xbf11464e	-0.567479
127	0xbea554fa	-0.32291394
128	0x3ddd70bd	0.10812519
129	0x3e99f2c2	0.30068022
130	0xbe11cd61	-0.14238502
131	0xbf1a8a8f	-0.60367674
132	0xbdccbc07	-0.09996801
133	0x3d9f1955	0.077685036
134	0x3f0a7fb4	0.5410111
135	0xbec0990d	-0.37616768
136	0x3eaa61ec	0.33277833
137	0xbe890fc9	-0.26769856
138	0x3e0e8f4b	0.1392185
139	0x3e541773	0.2071207
140	0x3df574ac	0.11985144
141	0x3e96195a	0.29316217
142	0xbe8d5532	-0.2760406
143	0x3cb48702	0.022037033
144	0xbe42ed21	-0.1903577
145	0x3dc0ab95	0.09407727
146	0x3e8edec0	0.2790432
147	0x3f026fb0	0.5095167
148	0xbe9106cc	-0.28325498
149	0xbe8a40a2	-0.27002436
150	0xbe0c5ba6	-0.13706836
151	0x3ed4a4fd	0.41532126
152	0xbf1dd381	-0.61650854
153	0xbeb7c6e1	-0.3589392
154	0xbed24742	-0.4106999
155	0x3d90e243	0.07074406
156	0xbf309ee6	-0.6899246
157	0xbf253039	-0.64526707
158	0xbf0f4dc2	-0.55978024
159	0xbe084f24	-0.1331144
160	0xbc82eaa9	-0.015981035
161	0xbe86bea3	-0.2631732
162	0xbe212539	-0.15736856
163	0xbcc000a1	-0.0234378
164	0xbe2cb1df	-0.16864727
165	0xbe36645d	-0.17811723
166	0x3cf2bf3a	0.0296322
167	0x3d9d2bb9	0.07674355
168	0xbee3ceab	-0.44493613
169	0xbe04f242	-0.12983039
170	0xbe16557f	-0.14681052
171	0x3cb228a2	0.02174789
172	0xbea39147	-0.31946775
173	0xbe7c44c8	-0.24635613
174	0xbd7dcda4	-0.061963692
175	0x3dac0c73	0.08400812
176	0xbdb86bfa	-0.0900497
177	0xbcb5ced6	-0.022193354
178	0xbcd0be89	-0.02548148
179	0xbe79f0a9	-0.24408211
180	0x3e6fb030	0.23407054
181	0x3ee4a9b4	0.44660723
182	0x3ed12b6e	0.40853447
183	0x3e0cf37c	0.13764757
184	0x3ea93cf3	0.33054313
185	0x3f6a5c7e	0.9154738
186	0x3f372687	0.71543163
187	0x3e94f8ac	0.29095972
188	0x3f04f510	0.51936436
189	0x3f81f111	1.0151693
190	0x3f6098f1	0.8773337
191	0x3f1a7c81	0.6034623
192	0x3d47712b	0.04869191
193	0xbe8bae9b	-0.2728165
194	0x3d08899a	0.033334352
195	0x3dd10841	0.102066524
196	0x3ea3fcbc	0.3202876
197	0x3e2890dc	0.1646151
198	0xbf0dcb48	-0.5538831
199	0x3dad5e53	0.084652565
200	0xbf251abb	-0.6449391
201	0x3f1f7a02	0.62295544
202	0x3eb70607	0.35746786
203	0xbefd8dae	-0.49522156
204	0x3ec653eb	0.387359
205	0xbf116889	-0.56800133
206	0x3da65d79	0.08123297
207	0x3e97f63b	0.29680046
208	0x3af1a100	0.0018434823
209	0xbe86b1d9	-0.26307562
210	0x3e750573	0.2392786
211	0x3e038415	0.12843354
212	0x3e43849b	0.19093554
213	0x3db63d36	0.08898394
214	0xbeeec9e6	-0.4663841
215	0x3e8237bb	0.25433144
216	0xbf32db79	-0.6986614
217	0x3f150d9e	0.58223903
218	0x3f1cf49d	0.6131075
219	0xbf05a9a9	-0.52212006
220	0x3edd6984	0.43244565
221	0xbf0df199	-0.55446774
222	0xbe0b7455	-0.13618596
223	0x3e88d89c	0.2672776
224	0x3a0dc7a3	0.00054084713
225	0xbe530dff	-0.20610808
226	0x3c68db4d	0.014212442
227	0x3e29785d	0.16549821
228	0x3ee7e752	0.4529367
229	0x3e47eb47	0.19523345
230	0xbf32e5a4	-0.69881654
231	0xbd414a4f	-0.047190007
232	0xbf22ac75	-0.635444
233	0x3f079ab8	0.5297046
234	0x3f275476	0.6536325
235	0xbec7ae66	-0.39000243
236	0x3e4de800	0.20108032
237	0xbf1b9507	-0.6077427
238	0x3d9babb2	0.07601108
239	0x3e8e2084	0.27759182
240	0x3e86960d	0.26286355
241	0x3e936ce7	0.28794023
242	0x3ef7279b	0.48272404
243	0x3eadee9d	0.3397111
244	0x3e1c7de8	0.15282404
245	0x3e16dd64	0.14732891
246	0x3e18959a	0.14900818
247	0x3e8efc23	0.2792674
248	0xbc89224d	-0.016739989
249	0x3be7f554	0.007078806
250	0x3d667042	0.0562594
251	0xbda187b1	-0.07887209
252	0xbf03bb54	-0.51457715
253	0xbf0c20de	-0.5473765
254	0xbf1375d9	-0.57601696
255	0xbec4d005	-0.38439956

bias f4 [32]
0	0x3a86bdee	0.0010279992
1	0xbe4db1e2	-0.20087388
2	0x3e316b40	0.17326069
3	0xbd08a80a	-0.03336338
4	0x3e09cfd4	0.13458186
5	0xbdaecfe9	-0.085357495
6	0xbe1ad29a	-0.151194
7	0x3df26077	0.118348055
8	0xbe55fb9b	-0.20896761
9	0xbdb8bf4a	-0.090208605
10	0xbe49b280	-0.19696999
11	0xbe2dea73	-0.16983967
12	0x3ec8730f	0.39150283
13	0x3d257967	0.04039898
14	0xbe8ac0ed	-0.27100316
15	0x3dd88a75	0.105732836
16	0x3e146ab2	0.14493826
17	0xbd8e072b	-0.06934961
18	0x3d9657a2	0.073409334
19	0xbe8b511d	-0.27210322
20	0x3d4d30a4	0.050095215
21	0xbe108f65	-0.141172
22	0xbd3264cd	-0.043553162
23	0xbe06353d	-0.13106246
24	0xbec45603	-0.38346872
25	0x3e908d78	0.28232932
26	0x3dd775df	0.10520529
27	0x3dc7dada	0.097585395
28	0xbe2931c8	-0.16522896
29	0x3dad4efa	0.08462329
30	0xbdc59d7c	-0.096491784
31	0x3eb9951d	0.36246577

weight f4 [32]
0	0x3f9127b9	1.1340247
1	0x3f99e366	1.2022521
2	0x3f85867e	1.0431669
3	0x3f474d1e	0.77852046
4	0x3f61c669	0.88193375
5	0x3f907fae	1.1288965
6	0x3f867f1e	1.0507543
7	0x3f62cd58	0.8859458
8	0x3f91a275	1.1377703
9	0x3f9a3cec	1.2049842
10	0x3f46a276	0.77591646
11	0x3f637fc1	0.8886681
12	0x3f7836fd	0.96958905
13	0x3fb028b5	1.3762423
14	0x3f80b70c	1.0055861
15	0x3f7eb36b	0.9949252
16	0x3f500f55	0.81273395
17	0x3f6d7827	0.9276146
18	0x3f7d3924	0.98915315
19	0x3f7aa9b8	0.9791522
20	0x3fb31944	1.3992085
21	0x3f72032b	0.94536084
22	0x3f693d2c	0.91108966
23	0x3f7f3d99	0.99703366
24	0x3f840e65	1.0316893
25	0x3f5d3fbb	0.8642537
26	0x3f6e04a4	0.9297583
27	0x3f675f8f	0.90380186
28	0x3f394604	0.7237246
29	0x3f969548	1.1764307
30	0x3f9141bd	1.1348187
31	0x3f708786	0.9395679

bias f4 [32]
0	0xbf445c57	-0.767034
1	0xbf26fe3c	-0.6523168
2	0xbf298b9e	-0.66228664
3	0x3d1da497	0.038487043
4	0xbedbc4b9	-0.42923525
5	0xbeda321e	-0.4261636
6	0xbf03be07	-0.51461834
7	0xbea103e4	-0.3144828
8	0xbf2e27a3	-0.6802923
9	0xbf4dc3ee	-0.8037709
10	0xbe933d0a	-0.28757507
11	0xbe690752	-0.22756699
12	0xbe9f5ecc	-0.31127012
13	0xbf9345ee	-1.1505716
14	0xbe999b60	-0.30001354
15	0xbedeff7e	-0.435543
16	0xbe894e99	-0.26817778
17	0xbe3085b1	-0.17238499
18	0xbf0cd36f	-0.5501012
19	0xbed42e0a	-0.41441375
20	0xbeea8990	-0.45808077
21	0xbeff7cad	-0.49899808
22	0xbee21370	-0.44155455
23	0xbf026a3e	-0.5094336
24	0xbf0dde98	-0.55417776
25	0xbdd2f67a	-0.10300918
26	0xbed4ac96	-0.41537923
27	0xbe32d955	-0.17465718
28	0x3d360700	0.04444027
29	0xbf5b133e	-0.85576236
30	0xbf495b8e	-0.78655326
31	0xbe7541cb	-0.2395088

running_mean f4 [32]
0	0x3cd069e4	0.025441118
1	0xbe518048	-0.20459092
2	0x3e29c286	0.16578111
3	0xbeffee2b	-0.49986395
4	0x3e06ce4c	0.13164634
5	0xbe2a4047	-0.16626082
6	0xbe134c2d	-0.14384528
7	0x3da209b3	0.07912006
8	0xbe7f7e90	-0.24950624
9	0xbe8fa05b	-0.2805203
10	0xbdf97ac0	-0.12181616
11	0xbc7cfb48	-0.0154407695
12	0x3ec77d8e	0.38962978
13	0x3e3a4000	0.18188477
14	0xbe714464	-0.23561245
15	0x3e197324	0.14985329
16	0x3e10e363	0.14149241
17	0xbc986adf	-0.018605648
18	0x3dae4d68	0.08510858
19	0xbe83c1f8	-0.25733924
20	0x3d352ea0	0.04423392
21	0xbe0510c0	-0.12994671
22	0xbd4b6ce2	-0.049664386
23	0xbe1e2e2a	-0.15447298
24	0xbebc92c3	-0.3683072
25	0x3e94a7f1	0.2903438
26	0x3cb8c849	0.02255644
27	0x3d858fd7	0.06521576
28	0xbea7d660	-0.32780743
29	0x3e7f85dd	0.24953409
30	0xbe2ccf17	-0.16875874
31	0x3eb45cde	0.35227102

running_var f4 [32]
0	0x3e8da747	0.27666685
1	0x3fac2c7e	1.3451078
2	0x3f0bf2a6	0.5466713
3	0x4044c8ce	3.0747561
4	0x3df5fb27	0.12010794
5	0x3f267fab	0.65038556
6	0x3e864312	0.26223046
7	0x3f44ac56	0.76825464
8	0x3f27a224	0.6548178
9	0x4008a892	2.1352887
10	0x3f8ea990	1.1145496
11	0x3f13b83a	0.5770298
12	0x3f3cc35f	0.7373561
13	0x408853bb	4.260221
14	0x3ec639f2	0.38716084
15	0x3fd2dea4	1.6474195
16	0x3e919149	0.28431156
17	0x409b0176	4.8439283
18	0x3e706eb9	0.23479737
19	0x3f0bbb52	0.54582703
20	0x3e87560c	0.26432836
21	0x400b990e	2.1812167
22	0x3e24d58c	0.16097087
23	0x3eab28d7	0.33429596
24	0x3ebc006d	0.36719075
25	0x407b5b89	3.9274619
26	0x3f02ae0f	0.5104684
27	0x40541f7e	3.3144221
28	0x3f891752	1.0710242
29	0x400ad1d6	2.1690574
30	0x3f5c7fc9	0.86132485
31	0x3f868269	1.0508548

weight f4 [32, 32, 4, 4]
0	0xbe060bdd	-0.13090463
1	0x3ea998c9	0.33124378
2	0x3dcf2797	0.10114973
3	0x3e8ede52	0.27903992
4	0x3ee72f2d	0.4515318
5	0x3ec1d93a	0.37861043
6	0x3e0df721	0.13863803
7	0x3f31bc4a	0.6942793
8	0x3ebe3ea1	0.37157157
9	0x3ee8d4fc	0.45474994
10	0x3e947229	0.28993347
11	0x3f2f8e87	0.68576854
12	0x3f1f9335	0.62333995
13	0x3f205b4e	0.6263932
14	0x3f105d7b	0.5639264
15	0x3f02827d	0.5098036
16	0x3c95ec22	0.018301073
17	0xbdae2bf7	-0.085044794
18	0xbe034d93	-0.12822561
19	0xbda8e7b0	-0.08247316
20	0xbbd43ec8	-0.0064772107
21	0xbd86b23d	-0.06576965
22	0xbee63f28	-0.4497006
23	0xbefc288c	-0.49249685
24	0xbd16166b	-0.036642473
25	0xbf69b991	-0.91298777
26	0xbf7348f8	-0.95033216
27	0xbe1b73fe	-0.15180966
28	0xbb911a7e	-0.004428207
29	0xbd0cfbbd	-0.034419764
30	0x3eed05ac	0.4629339
31	0x3ed57885	0.41693512
32	0xbdcfb93a	-0.10142751
33	0x3d3f74e5	0.04674234
34	0x3e9d864f	0.30766532
35	0xbe866a84	-0.2625314
36	0x3cd63bad	0.026151503
37	0xbe96cf7a	-0.29455167
38	0xbef3190b	-0.47480044
39	0xbf4db9e7	-0.8036179
40	0xbebbeeff	-0.36705777
41	0xbe8f93d0	-0.2804246
42	0xbf96361e	-1.1735265
43	0xbfa70266	-1.3047607
44	0xbdabf553	-0.08396401
45	0xbf8253c4	-1.0181813
46	0xbfc20b5a	-1.5159714
47	0xbf936375	-1.1514727
48	0xbed40411	-0.41409352
49	0xbe3e7caa	-0.18602243
50	0xbe2b5f08	-0.1673547
51	0xbe44c932	-0.19217375
52	0xbedd4c66	-0.4322235
53	0xbdf56189	-0.11981494
54	0xbe203cea	-0.15648237
55	0x3d8112b7	0.06302398
56	0xbedda7dd	-0.43292132
57	0xbe4964fa	-0.19667426
58	0xbdf873e9	-0.12131483
59	0x3f2ea6f1	0.6822348
60	0xbf408ec4	-0.75217843
61	0xbf19978b	-0.5999686
62	0x3e9247a3	0.2857028
63	0x3f15b017	0.58471817
64	0x3e30795a	0.17233792
65	0xbc733c01	-0.014845849
66	0x3c440a97	0.011965415
67	0xbe4c42ed	-0.19947405
68	0xbb3eed89	-0.0029133281
69	0x3e7d83f1	0.24757363
70	0xbc99284d	-0.018695975
71	0xbe2e98b7	-0.17050444
72	0x3e117dbc	0.1420812
73	0x3ea6be0b	0.32566866
74	0x3e2bc8f5	0.16775878
75	0xbf2cd5a3	-0.67513484
76	0xbd0354f0	-0.032063425
77	0x3df908c6	0.121598765
78	0xbe91f22b	-0.28505072
79	0xbec812b4	-0.3907677
80	0x3e5cac84	0.21550184
81	0xbdcbfc5b	-0.09960242
82	0xbd58012f	-0.052735504
83	0xbe03470f	-0.12820075
84	0x3e8afdc3	0.2714673
85	0xbcccc95b	-0.024998358
86	0x3e10050f	0.1406443
87	0x3ec23933	0.37934265
88	0xbe541fb9	-0.20715226
89	0xbf3b738b	-0.7322318
90	0xbe23ea42	-0.16007331
91	0x3dfb7337	0.12277835
92	0xbf288f2a	-0.6584345
93	0xbdf7b863	-0.12095716
94	0x3e37e1da	0.1795725
95	0xbd31716f	-0.04332107
96	0xbdc6ae35	-0.09701196
97	0xbd87ce6e	-0.0663117
98	0x3e12ecf7	0.14348207
99	0xbefc48f8	-0.4927442
100	0xbe06815b	-0.13135283
101	0x3de41b16	0.11137979
102	0xbd60915d	-0.05482613
103	0xbf3269d6	-0.6969274
104	0x3c13affb	0.009014125
105	0xbe720129	-0.23633255
106	0xbfc0839d	-1.5040165
107	0xbf883864	-1.0642209
108	0xbe8c5190	-0.27405977
109	0xbfc4d339	-1.537696
110	0xbfd5abcb	-1.6693052
111	0xbf43c540	-0.76472855
112	0xbed4c7af	-0.41558596
113	0x3de732a1	0.112889536
114	0x3e9453ed	0.2897028
115	0xbe604b11	-0.21903636
116	0xbe6b24fd	-0.22963329
117	0x3eaf9bad	0.3429846
118	0x3e175df7	0.14781938
119	0xbe197f26	-0.1498991
120	0x3ec0f1c1	0.37684444
121	0x3ef3d0ff	0.4762039
122	0xbebdc9de	-0.37068075
123	0xbc6d1fa0	-0.014472872
124	0x3e9b9916	0.30390233
125	0xbe928c1c	-0.2862252
126	0x3de05202	0.10953142
127	0x3ec2f130	0.38074636
128	0x3d934688	0.07191187
129	0x3ec0fb2f	0.37691638
130	0x3dc9fddb	0.09862872
131	0xbf093503	-0.53596514
132	0x3e09b0e5	0.13446386
133	0x3c3b706f	0.0114403805
134	0xbe95d32b	-0.2926267
135	0xbe7b857d	-0.2456264
136	0x3dd74076	0.10510342
137	0xbef6b647	-0.48185942
138	0x3e6f8259	0.23389567
139	0x3ea2a84b	0.31769022
140	0xbec6e838	-0.38849044
141	0x3d8def7f	0.06930446
142	0x3f48468f	0.78232664
143	0x3e81122a	0.2520917
144	0xbe44ff54	-0.19238025
145	0xbe0c2dc2	-0.1368933
146	0xbea31939	-0.3185518
147	0xbed813d1	-0.4220262
148	0xbed18604	-0.40922558
149	0xbbc2f14b	-0.0059491745
150	0xbe89e19c	-0.2692994
151	0xbf4e5913	-0.80604666
152	0xbeb3bec8	-0.35106492
153	0xbf547ec0	-0.83005905
154	0xbf067f50	-0.52538013
155	0xbf29cb28	-0.66325617
156	0xbe1b643b	-0.15174954
157	0xbe64c12c	-0.22339314
158	0xbe6ea106	-0.23303613
159	0xbe73d5f4	-0.23812085
160	0xbe888f93	-0.26672038
161	0x3ad76279	0.0016432545
162	0xbde1cde1	-0.110255964
163	0xbd739f1f	-0.05947792
164	0xbebb1f18	-0.3654716
165	0xbd1891c5	-0.03724839
166	0xbe381686	-0.17977342
167	0x3ac12462	0.0014735574
168	0x3dff3238	0.1246075
169	0xbea8d7e5	-0.32977214
170	0xbeb03b4e	-0.34420246
171	0xbeab0684	-0.3340341
172	0x3e85c09b	0.2612351
173	0xbda82935	-0.082109846
174	0xbe53167b	-0.20614044
175	0xbeb5c496	-0.35501546
176	0x3ed346cb	0.41264948
177	0x3ea4b68b	0.3217052
178	0x3e5e8519	0.2173046
179	0xbc28e5c2	-0.010308685
180	0x3e850514	0.25980437
181	0x3e8a42ca	0.2700408
182	0x3da675ed	0.08127961
183	0xbeb48ffe	-0.35266107
184	0x3e53a95d	0.20670076
185	0x3e7276f3	0.23678188
186	0xbeb33720	-0.35002995
187	0xbf443414	-0.76641965
188	0x3ebe976b	0.37224898
189	0xbe5a0426	-0.21290645
190	0xbe0ad517	-0.1355785
191	0xbeaad6b5	-0.33366933
192	0xbdcbf572	-0.09958924
193	0x3d26a67c	0.040686116
194	0xbd2961a9	-0.0413529
195	0x3df0b7ad	0.117537834
196	0x3daad3f4	0.08341208
197	0xbe4a085f	-0.19729756
198	0xbda4d7b4	-0.080489546
199	0x3ea0c3df	0.31399438
200	0xbe02c0b2	-0.1276882
201	0xbefd6cfc	-0.4949721
202	0x3e7c9880	0.24667549
203	0x3ecef43a	0.40420705
204	0xbe60d46c	-0.21956033
205	0x3ea7645d	0.3269376
206	0x3c6bd1d7	0.014393291
207	0xbf02423b	-0.5088231
208	0x3d592981	0.053018097
209	0xbd7a437f	-0.061099526
210	0x3b6b723a	0.0035926239
211	0x3d1aa618	0.037756056
212	0xbf15fc49	-0.5858808
213	0xbea5c27e	-0.32374948
214	0x3de9d804	0.11418155
215	0x3b51d00e	0.003201488
216	0xbe009f6d	-0.12560816
217	0x3eeb2813	0.45929012
218	0x3eb37b38	0.35054946
219	0xbe4be2d7	-0.19910751
220	0x3ebb8af7	0.3662946
221	0x3e9be357	0.30446884
222	0xbca1ccc6	-0.019750964
223	0xbe1b255e	-0.15150973
224	0xbdd07821	-0.10179163
225	0xbdd96d79	-0.106165834
226	0x3d003f1a	0.03131018
227	0xbd845685	-0.06461815
228	0x3e8171b7	0.2528207
229	0x3e453a84	0.19260603
230	0x3de4e95f	0.111773245
231	0xbe8426ff	-0.25811002
232	0x3e26bc7a	0.16282836
233	0xbe226284	-0.15857893
234	0x3d776413	0.060398173
235	0x3cc041fd	0.023468966
236	0x3e9b7c52	0.30368286
237	0x3eb2cd38	0.34922194
238	0x3e8cf2c0	0.27528954
239	0xbe9e06c7	-0.30864546
240	0x3cad22eb	0.021134814
241	0x3d150b06	0.036387466
242	0xbeb637c1	-0.35589412
243	0xbdbbbbc5	-0.091666736
244	0xbe132e59	-0.14373149
245	0xbd0e7adf	-0.034785148
246	0xbf0306fe	-0.51182544
247	0xbe9858d5	-0.29755273
248	0xbdfa2a9b	-0.122151576
249	0xbee0605e	-0.43823522
250	0xbe0a4b1e	-0.13505217
251	0xbe6029cf	-0.21890949
252	0xbe55732b	-0.20844714
253	0xbea17251	-0.3153253
254	0xbdd05f69	-0.10174448
255	0xbee9dbdc	-0.45675552

bias f4 [32]
0	0xbdf4094e	-0.11915837
1	0xbc18601a	-0.009300256
2	0xbdf2bffc	-0.11853024
3	0xbe22cbcb	-0.15898053
4	0xbd9b364f	-0.07578718
5	0xbd3d79cd	-0.046258736
6	0xbe652728	-0.22378218
7	0xbe4f9133	-0.20270233
8	0xbe3611cf	-0.17780231
9	0xbe0b2795	-0.13589318
10	0xbe17ec08	-0.14836133
11	0xbeb266c6	-0.34844035
12	0xbe6e90b7	-0.23297392
13	0xbde20e34	-0.11037865
14	0xbe9934fb	-0.29923233
15	0xbe3e74cc	-0.18599242
16	0xbcc702c2	-0.024293307
17	0xbe0cd409	-0.1375276
18	0xbe849252	-0.25892884
19	0xbe3c9766	-0.18417129
20	0xbe22b188	-0.15888035
21	0xbe8e7316	-0.2782218
22	0xbec36530	-0.38163137
23	0xbde4aa16	-0.11165254
24	0xbe28ac53	-0.16471986
25	0xbe51df0a	-0.20495239
26	0xbe902cb5	-0.2815911
27	0xbce0ccb7	-0.027441366
28	0xbe2f4bb5	-0.17118724
29	0xbe038098	-0.12842023
30	0xbeab406e	-0.33447593
31	0xbdd969a9	-0.10615856

weight f4 [32]
0	0x3f03c695	0.5147489
1	0x3ebf3ed4	0.37352622
2	0x3f30caf6	0.69059694
3	0x3f1c8430	0.611392
4	0x3f0ef796	0.55846536
5	0x3ec5866d	0.3857912
6	0x3f132edf	0.57493395
7	0x3f04edb4	0.51925206
8	0x3eedfcff	0.46482083
9	0x3f05597a	0.52089655
10	0x3f31d5c3	0.694668
11	0x3f1b15a8	0.6057992
12	0x3f16ce26	0.5890831
13	0x3ee9be4a	0.45652992
14	0x3f4109de	0.7540568
15	0x3f22a073	0.63526076
16	0x3f195e65	0.5990966
17	0x3f287168	0.65798044
18	0x3f0bd177	0.54616493
19	0x3edf9268	0.43666387
20	0x3f32c153	0.6982624
21	0x3f84f8d7	1.038844
22	0x3f1c0da4	0.60958314
23	0x3ec9d605	0.39421096
24	0x3f0568b3	0.52112883
25	0x3f770e66	0.96506345
26	0x3f3b2f9b	0.73119515
27	0x3eda4d23	0.42636976
28	0x3ef1456c	0.47123277
29	0x3f360b0e	0.7111062
30	0x3ec4ccff	0.3843765
31	0x3f2cd731	0.67515856

bias f4 [32]
0	0xbecf93bc	-0.405424
1	0xbed5484b	-0.41656718
2	0xbf21be27	-0.63180774
3	0xbf110632	-0.5665008
4	0xbede2b4f	-0.43392417
5	0xbeb65b05	-0.35616317
6	0xbf06916d	-0.5256565
7	0xbec321d4	-0.38111746
8	0xbeccb006	-0.39978045
9	0xbf04a0ff	-0.5180816
10	0xbf0b1801	-0.543335
11	0xbef3716b	-0.4754747
12	0xbefaed5a	-0.4900921
13	0xbeb8cb26	-0.3609249
14	0xbf196319	-0.59916836
15	0xbefb9366	-0.49135894
16	0xbf0dd13a	-0.5539738
17	0xbf1c04e9	-0.6094499
18	0xbef23da8	-0.47312665
19	0xbe9bfb98	-0.30465388
20	0xbf154349	-0.58305794
21	0xbf6af3a3	-0.9177801
22	0xbedec158	-0.43506885
23	0xbe8729f1	-0.26399186
24	0xbee42cda	-0.4456547
25	0xbf58cdef	-0.8468923
26	0xbf1898e0	-0.5960827
27	0xbebefd02	-0.37302405
28	0xbeab125c	-0.33412445
29	0xbf2c2938	-0.67250395
30	0xbe609914	-0.21933395
31	0xbf1b1331	-0.6057616

running_mean f4 [32]
0	0xc1545911	-13.271745
1	0x411b021f	9.688018
2	0xc191c88f	-18.222929
3	0xc15eca1b	-13.924342
4	0xc1423a31	-12.139207
5	0xc0fb8916	-7.860484
6	0xc16b56c8	-14.708687
7	0xc1a3475c	-20.409843
8	0xc1353af9	-11.326898
9	0xc1362fa3	-11.38663
10	0xc19501b5	-18.625834
11	0xc1ea3167	-29.274122
12	0xc1921b0b	-18.263205
13	0xc1534380	-13.2039795
14	0xc1a96571	-21.174532
15	0xc14c65dc	-12.774868
16	0xc1240132	-10.250292
17	0xc1908bfe	-18.068356
18	0xc170346d	-15.012799
19	0xc135e784	-11.369022
20	0xc19bf6ef	-19.495573
21	0xc1f4d53e	-30.604122
22	0xc18a9697	-17.32353
23	0xc0c9ecc2	-6.310151
24	0xc1525810	-13.1465
25	0xc1b03428	-22.025467
26	0xc195190e	-18.637234
27	0xc04ee4c2	-3.2327123
28	0xc118071b	-9.501735
29	0xc1945a55	-18.544107
30	0xc169d4e2	-14.614473
31	0xc196b86f	-18.840055

running_var f4 [32]
0	0x4381cefb	259.61703
1	0x43807b95	256.96548
2	0x43bf9323	383.1495
3	0x439272d7	292.8972
4	0x43d1fee6	419.9914
5	0x4360d0f7	224.81627
6	0x438c4131	280.5093
7	0x43a4bbd9	329.46756
8	0x43653421	229.20363
9	0x43667da5	230.4908
10	0x43bc9b20	377.2119
11	0x43d8ee43	433.86142
12	0x43be0ef7	380.1169
13	0x4377dfb3	247.87383
14	0x43cbc213	407.5162
15	0x43943f59	296.4949
16	0x4364c5aa	228.77213
17	0x43c13b42	386.46295
18	0x439dbfb6	315.49774
19	0x4366616c	230.38055
20	0x43b49a3f	361.20505
21	0x4436a524	730.5803
22	0x43b87530	368.91553
23	0x43522fbd	210.18648
24	0x437cc9af	252.78783
25	0x441edc11	635.43854
26	0x43fbf8c8	503.9436
27	0x43711917	241.098
28	0x4368e158	232.88025
29	0x43ad41fc	346.5155
30	0x43a02bbc	320.34167
31	0x43d5c656	427.5495

weight f4 [256, 800]
0	0xbe462e0d	-0.19353504
1	0x3ebb7df6	0.36619538
2	0x3e6aa50a	0.2291452
3	0xbe29821f	-0.16553544
4	0x3e56c0f1	0.20972039
5	0xbe112fe6	-0.14178428
6	0x3e45c682	0.19314006
7	0xbdd91164	-0.1059902
8	0xbcf59ec9	-0.029982941
9	0x3dc2cd4f	0.09511816
10	0x3de52b80	0.111899376
11	0x3d0ab1ca	0.03386096
12	0x3eb1c1aa	0.34718066
13	0x3edbd871	0.4293857
14	0xbf16669a	-0.5875031
15	0x3f339ea1	0.70163924
16	0xbe864304	-0.26223004
17	0x3f12a89a	0.57288516
18	0x3e9f6a44	0.31135762
19	0xbf2b60d1	-0.66944605
20	0x3f06b055	0.5261281
21	0xbde1ea52	-0.11031021
22	0xbd60cd7b	-0.05488346
23	0xbecbf5cc	-0.39835966
24	0xbe9fd9e3	-0.31220922
25	0xbf12aca3	-0.5729467
26	0x3c4baca5	0.012431298
27	0x3f049e8a	0.5180441
28	0xbed3317e	-0.41248697
29	0xbea9e04d	-0.3317894
30	0xbeb52f2e	-0.35387558
31	0xbe349546	-0.17635068
32	0x3e918970	0.2842517
33	0xbeb6762b	-0.3563703
34	0xbe9409b4	-0.28913653
35	0x3c3e8a97	0.011629722
36	0x3e5d6fdf	0.21624707
37	0xbd38b762	-0.045096762
38	0x3e55395c	0.20822662
39	0xbe3445f4	-0.1760481
40	0xbdde448e	-0.108529195
41	0xbe28a209	-0.16468062
42	0xbeb98283	-0.36232385
43	0x3eba32dd	0.3636693
44	0x3e284312	0.16431835
45	0xbe4139f0	-0.18869758
46	0xbd911a79	-0.070851274
47	0x3d4de0ef	0.05026334
48	0xbe90c553	-0.28275546
49	0xbe410561	-0.18849708
50	0xbe104a2c	-0.14090794
51	0xbd2b9d59	-0.041898105
52	0xbe4406fd	-0.19143291
53	0xbe2b2219	-0.16712226
54	0x3ef06843	0.46954545
55	0x3ce360a6	0.027756047
56	0x3f013ad2	0.5048038
57	0x3f1c88cb	0.6114623
58	0xbe844dea	-0.25840694
59	0xbf4c2af9	-0.7975307
60	0x3e332904	0.17496115
61	0x3ea39ca9	0.3195546
62	0x3e7ea940	0.24869251
63	0x3e31859c	0.17336124
64	0xbeca0e20	-0.39463902
65	0x3cbbed80	0.022940397
66	0xbe5b3a12	-0.21408871
67	0x3c1606a4	0.009156857
68	0x3e2d1c29	0.16905273
69	0xbdfc2e3e	-0.123135075
70	0x3e996d68	0.29966283
71	0xbe60e539	-0.21962442
72	0xbf45d6c0	-0.7728081
73	0xbe341712	-0.17586926
74	0x3cedf9d4	0.029049791
75	0xbe7d45aa	-0.24733606
76	0x3e75fd4c	0.24022406
77	0x3d7b171e	0.061301343
78	0xbf6509ae	-0.89467895
79	0xbfa907e5	-1.3205534
80	0xbf0c7924	-0.54872346
81	0xbd32f31e	-0.043688886
82	0x3eaf647d	0.34256354
83	0x3dca09ac	0.09865126
84	0xbf4afe70	-0.7929449
85	0xbea0c2f6	-0.31398743
86	0xbd998d95	-0.07497708
87	0x3f0d7472	0.55255806
88	0x3e628a2e	0.22123024
89	0xbf304205	-0.6885074
90	0xbeb3fb06	-0.35152453
91	0x3d35316f	0.044236597
92	0x3f4220d8	0.75831366
93	0x3eeefd23	0.46677503
94	0x3e3661bc	0.1781072
95	0xbd919c45	-0.07109884
96	0xbe46d836	-0.19418415
97	0xbca10053	-0.019653475
98	0xbebc89fe	-0.3682403
99	0xbe7c74d0	-0.24653935
100	0xbf81d23f	-1.0142287
101	0x3e85822d	0.2607588
102	0x3d184a20	0.037180066
103	0x3ef5723d	0.4793872
104	0x3f3a10a7	0.7268166
105	0xbf25ab1c	-0.6471422
106	0x3b13f96e	0.0022579092
107	0x3e616863	0.22012477
108	0xbdc948d3	-0.09828343
109	0xbd12838e	-0.03576999
110	0x3e757025	0.23968561
111	0x3d82e38e	0.06391059
112	0xbe988141	-0.29786113
113	0xbf2de5ac	-0.67928576
114	0x3ef7cb19	0.4839714
115	0xbdde7365	-0.108618535
116	0x3e07ccfa	0.13261786
117	0x3e19af35	0.15008242
118	0xbf14b28b	-0.58084935
119	0x3edc6dac	0.43052423
120	0xbe273359	-0.16328181
121	0x3d929b2c	0.07158503
122	0x3c606f08	0.013698347
123	0xbec461c0	-0.38355827
124	0x3e240593	0.16017751
125	0xbf1b5f18	-0.60691977
126	0xbedf9bf5	-0.43673673
127	0x3ee30c85	0.4434549
128	0x3e545e5a	0.20739117
129	0xbeab13f0	-0.3341365
130	0xbf659c41	-0.8969155
131	0xbfa92dc2	-1.3217089
132	0xbef0fb9f	-0.47066972
133	0xbed44dda	-0.41465646
134	0xbdf18125	-0.117922105
135	0xbeef303f	-0.46716496
136	0xbef559ae	-0.47919983
137	0xbeac9c32	-0.33712918
138	0xbee83524	-0.45353043
139	0x3e98dceb	0.29856047
140	0x3d478d9f	0.048719045
141	0xbe7d6837	-0.24746786
142	0xbe7bd0a4	-0.24591309
143	0xbe427ea1	-0.18993618
144	0xbe108d1c	-0.14116329
145	0x3e29f864	0.1659866
146	0xbecd74eb	-0.40128264
147	0xbd945a45	-0.0724378
148	0xbd0b11f3	-0.033952665
149	0xbf11803f	-0.56836313
150	0xbf2ee1ae	-0.6831311
151	0xbe9680a7	-0.2939503
152	0x3e2e2227	0.17005216
153	0x3e995f7d	0.29955664
154	0x3e193c69	0.14964451
155	0xbf031ae1	-0.5121289
156	0x3eb5e8a9	0.35529068
157	0x3e6e6f54	0.23284656
158	0xbd3fc4b3	-0.046818446
159	0x3e22538c	0.15852183
160	0x3e9eda8c	0.31026113
161	0x3ef295a9	0.47379807
162	0x3ea9c619	0.3315895
163	0xbf061aaf	-0.52384466
164	0xbf5b8e5d	-0.85764104
165	0x3ea085ab	0.3135198
166	0xbdec43dc	-0.11536381
167	0x3e0e4eff	0.13897322
168	0x3ec90106	0.39258593
169	0x3e113eed	0.1418416
170	0xbf29a690	-0.6626978
171	0xbe5e160c	-0.21688098
172	0xbf038ae1	-0.5138379
173	0xbba9e03e	-0.0051842025
174	0x3e8db932	0.27680355
175	0x3ef4fcbb	0.47849068
176	0xbd67e554	-0.05661519
177	0xbe2a8eb7	-0.16656004
178	0xbcf0b00a	-0.029380817
179	0x3df938a8	0.121690094
180	0x3ee96125	0.45581928
181	0x3f555704	0.833359
182	0x3e6fce48	0.23418534
183	0x3e7396fc	0.23788065
184	0xbe083ae7	-0.1330372
185	0x3e4ed76b	0.20199363
186	0x3eef61de	0.46754354
187	0x3e95fc01	0.29293826
188	0x3e2eff02	0.17089465
189	0xbe8c954d	-0.27457657
190	0xbecb0fff	-0.39660642
191	0xbd8837bc	-0.066512555
192	0xbe5da011	-0.21643092
193	0xbe4a7edd	-0.19774957
194	0x3e5b636e	0.21424648
195	0xbe375ff2	-0.17907694
196	0x3d1b4204	0.037904754
197	0xbf01dcf3	-0.50727767
198	0xbeb7c338	-0.35891128
199	0xbeae7310	-0.3407216
200	0x3e45c31b	0.19312708
201	0x3edc5f0c	0.43041265
202	0xbdd76cf6	-0.105188295
203	0x3e0489c7	0.12943183
204	0xbf10895e	-0.56459606
205	0x3dd66545	0.104685344
206	0x3d58b8a9	0.05291048
207	0xbe182e24	-0.14861351
208	0x3e9784af	0.29593417
209	0x3da585f6	0.08082192
210	0x3e50af57	0.20379387
211	0xbd26f64f	-0.040762242
212	0xbe8a8f48	-0.2706244
213	0xbdde0b9d	-0.10842059
214	0x3f0e0ef5	0.5549157
215	0xbe6e4413	-0.23268156
216	0xbe184155	-0.14868672
217	0xbd50f5b5	-0.051015574
218	0x3ed080d9	0.40723303
219	0x3ed91585	0.4239923
220	0xbecc7ff1	-0.39941362
221	0xbef0bd8a	-0.47019607
222	0xbdcc9252	-0.09988846
223	0x3dc5767a	0.09641738
224	0x3eb3d002	0.35119635
225	0xbe9e4f99	-0.30920103
226	0xbf38e74a	-0.7222792
227	0xbf5a814d	-0.8535355
228	0xbd191a89	-0.03737882
229	0x3ece28a7	0.4026539
230	0xbf2f83d8	-0.6856055
231	0xbf84b007	-1.0366219
232	0xbfb1331f	-1.3843726
233	0xbeb208d2	-0.34772354
234	0xbddc4e37	-0.10757106
235	0x3df898fb	0.12138554
236	0x3e07731a	0.13227502
237	0xbed01829	-0.40643433
238	0xbed73a78	-0.42036796
239	0xbbf60151	-0.007507481
240	0xbd614c39	-0.055004332
241	0x3ec2ecfb	0.38071427
242	0x3f1b981c	0.60778975
243	0x3cd657d9	0.026164936
244	0xbd6b3f77	-0.05743357
245	0x3e089ddb	0.13341467
246	0x3cc6619b	0.024216464
247	0x3be3dc5f	0.0069537605
248	0x3e40ee17	0.18840824
249	0x3e192dcd	0.14958878
250	0xbd1c74f6	-0.03819748
251	0x3f05c08c	0.5224693
252	0xbeff32c2	-0.49843413
253	0x3e1335f0	0.14376044
254	0x3e3bf8ae	0.18356583
255	0xbe585b0b	-0.2112848

bias f4 [256]
0	0xbde9757a	-0.1139936
1	0x3d8c7e1a	0.068599895
2	0x3dd96235	0.10614435
3	0xbe31b11b	-0.17352717
4	0xbce39c3d	-0.027784461
5	0xbd18a6f6	-0.0372686
6	0x3da77e07	0.08178335
7	0xbcc459e2	-0.02396864
8	0xbccdd49d	-0.025125796
9	0x3d8903bb	0.06690165
10	0x3e814127	0.2524502
11	0x3e91cd97	0.28477165
12	0x3f9073f8	1.1285391
13	0xbd5ebe2c	-0.05438058
14	0xbf09914a	-0.5373732
15	0x3c36eb9f	0.011164575
16	0x3ebefebc	0.37303722
17	0x3f05f1c4	0.5232203
18	0x3f789579	0.9710308
19	0x3ef66bd5	0.48129144
20	0x39aa10a1	0.00032437316
21	0x3f0867fe	0.5328368
22	0x3f8a539b	1.0806764
23	0x3c3e4861	0.011613936
24	0x3db9f763	0.090803884
25	0xbd52765b	-0.051382404
26	0x3d896399	0.0670845
27	0x3e89e370	0.26931334
28	0xbd24b738	-0.040213794
29	0xbc9c80ac	-0.019104324
30	0xbd30eae8	-0.043192774
31	0xbc3de3be	-0.0115899425
32	0x3f3f228e	0.746621
33	0x3ed3f06a	0.4139436
34	0x3ece5836	0.40301675
35	0xbeb5f350	-0.35537195
36	0x3ef19f2f	0.4719176
37	0xbca922ec	-0.020646535
38	0x3f4dcece	0.80393684
39	0x3f3e96b1	0.74448687
40	0x3c9ca946	0.019123685
41	0xbde7878f	-0.113051526
42	0x3e052301	0.13001634
43	0xbd9dd441	-0.077065
44	0xbeb8796e	-0.36030143
45	0xbd080979	-0.03321216
46	0xbcc3991e	-0.023876723
47	0xbb53909d	-0.003228224
48	0x3e70f5da	0.23531285
49	0x3f41e097	0.7573332
50	0x3db2e9d6	0.08736007
51	0xbc813140	-0.015770555
52	0xbd7a695c	-0.061135635
53	0x3f06f4f7	0.52717537
54	0xbd493b2b	-0.049128693
55	0x3e3082d0	0.17237401
56	0xbf1e7a8d	-0.6190575
57	0x3f5329d3	0.82485694
58	0x3e758c3e	0.2397928
59	0xbf1061b0	-0.5639906
60	0xbc8623fb	-0.016374579
61	0x3e120383	0.14259152
62	0xbdbf5049	-0.09341485
63	0xbea26005	-0.31713882
64	0xbd08dc90	-0.03341347
65	0x3d35c5b1	0.044377986
66	0x3ed9fa1e	0.42573637
67	0x3f095a6d	0.53653604
68	0x3e3c1620	0.18367815
69	0xbd0841c8	-0.03326586
70	0xbeecda98	-0.46260524
71	0x3f429f5f	0.7602443
72	0xbd93128c	-0.07181272
73	0xbdb6faf4	-0.08934584
74	0xbcbb22cf	-0.022843746
75	0xbe9d8e2f	-0.3077254
76	0xbe1c42c2	-0.15259841
77	0x3e8e6bc5	0.27816597
78	0x3f362cb6	0.71161973
79	0xbe13ac4e	-0.14421198
80	0xbd187d8b	-0.037229102
81	0xbe1481f1	-0.14502694
82	0xbe72d508	-0.23714077
83	0xbd3c5bf1	-0.04598612
84	0xbeaf3cfd	-0.34226218
85	0x3cad4710	0.02115205
86	0x3f431bf7	0.76214546
87	0x3ece4b9c	0.4029206
88	0x3d9e9225	0.077427186
89	0xbb0f9f5a	-0.002191505
90	0xbdd8dbe8	-0.10588819
91	0xbd866ea6	-0.06564073
92	0x3ea2c328	0.31789517
93	0xbed6279c	-0.41827095
94	0xbe8fa031	-0.28051904
95	0x3f5d3e17	0.86422867
96	0xbd442654	-0.047888115
97	0x3e4b93c1	0.19880582
98	0x3f480125	0.78126746
99	0xbf0608bd	-0.52357084
100	0xbc1ec0e1	-0.009689541
101	0x3f231f04	0.637192
102	0x3e96b141	0.2943211
103	0xbd910c5b	-0.07082435
104	0xbd3f92ea	-0.046770968
105	0x3dacbc8a	0.084343985
106	0x3ec693d8	0.3878467
107	0x3f24a1e6	0.6430954
108	0xbe8480db	-0.2587956
109	0xbd0bbb47	-0.03411415
110	0xbd7d2871	-0.061806146
111	0xbe2b19e3	-0.16709094
112	0x3dab1812	0.083542004
113	0xbcbbaeef	-0.022910563
114	0xbdb0ea37	-0.08638423
115	0xbf09efb9	-0.5388141
116	0xbd573406	-0.052539848
117	0xbd9420d1	-0.07232822
118	0x3f494bf6	0.7863153
119	0xbe1c0def	-0.1523969
120	0xbcd9aa78	-0.026570544
121	0xbe7ac3c4	-0.24488741
122	0x3e9e361c	0.30900657
123	0xbcdeca06	-0.027195942
124	0x3ee36459	0.44412497
125	0xbd8f7de4	-0.070064336
126	0xbca26ecb	-0.01982822
127	0xbe901b1b	-0.2814568
128	0x3e36979e	0.17831275
129	0x3f2f596f	0.6849584
130	0xbf07fd4f	-0.53120893
131	0x3e3072fc	0.17231363
132	0xbd00d7e8	-0.031455904
133	0xbc8c509e	-0.017128285
134	0x3f347131	0.70485216
135	0xbd80ec2e	-0.06295048
136	0xbd70d3ca	-0.058795728
137	0x3f06c37a	0.52642024
138	0x3e91ad74	0.28452647
139	0x3e3ed53b	0.18636028
140	0x3e2fcb10	0.17167306
141	0xbed16e0f	-0.4090428
142	0xbd93c8f7	-0.072160654
143	0xbebba417	-0.36648628
144	0x3e2fbfbf	0.17162989
145	0x3f001e76	0.5004648
146	0x3db54f28	0.088529885
147	0xbef36702	-0.47539526
148	0x3f6216c3	0.8831598
149	0x3e1fcdd1	0.15605856
150	0x3d8cd1b6	0.06875937
151	0x3ebd387e	0.36957163
152	0xbd828e05	-0.06374744
153	0xbcf9fe28	-0.030516699
154	0x3e2a75a1	0.16646434
155	0xbcaa55a3	-0.020792788
156	0xbd4f9429	-0.050678406
157	0xbe286add	-0.16447015
158	0xbd9b98c2	-0.075974956
159	0xbe159d63	-0.1461082
160	0x3f2ff31c	0.6873033
161	0x3e99a0dc	0.30005538
162	0xbcc0911d	-0.023506695
163	0x3dd20692	0.102551594
164	0x3ed488c5	0.41510597
165	0x3ea409ba	0.3203867
166	0x3f0ba61b	0.5455033
167	0xbc81456d	-0.015780175
168	0x3dd9334b	0.106054865
169	0xbcdefea1	-0.027221026
170	0x3e8bc888	0.2730143
171	0x3eb433b9	0.3519571
172	0x3f86fd56	1.0546062
173	0xbbb57737	-0.005537893
174	0x3f369752	0.71324646
175	0xbdaf472c	-0.08558497
176	0x3d7fa8a1	0.062416676
177	0x3f16b418	0.5886855
178	0xbd19d51a	-0.037556745
179	0xbd9e5662	-0.0773132
180	0x3dd33d2e	0.103144035
181	0x3e499089	0.19684042
182	0x3ebe5099	0.37170866
183	0xbf3e5864	-0.74353623
184	0xbcdd90eb	-0.027046641
185	0x3f66969e	0.90073574
186	0x3f692053	0.9106495
187	0x3df0b08f	0.11752426
188	0xbd32cf8a	-0.043654956
189	0xbd744037	-0.059631553
190	0x3f5af52a	0.8553034
191	0xbd7a3b58	-0.06109175
192	0xbd3c9fa4	-0.046050683
193	0x3f632b65	0.8873809
194	0x3f041057	0.5158743
195	0xbd288956	-0.0411466
196	0xbcedd717	-0.029033227
197	0xbe5a898e	-0.21341535
198	0x3efd3c15	0.494599
199	0xbf1f6366	-0.62261045
200	0xbe24ea4d	-0.16105004
201	0x3e679580	0.22615623
202	0x3e436186	0.19080171
203	0x3f83ae13	1.0287498
204	0x3f33620c	0.7007148
205	0xbd6bb77f	-0.057548042
206	0xbb3ead4f	-0.0029095
207	0xbe95f615	-0.29289308
208	0xbe21e55d	-0.15810151
209	0x3f226af7	0.63444465
210	0x3f9f11e2	1.2427332
211	0xbd1464f5	-0.036229093
212	0xbd8e8a33	-0.06959953
213	0x3ecc2464	0.39871514
214	0xbd94ea3c	-0.07271239
215	0x3e9c6510	0.30545855
216	0xbd4245c9	-0.047429834
217	0x3bf0c010	0.0073471144
218	0xbbb02f5b	-0.005376739
219	0x3f2c7b0b	0.6737525
220	0x3d2ee0c9	0.04269484
221	0xbf130ac5	-0.5743831
222	0xbc164011	-0.009170548
223	0x3eda556f	0.42643306
224	0xbd8dc9f9	-0.06923289
225	0xbda22a50	-0.07918227
226	0xbd0d8716	-0.034552656
227	0x3cc9ee2a	0.024649698
228	0xbd9a7d30	-0.07543409
229	0xbe83c560	-0.25736523
230	0x3e1c4220	0.152596
231	0x3e94d8ef	0.29071757
232	0xbd8cab47	-0.06868606
233	0x3d0632bc	0.032763228
234	0xbca1818e	-0.019715097
235	0x3e3d855b	0.18507902
236	0x3e46a616	0.19399294
237	0xbcc25563	-0.023722356
238	0xbf02fa31	-0.5116301
239	0x3f1c283f	0.6099891
240	0x3ec29e97	0.3801162
241	0x3eb63d30	0.35593557
242	0x3f1581d9	0.58401257
243	0xbf2ba52f	-0.67048925
244	0xbf0d820e	-0.5527657
245	0xbd17495c	-0.036935195
246	0x3f0cf5d3	0.550626
247	0xbd6336c6	-0.055472158
248	0xbd9cac6d	-0.07650075
249	0x3f0945f6	0.53622377
250	0xbb97081c	-0.004609121
251	0xbb7d67bb	-0.0038666565
252	0xbdfd80c8	-0.12378079
253	0xbdd1edde	-0.10250448
254	0x3fc74663	1.5568355
255	0x3f3c1c88	0.73481035

weight f4 [10, 256]
0	0xbe0ca25d	-0.13733812
1	0xbecb3c1d	-0.396943
2	0x3f01c43e	0.50690067
3	0xbecac6b8	-0.39604735
4	0xbd55d5d8	-0.05220589
5	0x3bd0453e	0.0063559106
6	0xbeb644cd	-0.35599366
7	0xbd60a6e7	-0.05484667
8	0x3ef15334	0.4713379
9	0x3e4eaf06	0.20183954
10	0xbe701795	-0.23446496
11	0x3daf5fb8	0.08563179
12	0x3e179d8d	0.14806195
13	0x3d20db78	0.0392718
14	0xbe5d6f9b	-0.21624605
15	0x3e46ac39	0.19401635
16	0x3e3760c9	0.17908014
17	0x3dd8ba27	0.10582381
18	0xbe466f98	-0.19378507
19	0x3e81748f	0.2528424
20	0xbe1de03d	-0.15417571
21	0xbebff945	-0.37494865
22	0xbe94aa55	-0.29036203
23	0x3dba8781	0.091078766
24	0xbe30ecab	-0.17277782
25	0x3d682d86	0.05668404
26	0xbecfc769	-0.40581825
27	0xbe1fd34a	-0.15607944
28	0x3b5724cb	0.0032828327
29	0xbd1c37a6	-0.038139008
30	0x3d490570	0.04907745
31	0x3d5b1af4	0.0534925
32	0xbeb1c567	-0.3472092
33	0xbe1eb781	-0.15499689
34	0x3c7e7f86	0.015533334
35	0xbe963551	-0.29337552
36	0x3d3accd6	0.045605503
37	0x3c02a63f	0.0079742065
38	0xbe8e7589	-0.27824047
39	0xbe693dd0	-0.22777486
40	0xbe8ec38a	-0.2788356
41	0xbe93ded2	-0.28880936
42	0xbeb117a7	-0.34588358
43	0x3cb7b80e	0.022426631
44	0xbccb00ca	-0.02478065
45	0x3d562122	0.05227769
46	0x3cc75750	0.024333626
47	0xbca4d4e5	-0.020121047
48	0xbf0a3f68	-0.54003
49	0xbf221e50	-0.63327503
50	0xbe6dd8d6	-0.23227248
51	0xbc7b0a51	-0.015322284
52	0xbd893c8e	-0.06701003
53	0xbe388fca	-0.18023601
54	0xbd1086e8	-0.035284907
55	0xbf0e1d68	-0.5551362
56	0xbe947495	-0.28995195
57	0xbe380f4b	-0.17974584
58	0xbecdf603	-0.40226755
59	0xbe30555d	-0.17220064
60	0x3c32a4c8	0.010903545
61	0xbeaa0a3c	-0.33210933
62	0xbea6624d	-0.32496873
63	0x3e3434e1	0.17598297
64	0x3d617cc9	0.055050645
65	0x3df812db	0.121129714
66	0xbe899a04	-0.26875317
67	0xbe8a53af	-0.2701697
68	0xbe2ae86a	-0.16690221
69	0xbd4f46a4	-0.050604478
70	0xbeb40f9f	-0.35168168
71	0xbeede802	-0.4646607
72	0xbb9addfe	-0.0047261706
73	0xbd9870a9	-0.07443363
74	0xbd29fb9c	-0.04149972
75	0xbee91655	-0.4552485
76	0xbdec427b	-0.11536118
77	0x3dded56d	0.108805515
78	0x3eab6b20	0.33480167
79	0xbf565182	-0.8371812
80	0xbce5a505	-0.028032789
81	0xbdccf0d9	-0.100068755
82	0x3c047904	0.008085493
83	0x3d0c0667	0.034185793
84	0xbf13dd80	-0.5775986
85	0xbe228674	-0.15871602
86	0xbe235750	-0.15951276
87	0xbe6c0837	-0.23050009
88	0xbe883b29	-0.26607636
89	0xbec8b5cf	-0.3920121
90	0xbf25a1d9	-0.64700085
91	0xbd2fb333	-0.042895507
92	0x3d92e660	0.07172847
93	0x3ea7e2a6	0.32790107
94	0xbf6c4cc4	-0.92304635
95	0xbe5e33c6	-0.21699437
96	0xbc7b9e00	-0.015357494
97	0x3e981ce0	0.2970953
98	0xbdf68848	-0.12037712
99	0xbf135455	-0.57550555
100	0x3c9415ee	0.018076863
101	0x3e99ec9b	0.30063328
102	0x3e82c428	0.2554028
103	0xbdb6ed87	-0.089320235
104	0x3e8ee0b1	0.279058
105	0x3ed66049	0.41870335
106	0x3eb51112	0.35364586
107	0xbd12ece1	-0.035870437
108	0xbef418f1	-0.4767528
109	0x3ea08da0	0.3135805
110	0x3c001519	0.00781753
111	0xbe618abf	-0.22025584
112	0xbeb8f75e	-0.36126226
113	0x3d45c4fb	0.04828356
114	0x3db3f56c	0.08787045
115	0xbdc33930	-0.09532392
116	0x3b4d5d32	0.0031336066
117	0xbce38426	-0.027772974
118	0xbe9151db	-0.28382763
119	0x3d8b9585	0.06815628
120	0xbd5a4102	-0.053284653
121	0xbe0ca0f7	-0.13733278
122	0x3ea5b97b	0.32368073
123	0xbd0a75fe	-0.033803932
124	0xbe7a82f8	-0.24464023
125	0x3d4d4963	0.050118815
126	0xbd79b6b7	-0.060965266
127	0x3e60bcbf	0.21947001
128	0x3f18ee4a	0.597386
129	0x3e7cd8c8	0.2469207
130	0x3d88a0c5	0.06671289
131	0x3e89a218	0.2688148
132	0x3bb44ff3	0.0055026948
133	0x3d47b43d	0.048755873
134	0xbdce247d	-0.10065553
135	0xbd59d6a1	-0.0531832
136	0xbcea028f	-0.028565673
137	0xbd3cbebd	-0.04608034
138	0xbec6fd9b	-0.3886536
139	0xbf264a15	-0.6495679
140	0xbee36202	-0.44410712
141	0xbf2b0019	-0.66797024
142	0xbdbdd88e	-0.0926982
143	0xbe8fee72	-0.28111607
144	0xbebbce73	-0.36680946
145	0xbebefa73	-0.37300453
146	0xbe133dc0	-0.14379025
147	0xbe33ef89	-0.17571844
148	0x3dfd3a12	0.12364592
149	0xbd659b4b	-0.056056302
150	0xbf005165	-0.501242
151	0xbe79f909	-0.24411406
152	0xbed960c0	-0.42456627
153	0xbd4d03dd	-0.050052512
154	0xbe4f371c	-0.20235866
155	0xbd862c04	-0.06551364
156	0xbce72e5d	-0.02822035
157	0xbf103fa8	-0.5634713
158	0xbf0b93be	-0.5452231
159	0x3d993a5e	0.07481836
160	0x3e2fdda8	0.17174399
161	0xbea3475c	-0.3189038
162	0x3b7f1dd7	0.0038927698
163	0xbeee0b09	-0.46492794
164	0xbc00ac03	-0.007853511
165	0xbd190d39	-0.037366126
166	0xbe61ba36	-0.2204369
167	0xbb8b8638	-0.0042579435
168	0xbe2f8cc3	-0.1714354
169	0xbd446596	-0.047948442
170	0xbe2f0991	-0.17093493
171	0x3e3a6758	0.18203485
172	0xbe32cfd3	-0.17462091
173	0x3e0a3fce	0.13500902
174	0xbdd58ee3	-0.10427644
175	0xbec395e6	-0.382003
176	0xbe17db56	-0.14829764
177	0x3eb4af27	0.3528988
178	0xbef645ea	-0.48100215
179	0x3c80c517	0.01571898
180	0xbed4b9cc	-0.41548002
181	0xbdc8baf7	-0.09801286
182	0xbeaffd37	-0.34372875
183	0x3e54545f	0.2073531
184	0x3c90a357	0.017656012
185	0xbf224e46	-0.63400686
186	0x3e53f02b	0.20697086
187	0xbe3c058f	-0.18361495
188	0x3b07dfdc	0.0020732796
189	0x3ce9f883	0.028560882
190	0xbf03be1f	-0.51461977
191	0x3d700828	0.05860153
192	0xbcc6c685	-0.024264583
193	0xbedf5c3c	-0.43625057
194	0xbebf9081	-0.37414935
195	0xbc6cf81a	-0.014463449
196	0xbedb1898	-0.427922
197	0xbdb91a66	-0.09038238
198	0xbe806dcb	-0.25083765
199	0x3db00557	0.085947685
200	0x3e8209fe	0.25398248
201	0x3e950104	0.29102337
202	0xbe096557	-0.13417564
203	0xbe959930	-0.29218435
204	0xbf1ae946	-0.60512197
205	0x3b5f1091	0.0034036974
206	0xbd455258	-0.048174232
207	0xbf741f62	-0.95360386
208	0x3f145ed7	0.57957214
209	0xbeeae651	-0.45878842
210	0xbedbaa6e	-0.42903465
211	0x3d471755	0.048606236
212	0xbdb0f5fa	-0.08640666
213	0xbe950223	-0.29103193
214	0xbe0fe01d	-0.14050336
215	0xbef68bc1	-0.481535
216	0x3c9f45bf	0.019442437
217	0x3e793554	0.2433675
218	0x3d41541c	0.047199354
219	0xbea4bff8	-0.3217771
220	0xbdaff2ab	-0.08591207
221	0xbe627819	-0.22116126
222	0x3c9f1333	0.019418335
223	0xbea700e8	-0.3261788
224	0xbeb7ccea	-0.35898525
225	0x3de0d7da	0.109786704
226	0xbd5d38b2	-0.054009147
227	0xbeab5e6e	-0.33470482
228	0xbca1c6bd	-0.019748086
229	0x3e0db098	0.13836896
230	0xbe260d28	-0.16215956
231	0xbea0ded6	-0.3142001
232	0xbc768c64	-0.01504812
233	0xbe776337	-0.24158941
234	0xbd1f6eca	-0.038924016
235	0xbdead107	-0.1146565
236	0xbe727cd6	-0.23680434
237	0xbb9770af	-0.004621587
238	0x3dae54fe	0.08512305
239	0x3e9127c8	0.28350663
240	0xbed77acc	-0.42085874
241	0x3d8449c4	0.06459382
242	0xbc5803c1	-0.013184489
243	0x3ed8144a	0.4220298
244	0xbddbd75c	-0.10734436
245	0xbd5b4972	-0.05353684
246	0xbf10b4b3	-0.56525725
247	0xbd11ccd7	-0.03559574
248	0xbd175654	-0.036947563
249	0xbf3aa2fa	-0.7290493
250	0xbf42000e	-0.75781333
251	0x3bd00de3	0.0063493117
252	0xbef9d617	-0.4879615
253	0xbda198a4	-0.07890442
254	0xbebf2a6e	-0.3733706
255	0x3e7c69ad	0.24649687

bias f4 [10]
0	0x3d0884d5	0.033329803
1	0xbf493b1a	-0.78605807
2	0xbec0e5c8	-0.3767531
3	0x3e724fd0	0.23663259
4	0x3eb66350	0.35622644
5	0x3e1c9df3	0.15294628
6	0x3e32de70	0.17467666
7	0x3e7a8419	0.24464454
8	0xbf14d29f	-0.5813388
9	0x3dfe0033	0.12402382
