Project_1/Part2/checkpoints/cnn_0_100.pth (torch, 183189 bytes, 18 tensors)

weight f4 [8, 3, 5, 5]
000000 25 b1 a3 bd f9 8d 3e 3e 40 d2 0f 3e 92 ab 7e 3d
       -0.07992772 0.18608846 0.14045048 0.06217534
000010 77 ad cf bd 22 19 7d be e8 68 91 3e 0a 19 57 be
       -0.10140508 -0.24716619 0.2840035 -0.21005645
000020 c5 ce 57 3e 98 3e 84 be 20 23 95 be 3b b2 24 3f
       0.2107497 -0.25829005 -0.2912836 0.6433446
000030 93 35 f6 be a2 7e d1 3e 3f fe 43 be 6c 5c c0 be
       -0.4808775 0.40916926 -0.19139956 -0.37570512
000040 7c f3 24 3f 17 d2 13 bf 54 34 d3 3e bc 0a 35 be
       0.6443403 -0.57742447 0.4125086 -0.17679876
000050 03 f1 67 be c9 7a df 3e 01 a0 e0 be b9 24 71 3e
       -0.22650532 0.43648365 -0.43872073 0.23549165
000060 04 f1 73 bd ce d7 b7 3d 1d 5d aa bd 06 4e d6 be
       -0.059556022 0.08976708 -0.08318541 -0.41856402
000070 d8 92 9c bd c3 b9 45 3e ef 1c f9 3d ee 7f 8c 3e
       -0.07645196 0.19309144 0.12163722 0.27441353
000080 e6 60 07 bf b6 e6 eb 3d ba ba a7 3e e8 14 14 bd
       -0.5288223 0.11518614 0.3275965 -0.03615275
000090 5e f3 f0 3e 32 0a 85 bf 0a 6f 8d 3e d8 b2 43 3e
       0.47060674 -1.0393736 0.2762378 0.19111192
0000a0 46 88 e6 3c 81 9e 10 3f fc 23 8a bf fe c0 02 3f
       0.028141152 0.5649186 -1.0792232 0.5107573
0000b0 24 3c 5f 3d ac f7 d0 3c 1b a7 e8 3e 24 c2 57 bf
       0.054500714 0.025508724 0.4543999 -0.8428061
0000c0 c1 95 82 3e 7f d1 44 3e 94 0d 35 bc 91 e1 c0 3d
       0.25504878 0.19220541 -0.011050601 0.094180234
0000d0 05 51 7f bb 44 86 fd 3d 2b 29 b9 bd 76 11 ac bd
       -0.0038958204 0.12379125 -0.09041055 -0.08401768
0000e0 de 3a 7b 3e cb 6c 9f be 65 35 64 3e b6 01 0e be
       0.24534175 -0.3113769 0.22285993 -0.1386784
0000f0 b7 b3 16 be bf 2a f5 3e 19 70 0b bf 90 93 e7 3e
       -0.14716993 0.47884175 -0.5446792 0.4522977
000100 83 c3 72 be a4 7d 78 be 26 19 24 3f 9e e6 2a bf
       -0.23707394 -0.24266678 0.64100873 -0.66758144
000110 d5 f3 ef 3e 6a ad 2f be 16 2c 29 be 7f b1 00 3f
       0.46865717 -0.17155996 -0.16520724 0.5027084
000120 17 34 07 bf 93 9d a7 3e 9d 3f 3b be 3e aa 0a 3f
       -0.5281386 0.32737407 -0.18285985 0.5416602
000130 de 53 7d 3e e1 1c 12 3e 04 da 50 3e 9d 96 aa 3e
       0.24739024 0.14268829 0.20395666 0.33318034
000140 82 a1 b9 3e 81 fe 07 be 46 c3 0e be c3 f5 20 bd
       0.36256033 -0.1328068 -0.13941678 -0.039296877
000150 d5 40 3c bc 45 84 4e 3e e3 f3 e4 3c 73 f0 bf 3b
       -0.011490067 0.20167644 0.027948325 0.005857521
000160 d3 03 ee 3c 11 2a 4c bd 7f 57 da 3d f7 f3 16 bd
       0.029054558 -0.049844805 0.1066122 -0.036853757
000170 aa 36 1c 3e b1 0d 66 bb 49 8e 06 be 39 73 0a be
       0.15255228 -0.0035103376 -0.13140215 -0.13520516
000180 52 1a ee 3c a6 b5 62 3e b8 26 89 bd 75 32 dc bd
       0.029065285 0.22139606 -0.06696838 -0.107518114
000190 fa 22 92 be 37 0c 48 be f0 21 ef bd bd 61 73 3d
       -0.2854231 -0.1953591 -0.11676395 0.059419382
0001a0 81 6c 9b 3e c6 b0 65 be 66 3b ec be 7b e3 a9 be
       0.3035622 -0.22430715 -0.46139067 -0.33181366
0001b0 0f eb 48 3e f1 ac c3 3e 9f f7 db be 74 a8 a4 be
       0.19620918 0.3821788 -0.42962357 -0.3215977
0001c0 c0 3d 13 be c3 73 dd 3e ea b5 0b 3f 04 d7 c2 be
       -0.14379025 0.43252382 0.54574454 -0.3805467
0001d0 5e 61 04 bf 2d bf f1 bc 77 c2 7b 3e 3e 5b 37 3e
       -0.5171107 -0.029510105 0.24585901 0.179059
0001e0 80 37 2e bf ba 9b 82 be bb 95 b9 3d a3 9f bc bc
       -0.68053436 -0.25509435 0.09061762 -0.02302534
0001f0 90 6d 27 3e 57 35 46 bf 8d 72 10 bf a0 28 68 be
       0.16350389 -0.7742514 -0.5642479 -0.22671747
000200 1a d3 48 3d bb 95 5a 3e e7 c6 39 bf e2 75 cf be
       0.049029447 0.2134618 -0.72569126 -0.40519625
000210 d8 d2 51 3e 42 d9 41 3f 6b ad 1d 3f 40 fa 7a bf
       0.20490587 0.75722134 0.6159274 -0.980381
000220 1f 4c 0f bf 72 b4 8e 3e f5 c6 57 3f df f4 17 3f
       -0.55975527 0.27872044 0.8428796 0.5935802
000230 b7 81 30 bf 8e f5 bb be 32 82 d3 3e 20 38 4a 3f
       -0.6894793 -0.3671078 0.4131027 0.7899189
000240 c3 53 22 3e 1a 79 c0 be 19 29 87 3e ae 9a 3e 3f
       0.15852265 -0.37592393 0.26398543 0.7445477
000250 ed 6f 08 3f a2 88 32 3e 46 99 35 be cb e6 0b be
       0.53295785 0.17434934 -0.1773425 -0.1366226
000260 26 a0 0f be 60 9c be bd 3e 54 e0 bd b7 2e 58 3e
       -0.14025936 -0.0930717 -0.10953568 0.2111157
000270 87 89 67 be 7e 02 da be b7 6f d5 be 7c 23 35 be
       -0.22611056 -0.42580026 -0.41686794 -0.17689317
000280 22 f4 03 3f 39 c3 29 3f 88 cb 80 3f e4 02 47 3f
       0.5154439 0.6631351 1.0062113 0.77738786
000290 56 7b 14 3f e2 01 15 be 6e c1 d0 be f9 29 a0 be
       0.58000696 -0.145515 -0.40772575 -0.31282023
0002a0 67 68 92 be 46 9d a8 be d3 ad 2c be 72 42 8f bc
       -0.28595278 -0.3293249 -0.16863184 -0.017487738
0002b0 06 91 77 be e1 a2 00 bd c5 d6 82 be 7b f0 12 be
       -0.24176416 -0.031405333 -0.2555448 -0.14349549
0002c0 e9 88 9b 3e d2 60 4d 3e 94 02 c3 3e fb d5 29 3e
       0.30377892 0.20056465 0.38087904 0.16585533
0002d0 8a 0f ec bd 79 eb bc be fe ab 2e bf 6e 2f 11 bf
       -0.11526401 -0.368984 -0.6823119 -0.56712997
0002e0 4a 6d 9b be fe 40 3e 3d 1b f8 36 3f ee 42 44 3f
       -0.30356818 0.0464487 0.7147233 0.76664627
0002f0 cc 5e 45 3f 82 63 25 3f 14 6e 82 be f1 ba aa bd
       0.77097774 0.6460496 -0.25474608 -0.083364375
000300 6e 27 e8 be f8 eb 17 be b9 17 d9 bc 78 a9 87 be
       -0.45342582 -0.14836109 -0.02650057 -0.26496482
000310 2d 66 92 3d 0e 35 10 be ee d0 33 be 02 eb 63 bd
       0.07148395 -0.14082739 -0.17560169 -0.055644043
000320 06 d8 9c bd 6c 4e 8e 3e ae d7 4d 3e 13 5f 98 3e
       -0.07658391 0.27794206 0.20101807 0.29760036
000330 b1 db 55 3d bd 76 d3 be 87 0d 0d bf 5c 9b 3b bf
       0.052211467 -0.41301528 -0.55098766 -0.73283935
000340 49 7e 3b bf 59 5e 10 bf 7f 0f 07 3e 98 dc c7 3e
       -0.7323957 -0.56393963 0.13189505 0.39035487
000350 01 94 03 3f 1c 45 e4 3e 97 b1 c4 3e 66 8b 02 3d
       0.5139771 0.44583976 0.3841674 0.031871222
000360 30 d3 6f be a7 ed 63 be da 7e 55 be c7 9a 5f be
       -0.23420405 -0.22258626 -0.20849171 -0.21836387
000370 31 8d 61 3e f0 87 79 3e e5 8d 07 3e 27 91 68 3e
       0.22026516 0.24368262 0.13237722 0.22711621
000380 67 be 45 3e 27 55 18 bf cf 36 6a bf 33 19 3a bf
       0.19310914 -0.5950493 -0.9148988 -0.726947
000390 b8 3b 3d bf dd 51 18 bf e0 c8 17 3d 27 ef 17 3c
       -0.7391925 -0.59499913 0.037056804 0.009273327
0003a0 c8 7b d0 3e 5c 59 da 3e 80 b2 a4 3e 58 a8 f2 3e
       0.40719438 0.426463 0.32167435 0.4739406
0003b0 8b c6 03 3f 8b e4 44 3f 15 4e 12 3f b3 bb ae 3e
       0.5147483 0.7691123 0.57150394 0.34127578
0003c0 53 6e 01 3f c2 e6 0b 3f a4 d5 40 3f 16 69 13 3f
       0.50558966 0.54648983 0.7532599 0.57582223
0003d0 34 7c 54 3e 9b 3c 8d be b3 88 67 be 96 24 bd bd
       0.20750505 -0.275853 -0.2261074 -0.09235494
0003e0 ad 84 aa be ee 7f 2c bf 65 d2 ca 3e 8e be 26 3e
       -0.3330435 -0.67382705 0.39613643 0.16283628
0003f0 9b 8b 5d 3e 06 d6 28 3e d0 ae 91 3d 6a b4 54 3e
       0.21635287 0.16487893 0.07113421 0.20771948

bias f4 [8]
000000 32 0a 91 3e bf 7e 20 3e 78 bf 0c 3e fc 4c 35 3d
       0.2832809 0.1567335 0.13744915 0.04426287
000010 24 34 23 be 66 18 1a be 3f 9d b9 be eb 2a 2f bf
       -0.15937859 -0.1504837 -0.36252782 -0.6842486

weight f4 [8]
000000 9e a0 b0 3f ea f8 8f 3f 72 14 6f 3f 7f 41 58 3f
       1.3799016 1.1247838 0.9339057 0.8447494
000010 9b fb 65 3f ed a5 9a 3f 60 56 ac 3f b9 c2 48 3f
       0.89837044 1.2081887 1.346386 0.78422123

bias f4 [8]
000000 70 89 a6 be 7a 8f ab be 55 50 a4 be b2 a6 f8 bd
       -0.32526731 -0.335079 -0.32092538 -0.121411696
000010 30 43 af be 1e d2 e6 be e6 f1 15 bf 51 4f 20 3e
       -0.34230947 -0.45082182 -0.5857223 0.15655257

running_mean f4 [8]
000000 e6 d2 8f 3e 4b 04 96 3d 4c d1 15 3e e4 63 b2 3d
       0.2809059 0.073250376 0.14630622 0.08710459
000010 d6 9a 24 be 14 6a ed bd 61 3f b2 be a8 60 83 bf
       -0.1607469 -0.115924984 -0.3481398 -1.0263872

running_var f4 [8]
000000 ff c0 b8 3e f7 46 9d 40 72 6a 18 3f ab 6a a7 3f
       0.36084744 4.9149127 0.5953742 1.3079427
000010 a7 0a 65 3e 85 cc 27 40 b4 ae 5f 3f 90 cb 02 40
       0.22367345 2.621858 0.8737595 2.0436745

weight f4 [10, 8, 5, 5]
000000 fe d4 8e 3e a4 c9 20 bd 2f 01 a2 bd a3 18 1d 3e
       0.27896875 -0.0392548 -0.07910382 0.1534143
000010 c5 13 35 3e 52 a2 ca 3c 8e 0b cd 3e 13 fb 89 3d
       0.17683323 0.024735603 0.40047878 0.06737342
000020 d2 e7 94 3d 10 bb bf 3d cb 39 f0 3e 9e 3e ae 3d
       0.07270779 0.09361851 0.46919093 0.08508037
000030 f1 0f 9b 3e f6 e6 e8 3d 7c 82 33 3e c7 a8 0c 3e
       0.302856 0.11372177 0.17530245 0.13736258
000040 f7 24 a1 3e 27 d2 b7 3d d6 df 54 3b 12 5d 36 be
       0.31473514 0.0897563 0.003248205 -0.17808941
000050 1b b9 b0 bd c8 8a 79 3b 50 67 11 3e e1 d5 69 be
       -0.08629056 0.0038077105 0.14199567 -0.22835495
000060 09 7b a0 be 68 4b 7e 3e 86 1d 20 be b5 5a fd 3d
       -0.31343868 0.24833453 -0.15636262 0.123708166
000070 68 e3 6d 3e ad 24 68 3d 0f 8c 3d 3e 7f b6 78 be
       0.2323128 0.0566756 0.1851046 -0.24288367
000080 1e 61 fb 3d a1 13 8a 3e e9 74 2c 3d c6 63 e2 3e
       0.12274383 0.269681 0.04210368 0.44216746
000090 1d c3 a7 be 9c 58 d6 3c 7d ef 73 3d 80 75 f5 3d
       -0.32766047 0.0261653 0.059554566 0.11985302
0000a0 d6 81 d6 bb 4b d2 84 be 98 4b 24 be 0b 70 d6 bd
       -0.0065462394 -0.2594169 -0.16044462 -0.10470589
0000b0 54 57 df 3d 30 ba 24 bf c0 0c 6f be 1f d5 10 be
       0.109053284 -0.643466 -0.23344707 -0.14143799
0000c0 1b be 95 bd 28 18 d5 bc ac 7c 85 be 63 7a 47 be
       -0.0731165 -0.026012495 -0.2607168 -0.1948028
0000d0 41 f2 ea bd 4b 9e 97 bb c8 8c 9c 3e 33 3d 09 bf
       -0.114719875 -0.0046270243 0.30576158 -0.5360901
0000e0 32 ce 37 bf 49 79 0a bf 2b e7 44 bd a0 23 b8 3e
       -0.71799004 -0.54091316 -0.04807202 0.3596468
0000f0 1f 9e 71 bf 0c 12 8c bf dc 34 d8 be 7a b1 9d 3b
       -0.943819 -1.0943007 -0.42227829 0.0048124166
000100 a4 01 17 3f 3a 20 37 bf 10 6e 07 bf 5f 86 53 3e
       0.5898688 -0.7153355 -0.5290232 0.20656727
000110 9d d2 ab 3e 80 78 1b 3f 25 73 c0 be 52 79 7f be
       0.33559123 0.60730743 -0.37587848 -0.24948624
000120 05 f8 8b 3d cc 9e e2 3e 78 e1 21 3e 8d ce d3 3e
       0.06834415 0.44261777 0.15808666 0.41368523
000130 14 e4 5e 3e 51 96 10 3e 5b e8 1d 3e 30 45 2d 3e
       0.21766692 0.14119841 0.15420668 0.16920924
000140 c2 be 93 bd 05 87 6b be 04 5e ae bd 36 95 21 3b
       -0.072141185 -0.23000725 -0.08514026 0.0024655587
000150 6b df 8a 3d c9 34 70 be 7f f6 b6 be 2f f6 35 be
       0.06780895 -0.23457636 -0.35734937 -0.17769693
000160 50 83 6f 3e 44 d4 5b 3e 18 4f b5 be 35 4e 4c bf
       0.23389935 0.21467692 -0.35411906 -0.79806834
000170 b9 d8 47 bf de 4f 57 be 9a d2 29 bd af 76 29 bf
       -0.7806507 -0.2102656 -0.04146061 -0.6619672
000180 f7 22 ac bf 77 91 bc bf 16 7b ba bf 50 c4 b9 bf
       -1.344817 -1.4731892 -1.4568813 -1.4513035
000190 c1 c2 6a 3e a6 8e b6 bd 11 2d 26 bf a4 fb 51 bf
       0.22925855 -0.08913927 -0.64912516 -0.820246
0001a0 fa 20 4d be 9b c2 95 bd 4e 8b 67 bf 25 33 aa bf
       -0.20032111 -0.07312509 -0.9044694 -1.3296858
0001b0 05 4a 87 bf 05 0b 9e be 35 08 d6 be 96 dd 4d bf
       -1.0569464 -0.30867782 -0.41803136 -0.8041624
0001c0 0c 48 74 bf 37 5a 3a bf 74 ab 24 bf a6 bd 23 be
       -0.95422435 -0.72793907 -0.64324117 -0.15990314
0001d0 21 34 78 be 7a a2 f2 be ed 83 3b bf e5 bc 55 bf
       -0.24238636 -0.47389585 -0.7324818 -0.83491355
0001e0 bc b7 80 be c3 5e 83 bc de e6 c3 bd 44 e7 3a bf
       -0.25140178 -0.016036397 -0.09565519 -0.73009133
0001f0 bb c2 51 bf 90 72 3e 3f 85 c1 81 3e 12 52 71 3e
       -0.8193776 0.7439356 0.25342956 0.23566464
000200 11 14 79 bd f9 d5 68 3d b5 ab bc 3e f8 0f 07 3f
       -0.060810152 0.056844685 0.36849752 0.5275874
000210 48 ad 5f bc 1c 2f ef bd c6 34 0f 3e 57 f2 2a 3f
       -0.013652153 -0.11678907 0.13984975 0.6677603
000220 81 2c e3 3e e2 8a 78 3e bd 6d 00 be 80 d1 9b 3e
       0.4436989 0.2427173 -0.12541862 0.30433273
000230 59 d7 36 3f ab de d4 3e 57 cf 20 3f 68 e8 01 3f
       0.71422344 0.41576132 0.62816375 0.5074525
000240 bc 6d 66 3c d8 47 01 3f 8c e0 75 3f 0d 94 b9 3e
       0.014064249 0.5050025 0.96045756 0.36245766
000250 db 80 8e 3e 5f 2c 81 3f 3d 71 53 3e 39 6b d8 3c
       0.27832684 1.0091666 0.20648666 0.026418315
000260 9d 07 6a 3e 58 34 0c 3e 90 60 03 3e 5d 3e 63 3e
       0.22854467 0.13691843 0.12829804 0.22191758
000270 23 2d 4b bd 45 f4 90 bd b9 c6 95 bd d3 09 f0 bd
       -0.049603593 -0.07077841 -0.07313294 -0.11720624
000280 33 a2 3c 3e 7e f9 2e 3e c0 f9 81 bd 73 29 22 bd
       0.18421249 0.17087361 -0.06346464 -0.03959031
000290 3d e8 45 be 9c 1b 11 3e d2 b6 8a 3e 36 9d 02 3e
       -0.19326873 0.14170688 0.27092606 0.12755284
0002a0 06 e4 dc 3d bb 2c d9 3d 1d 8b ae 3e fd 0c a0 3e
       0.107856795 0.10604235 0.3409051 0.3125991
0002b0 f4 8f 19 3e ff fa f6 bc 15 de 34 be 3b 43 91 3e
       0.1499632 -0.030148981 -0.17662843 0.28371605
0002c0 f5 20 04 be 51 d2 d4 be b3 f1 e3 be 33 74 fe be
       -0.12903197 -0.4156671 -0.4452034 -0.49698028
0002d0 1b 9f 52 3f 81 3d 9d 3e 3e c1 97 bd c5 26 b1 be
       0.82274026 0.30710986 -0.07409905 -0.3459989
0002e0 60 d2 f1 be 0c 35 57 3f 41 f1 9f 3e 3d a7 7a be
       -0.47230816 0.8406532 0.3123875 -0.24477859
0002f0 79 68 d1 be 1a 69 1d bf 75 38 f4 3e 44 2f c6 3e
       -0.4090002 -0.614885 0.47699323 0.38707936
000300 a9 4d 23 be ab 44 9e be f7 e8 c3 be c8 d5 d2 3e
       -0.15947594 -0.30911765 -0.38263676 0.41178727
000310 85 16 39 3e e7 1b a2 be 3a 51 e6 be a7 6a 2a bf
       0.18074997 -0.31661913 -0.44983846 -0.6656899
000320 26 ce dd be 89 bd fc bd de 35 12 3e b6 0d f2 3d
       -0.4332134 -0.123408385 0.14278361 0.118190214
000330 c9 71 ef 3c 21 21 00 bc 00 40 0c 3e c2 76 9d 3d
       0.029229062 -0.007820399 0.13696289 0.07688667
000340 8c aa 44 3e a9 8e d1 bb c1 8a 8b 3b 01 a3 10 b9
       0.19205683 -0.0063951802 0.004258484 -0.00013793634
000350 7b d9 e0 3e be fd 1f 3e 60 92 06 3e 0c 00 26 3e
       0.43915924 0.15624139 0.13141775 0.16210955
000360 d5 61 6b 3e c6 2c 99 bd 60 23 02 3f 9b a3 ab 3c
       0.22986539 -0.07479243 0.5083523 0.020952037
000370 ac 51 22 be c1 c1 c8 3d 76 c1 c3 3e eb 59 3c 3c
       -0.15851468 0.098025806 0.38233536 0.0114960475
000380 6d f0 21 bd 35 72 57 3e bb 66 92 bd 15 2c 45 be
       -0.03953593 0.2103966 -0.071485005 -0.19255097
000390 84 5c 97 3e 64 7a be 3e 40 e4 ea 3c 9b bf 84 3f
       0.2956277 0.37202752 0.028673291 1.0370973
0003a0 8c 66 c9 bd bb d2 67 3e 4f 33 2c be b1 4e 07 3f
       -0.098340124 0.22638981 -0.16816448 0.5285445
0003b0 01 22 af be 44 d8 3c 3f 3f 56 42 3e d7 15 7a 3e
       -0.3420563 0.73767495 0.18978213 0.24422394
0003c0 2e 90 d4 3d 88 a4 ab 3e ca 35 0c 3e 4d 09 d0 bd
       0.103790626 0.33523965 0.13692394 -0.10158024
0003d0 ba 85 14 3e 91 62 b0 3e cb 23 22 3f f2 c6 cc 3e
       0.14504138 0.344502 0.63335866 0.39995533
0003e0 17 2b 84 3f ac 35 4a 3d 90 67 80 bf d3 a7 8d bf
       1.032565 0.04936759 -1.0031605 -1.1066841
0003f0 c9 fc ea be 1d a9 89 bd c2 6b 8e 3e 4f af cc bf
       -0.45895985 -0.06721709 0.27816588 -1.5991

bias f4 [10]
000000 ca c0 6d bd ca 85 ce be 5e 88 69 be 8b 66 60 be
       -0.058045186 -0.40336448 -0.22805926 -0.21914117
000010 cf 1a d7 be a1 06 83 be a7 88 40 be 50 bb 59 bd
       -0.4201264 -0.25590995 -0.18802129 -0.05315715
000020 3d 48 b9 be d6 6e 81 bd
       -0.36187926 -0.063199684

weight f4 [10]
000000 c7 53 9b 3e 46 e5 ef 3e 27 94 3d 3e e8 7d 31 3f
       0.30337355 0.4685461 0.18513547 0.6933274
000010 90 d2 46 3f 10 fe 40 3e 50 bf 45 3e ca 4d 6e 3e
       0.7766504 0.18846917 0.19311261 0.23271862
000020 dd f1 93 3e 3e 88 51 3e
       0.28895465 0.20462129

bias f4 [10]
000000 d1 51 f0 bd 10 82 7c be 12 3e 3d 3c 42 f1 ef be
       -0.11734355 -0.2465899 0.011550443 -0.46863753
000010 56 65 18 bf ce 1f 14 bd a8 b5 b5 bc 60 a2 81 bd
       -0.59529626 -0.036163144 -0.022181347 -0.06329799
000020 15 bd 86 bd 2e 42 2e bd
       -0.06579033 -0.042543583

running_mean f4 [10]
000000 f7 f3 94 c0 5f 72 48 c1 60 d7 52 40 06 98 4f c1
       -4.654781 -12.527923 3.2943954 -12.974615
000010 85 8e 91 c1 e4 26 b0 bf aa 4b 19 40 a6 71 aa bf
       -18.19459 -1.3761868 2.3952432 -1.3315933
000020 46 30 3a c1 f1 c9 30 bf
       -11.6367855 -0.6905814

running_var f4 [10]
000000 85 72 9c 42 9c af fa 42 e9 d7 7e 42 e7 46 7c 43
       78.22367 125.34299 63.71085 252.27696
000010 6d 34 88 43 e7 7c 48 42 1f d9 72 42 1b 05 6c 42
       272.40958 50.121975 60.712032 59.004986
000020 b9 25 ca 42 7d 33 32 42
       101.07368 44.55028

weight f4 [145, 250]
000000 49 e7 86 3e a8 05 6f be db 02 ed 3d f7 48 78 3e
       0.26348332 -0.23342001 0.1157281 0.24246584
000010 d3 a9 58 3e 32 ab 8c 3e d4 61 87 3d 7c 7a fb bb
       0.21158533 0.27474362 0.06610456 -0.0076745134
000020 7b 0d 28 3e a6 c9 b7 3e be 9e 0c 3e a9 de 52 3d
       0.16411392 0.35896033 0.1373243 0.051481877
000030 18 23 5a 3d e5 55 c6 3d 25 24 d8 3e 97 61 22 bc
       0.053256124 0.09684352 0.42215076 -0.009910963
000040 93 c5 02 be cc fd a3 bd 91 a5 5f 3d 06 f9 e2 3d
       -0.12770681 -0.08007392 0.054601256 0.11082654
000050 05 05 d2 bd 69 52 c5 bd f8 ba 25 be be 3f 1f be
       -0.10254864 -0.09634859 -0.16184604 -0.1555166
000060 3d 6b 7e bd 9d f5 98 3e ac 80 2e be d1 2f ef 3d
       -0.06211399 0.29874888 -0.17041272 0.11679042
000070 b8 40 97 be f6 99 e9 bd b0 81 df 3e d0 a1 52 3b
       -0.29541564 -0.11406319 0.4365363 0.0032139905
000080 c9 4f c9 3e d1 54 d5 3c 19 e7 cf bd 02 1e 19 3f
       0.39318684 0.02604142 -0.101515 0.59811413
000090 56 8b 12 be 24 73 c8 3d 39 9c 49 3e 72 95 c2 3e
       -0.14310965 0.09787586 0.196885 0.38004643
0000a0 52 30 d1 3e 99 1c 43 3e 98 5d b7 be b0 ba 53 3d
       0.40857178 0.19053878 -0.35813594 0.05169171
0000b0 a4 80 88 3e 4b 75 eb ba 09 f2 98 3d 04 31 b3 be
       0.26660645 -0.0017964033 0.074680395 -0.34998333
0000c0 fe fe 04 bd 20 f5 10 3f 05 db b3 be 76 4c 3a bd
       -0.032469742 0.5662403 -0.35128036 -0.045483075
0000d0 74 7c 28 be e7 85 09 be 1b 9f ba be 8b c9 2f bf
       -0.16453725 -0.13429986 -0.36449513 -0.68666905
0000e0 97 77 79 be cc 97 6d be 44 0f b4 bb 0a 21 86 3e
       -0.24362026 -0.23202437 -0.005494984 0.26197082
0000f0 bf 02 1e bf 8b 8a b8 be f5 a7 64 be c9 0d 97 be
       -0.6172294 -0.360432 -0.22329696 -0.29502705
000100 fb 99 80 bc ff 58 25 3e fa e7 a7 3c 24 22 6b be
       -0.015698424 0.1614723 0.020496357 -0.22962242
000110 36 22 77 be c2 67 ca bd ac 74 38 3f 10 04 f5 3e
       -0.24134144 -0.098830715 0.7205303 0.47854662
000120 b0 ba 7a 3e 60 e7 85 3e a7 2a 8f 3e 1e 1f 02 be
       0.24485278 0.26153088 0.2796223 -0.12707183
000130 14 d8 9e 3a c9 d5 ff 3d 03 cd 9d 3e 9b 70 b8 3e
       0.001211884 0.12491948 0.30820474 0.3602341
000140 7f 5b 53 3e cd 0e e2 3d df 6c f1 3d 2d d4 d6 bc
       0.20640372 0.11037979 0.11788344 -0.02622422
000150 97 a7 e0 3e 34 39 a4 bd 07 13 91 3e b6 55 50 3e
       0.4387786 -0.08018723 0.2833483 0.20345196
000160 b7 d6 83 3d 39 af 0a be 5a f0 73 3e 0c 4d de 3e
       0.06437438 -0.13543405 0.23822156 0.43418157
000170 85 22 4b 3e 73 e8 3c be 8c 0c 85 3d 70 9f 4b 3d
       0.19837387 -0.18448047 0.06496534 0.0497126
000180 98 2b 88 3e 95 d4 42 bc d1 8d 6c bd 14 c8 9c b8
       0.2659576 -0.011891504 -0.057752434 -7.475927e-05
000190 03 7c 65 be 87 82 8d be e6 a8 e9 bd f3 33 4b 3e
       -0.22410588 -0.27638647 -0.11409168 0.19844036
0001a0 07 b5 1f 3e e8 dc ca be 65 55 ad be ba ae ba bd
       0.155964 -0.39621663 -0.33854213 -0.09115358
0001b0 3a c9 67 be c2 0f 13 3e c8 e8 b3 bc 98 ff 1e 3d
       -0.22635356 0.1436148 -0.021961585 0.038817972
0001c0 26 18 7b 36 2d 37 b8 bc b0 c0 21 3e a6 32 58 be
       3.741597e-06 -0.022487247 0.1579616 -0.21113071
0001d0 ee 43 20 3e c4 e9 af bd 1f 66 ed bd 9b 79 44 bd
       0.15650913 -0.08589509 -0.11591744 -0.047967535
0001e0 21 1d 76 be e3 cd 9f bd e5 79 a6 be f0 ce e2 bd
       -0.2403455 -0.07802942 -0.32514873 -0.110746264
0001f0 7c 55 a4 be a4 84 98 be 47 6f bd be 16 4c 5e be
       -0.3209647 -0.29788697 -0.3699896 -0.21708712
000200 b1 85 89 bf de c6 d6 bf 51 37 41 3e be ae 53 bd
       -1.0743924 -1.677944 0.18868758 -0.05168032
000210 44 48 59 be da 24 13 bf 64 fd a5 bf e6 bc 26 3e
       -0.21218973 -0.57478106 -1.2967954 0.16282997
000220 a5 d7 74 be 5b 11 eb be 81 46 55 bf d5 b6 64 bf
       -0.23910387 -0.4591168 -0.83310705 -0.8934148
000230 81 46 30 3e 52 89 7c be 46 27 6c bf 60 1f 35 bf
       0.17214395 -0.24661759 -0.92247427 -0.70751
000240 3a c8 7c bf 06 a8 93 be fd 4b 05 bf de 36 27 bf
       -0.9874302 -0.2883913 -0.52069074 -0.65318096
000250 e9 4e 7b bf 75 5f 8a bf c5 b5 5d be 34 47 26 3f
       -0.9816728 -1.0810381 -0.21651371 0.649524
000260 46 1a 9d 3e 6e 0b 95 be ea 9d 2c be 98 9a 7d be
       0.30684108 -0.29110283 -0.16857114 -0.24766004
000270 12 1d e3 3e 05 00 cc 3e 54 a5 c0 3b 2b ef 96 3c
       0.44358116 0.39843765 0.0058790836 0.018424591
000280 8f 08 98 be 4b 19 32 3e c6 4b 5a bd 8f 86 cd bd
       -0.2969403 0.17392461 -0.05329492 -0.10035431
000290 fa b0 25 3d 8c ef 48 bd a6 9d 45 3e 26 73 8e bc
       0.04045198 -0.049056575 0.1929842 -0.017388891
0002a0 d9 e2 97 be 41 5f 1e be 0a 28 e6 3e cc 78 5d 3f
       -0.2966526 -0.15466024 0.44952422 0.86512446
0002b0 90 c6 b5 3e 92 ec fb bd 3e 41 70 be 53 fe a1 3e
       0.35503054 -0.123009816 -0.23462388 0.31639346
0002c0 ea d5 f3 be 57 60 1b be 82 60 3b bd 9c 66 49 bf
       -0.4762414 -0.1517347 -0.045746334 -0.78672194
0002d0 03 3f 93 be 74 3b b4 3d 5a 97 40 3d 50 f6 c8 bd
       -0.28759012 0.08800402 0.04701934 -0.098126054
0002e0 92 22 c0 be 92 7a 8c b8 8a 21 01 3e 93 db 31 3e
       -0.37526375 -6.698551e-05 0.1261045 0.17368917
0002f0 a1 5c eb bc 9f 90 aa be 93 72 ee 3e 3b 18 db 3e
       -0.028730692 -0.33313462 0.46571788 0.42791924
000300 b1 73 2d bb 89 74 8e 3d db 16 85 be 44 4a 4d 3f
       -0.0026466663 0.06955821 -0.25994 0.80191445
000310 6e 9f 00 3f 9a 5e 94 3e 04 ab af 3e ba ca e5 bb
       0.5024327 0.28978425 0.34310162 -0.0070126923
000320 8f 27 6e 3f ec 13 53 3f e3 2e 47 be f4 2b a4 bd
       0.9302911 0.82452273 -0.1945148 -0.08016196
000330 de cb 19 3e 4b ee d4 3e 24 36 10 3f 92 0d 01 3e
       0.15019175 0.41588053 0.5633261 0.12602833
000340 95 20 86 3d 18 fd 0b 3f db 22 22 3c dd 85 67 be
       0.06549183 0.54683065 0.0098960055 -0.22609659
000350 c4 87 88 3d 6a ba 6f 3e dd ee 9d 3e ae 25 2b be
       0.0666652 0.23410955 0.308463 -0.16713592
000360 0c b4 a1 be b3 03 b6 be 28 9b 1f be 68 8a 49 3e
       -0.31582677 -0.35549697 -0.15586531 0.19681704
000370 c4 0a 85 3d a8 6a 35 be 0f 45 a4 be ec bb d7 be
       0.06496194 -0.17716467 -0.32083938 -0.4213556
000380 fe d0 ca bc b3 65 8f 3e 6f 00 e5 3d 49 21 31 3e
       -0.024757858 0.28007278 0.11181723 0.17297854
000390 c5 66 40 3d 30 ba 17 3f f2 f8 ab 3e ca aa c9 3d
       0.04697301 0.59268475 0.33588368 0.098470286
0003a0 70 ab 28 3c f8 98 d1 bc 84 e1 b1 3b ef a6 eb 3d
       0.01029478 -0.025585636 0.005428495 0.115064494
0003b0 64 95 79 3e 46 de 6d bd 4f 41 b0 bd 7d 6f 8e 3d
       0.24373394 -0.058073305 -0.086062066 0.069548585
0003c0 03 68 10 bd 6e 7f 65 3e b6 54 64 be 0c 89 c6 3d
       -0.035255443 0.22411892 -0.2229794 0.09694108
0003d0 d9 a1 2b 3e 29 d1 d2 3c e5 8b af 3d 36 3d 7f be
       0.16760959 0.025734501 0.08571605 -0.24925694
0003e0 9b a7 8e 3e 3f ec 2a 3f e0 05 61 bc 52 47 8f bc
       0.27862248 0.6676673 -0.013734311 -0.017490063
0003f0 c2 41 f0 bc 83 52 dd 3d 36 3b b6 3b 49 63 b0 bd
       -0.02932823 0.108067535 0.0055612577 -0.08612687

bias f4 [145]
000000 a5 f6 ab 3e 86 1d 9b bd 7c d6 98 bd b4 48 c2 be
       0.33586612 -0.075739905 -0.07462785 -0.37946093
000010 63 0c b5 3f 83 56 ae bd 4c 7f b4 3e 62 fc bd 3e
       1.4144405 -0.085125946 0.3525337 0.37106615
000020 46 93 99 3d 74 66 22 3f 41 6a fe 3e 49 f5 09 bf
       0.07498793 0.6343758 0.4969044 -0.538899
000030 63 b7 f9 be 83 f1 88 3f 5f 02 1b be ef 44 3f 3f
       -0.48772725 1.0698704 -0.15137623 0.7471456
000040 58 3f 39 3f ed f0 2d bf 75 8e 84 bf e9 ed fb 3b
       0.7236228 -0.6794575 -1.0355974 0.007688273
000050 40 29 b7 be 33 11 b2 bf d9 20 13 3f 4a 9a 0b bd
       -0.3577366 -1.3911499 0.57471997 -0.03408269
000060 cb a2 18 3f 68 14 80 3e c5 47 6f 3f 8b 6a 9d 3e
       0.596234 0.2501557 0.93468887 0.30745348
000070 b0 09 82 3f 80 ab 74 3e 1a c6 16 3f e4 b1 a9 be
       1.0159206 0.23893547 0.5889603 -0.33143532
000080 8c ea 02 3c 1f c6 2e 3f 9c 13 bd 3f 29 8a 0c 3f
       0.007990491 0.6827106 1.4771609 0.54898316
000090 6c 7d e5 3e 71 ee 13 3e 56 eb 87 3f fe 49 91 3f
       0.44822252 0.14446427 1.0618694 1.1350706
0000a0 a7 42 f3 bc 48 40 81 bc 48 89 e9 3d f2 3e 81 3f
       -0.029694868 -0.015777722 0.114031374 1.0097334
0000b0 2e 78 22 3e d0 6d 66 be ce c6 70 be 47 dd 34 3e
       0.15866157 -0.22502828 -0.23513338 0.17662536
0000c0 5e 7e ff 3e 95 90 a4 bc b5 85 80 bf 5b df 0e 3f
       0.49901098 -0.020088473 -1.0040804 0.55809563
0000d0 a7 70 b3 3e b1 44 02 3f 65 29 47 3e 49 69 b9 be
       0.35046884 0.50886065 0.19449385 -0.3621314
0000e0 86 db 90 3b e1 b8 86 3f a9 4a 14 3d 91 e4 cc 3e
       0.0044207005 1.052517 0.036204014 0.40018132
0000f0 d7 65 47 3d 1f 15 09 3f 64 79 3c bf 69 52 24 3f
       0.048681106 0.53547853 -0.7362273 0.6418825
000100 1f 68 9f bb 75 0a 9a be 53 4b 18 3f 00 45 ee 3c
       -0.004864707 -0.30086103 0.59489936 0.029085636
000110 95 cc d1 bc 99 2f c0 bd a6 9c a5 bc be 83 60 3f
       -0.025610248 -0.093840785 -0.020216297 0.8770102
000120 90 83 a4 39 61 d9 53 bc ab b5 c1 bd dc ce c5 3e
       0.0003137854 -0.012930245 -0.094584785 0.38634384
000130 43 18 1b 3f ab 33 f4 bd fa 94 55 3e 8d fc 94 3e
       0.60583895 -0.119239174 0.20857611 0.2909893
000140 12 9f 7f be ca 36 47 be 7a 34 70 3f ca d5 c7 3b
       -0.24963024 -0.19454494 0.9383007 0.0060984837
000150 85 87 9c 3e 04 de 21 3f d8 99 69 bf ed 08 8a 3f
       0.30572143 0.63229394 -0.9125037 1.0783974
000160 4e ad dd be 1e 63 a0 3f cf 0c 45 3f dc a4 93 3e
       -0.43296283 1.2530248 0.7697267 0.28836715
000170 72 0e 35 bd e2 5d 42 3f cc 8c 5c 3e f1 50 1c 3f
       -0.04420323 0.75924504 0.21538085 0.61061007
000180 33 87 44 3f 1b 36 ad 3c 0b 4e e0 3d 9f 46 d6 bd
       0.767688 0.021143964 0.109523855 -0.10462689
000190 3d 52 d7 3e df da 81 3f 39 40 ce 3f b7 cd ca bd
       0.4205493 1.0144919 1.6113349 -0.09902518
0001a0 1e fc 12 bf 7f f5 36 bd 18 05 92 3f 53 57 22 bc
       -0.5741595 -0.044667717 1.1407804 -0.009908515
0001b0 ef c0 b7 39 a3 55 8b be 33 75 be bf 5d ac 8f be
       0.00035048227 -0.27213773 -1.4879516 -0.2806119
0001c0 cd c8 fa 3e 25 88 a8 bc 17 cd af 3f 5b 82 30 3c
       0.48981324 -0.020572731 1.3734463 0.010773267
0001d0 4c 92 b0 3e ce 0e 72 3f 9d 5c 23 3f 40 ea 98 bd
       0.34486616 0.9455384 0.6381319 -0.07466555
0001e0 f7 e8 33 3e 99 0f cc bc 3c fe 86 3f ac 7e ee bd
       0.17569338 -0.024909781 1.0546336 -0.116452545
0001f0 6f 87 8c 3e 28 7b 08 3e ea 40 36 bc 51 4e 7e 3e
       0.27447078 0.1332823 -0.011123875 0.24834563
000200 f3 0d 1e be 61 8e 50 3f bf 8a bc bd fa 83 a4 bd
       -0.15435009 0.8146725 -0.09206151 -0.08032985
000210 65 33 e2 be 5d 38 7f 3f bd 42 5e 3f ec 0b 24 3f
       -0.44179836 0.9969538 0.86820585 0.6408069
000220 a5 a4 9d 3f 0c 27 ab 3e 10 53 7d 3f 46 5b 7c bd
       1.231587 0.33428228 0.9895487 -0.061610483
000230 75 6a 83 3f cc 79 87 bb 17 83 5e 3d e3 c1 b7 be
       1.0266863 -0.0041343924 0.054324236 -0.3589011
000240 02 99 9c 3f
       1.2234194

weight f4 [30, 145]
000000 f5 30 ad 3e c4 54 2b bb 0f 73 da be 29 72 0b bf
       0.33826414 -0.0026143054 -0.42665908 -0.5447107
000010 14 95 27 3e 23 db c7 bc 83 f9 88 be 75 44 dd 3e
       0.16365463 -0.024396485 -0.26752862 0.4321629
000020 ff 96 c4 3d c9 97 53 be 44 74 a6 be 9b bc 96 be
       0.09599113 -0.2066337 -0.3251058 -0.2944077
000030 1d c1 0d bf c0 e8 bb 3e b8 e4 a6 bf 2d 15 a3 be
       -0.5537279 0.36701012 -1.303855 -0.31852093
000040 40 66 c4 bc bf 56 c3 be 70 05 26 bd 8d 22 f4 bd
       -0.023974538 -0.3815212 -0.04053253 -0.119206525
000050 a2 c3 a0 be 81 0d 1b 3e 49 af b9 3e c2 de 96 3d
       -0.31399256 0.1514187 0.36266544 0.073667064
000060 7d 8c 1e bf 5d 5a 23 bd e2 45 ed bd 26 3a e1 be
       -0.6193312 -0.0398811 -0.11585595 -0.43989676
000070 80 f8 16 bf 84 99 25 be a9 f8 0d 3c 1c 0c 83 3e
       -0.5897293 -0.16171843 0.008665242 0.25595176
000080 80 24 3c bf a2 af 8e be d2 2e 80 3e e8 41 51 3e
       -0.73493195 -0.27868372 0.2503572 0.20435297
000090 8c 8d 3e 3e 4a 31 ac be 8e c1 db bd ac 1f be 3e
       0.18608683 -0.33631355 -0.10730277 0.3713354
0000a0 e1 b1 24 be aa fd a2 3c 05 96 5a be 07 a9 06 3f
       -0.1608348 0.019896347 -0.2134629 0.52601665
0000b0 91 94 bb be ed 31 80 bc fb 5b 88 bf 40 6b 8f be
       -0.36636785 -0.015648806 -1.065307 -0.28011513
0000c0 37 e5 5d be 83 bd 91 3c 14 e9 16 3e 0e 9d b7 bd
       -0.2166947 0.017790562 0.1473735 -0.08965503
0000d0 f9 88 40 be 8f 55 99 be d2 c8 c9 be a1 12 a9 be
       -0.18802251 -0.2994809 -0.39411026 -0.33022025
0000e0 c6 4f 62 bd fd 78 69 3e 99 a6 9e 3e 97 0d 42 3e
       -0.05525186 0.2280006 0.3098648 0.18950497
0000f0 48 36 da 3d 9f 26 27 bd 86 7c a8 3d 8e bf 9a be
       0.106548846 -0.040808316 0.08226876 -0.3022427
000100 f9 b1 6b 3e a0 5b f6 3e 83 e9 ac be 02 db 8f be
       0.2301711 0.4811678 -0.33771905 -0.28096777
000110 82 49 08 bd 00 b6 1e bd 30 26 09 3c 6e 15 57 3b
       -0.033273228 -0.038747787 0.008370921 0.003281917
000120 fc 2b 8c bd 2c 92 97 3b b9 36 86 be c3 4d 35 bf
       -0.06844327 0.0046255793 -0.26213625 -0.7082178
000130 e5 e4 68 be 4d 25 33 be 1c d2 84 3f 05 c3 e6 bc
       -0.22743566 -0.17494698 1.037662 -0.028169164
000140 d6 90 ed be 9d e7 02 3e da 49 10 be 4b 36 87 bd
       -0.46399564 0.12783666 -0.14090672 -0.066021524
000150 1d ed 84 3e 62 f3 94 bd 2c 1b a9 3d 5e 5c 87 be
       0.25962153 -0.07272984 0.08257136 -0.26437658
000160 3f e1 11 be a8 2a 05 3f bf dd 17 bf 0d 6b 12 be
       -0.14246081 0.52018213 -0.5932273 -0.14298649
000170 3a 42 b2 bd b8 f7 8e be 49 b7 b9 3e 9d a0 3a be
       -0.08704038 -0.2792337 0.36272648 -0.18225332
000180 97 b1 fb bd b8 5d fa 3d f0 d0 94 be 3b 29 31 bd
       -0.12289732 0.12224907 -0.29065657 -0.04325221
000190 16 9c 61 bf 81 8d 3a bf e4 0f ac 3e 43 04 10 be
       -0.88128793 -0.7287217 0.33605874 -0.14064126
0001a0 30 b0 d5 be 5c 5a aa bc 16 c0 88 bd dd 5a bc 3c
       -0.41735983 -0.02079504 -0.066772625 0.022992546
0001b0 99 d4 92 3b 84 8e 0f 3e 52 d5 55 bd 2c 6f d9 be
       0.00448091 0.14019209 -0.05220539 -0.4246763
0001c0 ba 9e 70 be 82 e2 03 bd 14 67 a3 be 25 6d 88 bd
       -0.2349805 -0.032198437 -0.3191458 -0.06661443
0001d0 ff e8 11 bb c3 f4 a7 3d d9 89 01 bf 00 8b bd bd
       -0.002226412 0.082009815 -0.50600964 -0.09255028
0001e0 ac e6 f3 3d b9 f0 67 bd d7 1d 01 3f b2 88 b0 3c
       0.119092315 -0.056626055 0.50436157 0.021549556
0001f0 96 5b 43 bf 58 74 bf bd 8e 30 15 3c 3c a9 e6 be
       -0.76311624 -0.09348363 0.009105815 -0.4505099
000200 f6 da 7a be d9 f9 0e bf 69 3f 72 be 95 88 83 bd
       -0.2449759 -0.5584999 -0.23657002 -0.06422535
000210 c5 ff ce 3e 5c 7a 02 be cd 41 a1 3c ec ea 54 3e
       0.40429512 -0.12741989 0.019684697 0.2079274
000220 d1 d1 08 be 54 aa 72 3c 9c 05 0c bf 91 0a 01 3d
       -0.13361289 0.014811117 -0.5469606 0.031504218
000230 e8 39 41 bf 17 d7 8c bd 38 ed 92 be 20 0d 1c be
       -0.7547898 -0.06876963 -0.2869661 -0.15239382
000240 8d d5 ef be d0 5c 87 be 50 96 63 bd 2a dc 88 3e
       -0.46842614 -0.26437998 -0.05556327 0.26730472
000250 b7 3e a0 3e 5e 30 b2 bc fe 9e 89 3c 8e 67 bb 3d
       0.31297848 -0.021751579 0.016799446 0.09150611
000260 60 e3 8a be a3 c6 0d bf 85 e7 44 be 63 15 0f be
       -0.27126598 -0.5538122 -0.19228943 -0.13973002
000270 21 d6 15 3d f2 38 77 be d8 2c d2 3d 3e 49 93 bc
       0.036581162 -0.24142817 0.102624595 -0.01797926
000280 a1 a6 63 3e 6f 98 84 be 84 45 98 bc 18 3b 3c 3e
       0.22231533 -0.25897548 -0.018587835 0.18381917
000290 8f c0 af bc 29 9f e9 be 53 95 00 be 75 bf e4 be
       -0.021454124 -0.45629242 -0.12556963 -0.4467732
0002a0 e6 fb 93 bd 97 29 f8 3e 79 31 10 be 3b fc ed 3d
       -0.0722578 0.4846923 -0.14081372 0.11620375
0002b0 8d 96 02 bf c7 fe 17 bf b7 c3 76 3d db 2f be be
       -0.5101097 -0.59373134 0.060245242 -0.37145886
0002c0 5d 4f 83 3e 7c 41 21 3f a8 bf f2 bc b4 91 56 be
       0.25646487 0.62990546 -0.029632404 -0.20954019
0002d0 78 a5 71 bf 75 89 e9 bc 1e 08 be be f9 56 27 bf
       -0.9439311 -0.028507927 -0.37115568 -0.65367085
0002e0 de 61 ed be 65 c4 46 3e 0c 49 6b bd d3 01 7f bd
       -0.4636373 0.19410856 -0.05744271 -0.0622576
0002f0 d4 29 48 be 8e 3b 4b bd c8 74 6a be 1a 71 5c 3f
       -0.19547206 -0.049617343 -0.22896111 0.8611008
000300 16 e7 05 bf 95 92 c0 be fe e9 f5 be 05 a2 60 be
       -0.52305734 -0.37611833 -0.48030084 -0.21936806
000310 d6 83 b2 3c 98 93 b7 be b1 23 c9 3e 4e 5a 9d 3f
       0.02179138 -0.35854793 0.39285043 1.2293184
000320 29 bd db 3e 2c 92 83 bc ac 4a 81 be ac 07 bf be
       0.42917755 -0.016060911 -0.25252283 -0.3731054
000330 08 38 38 bf 97 a8 bd be 1a ef 42 be 36 ba c4 3e
       -0.71960497 -0.37042686 -0.19036523 0.38423318
000340 99 f2 82 bd b1 b2 26 bf 40 1a 1a be e3 81 9c 3c
       -0.06393928 -0.6511641 -0.15049076 0.019104904
000350 83 b0 e7 3e 7e aa 44 bb 2f c9 25 3d f0 4f 87 3d
       0.45251855 -0.0030008848 0.040475067 0.06607044
000360 ff 5b 9e 3e a4 3f 0c 3c d7 59 9b 3d cb 48 e9 bd
       0.30929562 0.008560095 0.07585495 -0.11390837
000370 49 25 8c 3d 23 5f ab be a0 af fe 3e 8a 34 30 bc
       0.06843049 -0.3347102 0.49743366 -0.010754714
000380 00 8b 89 be 0c 14 a3 3e c5 21 83 bf e6 51 90 3e
       -0.2686386 0.31851232 -1.0244681 0.28187484
000390 ba a3 51 3d 00 5c 4b be c9 07 80 be 9c c5 25 bf
       0.051181532 -0.19859314 -0.2500594 -0.6475465
0003a0 b0 9f a3 3e f0 8b 91 be ac c0 d7 be 15 4a ba bd
       0.3195777 -0.28427076 -0.42139184 -0.09096161
0003b0 4f 48 88 be d5 87 8a bb be 0d 6a be 48 3c ac bd
       -0.26617667 -0.004227618 -0.22856805 -0.08409935
0003c0 e1 ed 95 bd fd d5 9d be cb cd a0 bd ef 7d cb be
       -0.073207624 -0.30827323 -0.07851752 -0.39744517
0003d0 82 04 35 3c 96 ff a1 be 57 da 64 3d ee ca ea bd
       0.011048438 -0.3164031 0.055872288 -0.11464487
0003e0 77 7b bf 3c 4d 25 1a bf d3 ea ae bd cf 27 83 3e
       0.023374302 -0.60213166 -0.08540883 0.2561631
0003f0 99 1a 86 3d ea 67 0d bd cc 0a b1 bc 08 ad ac bc
       0.06548042 -0.03452293 -0.021611594 -0.021078601

bias f4 [30]
000000 67 fa 26 3d 37 2f ec 3e 1d 71 06 3f b4 a4 75 3f
       0.040766146 0.46129772 0.5251635 0.9595444
000010 30 ff 83 3f fa b8 2f 3f 03 2b 77 3f 9c f9 4c 3f
       1.0312252 0.68641627 0.96550006 0.80068374
000020 9c 34 a0 3f 36 40 65 3f 21 e1 b2 3f dd 90 53 3f
       1.2516055 0.89551103 1.3974954 0.8264292
000030 51 fc 55 3f 55 bc bf 3f d5 21 bb 3e f3 a7 d2 3e
       0.8358813 1.4979349 0.3654925 0.4114376
000040 3e bd 04 3f f0 9e 2a 3f 3e dc 84 3f 05 52 88 3f
       0.5185126 0.6664877 1.0379713 1.065003
000050 5d 7e b8 bd 9c 3e a4 3f 4a 1b 45 3f d1 66 52 3f
       -0.09008477 1.2831607 0.76994765 0.82188135
000060 8d 9c 96 3d ae 07 19 be 4f 8c 97 3f bd e1 0e be
       0.073540784 -0.14944336 1.1839694 -0.139533
000070 c0 de 8f 3e 2f 0b 45 3f
       0.28099632 0.7697019

weight f4 [10, 30]
000000 62 59 08 3e 5c 66 79 be 20 97 54 3e bd 6c 8e 3e
       0.13315347 -0.24355453 0.20760775 0.27817336
000010 da e1 ef bd 87 2d 46 be 01 03 06 be 52 a6 96 3d
       -0.11713 -0.19353305 -0.13087083 0.07355942
000020 d4 73 de be bb e6 7e be 76 d3 8b be 5d 87 70 be
       -0.43447745 -0.24892704 -0.2730977 -0.23489137
000030 85 d0 ca bb 5a a0 50 3e 74 e2 6e bc bc 2a 6b 3d
       -0.0061894082 0.2037367 -0.014580358 0.0574138
000040 77 2d 09 be 1b 9f 67 be 28 4c 4c 3e b3 bf 80 3e
       -0.1339625 -0.22619288 0.19950926 0.25146255
000050 b4 2e 94 3d 9d 0b e1 3c ea d5 42 be 1f 29 0a 3e
       0.072354704 0.027471358 -0.19026914 0.13492249
000060 aa a1 8f be 77 b4 03 bf 0e 65 6f be 3a 14 b3 bd
       -0.28053027 -0.5144724 -0.23378393 -0.08744092
000070 59 4b 6d 3d 92 93 1d bd 8f 6b 8d be f4 56 d8 be
       0.057933185 -0.038470812 -0.27621123 -0.4225384
000080 91 64 0a 3e 0d 9f be be f1 5e 32 be 33 8c 04 bf
       0.13514926 -0.3723072 -0.1741903 -0.5177643
000090 53 2d 4b be 06 d2 92 3e 42 55 a0 be be 4d b9 3e
       -0.19841509 0.2867586 -0.31315047 0.36192125
0000a0 5d 21 21 be d4 a8 dd bd 33 01 61 3e 0b 90 a0 3d
       -0.15735383 -0.10823217 0.21973114 0.07839974
0000b0 b8 79 28 3e 48 d3 ba be 1d a1 ac 3d 96 d2 7a 3e
       0.16452682 -0.3648932 0.084291674 0.24494395
0000c0 d3 1f 9e be 1c 22 f2 3c 08 44 79 bd b0 67 02 be
       -0.30883655 0.02955728 -0.060855895 -0.12734866
0000d0 c1 00 b3 be e4 09 46 be 03 e7 fc bd 61 0d 97 be
       -0.34961513 -0.1933971 -0.123487495 -0.29502395
0000e0 4c 16 a8 be a7 14 04 3d e6 00 3e 3e 88 b6 cd bd
       -0.3282951 0.032246258 0.1855503 -0.10044581
0000f0 c5 7e a7 be c5 ab c7 be 13 4f 2e 3e c1 3f 8d 3d
       -0.32713905 -0.38998237 0.17022352 0.06896926
000100 d4 b6 41 be d2 b9 cf be 82 e7 35 bc f8 38 45 be
       -0.189174 -0.40571457 -0.011102559 -0.19260013
000110 d0 92 53 3e f2 4c ac bd bc 70 45 be ca bf a9 3c
       0.20661473 -0.08413114 -0.19281286 0.020721335
000120 aa 64 5e be 38 a7 a1 bd 01 e0 48 3e b8 d1 64 3e
       -0.21718088 -0.078932226 0.196167 0.22345626
000130 9d cf d9 3d f5 d2 7c be e4 15 bc ba 9b f0 39 be
       0.10635302 -0.24689849 -0.0014349786 -0.1815819
000140 2f 19 4d bd d8 40 a7 be cb d4 82 3e 86 4d 42 bd
       -0.050072845 -0.3266666 0.25552973 -0.047437213
000150 5b cb 56 bf 75 a5 96 be f1 24 cd bc be b3 a8 bc
       -0.83904046 -0.2942311 -0.02504203 -0.02059352
000160 d3 a0 36 3b 3a e3 73 3e 99 bf f2 bb 95 70 61 be
       0.0027866855 0.23817149 -0.007408094 -0.22015603
000170 93 b4 a6 bd ed 30 19 3e 7c 32 0e 3e 27 3c 08 be
       -0.081399105 0.1496007 0.13886446 -0.13304196
000180 99 80 a9 bd bb 04 05 3d b8 20 80 3d 0f 61 67 3d
       -0.08276481 0.032475214 0.062562406 0.056489047
000190 58 5f 7d 3e 5d a3 03 3e b6 d8 6c be f4 2f 76 be
       0.24743402 0.12855287 -0.23129544 -0.2404173
0001a0 ee 9b 8c be b4 f3 a2 3d 92 1c 15 be 8f 54 44 bb
       -0.27462715 0.07956639 -0.1456168 -0.0029957627
0001b0 1e 38 70 3d 14 71 59 be cd ca 10 3c bd 10 5a be
       0.058647268 -0.21234542 0.008837414 -0.21295448
0001c0 47 e8 1a 3e ca 44 00 bd 22 05 67 be 47 ae ee be
       0.1512767 -0.031315602 -0.22560552 -0.46617338
0001d0 3e cc 52 be 5b 29 4e bd 67 89 21 be 60 10 53 be
       -0.20585725 -0.05033241 -0.15775071 -0.20611715
0001e0 a3 2f cb be 04 d9 92 bd 3b 56 ea bc fd 32 48 3e
       -0.3968478 -0.07170299 -0.028605571 0.195507
0001f0 5a e3 16 be 72 8f 23 be 5f 60 22 3d fe e3 a4 be
       -0.14735165 -0.15972689 0.039642688 -0.32205194
000200 0d c8 cf 3d de 0c d3 3d 19 f9 f6 3d 69 5d c0 be
       0.101455785 0.103051886 0.1205923 -0.37571266
000210 77 23 e7 bd 3f 63 ca 3e 24 36 8d be ca 9f 9d bd
       -0.11286061 0.39528844 -0.2758037 -0.07696493
000220 07 0a ee bd 38 9d 4c be 53 34 1e bb 28 de 9a be
       -0.11623006 -0.19981849 -0.0024140074 -0.30247617
000230 94 53 bc 3d 3d 31 cf bc 85 46 83 3e 27 72 24 be
       0.09195629 -0.025292033 0.2563974 -0.1605917
000240 7e b2 de be 5a c6 d1 3d 6c 96 68 3e 6b 87 8b bc
       -0.43495554 0.10242911 0.22713631 -0.017032346
000250 7b 11 29 be 2c 2e 68 be 41 8f 22 3e fd 96 11 3c
       -0.16510575 -0.22673863 0.1587496 0.008886096
000260 c5 54 48 bd e5 0f c0 3d bb 56 b4 3e e8 fc 07 bf
       -0.048908968 0.09378032 0.3522242 -0.5312028
000270 14 9b da 3d 58 ea 70 3d b5 b0 13 3d 31 f2 13 be
       0.1067411 0.058817238 0.036057193 -0.14447857
000280 35 09 21 3e f6 0c ea bc 01 d5 a0 be 20 2c e9 bd
       0.15726168 -0.028570633 -0.3141251 -0.11385369
000290 16 84 a5 be d9 e1 fc bd ce ba 9a 3e 91 28 6a be
       -0.32327336 -0.123477645 0.30220646 -0.22867037
0002a0 bd ea 87 be 24 08 a8 be 5c 88 c1 3d 70 b7 a9 be
       -0.2654628 -0.3281871 0.094498366 -0.33147764
0002b0 aa 27 79 3e 9b 1a 46 be ee 5c 16 bf 4e 3a 71 be
       0.24331537 -0.19346087 -0.5873555 -0.23557398
0002c0 25 3f 07 be 2f 79 4c be 76 36 93 3d 99 30 a4 3c
       -0.13207681 -0.19968103 0.07188122 0.020042704
0002d0 88 7d 3c be 3f eb 7b be 91 86 55 be f1 92 a9 be
       -0.18407261 -0.24601458 -0.20852114 -0.3311992
0002e0 61 af 59 3d 29 fa 93 be 1c 99 80 3e 30 44 d6 3d
       0.05314577 -0.28901795 0.25116813 0.104622245
0002f0 2b c5 aa 3e 01 e9 d6 bc a7 1a d6 3d f4 2d b4 be
       0.33353552 -0.026234152 0.10454302 -0.3519131
000300 40 65 08 3e 9c 6c 40 3e f9 e6 80 be f2 68 37 3e
       0.13319874 0.18791431 -0.25176218 0.17911127
000310 98 a7 94 bd 0f 95 67 be 1a ee 5e 3d 8f 0a 1e bc
       -0.072585285 -0.22615455 0.05442629 -0.009646072
000320 f2 79 8f bd 0c c7 f4 be 46 37 d5 bb bf 8b f8 3c
       -0.07005681 -0.4780811 -0.0065068332 0.030340074
000330 70 e1 ae be 3a 0a bd be 9e 7e ff bd 49 7a 1a be
       -0.3415637 -0.36921865 -0.12475322 -0.1508571
000340 1e 49 d3 be 59 ef 2a 3e 62 65 bd be e3 5e 94 3e
       -0.4126672 0.16692866 -0.3699141 0.28978643
000350 e1 2b 3c 3d 80 d7 ba bd 88 f7 84 3e 89 be d1 be
       0.045940284 -0.091231346 0.259701 -0.4096568
000360 2c d5 02 bd f8 f0 f0 be 18 ab 04 ba e8 5b f3 bd
       -0.031941578 -0.47058845 -0.00050608953 -0.11882764
000370 1a bf 8f be 6c 42 3f 3e a9 6d 21 3e 26 4f 85 be
       -0.28075486 0.18677682 0.15764488 -0.26036948
000380 ca 47 43 be 4b c2 55 be 7f fd 25 bd 33 be 27 be
       -0.19070354 -0.20874898 -0.040524956 -0.16381149
000390 b8 39 b4 be 30 e9 d5 3c cd 06 18 3e 0b 56 17 3d
       -0.35200286 0.026112169 0.14846344 0.03694729
0003a0 03 e8 22 3d 9b 17 d5 ba 2c af 8e bc 93 d6 87 be
       0.039772045 -0.0016257645 -0.017417513 -0.26530895
0003b0 2e 8e 7e 3e d2 16 06 be f0 b0 3b be 7f 65 20 be
       0.24858925 -0.13094643 -0.18329215 -0.15663718
0003c0 da 1c 84 be 17 90 bf be 4a 52 9a be bb a6 bd bd
       -0.25803262 -0.3741462 -0.30140907 -0.09260317
0003d0 b9 e9 e5 be 91 b4 7d 3e 62 72 20 be 7e 77 2f be
       -0.4490488 0.24775912 -0.15668634 -0.17135426
0003e0 7a 8b de be 6c 9e 93 be 88 ea 95 3d 7f da 97 3a
       -0.43465787 -0.28831804 0.07320124 0.0011585503
0003f0 95 b1 06 be d3 df 7b 3e 48 e9 e2 bc 2e 22 60 3e
       -0.1315368 0.24597101 -0.027699128 0.21888039

bias f4 [10]
000000 79 73 0a 3d ee d0 14 bf c0 3b eb be 3a 07 38 3e
       0.03380153 -0.581313 -0.45944023 0.17971507
000010 45 cc 15 3f 69 03 69 3e 8b 96 ef bd 67 a3 8c 3e
       0.58514816 0.22755207 -0.11698636 0.27468416
000020 e9 49 8a 3d 4d c7 0b be
       0.067523785 -0.13650246
