Project_1/Part2/checkpoints/cnn_2_10.pth (torch, 911555 bytes, 16 tensors)

weight f4 [32, 3, 4, 4]
0.15846963 -0.030085143 -0.14584869 -0.1786919 -0.1701729 -0.1623815 -0.20511033 0.24649419
-0.08805843 -0.05965546 0.24317238 -0.014622393 0.06840112 0.11451507 0.18915921 0.07285165
0.12240645 0.113169946 -0.1255586 -0.07402196 -0.074077055 -0.29307875 0.09284178 0.27154255
-0.12291527 -0.0639559 0.08405275 0.06032324 0.054096207 0.15623735 -0.101345316 -0.09690088
0.12636663 -0.051339936 -0.23001331 -0.11843613 -0.15473458 -0.21128842 -0.20569956 0.111260064
-0.16172493 0.08927211 0.2142133 0.08986328 0.08745796 0.19180596 0.13955969 -0.013143284
0.13229516 0.2588656 -0.112083055 -0.08578317 0.26649046 -0.31735006 -0.23073152 0.08813326
-0.064699166 -0.15280443 0.12483569 0.06501488 0.0070710266 0.0488674 0.029311517 -0.1276877
0.0718976 0.18929651 -0.17927496 -0.06908677 0.07742154 -0.26831666 -0.056435872 0.15694867
-0.10403321 -0.20316885 0.12393256 0.121312924 -0.07103044 0.09366672 0.124381796 -0.08392407
0.011378921 -0.048033256 -0.20970806 0.0060328343 0.11135614 -0.23960993 -0.083698295 0.20988226
-0.1344331 -0.03750483 0.19387117 0.06630387 -0.08366078 0.0801569 0.19408046 -0.111808576
-0.2819355 -0.30438915 -0.005939245 0.10182621 -0.24313346 0.15174694 0.024663707 0.08497971
-0.09015876 -0.06304691 -0.0284171 0.05651398 -0.027664686 0.05772395 0.16107388 0.2690267
0.07111425 0.19052567 0.13524558 -0.0973431 0.18372408 0.20193627 0.20141573 -0.18687001
0.15166886 0.08400072 -0.28311348 -0.30437353 0.017420037 -0.11445249 -0.037035853 -0.146094
0.06374217 -0.07042536 -0.0707811 -0.024273302 0.08082541 0.14310552 0.10576723 -0.0054905405
0.16348313 -0.05097154 -0.2690031 -0.06409501 -0.055342603 -0.14021376 -0.059488133 0.16616826
0.018002488 0.25684378 0.1486916 0.17681119 0.075600214 0.057478476 -0.09440927 -0.024385964
0.044853594 0.0013602843 -0.13867572 -0.0010513564 0.16712058 -0.06149077 0.11911909 -0.027172053
0.04071531 0.113766596 0.24065903 0.13886705 0.07162745 -0.011102188 -0.22570866 0.004336906
0.09793301 -0.200811 -0.11145475 -0.00016226985 -0.040354725 0.039120585 -0.2130373 0.029072586
0.294132 0.34285873 0.3500772 0.30520612 0.16141528 -0.068589486 0.096163824 0.020055827
-0.15668634 -0.1138545 -0.04937817 -0.20206715 -0.10612179 -0.18098336 -0.21806139 -0.18278535
-0.05021194 -0.03936769 0.124384105 0.108767286 -0.1496576 -0.049954887 0.23843993 -0.070553355
0.04400129 0.2597068 -0.018674226 -0.124994434 0.013337007 -0.11614614 -0.10614375 0.027763037
0.0111811105 -0.014347995 -0.0062232506 0.23883507 -0.062125903 -0.06940555 0.2543999 -0.03419715
-0.012594914 0.13606352 -0.06394949 -0.15551472 0.13518246 -0.015266966 -0.2670458 -0.078292854
-0.15655132 -0.19508065 -0.18070576 0.0071417396 -0.1530947 0.037989173 0.20370246 -0.00712904
0.19893824 0.2993782 -0.033435706 -0.19570161 0.33492926 -0.06663832 -0.022301616 -0.099978
0.18132982 0.149258 0.12387836 0.1727361 0.0282603 0.005289235 -0.043470554 0.06689731
-0.11292428 0.18504642 0.20724711 0.124473654 -0.17065653 -0.2331503 -0.33569488 -0.26293045
00000000: dd45 223e 1e75 f6bc 5c59 15be 02fb 36be
00000010: ce41 2ebe 5647 26be 7108 52be f968 7c3e
00000020: fa57 b4bd 4959 74bd 2e02 793e c392 6fbc
00000030: e315 8c3d e186 ea3d f4b2 413e 3f33 953d
00000040: 3cb0 fa3d a5c5 e73d 6f92 00be d398 97bd
00000050: b6b5 97bd 6b0e 96be d523 be3d a007 8b3e
00000060: 00bb fbbd 50fb 82bd d923 ac3d 8015 773d
00000070: fc93 5d3d affc 1f3e 228e cfbd f873 c6bd
00000080: 4166 013e d349 52bd 9c88 6bbe a48e f2bd
00000090: be72 1ebe fe5b 58be e8a2 52be 51dc e33d
000000a0: 389b 25be 4cd4 b63d bb5a 5b3e 3d0a b83d
000000b0: 291d b33d c868 443e bce8 0e3e ee56 57bc
000000c0: 6278 073e 088a 843e cd8b e5bd 16af afbd
000000d0: 7071 883e b57b a2be e244 6cbe 367f b43d
000000e0: ff80 84bd c478 1cbe dba9 ff3d 8526 853d
000000f0: 12b4 e73b 2f29 483d b51e f03c 90c0 02be
00000100: 0d3f 933d f2d6 413e db93 37be 5d7d 8dbd
00000110: 2f8f 9e3d cd60 89be 4d29 67bd 27b7 203e
00000120: 5d0f d5bd 7f0b 50be 5bd0 fd3d e972 f83d
00000130: 6878 91bd 56d4 bf3d e2bb fe3d 62e0 abbd
00000140: a76e 3a3c 85be 44bd b6bd 56be 15af c53b
00000150: b00e e43d 4e5c 75be 036a abbd 60eb 563e
00000160: d5a8 09be aa9e 19bd 2a86 463e 53ca 873d
00000170: 5856 abbd 4d29 a43d 07bd 463e e5fb e4bd
00000180: da59 90be e5d8 9bbe 009e c2bb 438a d03d
00000190: faf7 78be 8d63 1b3e 8b0b ca3c d809 ae3d
000001a0: 28a5 b8bd bd1e 81bd faca e8bc 347b 673d
000001b0: 0da1 e2bc f36f 6c3d 8df0 243e debd 893e
000001c0: 59a4 913d 2919 433e d17d 0a3e d25b c7bd
000001d0: 2a22 3c3e 62c8 4e3e ed3f 4e3e da5a 3fbe
000001e0: 154f 1b3e 9208 ac3d 40f4 90be d9d6 9bbe
000001f0: 77b4 8e3c 1166 eabd e8b2 17bd aa99 15be
00000200: 418b 823d 2c3b 90bd aef5 90bd ced8 c6bc
00000210: cb87 a53d 418a 123e 7d9c d83d fee9 b3bb
00000220: 1f68 273e 89c7 50bd c6ba 89be 3f44 83bd
00000230: edae 62bd 3294 0fbe d4a9 73bd 0328 2a3e
00000240: f479 933c 0781 833e 9c42 183e fe0d 353e
00000250: 49d4 9a3d 8d6e 6b3d a659 c1bd 13c5 c7bc
00000260: 67b8 373d 914b b23a 0201 0ebe abcd 89ba
00000270: a821 2b3e bfdd 7bbd b6f4 f33d ed97 debc
00000280: 19c5 263d 76fe e83d 526f 763e 2a33 0e3e
00000290: 6ab1 923d f4e5 35bc 2c20 67be 9b1c 8e3b
000002a0: 1a91 c83d 66a1 4dbe 6342 e4bd fb26 2ab9
000002b0: ff4a 25bd e83c 203d 7326 5abe a229 ee3c
000002c0: 7898 963e 2e8b af3e 523d b33e fa43 9c3e
000002d0: 0c4a 253e a578 8cbd 8af1 c43d 1e4c a43c
000002e0: 6272 20be 8c2c e9bd c440 4abd b1ea 4ebe
000002f0: 6256 d9bd b453 39be 7c4b 5fbe 152c 3bbe
00000300: 09ab 4dbd 0440 21bd 18bd fe3d 62c1 de3d
00000310: d83f 19be 7f9d 4cbd 9929 743e 477e 90bd
00000320: b23a 343d 4af8 843e b1fa 98bc 15fd ffbd
00000330: 7683 5a3c 07de edbd e561 d9bd 4f6f e33c
00000340: fa30 373c da13 6bbc 69ec cbbb 2e91 743e
00000350: bb77 7ebd 7f24 8ebd b440 823e 5012 0cbd
00000360: e65a 4ebc 3c54 0b3e f3f7 82bd 403f 1fbe
00000370: 456d 0a3e 4c22 7abc 3aba 88be 0158 a0bd
00000380: fd4e 20be 39c3 47be ee0a 39be 4105 ea3b
00000390: dbc4 1cbe 899a 1b3d 6197 503e b99a e9bb
000003a0: 77b6 4b3e 1948 993e e1f3 08bd 0166 48be
000003b0: d97b ab3e ac79 88bd e1b1 b6bc 44c1 ccbd
000003c0: 86ae 393e 17d7 183e f0b3 fd3d bbe1 303e
000003d0: 2582 e73c 5251 ad3b 2e0e 32bd 7501 893d
000003e0: d844 e7bd cf7c 3d3e 9638 543e 0bec fe3d
000003f0: 96c0 2ebe f4be 6ebe 33e0 abbe d29e 86be

bias f4 [32]
0.10153766 -0.023140604 0.15029572 -0.10814997 -0.14096275 0.048368514 -0.000841674 -0.07771961
-0.06695393 -0.014311129 0.050559107 -0.05569915 -0.22754864 -0.115083724 0.082934454 -0.10157125
-0.06795276 0.16672176 -0.14692295 0.07718643 0.015546029 -0.085137166 0.03771108 -0.044509284
0.06655728 0.111061364 -0.057170384 0.10191945 -0.111511655 -0.17780243 0.019722903 -0.11077615
00000000: faf2 cf3d 5d91 bdbc 1fe7 193e bb7d ddbd
00000010: 8a58 10be 101e 463d c9a3 5cba 752b 9fbd
00000020: 241f 89bd 3a79 6abc 1117 4f3d cb24 64bd
00000030: 8302 69be 04b1 ebbd 8ad9 a93d 9604 d0bd
00000040: d12a 8bbd 1cb9 2a3e f872 16be eb13 9e3d
00000050: c6b4 7e3c 655c aebd ef76 1a3d 5e4f 36bd
00000060: 2f4f 883d 2474 e33d 7e2b 6abd 25bb d03d
00000070: 3960 e4bd d711 36be ed91 a13c 9bde e2bd

weight f4 [32]
0.93804055 1.0795238 0.97155553 0.8356432 0.8779773 0.9320799 1.0861642 0.95235884
0.91687095 1.1763843 0.64505863 0.8926789 0.99082893 0.8106322 1.0202119 0.9732095
0.81583375 0.96844417 0.9088133 0.8350151 0.9702919 1.0952094 0.8118464 0.93438596
0.8302667 0.935787 0.92705595 0.95786136 0.99237293 1.1088293 1.2299145 0.93086267
00000000: 6d23 703f d62d 8a3f ddb7 783f b6ec 553f
00000010: 1fc3 603f ca9c 6e3f 6e07 8b3f cacd 733f
00000020: 0eb8 6a3f c393 963f 9022 253f 9b86 643f
00000030: f7a6 7d3f 9885 4f3f 4e96 823f 4224 793f
00000040: 7bda 503f f5eb 773f fda7 683f 8dc3 553f
00000050: 0d65 783f d22f 8c3f 2ad5 4f3f eb33 6f3f
00000060: 5c8c 543f bd8f 6f3f 8a53 6d3f 6736 753f
00000070: 270c 7e3f 1eee 8d3f d76d 9d3f 044d 6e3f

bias f4 [32]
-0.22352137 -0.4926061 -0.4920642 -0.3445967 -0.41611227 -0.24369496 -0.5865814 -0.39603487
-0.18800104 -0.28023857 -0.1596568 -0.44455576 -0.45479125 -0.41102505 -0.097977 -0.27166954
-0.108389005 -0.46754044 -0.3530254 -0.21137874 -0.07421277 -0.14494374 0.22393344 -0.3746623
-0.42486003 -0.15914015 -0.18671295 -0.32352766 -0.65031624 -0.4213216 -0.33364597 -0.25497153
00000000: c9e2 64be de36 fcbe d7ef fbbe fb6e b0be
00000010: ab0c d5be 2c8b 79be 332a 16bf 15c5 cabe
00000020: 5883 40be 6e7b 8fbe 127d 23be d09c e3be
00000030: 66da e8be e071 d2be 2aa8 c8bd 4518 8bbe
00000040: 0efb ddbd 7661 efbe bfbf b4be ab73 58be
00000050: ddfc 97bd 226c 14be cf4e 653e bdd3 bfbe
00000060: 4187 d9be a3f5 22be ae31 3fbe 6ba5 a5be
00000070: 207b 26bf 77b7 d7be a5d3 aabe a18b 82be

running_mean f4 [32]
0.09999617 -0.014336117 0.16220309 -0.124333285 -0.14384052 0.07777544 -0.037542894 -0.08331059
-0.05959293 -0.016670559 0.004096047 -0.059511412 -0.21790889 -0.18026322 0.11661023 -0.092175566
-0.07084904 0.14805257 -0.11140072 -0.05939198 -0.12229407 -0.084187455 -0.07577237 -0.05915177
0.18997951 0.14681996 -0.08968894 0.088174604 -0.05635958 -0.17282015 0.020422595 -0.08323052
00000000: cbca cc3d 08e2 6abc 9118 263e 73a2 febd
00000010: ee4a 13be bb48 9f3d 94c6 19bd be9e aabd
00000020: b717 74bd b290 88bc 2238 863b 3dc2 73bd
00000030: 8223 5fbe ec96 38be 58d1 ee3d 8bc6 bcbd
00000040: 4d19 91bd 189b 173e 1026 e4bd 0145 73bd
00000050: 5075 fabd 796a acbd 8b2e 9bbd 2049 72bd
00000060: fd89 423e f957 163e d6ae b7bd e394 b43d
00000070: 4ed9 66bd c4f7 30be 494d a73c c374 aabd

running_var f4 [32]
0.15682244 0.06951361 0.035655864 0.56932455 0.07571339 0.46756727 0.44402584 0.0760024
0.16286263 0.044303775 0.12373376 0.062568 0.021161733 0.09212188 0.05596225 0.11305843
0.15135376 0.089744516 0.18494861 0.75546247 0.3837012 0.418872 0.32811558 0.0967431
0.3005005 0.066821694 0.09824488 0.351049 0.63798213 0.053691894 0.033667065 0.4554324
00000000: 1096 203e 275d 8e3d e20b 123d 41bf 113f
00000010: 9f0f 9b3d fa64 ef3e 5b57 e33e 25a7 9b3d
00000020: 76c5 263e e077 353d 2068 fd3d a723 803d
00000030: 5f5b ad3c 65aa bc3d ac38 653d 2e8b e73d
00000040: 7bfc 1a3e f9cb b73d 2b63 3d3e fd65 413f
00000050: 7c74 c43e 6476 d63e c4fe a73e 3f21 c63d
00000060: 34db 993e d0d9 883d 9d34 c93d b2bc b33e
00000070: cc52 233f 08ec 5b3d 7ae6 093d 6f2e e93e

weight f4 [32, 32, 4, 4]
0.05720139 0.019407688 -0.02335367 0.056427464 -0.22351259 -0.21721832 -0.04504036 -0.12852503
-0.1134144 -0.18521068 -0.17629668 0.06785258 -0.113942236 -0.22852786 -0.008088103 0.19182405
0.09374052 0.1703873 0.21183091 0.03837859 0.002097285 0.019409273 0.07699751 -0.022288729
-0.040354267 0.067745216 -0.050628457 0.11184667 0.0011887073 -0.011372707 0.07783614 0.1674854
0.06675574 0.08842082 0.052591085 -0.060982045 0.003917418 0.11719037 -0.05162746 0.11490469
0.013431134 -0.02148165 0.00012534871 -0.10757008 0.07036762 0.066739954 0.11241286 0.17455967
0.07810378 0.28905013 0.15855771 0.01566283 0.01446202 0.041780952 -0.11241457 0.09019238
0.059910048 -0.2475008 -0.2949946 -0.0033932033 -0.029980365 -0.2848017 -0.07226684 0.0052021947
-0.035208456 0.143361 -0.038587708 0.019005205 -0.14112121 -0.05786022 -0.12701161 0.06756719
-0.1753531 -0.16569228 -0.2069818 -0.08610124 -0.22054048 -0.020565731 0.004136079 -0.053913504
-0.0015031397 0.03700071 -0.0066298083 0.0030315802 -0.09892916 -0.25057673 -0.19219571 -0.06163489
-0.10356766 -0.25637734 -0.1767715 -0.06105909 0.114136025 -0.025704974 0.087591566 0.14540805
0.056612402 -0.25318822 -0.13231187 0.062772475 -0.47892952 -0.65836364 -0.68860257 -0.25108975
-0.22637542 -0.47028232 -0.4318088 -0.028871998 -0.008627604 -0.29438508 -0.14186946 0.19136576
0.1424579 -0.048019033 -0.15441644 0.006652787 0.11501108 -0.12078185 -0.16797403 0.08827021
0.029040528 -0.24606395 -0.22738297 0.07057998 0.17380115 -0.01912691 0.08300672 0.3033503
0.057577737 0.055458155 0.028467683 0.04851877 0.011249684 -0.04911309 -0.12074454 0.12693773
-0.07914723 -0.28617668 -0.25702637 0.10917037 0.09662115 -0.15969221 0.054243222 0.25584796
0.14417464 0.063243136 -0.041311745 0.15141295 0.19662547 0.1531668 0.28081065 0.18943691
0.24593486 0.3203183 0.09824637 0.15824832 0.276853 0.077174164 0.022790257 0.13183834
-0.09415907 -0.048020247 0.02241528 0.027970944 -0.1813221 -0.0833073 0.03814949 -0.046025053
-0.10069104 -0.07220716 -0.15565425 -0.032500718 -0.067694105 -0.008359227 0.0067225145 0.017554238
0.038656022 -0.088456266 -0.093572594 -0.055603772 -0.06735447 -0.048663348 -0.115240924 -0.04933813
-0.21621415 -0.27231222 -0.21417372 -0.12682633 0.06981347 0.042863443 0.03333583 0.11381266
-0.013674425 0.03314597 -0.008718358 -0.021249373 0.0147207705 -0.09608795 -0.1547766 -0.12590872
-0.08654455 -0.21305777 -0.17624545 0.0023839485 -0.039889492 0.13536876 0.21850428 0.14702635
0.13724795 0.035240475 0.014381164 0.10117998 0.0040014004 -0.11368803 -0.0063455906 -0.06777364
-0.04063457 -0.24578723 -0.15456891 -0.095130056 -0.038930714 -0.01564678 -0.14422561 -0.09762206
0.11656564 -0.011411147 -0.20129982 -0.09980339 0.10571758 -0.15099497 -0.17402719 0.020947132
0.17625898 -0.095404916 -0.058158863 0.104829445 0.1914568 0.109268166 0.013069807 0.10569842
-0.066539936 0.025877926 0.06794061 0.07651798 -0.02214673 0.009216502 0.23448254 0.037270304
0.03453133 0.16512449 0.17503059 0.0802663 0.19507603 0.13698013 0.24370207 -0.01419395
00000000: 014c 6a3d dffc 9e3c 3250 bfbc 7c20 673d
00000010: 7ce0 64be 7b6e 5ebe 3e7c 38bd 119c 03be
00000020: cf45 e8bd dea7 3dbe 1e87 34be 4bf6 8a3d
00000030: 8c5a e9bd 3503 6abe f683 04bc 866d 443e
00000040: 08fb bf3d 027a 2e3e 34ea 583e de32 1d3d
00000050: 9a72 093b 3200 9f3c dfb0 9d3d da96 b6bc
00000060: 844a 25bd 01be 8a3d c95f 4fbd de0f e53d
00000070: 66ce 9b3a 9754 3abc 8e68 9f3d 4b81 2b3e
00000080: 3cb7 883d fa15 b53d c069 573d 4fc8 79bd
00000090: af5d 803b 8101 f03d 5177 53bd 2653 eb3d
000000a0: 420e 5c3c 49fa afbc 0a70 0339 b44d dcbd
000000b0: e61c 903d f5ae 883d b738 e63d c5bf 323e
000000c0: e0f4 9f3d 61fe 933e f45c 223e 564f 803c
000000d0: 1cf2 6c3c 8122 2b3d 9c39 e6bd c8b6 b83d
000000e0: 3d64 753d da70 7dbe 8809 97be 8160 5ebb
000000f0: 6299 f5bc 87d1 91be a300 94bd 2c77 aa3b
00000100: be36 10bd 3acd 123e 250e 1ebd ceb0 9b3c
00000110: 1482 10be d7fe 6cbd 550f 02be ab60 8a3d
00000120: c38f 33be 3dab 29be 09f3 53be d955 b0bd
00000130: 5dd5 61be 7779 a8bc f287 873b 68d4 5cbd
00000140: 0005 c5ba 0e8e 173d dd3e d9bb 7aad 463b
00000150: 5f9b cabd 984b 80be f4ce 44be de74 7cbd
00000160: 481b d4bd e443 83be 9703 35be 1919 7abd
00000170: 26c0 e93d 3d93 d2bc 3563 b33d d9e5 143e
00000180: 68e2 673d e3a1 81be c37c 07be db8e 803d
00000190: 4036 f5be 858a 28bf 4248 30bf d68e 80be
000001a0: f5ce 67be d8c8 f0be 0b16 ddbe f884 ecbc
000001b0: cb5a 0dbc a4b9 96be 3a46 11be 63f5 433e
000001c0: 7ce0 113e 9baf 44bd 581f 1ebe 9fff d93b
000001d0: ee8a eb3d 795c f7bd 6201 2cbe 03c7 b43d
000001e0: 67e6 ed3c 30f8 7bbe 15d7 68be 3d8c 903d
000001f0: eef8 313e 0ab0 9cbc 6dff a93d bb50 9b3e
00000200: a2d6 6b3d 1728 633d 0f35 e93c 9ebb 463d
00000210: 9850 383c cf2a 49bd ea48 f7bd f7fb 013e
00000220: f117 a2bd c085 92be f698 83be b794 df3d
00000230: 4fe1 c53d 5b86 23be 242e 5e3d 81fe 823e
00000240: 84a2 133e 9e85 813d 8136 29bd ff0b 1b3e
00000250: 3058 493e c2d7 1c3e 6ac6 8f3e c0fb 413e
00000260: 59d6 7b3e c300 a43e 6535 c93d d90b 223e
00000270: adbf 8d3e 7d0d 9e3d a2b2 ba3c a100 073e
00000280: 78d6 c0bd e1b0 44bd 40a0 b73c 5223 e53c
00000290: 80ac 39be 059d aabd a442 1c3d c484 3cbd
000002a0: 1b37 cebd 59e1 93bd d463 1fbe 791f 05bd
000002b0: 35a3 8abd 24f5 08bc 8a48 dc3b e8cd 8f3c
000002c0: c755 1e3d 8f28 b5bd fda2 bfbd c8c0 63bd
000002d0: 24f1 89bd 3853 47bd 6f03 ecbd c716 4abd
000002e0: 3e67 5dbe 826c 8bbe 5b50 5bbe c3de 01be
000002f0: 5dfa 8e3d 9491 2f3d 278b 083d 9d16 e93d
00000300: b20a 60bc 12c4 073d 72d7 0ebc 2a13 aebc
00000310: 632f 713c c2c9 c4bd c27d 1ebe 37ee 00be
00000320: 453e b1bd d12b 5abe b079 34be 053c 1c3b
00000330: 2a63 23bd 1c9e 0a3e 96bf 5f3e 138e 163e
00000340: ba8a 0c3e 5158 103d f99e 6b3c 7337 cf3d
00000350: 2e1e 833b 45d5 e8bd acee cfbb e8cc 8abd
00000360: 6f70 26bd a6af 7bbe 5047 1ebe 8cd3 c2bd
00000370: d075 1fbd ad2d 80bc e1af 13be 13ee c7bd
00000380: f7b9 ee3d d2f5 3abc 8a21 4ebe b865 ccbd
00000390: 7582 d83d 6d9e 1abe 2f34 32be 5299 ab3c
000003a0: 3c7d 343e a763 c3bd fd37 6ebd d2b0 d63d
000003b0: 400d 443e fdc7 df3d be22 563c 6a78 d83d
000003c0: 1746 88bd f2fd d33c 7224 8b3d 75b5 9c3d
000003d0: 0f6d b5bc d000 173c 311c 703e bfa8 183d
000003e0: b970 0d3d 6516 293e 383b 333e a862 a43d
000003f0: 03c2 473e 8544 0c3e 098d 793e be8d 68bc

bias f4 [32]
-0.06736173 -0.053463176 -0.10801133 -0.0028519004 0.0032936623 0.031813662 -0.056894135 -0.042887524
-0.05181873 0.034727465 -0.024813188 -0.065805934 -0.05234075 -0.062138204 -0.03845534 -0.041314077
-0.046749335 -0.10314509 -0.036872413 -0.04748504 -0.06318036 -0.041145578 -0.07535939 -0.1573894
-0.05956816 -0.04214438 -0.020123934 0.043371685 -0.11705486 -0.012036604 -0.082692966 -0.062596306
00000000: f2f4 89bd 34fc 5abd 0b35 ddbd f3e6 3abb
00000010: 7cda 573b 0b4f 023d d309 69bd d4aa 2fbd
00000020: e03f 54bd 633e 0e3d 0745 cbbc 43c5 86bd
00000030: 4163 56bd a184 7ebd 5983 1dbd f338 29bd
00000040: 3b7c 3fbd bc3d d3bd 8707 17bd ac7f 42bd
00000050: b464 81bd 4488 28bd 0656 9abd b02a 21be
00000060: befd 73bd 969f 2cbd f3da a4bc 82a6 313d
00000070: 75ba efbd 2d35 45bc ee5a a9bd 7e32 80bd

weight f4 [32]
0.7808911 1.0215361 0.81035924 0.9206324 0.75305754 0.8031508 0.9219402 0.94100785
0.9162534 0.87438613 0.9392522 1.041991 0.8030611 1.0220177 0.9425157 0.78158027
1.0182579 0.7581146 0.7406127 0.76057816 0.8019673 0.7615282 0.804817 0.87445295
0.86983067 1.0251855 0.933326 0.8251434 0.80244267 0.84496284 0.74945426 0.9424788
00000000: 7be8 473f b2c1 823f b473 4f3f 91ae 6b3f
00000010: 61c8 403f 4a9b 4d3f 4604 6c3f e4e5 703f
00000020: 958f 6a3f c5d7 5f3f d572 703f f65f 853f
00000030: 6a95 4d3f 7ad1 823f b548 713f a515 483f
00000040: 4656 823f cc13 423f cb98 3d3f 40b5 423f
00000050: bb4d 4d3f 83f3 423f 7d08 4e3f 26dc 5f3f
00000060: 39ad 5e3f 4739 833f 74ee 6e3f 993c 533f
00000070: e26c 4d3f 7c4f 583f 3cdc 3f3f 4a46 713f

bias f4 [32]
-0.30260858 -0.5438367 -0.41477564 -0.6246021 -0.40235698 -0.37511477 -0.5918023 -0.62977916
-0.51102775 -0.6524654 -0.49879417 -0.60447633 -0.5243449 -0.49779654 -0.5647649 -0.4008904
-0.580232 -0.2598232 -0.2528659 -0.44813734 -0.5104867 -0.44247836 -0.3592657 -0.4448126
-0.4963205 -0.6406573 -0.6208825 -0.58081526 -0.33160257 -0.5005798 -0.37511754 -0.5586055
00000000: 83ef 9abe e238 0bbf 795d d4be ece5 1fbf
00000010: bc01 cebe 0b0f c0be 5b80 17bf 3539 21bf
00000020: b7d2 02bf f907 27bf f361 ffbe f6be 1abf
00000030: 783b 06bf 30df febe 6f94 10bf 8241 cdbe
00000040: 168a 14bf 8c07 85be a477 81be 4272 e5be
00000050: 42af 02bf 868c e2be adf1 b7be 7abe e3be
00000060: b81d febe 1e02 24bf 28f2 1ebf 4fb0 14bf
00000070: d0c7 a9be ff25 00bf 680f c0be c500 0fbf

running_mean f4 [32]
-1.1749287 -7.575284 -4.40465 -1.675925 -0.5473895 -1.6132145 -7.8775063 -3.1114004
-7.5757723 1.7405806 -3.713375 -12.148593 -0.61930406 -3.3961456 -4.247997 -2.473099
-5.367366 -8.902396 -3.017086 -2.2492878 -2.2771902 0.1685779 -4.950373 -3.8797786
-3.8700259 -3.567079 -3.018709 -2.1055858 -4.4726925 -1.4046218 -2.3398554 -2.2280188
00000000: 1064 96bf ba68 f2c0 e5f2 8cc0 b684 d6bf
00000010: b821 0cbf d07d cebf 8814 fcc0 2f21 47c0
00000020: ba6c f2c0 58cb de3f f0a7 6dc0 a360 42c1
00000030: b68a 1ebf 735a 59c0 97ef 87c0 4147 1ec0
00000040: 76c1 abc0 3770 0ec1 f017 41c0 55f4 0fc0
00000050: 7cbd 11c0 af9f 2c3e 7569 9ec0 4b4e 78c0
00000060: 81ae 77c0 064b 64c0 8732 41c0 ebc1 06c0
00000070: 4c20 8fc0 a6ca b3bf 31c0 15c0 dc97 0ec0

running_var f4 [32]
25.26415 49.47693 20.128584 21.775923 27.767263 23.553259 43.15604 29.321444
47.581116 18.486155 31.683098 67.54304 20.671219 22.099028 23.597996 19.049698
46.35988 37.737896 28.41423 20.562645 16.413094 18.342968 31.80675 16.236269
28.668516 20.264414 25.830103 20.34289 28.602198 19.947872 18.409008 25.773762
00000000: fb1c ca41 60e8 4542 5707 a141 1735 ae41
00000010: 5b23 de41 136d bc41 c99f 2c42 5192 ea41
00000020: 1053 3e42 a5e3 9341 fc76 fd41 0916 8742
00000030: a85e a541 cfca b041 b2c8 bc41 c865 9841
00000040: 8470 3942 9bf3 1642 5850 e341 4c80 a441
00000050: 044e 8341 66be 9241 3974 fe41 e1e3 8141
00000060: 1f59 e541 851d a241 0da4 ce41 3dbe a241
00000070: 4dd1 e441 3e95 9f41 a645 9341 aa30 ce41

weight f4 [256, 800]
0.00825165 -0.053596403 -0.06234606 -0.037893802 0.025748964 -0.0070451344 -0.01037853 0.020137815
-0.023668377 -0.055332467 -0.020486323 -0.013105881 -0.06629391 -0.05811102 -0.06978545 -0.013878289
-0.07753336 -0.07433407 0.012156502 -0.032935414 -0.06415244 -0.06840975 -0.06465123 -0.065998
-0.07478941 0.04029773 0.010602295 -0.020945454 -0.06795186 -0.05754849 -0.028498411 -0.040540442
-0.047718093 -0.013380812 0.022896936 -0.079308756 -0.029326722 -0.042724665 -0.048510566 -0.053346228
-0.08511396 -0.04297833 -0.06306093 0.013285515 -0.027310492 -0.053792443 -0.008316755 -0.0040979325
-0.031751394 0.0083509 -0.0308779 -0.008321387 -0.013401672 -0.033883315 -0.040710516 0.02166889
0.02776954 -0.053835496 -0.05192859 -0.01767507 0.045177888 0.020912565 0.00405129 -0.0006209235
0.0031802298 -0.034249544 -0.024865221 -0.033651605 -0.025687974 -0.01881974 0.022675844 -0.015729973
0.006405593 0.015970506 0.016446315 -0.045255866 0.0320857 -0.003740733 -0.04624917 -0.057141088
-0.029910462 -0.0049572126 0.06092511 0.0489738 -0.04476193 -0.03433882 -0.049829915 -0.010272209
-0.015963187 -0.03927993 -0.028791685 -0.002693257 -0.016116463 -0.07131394 0.018103506 0.011428339
0.017338715 0.0067433836 -0.03336862 -0.019797876 -0.028255265 -0.034552757 -0.04021893 0.022303408
-0.04821374 0.011910807 0.009287554 -0.015575584 0.039785046 0.020187378 -0.07675554 0.0032735912
-0.06855029 0.047975156 0.014357202 -0.043178383 0.016657423 -0.020650418 -0.024119036 0.0015185139
-0.035790827 -0.016128404 0.030216552 0.057654314 -0.0476118 -0.015288639 -0.0048260665 0.012730795
0.05725439 -0.029829893 -0.06301521 -0.054153323 0.011434797 -0.044062704 -0.016181603 -0.065585144
-0.017819447 0.012117179 -0.031670768 -0.07763073 -0.041735724 -0.06400108 -0.025682293 0.010938196
-0.040061627 -0.063660175 -0.0001416256 0.02728864 -0.007899996 0.009907719 0.083384454 -0.013238279
0.003885661 -0.0051460154 -0.020682784 0.027596151 -0.039098874 0.060306918 -0.008459815 0.035318393
-0.07539123 0.01833815 -0.07386181 -0.0483881 -0.0061397008 -0.014803127 -0.015072027 -0.041550614
-0.05240302 -0.054354623 -0.020794533 0.014198491 -0.029277826 0.03682074 -0.019459713 0.00795216
-0.00798082 -0.004203901 -0.0073853186 -0.04070118 0.021358754 0.014300357 0.028977454 0.044943377
0.0044905725 0.03212898 0.01744817 -0.017646592 0.012128667 -0.0036551617 0.0124232285 -0.0380219
-0.07656694 0.0024661017 0.028133765 0.038562305 -0.055233676 -0.0683725 -0.027720435 -0.013355475
0.0111938 0.04895387 -0.01329613 -0.018323502 -0.0392786 -0.025958661 -0.059278477 -0.018112892
-0.050281893 -0.026943196 -0.063487366 -0.026876222 -0.07918198 -0.027855724 -0.027693063 0.023259005
-0.037769865 -0.051197052 -0.037524275 -0.0057248147 0.0076695825 -0.044965517 0.003563858 -0.010148202
-0.061185136 -0.006534204 0.012739383 -0.040114284 -0.042510774 0.035771094 -0.030956227 -0.006813185
-0.018299889 -0.03278347 -0.017311003 -0.024296444 -0.011101293 -0.039504725 -0.05593411 -0.003131495
-0.004821001 -0.02667916 -0.01285879 0.023671987 -0.01185342 0.010345839 0.023227887 -0.050301667
-0.025452616 -0.0575598 -0.021820983 0.035309754 -0.0056213015 -0.035472184 -0.017500572 -0.007639661
00000000: ee31 073c e787 5bbd 955e 7fbd 8836 1bbd
00000010: 7eef d23c dfda e6bb b60a 2abc 0ff8 a43c
00000020: 2fe4 c1bc 4ca4 62bd efd2 a7bc 0dba 56bc
00000030: 1ac5 87bd d205 6ebd adeb 8ebd c361 63bc
00000040: cfc9 9ebd 763c 98bd 112c 473c 49e7 06bd
00000050: 5b62 83bd 691a 8cbd dd67 84bd f629 87bd
00000060: 312b 99bd 3c0f 253d 40b5 2d3c cd95 abbc
00000070: 582a 8bbd f7b7 6bbd 8075 e9bc bc0d 26bd
00000080: 0c74 43bd 313b 5bbc 5b92 bb3c a16c a2bd
00000090: 983e f0bc 0f00 2fbd 04b3 46bd 9381 5abd
000000a0: 3a50 aebd 0c0a 30bd 1726 81bd 7dab 593c
000000b0: 41ba dfbc 7755 5cbd 0043 08bc f347 86bb
000000c0: c00d 02bd 37d2 083c a6f3 fcbc 6d56 08bc
000000d0: b092 5bbc 3bc9 0abd 12c0 26bd f582 b13c
000000e0: f27c e33c 9c82 5cbd 13b3 54bd 4fcb 90bc
000000f0: 730c 393d d450 ab3c afc0 843b 79c5 22ba
00000100: 676b 503b 4049 0cbd 26b2 cbbc 44d6 09bd
00000110: 966f d2bc db2b 9abc b1c2 b93c 25dc 80bc
00000120: 02e6 d13b 94d4 823c 6cba 863c 375e 39bd
00000130: 4c6c 033d 1627 75bb c56f 3dbd c60c 6abd
00000140: c906 f5bc 1d70 a2bb 9c8c 793d c098 483d
00000150: 4958 37bd dda6 0cbd 741a 4cbd c44c 28bc
00000160: 3bc5 82bc fee3 20bd 8adc ebbc 5b81 30bb
00000170: ac06 84bc 0b0d 92bd ce4d 943c ee3d 3b3c
00000180: ec09 8e3c 9af7 dc3b 89ad 08bd 282f a2bc
00000190: 9677 e7bc 3187 0dbd 9bbc 24bd a3b5 b63c
000001a0: c57b 45bd 8c25 433c d32a 183c bc30 7fbc
000001b0: a5f5 223d 0060 a53c 0232 9dbd bf89 563b
000001c0: 1864 8cbd 9981 443d 783a 6b3c d1db 30bd
000001d0: 2675 883c 112b a9bc 4995 c5bc df08 c73a
000001e0: 6799 12bd b71f 84bc b488 f73c ee26 6c3d
000001f0: 9704 43bd 337d 7abc fb23 9ebb d394 503c
00000200: 9483 6a3d d25d f4bc 1e0e 81bd e0cf 5dbd
00000210: 0459 3b3c 187b 34bd 488f 84bc 8151 86bd
00000220: 17fa 91bc 2287 463c 35b9 01bd dcfc 9ebd
00000230: 14f3 2abd 0013 83bd ac63 d2bc 1f36 333c
00000240: a917 24bd 4460 82bd 5581 14b9 6d8c df3c
00000250: fc6e 01bc fc53 223c 78c5 aa3d 5ee5 58bc
00000260: 93a6 7e3b e89f a8bb f16e a9bc 5311 e23c
00000270: 2426 20bd 6304 773d 099b 0abc 05aa 103d
00000280: b866 9abd e339 963c dc44 97bd 9a32 46bd
00000290: 8b2f c9bb d188 72bc aaf0 76bc fa30 2abd
000002a0: 8da4 56bd f4a2 5ebd 4c59 aabc caa0 683c
000002b0: 0dd8 efbc 58d1 163d fa69 9fbc c749 023c
000002c0: fcc1 02bc e1c0 89bb 8b00 f2bb 48b6 26bd
000002d0: 8ef8 ae3c 0b4c 6a3c 2062 ed3c 8c16 383d
000002e0: a725 933b ad99 033d 77ef 8e3c 968f 90bc
000002f0: 51b7 463c 708b 6fbb cc8a 4b3c dabc 1bbd
00000300: 21cf 9cbd 529e 213b c878 e63c 82f3 1d3d
00000310: b53c 62bd e206 8cbd f715 e3bc ecd0 5abc
00000320: 3366 373c da83 483d 03d8 59bc 2b1b 96bc
00000330: 99e2 20bd 42a7 d4bc fdcd 72bd 7d61 94bc
00000340: 63f4 4dbd fab7 dcbc aa05 82bd 862b dcbc
00000350: 292a a2bd b031 e4bc 90dc e2bc ab89 be3c
00000360: 93b4 1abd 00b4 51bd 0eb3 19bd 3a97 bbbb
00000370: 1f51 fb3b c32d 38bd 9e8f 693b a544 26bc
00000380: 449d 7abd e01c d6bb d8b8 503c e04e 24bd
00000390: c71f 2ebd b684 123d ea97 fdbc 2341 dfbb
000003a0: a6e9 95bc f647 06bd cecf 8dbc 5609 c7bc
000003b0: 33e2 35bc b5cf 21bd 2a1b 65bd c539 4dbb
000003c0: 7df9 9dbb 418e dabc adad 52bc c1eb c13c
000003d0: d934 42bc 9881 293c 6948 be3c 1f09 4ebd
000003e0: 0182 d0bc d3c3 6bbd ebc1 b2bc f6a0 103d
000003f0: e532 b8bb 484b 11bd 5c5d 8fbc 1f56 fabb

bias f4 [256]
-0.0069821253 -0.024990615 0.36252332 0.26237774 -0.06384726 -0.05619952 -0.008496885 -0.023859171
-0.028737284 -0.04724912 -0.012197076 0.1598068 -0.083332695 0.15731327 -0.0337241 0.19328983
-0.016416872 -0.036014017 -0.017436985 0.2564549 -0.018993972 -0.15107915 -0.03502114 -0.029246116
0.12489045 -0.06286497 -0.002599952 0.37373766 -0.03685838 -0.0481857 -0.026063593 -0.17568877
-0.055209137 -0.043990105 -0.008256644 0.030050803 -0.032761563 -0.051848482 -0.011690173 -0.018168278
-0.03968576 0.12544553 -0.0051332726 0.0021190692 0.0076321675 -0.016145825 0.119432755 -0.038300436
-0.049747624 0.20836566 0.2781943 -0.13094509 -0.15370268 -0.03875726 -0.094085634 -0.04258038
-0.06659327 0.057087217 -0.0122962715 -0.017479802 -0.0045276512 -0.0974013 -0.018630428 -0.0377825
0.034310874 -0.014262711 -0.10458648 0.24413638 0.038235113 -0.055040047 -0.07746193 -0.048623443
-0.055957105 -0.017342413 0.09616191 0.068759784 -0.04985037 0.214128 0.15823807 -0.01115663
-0.0051312274 0.093817145 0.02273135 0.026091458 -0.02457032 0.05970357 0.14547715 -0.01898155
0.0028554809 -0.01968835 -0.0042710253 -0.026426388 -0.022833476 0.24300095 0.017851932 -0.2354688
0.2432914 0.2512725 -0.094701335 -0.030489858 -8.5164414e-05 0.056554604 0.09644588 -0.048313033
-0.026056768 -0.00084905594 -0.027816357 -0.02783068 0.010167396 0.021150269 -0.1068352 -0.0026673914
0.006048779 0.1669319 -0.055882964 -0.04189307 0.0026626994 0.11223035 0.10772006 -0.017809112
-0.05457211 -0.022844423 -0.068577066 -0.03953852 0.084593266 -0.04375506 -0.051391713 -0.025795173
-0.19948676 0.24907005 -0.016740415 -0.064247936 -0.009534211 -0.003276947 -0.04897487 -0.027068939
0.36456537 3.4857763e-05 0.11813577 -0.042425416 0.0052940007 0.122142345 -0.17729783 0.083381176
0.13131672 -0.04885821 0.48890224 -0.043624353 -0.14347748 0.0523349 0.29583994 -0.020196978
0.047993466 0.0025112994 0.045028646 -0.12937507 -0.03315006 -0.045901116 -0.0048869657 -0.021666305
0.02035891 0.017584447 0.23595002 0.23601107 -0.046885803 -0.037637677 -0.039587118 0.23812404
-0.030286053 -0.09090268 -0.036348943 0.1453835 -0.0320276 -0.031654526 -0.014165164 0.0100413235
-0.049041107 0.07658467 -0.069123685 0.034614306 -0.013271273 0.025102496 -0.041416846 0.10430275
0.09634902 0.0062377313 0.1592089 0.14491816 -0.0629556 0.09438048 -0.031028232 0.16561155
-0.035289 -0.024064578 -0.017078156 -0.021074494 0.19629 -0.03870919 0.2624238 -0.015117781
-0.053898945 -0.0040125223 -0.080320895 -0.021263562 0.013630616 0.039229445 0.256075 0.049271632
-0.05190766 0.021415731 -0.0547332 -0.02204154 -0.02567202 0.096246965 -0.05937786 0.15709765
-0.067408815 -0.03127046 -0.059369825 -0.012499099 -0.038340475 -0.159377 -0.09480692 0.0038970949
-0.05915062 -0.045223724 0.011807318 0.12563063 0.242426 -0.016267598 0.1852144 0.07886972
0.15677166 -0.020370185 0.30438018 -0.020430423 -0.05922472 -0.010080069 -0.07391437 -0.025351623
0.23730901 -0.13260493 -0.05560417 -0.035570756 0.14346482 0.19162424 0.12435098 0.00040051047
-0.0627262 0.19298173 -0.034209836 -0.05482994 -0.027901048 -0.0953663 0.14408916 -0.014881389
00000000: 50ca e4bb 1eb9 ccbc a89c b93e 6056 863e
00000010: 5ac2 82bd 7831 66bd 8536 0bbc 4f74 c3bc
00000020: 746a ebbc 4b88 41bd 3fd6 47bc 65a4 233e
00000030: 55aa aabd bb16 213e 4822 0abd c5ed 453e
00000040: ad7c 86bc 6f83 13bd 02d8 8ebc 0f4e 833e
00000050: 3f99 9bbc 7eb4 1abe 5472 0fbd 8d95 efbc
00000060: 90c6 ff3d 59bf 80bd f563 2abb 8b5a bf3e
00000070: d0f8 16bd 5e5e 45bd 5183 d5bc c2e7 33be
00000080: fa22 62bd f82e 34bd e046 07bc 1a2d f63c
00000090: fd30 06bd 135f 54bd 2488 3fbc a4d5 94bc
000000a0: 898d 22bd cb74 003e 0335 a8bb 15e0 0a3b
000000b0: 4317 fa3b 4044 84bc 2999 f43d ebe0 1cbd
000000c0: 2ac4 4bbd cf5d 553e 7c6f 8e3e 7816 06be
000000d0: 3c64 1dbe efbf 1ebd f8af c0bd c468 2ebd
000000e0: 0d62 88bd 49d4 693d 4d76 49bc cd31 8fbc
000000f0: b15c 94bb 557a c7bd d79e 98bc d3c1 1abd
00000100: 8f89 0c3d 25ae 69bc 7031 d6bd e3fe 793e
00000110: 6c9c 1c3d ac71 61bd 5ca4 9ebd 6029 47bd
00000120: 4733 65bd ad11 8ebc 89f0 c43d eed1 8c3d
00000130: e72f 4cbd 5f44 5b3e 2909 223e 4cca 36bc
00000140: db23 a8bb 3423 c03d 1937 ba3c c1bd d53c
00000150: b247 c9bc bb8b 743d f6f7 143e 327f 9bbc
00000160: 0523 3b3b 7649 a1bc f5f3 8bbb 277c d8bc
00000170: 450d bbbc 3ed5 783e 373e 923c bc1e 71be
00000180: 6121 793e caa6 803e c6f2 c1bd dec5 f9bc
00000190: 4c9a b2b8 cda5 673d 6b85 c53d e3e3 45bd
000001a0: 0175 d5bc 2e93 5eba 21df e3bc 2bfd e3bc
000001b0: 2695 263c 5443 ad3c 6acc dabd 67cf 2ebb
000001c0: d634 c63b 32f0 2a3e 89e5 64bd 1198 2bbd
000001d0: af80 2e3b 07d9 e53d 569c dc3d 6ae4 91bc
000001e0: 0187 5fbd 3a24 bbbc 2272 8cbd 25f3 21bd
000001f0: 3c3f ad3d 8138 33bd 1e80 52bd 6650 d3bc
00000200: 4246 4cbe 380c 7f3e 3223 89bc 6c94 83bd
00000210: 6135 1cbc 0cc2 56bb e099 48bd aebf ddbc
00000220: 50a8 ba3e 3d34 1238 2bf1 f13d 46c6 2dbd
00000230: 4c79 ad3b c425 fa3d 908d 35be c0c3 aa3d
00000240: e477 063e 8c1f 48bd 6551 fa3e 73af 32bd
00000250: c3eb 12be 1f5d 563d 5578 973e 2274 a5bc
00000260: cc94 443d 9d94 243b f56f 383d e67a 04be
00000270: 5bc8 07bd cf02 3cbd d722 a0bb 897d b1bc
00000280: bbc7 a63c 420d 903c e29c 713e e3ac 713e
00000290: 540b 40bd f729 1abd 1a26 22bd cad6 733e
000002a0: 751a f8bc 2f2b babd a1e2 14bd 6adf 143e
000002b0: 5f2f 03bd 2da8 01bd 0115 68bc 5d84 243c
000002c0: 54df 48bd 6cd8 9c3d b890 8dbd bbc7 0d3d
000002d0: c16f 59bc c0a3 cd3c b6a4 29bd ae9c d53d
000002e0: a352 c53d e265 cc3b a807 233e 6d65 143e
000002f0: deee 80bd 8e4a c13d eb2e febc 1396 293e
00000300: 338b 10bd 1423 c5bc 7de7 8bbc 6ba4 acbc
00000310: 3f00 493e 878d 1ebd 6a5c 863e 92b0 77bc
00000320: 24c5 5cbd 7a7b 83bb 487f a4bd ec30 aebc
00000330: f252 5f3c 0eaf 203d 431c 833e 0dd1 493d
00000340: 209d 54bd 0b70 af3c ec2f 60bd 7690 b4bc
00000350: 214e d2bc 211d c53d 3336 73bd 35de 203e
00000360: a20d 8abd 7415 00bd c62d 73bd 05c9 4cbc
00000370: e70a 1dbd b933 23be 212a c2bd 6766 7f3b
00000380: ec47 72bd 833c 39bd 7b73 413c 51a5 003e
00000390: 853e 783e a043 85bc d8a8 3d3e 7386 a13d
000003a0: c088 203e 60df a6bc b8d7 9b3e b45d a7bc
000003b0: 9f95 72bd e026 25bc 6b60 97bd 35ae cfbc
000003c0: 2201 733e 96c9 07be 33c1 63bd a4b2 11bd
000003d0: 71e8 123e 2539 443e baab fe3d 9bfb d139
000003e0: 9876 80bd 019d 453e 9d1f 0cbd 5c95 60bd
000003f0: bd90 e4bc 684f c3bd 1c8c 133e 12d1 73bc

weight f4 [10, 256]
-0.04635884 -0.0001761162 -0.21901086 -0.08393 -0.018612271 -0.054046646 -0.12642637 0.040833782
0.0075519998 -0.042223696 -0.0124278115 -0.15538752 0.028916499 -0.118469946 0.041739218 -0.122368224
-0.05693751 0.044504963 0.0069881533 -0.105804786 0.053929385 -0.017228168 0.0033349236 0.007270998
-0.29561594 -0.030739993 -0.02731851 -0.116716035 0.012577093 -0.023044493 -0.032958683 0.1222553
-0.06822187 -0.092575535 -0.032277085 0.09450113 0.13832298 0.044817176 0.002916361 0.060669836
-0.03858861 0.048975337 -0.03330142 0.28132617 -0.034046683 0.03491618 0.09515903 0.04346094
0.022427885 -0.0006125866 0.07070843 0.10103942 0.096615314 -0.051057704 0.10416184 0.039729632
-0.012616409 -0.014911547 -0.04704452 -0.057090003 -0.038375095 0.19587192 0.027645966 0.050218206
0.07334779 0.054160453 0.09345919 -0.20751533 -0.07811112 -0.025531095 -0.035952233 -0.13079947
-0.021947218 -0.05496756 -0.07460921 0.057782706 -0.0015749502 -0.007795662 0.0119410325 0.00091279
0.008279069 0.045565326 0.030658584 -0.021295007 -0.010827203 -0.07803125 -0.040237922 0.019160213
0.039426915 0.02422074 0.048196685 -0.073523164 0.011295686 -0.08653336 -0.031360615 0.0128982365
0.051146347 -0.24807702 -0.03486291 -0.034135174 0.002323369 -0.045488056 0.06686675 0.019785477
-0.04955636 0.07835001 -0.15643896 0.045510642 -0.029465329 0.046839446 0.0056232912 -0.021438245
-0.118340954 -0.08990421 0.00795253 -0.0018006717 0.043118257 -0.21116239 0.23056148 0.0124092065
0.016985461 -0.038606964 0.01115242 -0.023912696 0.13230179 -0.006833103 -0.026360247 -0.10467089
0.053239346 -0.06630879 0.03898957 0.056397814 0.063378304 -0.008916931 0.039756026 -0.009105183
0.026391815 0.05088581 0.0974061 0.031479765 -0.060633786 -0.11374911 0.10119238 -0.08706516
-0.19267097 0.013272201 -0.3341456 0.03862822 0.016592642 0.10511345 -0.0847512 0.1526506
0.24532798 0.028245755 -0.17760794 -0.047391795 0.044826902 6.398596e-05 0.043492984 -0.05640469
0.0202467 -0.04359696 0.14197294 -0.29083055 0.06918236 -0.015031386 0.15680264 -0.051971816
-0.04623672 0.032771416 0.042013913 0.073557824 -0.022443028 -0.00074461446 -0.018091025 -0.096944064
-0.035781942 -0.09521558 -0.08371675 -0.05309058 -0.06187373 0.023642566 -0.040867556 -0.14338768
-0.090525255 -0.040497568 0.040286653 -0.116497114 0.0017206948 -0.016349487 -0.049004275 -0.08519541
-0.056863368 -0.04046329 0.19081593 0.021011043 -0.22034511 0.058558404 -0.039113842 -0.00050695654
0.058174532 -0.100377314 -0.18976274 0.023821153 0.012570093 0.24088539 -0.13859156 0.024867203
0.16556317 0.10684658 -0.026352601 -0.028431913 0.017651057 0.10600269 0.021579377 0.0013408917
0.0023630464 0.025069403 0.010650366 -0.031114886 0.026015898 0.018312857 -0.06374641 0.040858716
-0.049763724 -0.26067412 0.17034718 -0.11451997 -0.22677095 -0.0042248922 -0.24332084 0.028707804
-0.17504513 0.021098316 -0.127159 0.0055427025 -0.020261945 0.17419322 -0.011392336 -0.01879395
-0.16901378 0.08930847 -0.008300024 -0.086023964 -0.19158503 0.05974003 -0.030381348 -0.15710972
-0.0017931703 -0.022706319 0.013312421 -0.043348826 0.047968745 0.054663397 -0.1615933 0.033452626
00000000: c4e2 3dbd d5ab 38b9 6244 60be 7ee3 abbd
00000010: c378 98bc 0460 5dbd ea75 01be 5341 273d
00000020: c476 f73b c1f2 2cbd 059e 4bbc e81d 1fbe
00000030: 4be2 ec3c 5fa0 f2bd bef6 2a3d 319c fabd
00000040: 4e37 69bd d64a 363d e1fc e43b 2eb0 d8bd
00000050: 0fe5 5c3d 1622 8dbc bc8e 5a3b 8d41 ee3b
00000060: f95a 97be 70d2 fbbc 11cb dfbc d108 efbd
00000070: 2710 4e3c cec7 bcbc afff 06bd fd60 fa3d
00000080: e8b7 8bbd 3e98 bdbd fa34 04bd cf89 c13d
00000090: 8aa4 0d3e 3792 373d 6b20 3f3b ef80 783d
000000a0: 170f 1ebd 5d9a 483d 1267 08bd fc09 903e
000000b0: 8974 0bbd 4504 0f3d bde2 c23d 1904 323d
000000c0: afba b73c fe95 20ba 95cf 903d c1ed ce3d
000000d0: 40de c53d e221 51bd ce52 d53d 8abb 223d
000000e0: 0eb5 4ebc 904f 74bc c1b1 40bd 35d7 69bd
000000f0: 342f 1dbd a692 483e cb79 e23c 9bb1 4d3d
00000100: 5e37 963d 5ad7 5d3d 8867 bf3d e67e 54be
00000110: b9f8 9fbd 9626 d1bc a642 13bd 4cf0 05be
00000120: a7ca b3bc aa25 61bd b7cc 98bd 8fad 6c3d
00000130: 8f6e ceba c172 ffbb 52a4 433c 4d48 6f3a
00000140: efa4 073c b5a2 3a3d b627 fb3c de72 aebc
00000150: 9564 31bc d9ce 9fbd 85d0 24bd e1f5 9c3c
00000160: 1e7e 213d 936a c63c e369 453d 5093 96bd
00000170: 8a11 393c 6738 b1bd fd73 00bd 2053 533c
00000180: d57e 513d e707 7ebe 69cc 0ebd 53d1 0bbd
00000190: aa43 183b af51 3abd 6ff1 883d 2715 a23c
000001a0: 9cfb 4abd f875 a03d 8931 20be 5e69 3a3d
000001b0: 4661 f1bc b8da 3f3d 9643 b83b 429f afbc
000001c0: be5c f2bd b31f b8bd 544b 023c 8404 ecba
000001d0: c59c 303d f43a 58be 4f18 6c3e fc4f 4b3c
000001e0: 1825 8b3c 5622 1ebd a4b8 363c 8fe4 c3bc
000001f0: 1f7a 073e 39e8 dfbb 72f1 d7bc b15d d6bd
00000200: 8011 5a3d e7cc 87bd 87b3 1f3d 6501 673d
00000210: 7ccc 813d 5218 12bc 37d7 223d e82d 15bc
00000220: a633 d83c a46d 503d d97c c73d edf0 003d
00000230: 225b 78bd 4bf5 e8bd f33d cf3d 384f b2bd
00000240: 8a4b 45be a573 593c 2215 abbe a038 1e3d
00000250: 4bed 873c b845 d73d 0a92 adbd 7050 1c3e
00000260: 4237 7b3e a463 e73c dbde 35be e61d 42bd
00000270: 6a9c 373d 3330 8638 b325 323d 9b08 67bd
00000280: 68dc a53c ba92 32bd 5b61 113e bee7 94be
00000290: 7baf 8d3d 3446 76bc df90 203e 66e0 54bd
000002a0: b762 3dbd 523b 063d c816 2c3d 7ca5 963d
000002b0: 71da b7bc 3b32 43ba a133 94bc 9c8a c6bd
000002c0: 1690 12bd 6300 c3bd b073 abbd 8275 59bd
000002d0: 4f6f 7dbd 0eae c13c bd64 27bd 38d4 12be
000002e0: 4e65 b9bd c7e0 25bd 9e03 253d 0a96 eebd
000002f0: f088 e13a 5cef 85bc b5b8 48bd ee7a aebd
00000300: 90e9 68bd d6bc 25bd 4065 433e 5a1f ac3c
00000310: 26a2 61be f0da 6f3d d635 20bd 47e5 04ba
00000320: 6b48 6e3d 9f92 cdbd 2a51 42be 9424 c33c
00000330: cbf2 4d3c a9aa 763e f2ea 0dbe 4eb6 cb3c
00000340: 6489 293e 61d2 da3d 69e1 d7bc 0bea e8bc
00000350: f398 903c f017 d93d 3cc7 b03c dcc0 af3a
00000360: 57dd 1a3b 595e cd3c df7e 2e3c a5e4 febc
00000370: 4b1f d53c d804 963c 7a8d 82bd 785b 273d
00000380: 0cd5 4bbd 1477 85be 7e6f 2e3e 7289 eabd
00000390: a536 68be f770 8abb 1929 79be a12c eb3c
000003a0: 083f 33be 60d6 ac3c f835 02be 8f9f b53b
000003b0: 61fc a5bc b55f 323e eca6 3abc c5f5 99bc
000003c0: f311 2dbe 5ce7 b63d d3fc 07bc 552d b0bd
000003d0: de2e 44be f6b1 743d 4ee2 f8bc 5fe1 20be
000003e0: d008 ebba 9a02 babc 571c 5a3c 8a8e 31bd
000003f0: e07a 443d bae6 5f3d b778 25be 9f05 093d

bias f4 [10]
-0.3180038 -0.2228698 -0.19901142 0.11732921 0.20270896 0.057508145 0.12745826 -0.17008896
-0.022903467 0.07887578
00000000: 65d1 a2be fb37 64be a6c9 4bbe 4c4a f03d
00000010: f092 4f3e a98d 6b3d 6b84 023e cd2b 2ebe
00000020: 0da0 bbbc a089 a13d
