Project_1/Part2/checkpoints/cnn_0_2.pth (torch, 183081 bytes, 18 tensors)

weight f4 [8, 3, 5, 5]
000000 61 27 ce bd 98 a4 c2 3c 49 2f a4 3d 29 1d 7d 3c
       -0.10066105 0.023760125 0.080168314 0.015448847
000010 13 13 af 3d 4c 9b 28 bd 6c 26 c9 bd ee 3f 39 3d
       0.0854856 -0.041163728 -0.098217815 0.045226984
000020 7c 78 a8 bd 2b 8d e6 3d a3 08 1a 3c 38 d6 9c 3b
       -0.082261056 0.112573944 0.009401473 0.004786279
000030 51 4d 0d bc 7a 99 b5 3c 88 b6 52 3d 5b fc 02 3c
       -0.008624391 0.02216791 0.051443607 0.007994737
000040 4b 74 7e bd a0 dc 6d bd d4 63 65 bd 3e e2 33 3d
       -0.062122624 -0.058071733 -0.056003407 0.043916933
000050 2d cd 17 bd d6 8b c0 3d e9 2b 9e bd c0 ac 36 bd
       -0.037060905 0.094016716 -0.07723219 -0.04459834
000060 48 2d c0 3c 98 85 ff bd 71 88 9f bd cb a2 b7 bd
       0.023459092 -0.12476653 -0.07789696 -0.08966597
000070 0f c6 2d 3d 39 8c d2 3d 45 cf 05 3d ee 25 c8 bd
       0.04242521 0.102806516 0.03266837 -0.097728595
000080 43 e5 a9 bc 49 36 c2 3d 6a e6 14 3e d7 4b 04 be
       -0.020739203 0.0948301 0.14541021 -0.12919556
000090 b2 91 2b be 47 0a ef bd d1 00 e4 3d eb 15 29 3e
       -0.16754797 -0.11671882 0.11132968 0.16512267
0000a0 89 8a 73 bc 12 9c ac ba b2 49 69 3b 31 58 f2 ba
       -0.014864572 -0.0013169071 0.0035596904 -0.0018489418
0000b0 d4 89 41 3d 32 33 25 3d ee 78 1e be 7c fd 00 bd
       0.047250584 0.040332027 -0.15475819 -0.03149174
0000c0 8c 54 81 3d a9 bc 0a 3c 2e 7d cc bd 55 f2 66 bd
       0.06314954 0.008467832 -0.09984814 -0.05638345
0000d0 52 93 90 bd ab 0c 81 3d 4b fe 97 3c 23 b1 c1 bd
       -0.07059349 0.06301244 0.018553874 -0.09457614
0000e0 b9 c6 2a be d6 51 91 bd 94 87 92 3d f2 6c 12 3e
       -0.16677369 -0.07095687 0.07154766 0.14299372
0000f0 bc 59 a0 bd 46 30 cc bd bc e4 94 3c a2 2f c4 3d
       -0.078296155 -0.09970145 0.018175475 0.09579398
000100 69 22 53 3d 79 b2 7c bd 4f a2 61 bc e2 a2 73 bd
       0.051546488 -0.061693642 -0.013771608 -0.05948151
000110 9b 29 ac 3d 54 53 3e 3e 5e bc 61 bd b6 8a 97 3d
       0.08406373 0.18586475 -0.05511128 0.07399504
000120 12 17 e1 3b 18 46 2d 3c 79 ec 37 3e 99 a0 bb 3d
       0.0068692053 0.010575794 0.17961301 0.09161491
000130 b3 e2 23 ba ac 53 a1 3d ae dc 47 bd a2 16 5e 3d
       -0.00062517374 0.07877287 -0.04879444 0.054220803
000140 fe 4b 25 3d da 0d 22 3e 77 5f 3a 3e 91 4b 3f bd
       0.040355675 0.15825596 0.1820048 -0.046702925
000150 7c a1 08 3e f2 ac 09 3c 27 cf 59 3d ea b9 8e bc
       0.13342851 0.00840305 0.05317607 -0.017422635
000160 8f 9a 74 bd 24 5c 7d 3c 35 c8 d2 bd 19 05 48 be
       -0.05971771 0.015463863 -0.10292093 -0.19533195
000170 75 2b e3 bd 45 6d 00 be e8 81 ba bd 36 44 07 3c
       -0.11092273 -0.12541683 -0.09106809 0.008256009
000180 47 63 bf bd 0b d2 7a 3d bf b1 ee bd b7 7d d8 3d
       -0.093451075 0.06123547 -0.11654996 0.10570853
000190 20 e0 c8 bb 1d e3 09 be 87 03 8a bd 8a 6c 88 bd
       -0.0061302334 -0.13465543 -0.06738954 -0.06661327
0001a0 9e 0a a0 3c ac 4a 1b 3e 6b 70 b7 bc c9 f5 08 3e
       0.019536313 0.15165204 -0.022392472 0.1337501
0001b0 a2 4b 10 3e 77 ff d4 3d 80 5d 4c 3c fa 72 37 bd
       0.14091352 0.104002886 0.012473464 -0.044787385
0001c0 83 2d 4b 3d a5 a0 7d bd 96 96 0b bc 83 9a 85 bd
       0.04960395 -0.06192078 -0.008519789 -0.065236114
0001d0 e6 d7 d0 bd c5 8d 39 be 16 7b 34 be 3c 32 7f bd
       -0.10197429 -0.18120487 -0.17625079 -0.062303767
0001e0 c2 6c 7e 3d 6a 43 e3 3c ce 39 8f 3d 0f 01 6b 3d
       0.06211544 0.027742106 0.06993447 0.057374056
0001f0 43 23 9d bd b9 8f f4 bd f8 cf f5 bd 81 03 93 bc
       -0.07672741 -0.119414754 -0.120025575 -0.017946007
000200 66 f1 f6 bd 5c aa a8 bd 21 0d 5e 3d c4 43 6a bd
       -0.12057762 -0.082356185 0.05421174 -0.057193533
000210 d8 0b 45 3e e5 67 d4 3d d8 f7 d2 3d c3 36 64 3d
       0.192428 0.10371379 0.10301179 0.055716287
000220 05 91 94 3d 27 70 ac 3d 8a fb 8d bd 8e 10 ec bd
       0.07254223 0.08419829 -0.06932743 -0.11526595
000230 91 b4 f5 bc ff c1 51 bd fb 5d e1 3c cf 55 8f 3d
       -0.029993327 -0.0512104 0.027510634 0.069987886
000240 f0 0b 42 bd 7b 7f 2c bd c7 55 05 3c c8 ff 9b 3d
       -0.047374666 -0.042113762 0.008138127 0.07617146
000250 4b 24 0b bd 5a 62 78 3d 29 30 0b 3e 19 65 1d 3e
       -0.03397016 0.06064067 0.1359259 0.15370597
000260 cb 7a 91 3d b2 3a b2 3b 46 07 d7 3d a8 eb 0f 3e
       0.07103499 0.005439126 0.10499434 0.1405474
000270 8e cf e5 3c c5 ea ba 3d 28 81 a2 3d 1a 26 6d bd
       0.028053071 0.0912681 0.07934791 -0.057897665
000280 f9 e7 ee 3d 4b 6c f5 3d 74 3d 81 3d 87 88 85 3d
       0.11665339 0.11983546 0.063105494 0.06520181
000290 a8 c3 95 3d dd 4e cf bb c6 01 97 bd 7e 0c 29 3d
       0.07312709 -0.00632654 -0.07373385 0.04127168
0002a0 01 69 b6 bd f8 67 d9 bd 2f 8c 97 3c d1 86 41 bd
       -0.08906747 -0.106155336 0.018499462 -0.04724771
0002b0 50 76 58 3c 1f c5 ac 3b 83 01 2c be 4a 29 ff bd
       0.013211802 0.005272522 -0.16797452 -0.12459047
0002c0 d6 d6 02 be 05 b6 9a 3c f9 0b 64 bd a2 94 fd 3b
       -0.12777266 0.018885622 -0.05567548 0.0077386657
0002d0 05 41 54 bd b4 13 c8 bd a5 04 11 3c 7e c5 f2 bd
       -0.05181982 -0.09769383 0.008851205 -0.11854075
0002e0 0f d5 ea 3c 21 e1 ac bd 20 57 c6 3c 86 c1 00 be
       0.028666047 -0.084413774 0.024211466 -0.12573823
0002f0 88 8c e6 bd 67 38 16 be 8b 53 bf 3a ca e5 7a bc
       -0.11257273 -0.14669953 0.0014597041 -0.015313575
000300 9d ac df bd ba cb 87 bc a0 19 f7 bc 0f ea 11 3c
       -0.10921595 -0.016576637 -0.030163586 0.008905902
000310 e5 b3 b7 bd 32 0a e7 bd f5 04 36 be da 1c 20 3d
       -0.08969859 -0.112812415 -0.17775328 0.039090015
000320 33 2d 5a 3d 00 59 02 3a 7b 6d 5c 3c 5b 9e 2c 3d
       0.05326576 0.00049723685 0.013453837 0.042143207
000330 9a 38 89 bd 31 05 a0 bc a2 3a 3d 3d ad d7 dc bd
       -0.06700249 -0.019533725 0.046198495 -0.107833244
000340 c3 1a e9 bd 73 47 90 bd d6 83 ef 3d 7b 01 6f bd
       -0.113820575 -0.07044878 0.116950676 -0.05835102
000350 9c 13 99 bd f4 75 79 bd a2 79 e5 bc af aa 24 3e
       -0.07474443 -0.060903504 -0.0280121 0.16080736
000360 03 99 e6 3d c4 3b 64 bb b0 76 af bd e9 41 4e 3d
       0.112596534 -0.0034825662 -0.0856756 0.050355826
000370 13 f1 32 3e 72 42 3b 3e bb 1a c1 3c c0 0d a0 3d
       0.17474775 0.18287066 0.023572316 0.078151226
000380 c6 7d af 3b 94 7a 05 be 48 07 eb bb df d3 0f 3c
       0.0053555695 -0.13035041 -0.007172499 0.008778541
000390 a1 6f b6 3d f7 02 8a 3d 52 7f b2 bb a6 91 e3 bd
       0.0890801 0.06738847 -0.0054473067 -0.111117646
0003a0 fa 28 e6 3c bc 79 f8 3d 5b 71 70 3d e3 75 a5 3d
       0.028095711 0.12132594 0.058701854 0.08079126
0003b0 e0 b6 97 bd 1e bc c3 bd 65 8b 88 3c 8c 97 0d 3e
       -0.074079275 -0.09557365 0.016668031 0.13827342
0003c0 c0 d3 a6 3d 73 50 3b 3d 6f b2 d7 bd 7f 07 ee bc
       0.08145857 0.04573102 -0.105320804 -0.029056309
0003d0 cd 18 8f 3d ab 03 39 3d 18 f1 e0 bd 29 e0 a6 3d
       0.06987152 0.045169514 -0.10983485 0.08148224
0003e0 48 e9 c6 bd 15 ed 94 bd c1 e6 c5 bc 34 a3 a1 bd
       -0.097124636 -0.07271782 -0.024157884 -0.07892457
0003f0 04 0f 15 3e aa 00 8f 3d eb ec f2 bd a8 8e d9 bd
       0.1455651 0.069825485 -0.11861595 -0.10622913

bias f4 [8]
000000 20 81 ea 3c c7 c2 f5 bd dd 1b 6f 3d ab b0 6c bc
       0.028626025 -0.120000415 0.058376182 -0.014446418
000010 84 8f 8e bd 2a de 9b 3d 59 75 7d 3d 62 ed 39 bd
       -0.06960967 0.07610734 0.06187949 -0.0453924

weight f4 [8]
000000 9b 0f 80 3f d7 f9 7b 3f 1f a8 6c 3f de 24 7a 3f
       1.0004762 0.984281 0.9244403 0.97712505
000010 e4 f8 85 3f 87 c1 70 3f dc a9 88 3f c1 f9 76 3f
       1.046658 0.940453 1.0676837 0.96474844

bias f4 [8]
000000 c8 aa 37 be 33 97 c9 be 9a 86 a2 bd 58 e4 91 be
       -0.17936242 -0.39373168 -0.079358295 -0.28494525
000010 44 45 be bd 0e df cd 3d ff 88 59 be 8c b3 56 bd
       -0.09290555 0.1005231 -0.21243666 -0.052417323

running_mean f4 [8]
000000 c4 2c d6 3c a8 e1 e1 bd 83 1d 58 3d d5 5b 29 bc
       0.026144393 -0.11029369 0.05276252 -0.010336836
000010 10 54 ac bd 3b e5 ed bc 2c d9 6f 3d aa 71 ff bd
       -0.08414471 -0.02903997 0.05855672 -0.124728516

running_var f4 [8]
000000 cb e7 86 3e 19 9d a6 3d c3 9d 01 3e e0 fe bf 3d
       0.2634872 0.08135433 0.12657838 0.093747854
000010 37 7b 1f 3e e0 22 60 3e c6 0d ce 3d 07 8e 90 3e
       0.15574346 0.21888304 0.10061221 0.28233358

weight f4 [10, 8, 5, 5]
000000 a2 52 8f bd 40 e1 89 bd 2e 74 dd bc f3 db c6 3c
       -0.06998183 -0.06732416 -0.027032938 0.024274802
000010 e7 41 a4 3d b9 f0 7c bc b9 b7 56 bd 99 e1 fc 3c
       0.080203824 -0.015438252 -0.052421305 0.030869292
000020 09 15 98 3c 98 52 3e bd 3a 5c 33 bd b5 03 7f 3c
       0.018564718 -0.046465486 -0.043789126 0.015564849
000030 e1 dd c1 3c 48 03 16 39 e2 f3 99 bc 06 1b c2 bd
       0.02366537 0.00014306337 -0.01879305 -0.094778106
000040 a9 7b ed bd b0 62 80 3d fd 44 3e 3d 2c 55 68 3d
       -0.11595852 0.06268823 0.04645251 0.05672185
000050 98 94 77 bd 11 39 10 3c 18 e7 f3 3c 86 65 91 3c
       -0.060444444 0.008802668 0.02977328 0.017748605
000060 05 1b ba bd 8d 3f 2b 3d 06 91 88 3d b1 b4 9b bc
       -0.09087185 0.041808654 0.06668286 -0.019007059
000070 6c cf 63 bc 43 56 5f 3d fb a1 c7 3d 6c f2 39 3d
       -0.013904434 0.054525625 0.09747692 0.045397207
000080 cf 89 c2 3d 40 c1 78 3c 4a cf a7 ba 8c 32 ac 3d
       0.09498941 0.015182793 -0.0012802866 0.084080786
000090 e1 bb 44 bc 6b b1 51 3c c6 e1 2f bd 50 db 00 bd
       -0.012007684 0.012798647 -0.042939924 -0.031459153
0000a0 72 e4 3c bd 6d bc 0f bd ab 91 cb bd 45 b5 d9 bd
       -0.0461163 -0.035091806 -0.09939893 -0.106302775
0000b0 81 0f 03 be 87 ca c2 bc 82 76 cd bc 87 18 19 bd
       -0.12798883 -0.023778213 -0.025080923 -0.037376907
0000c0 ad fe 72 bd 0f 38 3c bd a4 48 17 bd 20 e7 7a bc
       -0.05932491 -0.0459519 -0.03693451 -0.015313894
0000d0 ac d9 a7 3b 0b ad 4a 3d ab b9 db 3c 59 ae 33 bc
       0.005122384 0.049481433 0.026821932 -0.010966861
0000e0 c4 10 64 3d 4d 23 26 bc 8b e0 87 bd 23 fa 53 bc
       0.05568005 -0.010140252 -0.06634625 -0.012938055
0000f0 9c 9e 19 bc 2d 3f c0 3d 36 8b e4 3c bd fe 07 3b
       -0.009376194 0.0938705 0.027898412 0.00207512
000100 62 71 2e bd 50 51 3c 3c 0c 80 93 3d 5c 6d 0c 3e
       -0.0425886 0.011493996 0.072021574 0.13713592
000110 1e 50 11 3d 13 00 96 3c 5b 0f a5 3d cc 00 6e 3d
       0.035476796 0.018310582 0.080595694 0.05810623
000120 66 50 0b 3e ce 3c f0 bc 88 0f 26 3d 24 b9 42 bd
       0.13604888 -0.029325869 0.040542156 -0.047539845
000130 82 ea d9 bb 40 ea 8d 3c f6 b2 a1 3d 1c 22 b8 3d
       -0.00665027 0.017323613 0.07895462 0.08990881
000140 90 a3 fe bc dd 7c 59 bc ca 3d 40 3d 8e 95 6c 3d
       -0.031083852 -0.013274399 0.046933927 0.057759814
000150 92 1e 54 3d 2e d7 97 bd 65 e3 bc bc 7e 51 d1 3c
       0.051786967 -0.07414089 -0.023057649 0.025551554
000160 79 34 21 3c 50 48 3c 3d a1 dd 4c bd 6c 00 01 bd
       0.009839171 0.0459674 -0.05001605 -0.031494543
000170 26 47 37 bc 21 c8 9f bc 52 80 3c bd cf 58 69 bd
       -0.011186397 -0.019504609 -0.046020813 -0.05696946
000180 72 ce 15 bc b7 41 e4 bc 1a 8e e3 bc b6 c6 3d bd
       -0.009143459 -0.027863367 -0.02777772 -0.046332084
000190 06 f8 34 3e f6 ab ab 3d db 39 af 3d e3 da 66 3d
       0.17672738 0.08382408 0.08555957 0.05636109
0001a0 9f 11 ab 3d 05 85 6f 3e 24 19 d8 3d ca 6d 76 3e
       0.0835297 0.23390587 0.1055167 0.24065319
0001b0 e3 03 3a 3e 0c f2 65 3e 29 78 4e bd e6 42 a7 bd
       0.18165545 0.22455615 -0.050407562 -0.08167057
0001c0 5a 6f 28 bd 86 1a 1c 3d 70 9d d6 3d b0 72 48 be
       -0.041121818 0.038111232 0.104792476 -0.19575
0001d0 47 67 2e be 40 97 27 be 34 8e 28 be 4c a6 8c bd
       -0.17031585 -0.16366291 -0.16460496 -0.06867656
0001e0 14 74 24 be e0 ce 1e be 51 dc 29 be 94 20 55 be
       -0.16059905 -0.15508604 -0.1658795 -0.20813209
0001f0 96 09 08 be 91 77 14 3d 38 6d 8b 3d d3 ab 1a 3e
       -0.13284907 0.03624684 0.06807941 0.15104608
000200 e3 69 0e 3e 08 6a 1a 3e 29 86 d2 3c de 85 12 3d
       0.1390758 0.1507951 0.025698738 0.035772197
000210 01 4c 9d 3d 38 33 c3 3d e7 a7 5a 3d 75 c9 1b bd
       0.07680512 0.095312536 0.05338278 -0.03803392
000220 56 1e ef bc 30 01 63 bd db e5 f9 3c f2 a9 89 3d
       -0.02918927 -0.055421054 0.030505111 0.067218676
000230 3f 67 f7 3b a2 30 90 bc 6e 02 e7 bb 6c 3d df 3c
       0.0075501497 -0.017601315 -0.00704985 0.027250968
000240 0f e3 2b 3c 7f 49 a7 bd 23 26 10 bd 18 57 af bc
       0.010491147 -0.08168315 -0.03519262 -0.021403834
000250 d8 d8 a7 3b c8 63 69 3b fd bf 20 3d d5 e2 32 bd
       0.0051222853 0.0035612453 0.039245594 -0.043673355
000260 4c d1 dc bc 7d 5e 36 bc d5 38 2c b9 ed 0e 67 bc
       -0.02695527 -0.011130926 -0.0001642437 -0.01410268
000270 1c 02 34 3c 63 45 81 bb 46 69 56 3c b9 55 c5 3c
       0.010986831 -0.003945039 0.013086623 0.024088727
000280 f2 e3 4d 3b 50 f2 db bb 16 01 01 bd 57 93 38 3d
       0.0031416384 -0.0067122355 -0.031495176 0.04506239
000290 14 80 e2 3c 2c c6 8f 37 d6 bd 1d bd a7 95 32 bc
       0.027648963 1.713921e-05 -0.03851112 -0.010899938
0002a0 48 39 80 bc 43 57 3c 3b af 0c 99 3c c6 03 91 bc
       -0.015652314 0.0028738535 0.018682806 -0.017701995
0002b0 24 b0 ef 3c b4 9d 07 3d 1b 61 34 3d d5 57 32 3e
       0.029258795 0.03310938 0.04403792 0.17416318
0002c0 bf 2e bc 3d ae c0 51 3d 80 fc c1 3d 1a 55 87 3d
       0.091886036 0.051209144 0.09471989 0.06608029
0002d0 24 50 1e 3e e9 9d a1 3d f7 05 a5 3d 98 a6 9e 3d
       0.15460259 0.07891447 0.08057778 0.07746619
0002e0 b7 02 0d bd f5 15 05 3e e0 d2 1c 3d a0 9c 04 3e
       -0.034426417 0.12996657 0.038287044 0.12950373
0002f0 44 81 84 3d 4f f8 9b 3d 73 2e e4 3b df 03 d6 bc
       0.06469968 0.076157205 0.006963545 -0.026124893
000300 af c3 72 bb 06 ef 2c 3b 64 51 4c 3d fa 36 83 bd
       -0.0037042906 0.0026387586 0.049882308 -0.0640697
000310 bc f7 2d bd 6f f4 ad bd 4d fb 13 bd aa 63 3e bd
       -0.042472586 -0.08493888 -0.03612833 -0.046481766
000320 3a f9 6b bd 06 77 4e bd 38 e1 7b bd bf 77 e3 bc
       -0.057610728 -0.05040648 -0.061494082 -0.02776706
000330 89 64 29 3d 0c 97 76 bd 5c c5 7d bd c2 29 36 bd
       0.041355643 -0.060202643 -0.061955795 -0.044473417
000340 21 17 0e 3d 50 89 77 3c 0e 25 90 3a 04 e1 24 bd
       0.034690026 0.015108421 0.0010997371 -0.040253654
000350 aa c6 87 bd ca 2d 10 3c 88 5e 5a bd 21 fb dc 3d
       -0.06629689 0.008799979 -0.05331281 0.107900865
000360 49 6a 92 ba ae 76 a2 bd b2 6c 9c bd ba df cd bd
       -0.0011170591 -0.079327926 -0.076379195 -0.10052438
000370 46 43 10 3e 61 3a 07 3d c0 e8 49 bd f2 04 ed bd
       0.14088163 0.03301466 -0.049294233 -0.11573209
000380 71 80 fa bd 11 7c 93 3d c5 39 82 3d 43 55 d5 bc
       -0.122315295 0.07201398 0.06358675 -0.026041633
000390 5b b9 44 3d 50 59 9f 3c 52 0b 1b 3d 3d 24 2b bc
       0.04802833 0.019451767 0.037852593 -0.010445652
0003a0 f1 8a a1 3b 25 89 67 3d b7 61 66 3d 02 dc cf bb
       0.004929893 0.056527276 0.056245532 -0.0063433656
0003b0 f3 b4 90 3c 6f 0d d3 3d 28 eb 86 bd 5c 30 f9 3d
       0.017664408 0.10305297 -0.06587821 0.12167427
0003c0 ea 53 22 bd 90 89 0f 3d 08 42 e3 bc 2d 4b 38 bb
       -0.039630808 0.0350433 -0.027741447 -0.002812098
0003d0 62 b4 34 bc db 7c a3 3d 2b ae 3e 3d ee 34 30 bd
       -0.011029335 0.07982799 0.04655282 -0.043019228
0003e0 20 8c f6 bc 97 15 10 3d cf 67 88 3d 02 26 2c bc
       -0.030096114 0.03517684 0.06660425 -0.010507109
0003f0 a6 44 e7 bd 67 f2 82 bd 27 c7 7b bd 05 78 9c bc
       -0.112923905 -0.06393891 -0.061469223 -0.019100199

bias f4 [10]
000000 61 3e fc bc ec 17 0a bb e1 00 82 bd f5 c1 a9 bc
       -0.030791463 -0.0021071387 -0.06347824 -0.020722369
000010 77 f7 97 3b 52 f8 89 bd f7 0c ab bc e0 3a 25 bd
       0.0046376544 -0.067368165 -0.020880206 -0.04033935
000020 57 59 13 3d d5 d1 76 3c
       0.035973873 0.015064676

weight f4 [10]
000000 e3 73 85 3f 0a 32 89 3f 6c 5c 8f 3f c1 ba 82 3f
       1.0425991 1.0718396 1.120008 1.0213243
000010 88 91 86 3f 8f 36 90 3f 24 07 88 3f ab 57 82 3f
       1.0513163 1.126665 1.0627179 1.0183004
000020 54 e3 82 3f df b3 83 3f
       1.0225625 1.0289267

bias f4 [10]
000000 06 ca 23 be b1 d8 43 be 89 79 4f be fd 53 3e be
       -0.15995035 -0.1912563 -0.20261206 -0.18586726
000010 7a 89 0f be 4e fd 8f bd f3 18 f7 3c 41 35 a9 3a
       -0.14017287 -0.07030736 0.030163264 0.0012909548
000020 27 fe 14 bd 11 3a 5d be
       -0.03637519 -0.21604182

running_mean f4 [10]
000000 c1 87 4b 3f c7 0c 07 c0 eb 9d 36 c0 1e 0f 0f bf
       0.7950402 -2.1101549 -2.8533885 -0.5588244
000010 f3 bd 9a 3e 5d b5 87 bf 1c 6c 89 bf a3 0e bd bf
       0.30223045 -1.0602223 -1.0736117 -1.4770092
000020 98 46 ef 3e d1 4c f9 3d
       0.46733546 0.12172855

running_var f4 [10]
000000 ee a5 2d 40 8d 5b 76 40 36 3d 6a 40 33 19 02 40
       2.7132525 3.8493378 3.659986 2.032788
000010 9a a8 2f 40 bd 05 4f 40 d9 3e 2c 40 96 26 5e 40
       2.7446656 3.2347252 2.691336 3.471105
000020 cc a1 08 40 10 43 05 40
       2.1348753 2.0822182

weight f4 [145, 250]
000000 78 2a dd 3c 1f 7d 02 3d 2b 67 9c 3d eb 7a 95 3d
       0.02699779 0.031857606 0.07636865 0.07298835
000010 df d5 4e 3d b4 fc 03 bb 17 3e 39 bd de 80 ff bd
       0.050496932 -0.0020139636 -0.04522523 -0.12475751
000020 7a d8 6a 3c ca 26 d5 3d 80 42 d6 3d ad 19 c5 bd
       0.014333839 0.10407789 0.104619026 -0.09624038
000030 c4 40 9f bd 84 37 31 3b 88 61 9a 3d 4d 22 eb 3d
       -0.07776025 0.0027041147 0.07538134 0.11481152
000040 3e bf 76 ba 3a d1 72 bb a0 e3 90 bc 28 6e e9 bc
       -0.00094126526 -0.0037050978 -0.017686665 -0.02849491
000050 95 26 e1 3d 23 8a 8e 3d 25 4a 12 3e 41 29 1f 3e
       0.10993687 0.06959941 0.14286096 0.15543081
000060 ea b0 7a 3c 56 a2 de 3c b4 80 a5 3d e5 99 a7 3d
       0.015300969 0.027177017 0.08081189 0.0818365
000070 8d d3 b9 ba 3b 07 18 bd 6e e4 4c bc 36 bc 44 3d
       -0.0014177427 -0.03711627 -0.012505634 0.048031054
000080 5d f6 ab 3d 30 18 18 bd fa e0 99 3c 91 74 9f bd
       0.083965994 -0.037132442 0.018784035 -0.07785905
000090 28 2e d5 bd 7d 3f 75 bd c2 ce 9f bd b5 a6 28 3d
       -0.10409194 -0.059875 -0.07803108 0.04117461
0000a0 79 23 5c bd 04 d9 2c be 95 80 d3 bc ec be 9d bc
       -0.053744767 -0.1687966 -0.025818149 -0.019256078
0000b0 de b3 01 3e 69 8f fd 3c 25 fd 81 bd 9b 3f 80 bd
       0.1266627 0.030952172 -0.063471116 -0.06262132
0000c0 be 40 6f 3d 8b f3 c1 3d d3 76 4f bb 7f 79 e1 3c
       0.058411352 0.0947028 -0.0031656518 0.027523754
0000d0 ce 03 b3 3d 02 97 95 3d 65 17 d5 3d 53 f9 63 3d
       0.0874096 0.07304193 0.10404853 0.055657696
0000e0 91 59 96 3d 21 f7 88 3d bd e8 aa 3d c5 93 88 bc
       0.07341302 0.06687761 0.083451726 -0.016672025
0000f0 e5 b1 83 3d 90 4a c4 3d 77 3a e4 3d 2c 6e e1 bc
       0.06430415 0.09584534 0.11143964 -0.027518354
000100 64 b2 d7 bd 00 72 c6 3d 5e f4 0d bd 4d 0a 75 bb
       -0.10532072 0.096897125 -0.034656875 -0.0037390173
000110 d3 b5 f6 bd 9b e5 a2 bd 45 f6 f6 3c 7f 3e 50 bc
       -0.12046399 -0.0795395 0.030146727 -0.012710213
000120 3d 43 1f be 52 c9 28 be 21 71 1b bd a9 56 c3 3d
       -0.15552993 -0.16483048 -0.037949685 0.095380135
000130 0a 87 39 3e ea e9 ae 3d 98 2d 0d 3e 79 de 03 3e
       0.1811792 0.08540709 0.13786924 0.12877835
000140 7e 1f 59 3c 20 f1 8b 3d 82 16 64 3d ba ec 80 3c
       0.013252137 0.068331 0.055685528 0.01573788
000150 bc 63 a5 3a c0 d1 fd bd 94 21 fd 3d 86 72 68 3d
       0.0012618224 -0.12393522 0.1235992 0.056749843
000160 26 ec ca bc d3 33 47 3d c5 df 1b bd 75 a7 d4 bb
       -0.024770807 0.048633408 -0.0380552 -0.006489689
000170 d0 7b 6e bd 48 70 94 3a b6 1c 10 3d f7 2b 85 bd
       -0.058223546 0.0011324966 0.03518363 -0.06502526
000180 3c 44 08 be 0a 4d 0f be 95 e3 9f bd c9 6e 39 3e
       -0.1330728 -0.13994232 -0.0780708 0.18108667
000190 38 8f 62 bd 8d f7 32 bd fd 83 18 bd 1f 10 50 bc
       -0.055312365 -0.043693114 -0.03723525 -0.012699156
0001a0 d6 ab 0c be e7 59 1d bb 2e ad 8f bc 96 6e 33 bd
       -0.13737425 -0.0024009885 -0.017538633 -0.043806635
0001b0 fb fa 5f 3d 84 db 89 bd 8b 4d 4b bd ce d6 ee bd
       0.054682713 -0.067313224 -0.049634498 -0.116620645
0001c0 6c 02 43 bd dc 82 e3 bc 95 7f 88 bd f6 08 f6 bd
       -0.04760973 -0.02777236 -0.06664959 -0.12013428
0001d0 77 43 62 bd f9 b9 25 bd bb 4c a3 bd 9b 58 e1 bd
       -0.05524012 -0.04046056 -0.079736196 -0.11003228
0001e0 d8 f6 2f be e1 e6 f3 bd 3a b3 0d be 99 66 e9 bd
       -0.17184007 -0.11909271 -0.13837901 -0.11396522
0001f0 32 b7 a8 bd c2 8f 17 bd d9 f8 19 bd 64 5f 9b 3c
       -0.08238067 -0.037002333 -0.037590835 0.018966384
000200 44 9b 7a 3d 6b 20 96 3d 8d 71 cf 3d 1d 4f 81 3d
       0.06118323 0.07330402 0.1012908 0.06313918
000210 2b 5c 49 bd 44 4f a4 3d db 43 e4 3d 11 6a a6 bc
       -0.049160164 0.08022931 0.11145755 -0.020314248
000220 b5 48 f1 bc 3d a5 ab bd 5b 91 e6 bd 8f 97 bb 3d
       -0.029453615 -0.08381126 -0.11258193 0.09159767
000230 81 2f 3d 3d b5 62 72 bd a6 0d 3e be 9c b4 4b bd
       0.04618788 -0.059176166 -0.18559894 -0.04973279
000240 de fd eb bc 0e 36 3f 3d ed 6b d4 3d d8 cc b2 3c
       -0.028807577 0.04668241 0.10372148 0.021826193
000250 a5 a3 bc 3b f1 28 b8 3d 30 5e 02 bd 36 58 f5 bd
       0.0057568126 0.08992184 -0.031828105 -0.119797155
000260 85 89 b1 bd 3a 05 4a bd 62 36 85 bd 3d c4 a6 3d
       -0.08668808 -0.04932139 -0.06504513 0.08142898
000270 95 a0 52 bb d3 c7 ad bd 46 19 0a bc d9 15 0a be
       -0.0032139171 -0.08485379 -0.008428877 -0.13484897
000280 d8 38 e0 3d b3 06 26 bd c0 9e b6 bd aa 95 8c bc
       0.10948342 -0.040533733 -0.08916998 -0.01716121
000290 bd 4e 79 bd 00 1d 56 3d 5a 2e 5a 3d 86 ce a8 3c
       -0.060866106 0.05227375 0.05326686 0.02060629
0002a0 50 20 5f bd 2f d3 f9 bd 5f c8 a5 3c 6b 0b 81 3d
       -0.054474175 -0.12198483 0.020237146 0.06301006
0002b0 96 29 63 3c 9f bf ec 3c 15 34 8a 3c f0 31 79 bd
       0.013864895 0.028899966 0.016870538 -0.06083864
0002c0 66 5b 40 3d 17 10 8b bd dc 80 12 3c ec ce 8b 3d
       0.046962164 -0.06790178 0.008941855 0.068265766
0002d0 01 7f d4 3c 4a a7 55 bd f4 62 6c 3c 0f b6 30 3e
       0.025939466 -0.052161492 0.014427889 0.1725695
0002e0 0b 0d a9 3d 75 fe b4 bc 5f 2e 78 3d 22 4b 8e bd
       0.08254441 -0.02209399 0.060591098 -0.06947924
0002f0 56 2c d7 3d 61 ff b9 3d 7c 18 e4 bb 8b 5e 42 bb
       0.10506503 0.09081913 -0.0069609266 -0.0029658403
000300 55 22 e8 3c d4 e4 3d 3d c7 26 f2 bc a9 7c 03 be
       0.028336683 0.046360806 -0.029559506 -0.12840523
000310 83 1c d3 3c 19 b2 58 3d 61 cd c1 bb f5 94 94 ba
       0.025770431 0.052904222 -0.0059143757 -0.0011335897
000320 11 7f 6e 3d 02 47 b1 3d 70 dc f9 ba c2 70 9d 3d
       0.05822665 0.08656122 -0.0019062888 0.076875225
000330 29 8a bf 3b a0 19 ae 3c 0b c2 0a 3d 60 55 fe 3c
       0.0058453274 0.021252453 0.03387646 0.03104657
000340 f6 b1 ac 3d aa dd f3 3c 77 5f 51 bd 45 6f 5b bd
       0.08432381 0.029768784 -0.051116433 -0.05357291
000350 c9 29 6c 3c a4 49 af 3c 55 43 c5 bd 6d f7 d8 bb
       0.014414259 0.02139742 -0.09631983 -0.0066212923
000360 57 91 14 bd 64 e2 a5 bd ee fd 1f bd e1 d5 e2 3c
       -0.03627142 -0.08099821 -0.039060526 0.027689876
000370 2b 8b b0 bc ca 37 11 be fc 22 1e be d3 31 a5 bd
       -0.021550735 -0.14181438 -0.15443033 -0.08066144
000380 b4 e7 04 be 3b 3a 8f bd ed 6b 22 bd 02 98 e2 bc
       -0.12979013 -0.069935285 -0.039653707 -0.027660374
000390 ce 50 8a 3d 59 aa bc 3d 9a e3 37 3d 11 05 81 3d
       0.067536935 0.09212179 0.044894792 0.062997945
0003a0 e8 88 bc 3d 81 5b 90 3d 2b db fa 3d 28 12 93 3d
       0.092058 0.07048703 0.12248834 0.071811974
0003b0 79 9c 2e 3d 1e ab ed bc de 16 ce 3c c7 fb 5f bd
       0.042629693 -0.02901226 0.025157388 -0.054683473
0003c0 8b a8 d5 3d ab 44 7b bc 42 55 95 bc ee d8 d7 bc
       0.10432538 -0.015336196 -0.01822913 -0.026348557
0003d0 d7 55 c2 bd 14 8d 25 3d fd 62 4f 3d 80 d6 1d 3b
       -0.09489029 0.040417746 0.050631512 0.002408415
0003e0 ed a7 33 3c 43 43 31 bd 29 0f 01 3d da 59 67 3d
       0.01096533 -0.043277036 0.0315086 0.056482174
0003f0 fb a8 9e bd d2 73 5f 3d 3c c6 9a 3d cb 04 57 3d
       -0.07747074 0.054553814 0.075573415 0.052494805

bias f4 [145]
000000 d1 1b 37 3c 6b b3 86 bc 04 73 3b 3d c6 c2 84 bd
       0.011176066 -0.016442975 0.045763984 -0.064824626
000010 00 c3 1e 3d 9f 4b 14 be 92 1a 72 3d d1 fc a2 3c
       0.038760185 -0.14481972 0.05910737 0.019895943
000020 7f a1 98 3c 3c c5 25 bd c1 05 c1 bd 25 73 2e bd
       0.018631695 -0.0404713 -0.094249256 -0.04259028
000030 5c fc 75 bd 54 a1 f1 3c 08 9e 7a bd 0b 82 cd 3d
       -0.06005512 0.029495873 -0.061185867 0.10034569
000040 ae 19 a2 bd f3 12 91 bc 08 60 b4 3c 35 e3 02 bc
       -0.07915054 -0.017709231 0.022018448 -0.007988741
000050 a5 f4 34 bd 7b 32 f0 bc e7 dc 85 3c c5 78 be 3a
       -0.044178624 -0.029320946 0.016340686 0.0014531842
000060 4d d8 4c 3d 46 e2 35 3e 06 6a 5e bd 93 9a 7e 3e
       0.050010968 0.17762098 -0.05430033 0.24863653
000070 7f 64 a5 3c 5a 8f d7 bc 6d c3 6a 3d 0f 49 a2 bd
       0.020189522 -0.026313473 0.05731528 -0.07924091
000080 f2 7b 2d 3d 35 5b ca 3d ab 09 5c bc e8 d4 9c 3c
       0.04235453 0.098806776 -0.013430039 0.01914449
000090 dd cc f8 3d f2 a8 64 3d 53 a8 af 3d 2d 79 bf bd
       0.121484496 0.05582518 0.08577027 -0.09349284
0000a0 70 4c da bc b5 34 db bc f3 6d 6d bd be 30 8f bc
       -0.026647776 -0.026758531 -0.057966184 -0.017479297
0000b0 ee 91 35 3e f7 49 c7 3d 5a 8a f8 bd d9 1a 35 3c
       0.17731449 0.097309045 -0.121357635 0.011053764
0000c0 87 80 b3 3d 07 3d be 3d 8f f8 f2 bc ff d2 06 3e
       0.08764749 0.09288984 -0.029659538 0.13166426
0000d0 fd 29 14 bc 01 9c 69 bc 8d 04 ab 3d 1e aa 7e bd
       -0.009043214 -0.014258386 0.08350477 -0.062173955
0000e0 a0 60 8d 3d fb 36 3c 3d d3 44 fb 3c ac 58 5f 3d
       0.069031954 0.04595087 0.030672466 0.054527923
0000f0 9e 47 9c bd 5a a4 db 3d a8 bf 8c bd 71 d9 06 bd
       -0.076308474 0.10724707 -0.06872493 -0.032922212
000100 83 c1 82 3d b0 88 fd 3d 00 f9 ac bc 63 c8 d1 bc
       0.06384566 0.12379587 -0.021114826 -0.025608247
000110 62 02 c9 bc a0 77 76 3c 60 cd 30 3e 8f bf 49 bd
       -0.024537269 0.015043169 0.17265844 -0.04925495
000120 49 c7 bb bd 76 f8 01 3d 7b 83 91 3d 2c 6c 89 bd
       -0.0916887 0.03173109 0.07105156 -0.06710085
000130 b6 72 96 3d ad 68 c7 3d 79 b6 ab 3d f6 ab 3c bd
       0.07346098 0.09736762 0.08384413 -0.046062432
000140 52 47 23 3d 9d d6 28 3e fd 97 26 3e bd d1 c8 3d
       0.03986294 0.16488118 0.16268916 0.098056294
000150 a1 ae 27 bd 63 f0 1c 3c df 7e 9b bd 85 9b 3d 3d
       -0.040938023 0.009578797 -0.07592558 0.046290893
000160 8f 12 8b bd a3 a6 dc 3d 5c 30 40 bd 95 09 1a 3e
       -0.06790649 0.10773971 -0.04692112 0.15042718
000170 f4 4c 41 3d 62 c4 b4 3d 59 47 f1 3c 3a a2 6f 3b
       0.04719253 0.088265195 0.029452967 0.00365652
000180 ac 9f a9 bd ff 92 81 3d f5 4c 5b 3c bc c1 25 bd
       -0.08282408 0.063268654 0.013385047 -0.040467963
000190 a6 36 b0 bc b6 13 14 3d 51 8b fd bc 89 4b a3 bd
       -0.021510433 0.03615161 -0.03095022 -0.079733916
0001a0 7d 49 a5 3d b8 b7 a2 3d 4d ab 93 bc 1e fb c6 bc
       0.080706574 0.07945198 -0.018026019 -0.024289664
0001b0 f1 60 c5 bc 8b c0 1b bc 5b 6b 02 3d f9 29 19 3c
       -0.024094077 -0.009506355 0.031840663 0.009348386
0001c0 14 9b bf 3d ab 83 1f 3e 58 f5 81 3d 26 3a c9 3c
       0.09355751 0.15577571 0.06345624 0.02456386
0001d0 7a 2e 36 bd 1b ac fd bc f2 a6 ad 3c 58 05 46 bd
       -0.044477917 -0.030965855 0.02119777 -0.04834494
0001e0 7d ee 53 bd f9 af a3 3d c4 b7 d7 bc a1 eb e7 bd
       -0.051741112 0.079925485 -0.026332743 -0.113242395
0001f0 e3 44 88 bc af 8e 80 bd ea 87 b2 3c dd 51 0e bc
       -0.01663441 -0.06277215 0.021793325 -0.00868651
000200 a9 04 97 3c 46 8a b5 3d e7 ab e6 bb 4b bd 85 bd
       0.01843484 0.08864264 -0.0070395353 -0.065302454
000210 ce af e4 3b 0c 5b 47 be 90 ae 89 3d 78 7f 9e 3d
       0.0069789654 -0.19468325 0.06722748 0.077391565
000220 c9 fc a5 bc 4f 5e 0f 3e 74 d2 d8 3c 43 e7 4c 3c
       -0.020262139 0.1400082 0.02646754 0.012506309
000230 69 cc 78 bd c5 66 a1 3d ce 60 e5 bb 45 7c e1 bc
       -0.060741816 0.0788093 -0.0070000654 -0.027525077
000240 96 93 99 3d
       0.07498853

weight f4 [30, 145]
000000 8e a6 f6 3d a6 3b 02 3e f7 bb c8 3d 5f 78 6c 3d
       0.120434865 0.12718067 0.098014764 0.057731982
000010 36 42 dd 3c dd 57 c6 3d 42 6c f6 3d 04 a7 08 3b
       0.02700911 0.09684727 0.12032367 0.0020851502
000020 e3 7f be 3d de 6b 03 3d 7b a4 61 bd 7c 66 14 3e
       0.09301736 0.032085292 -0.0550885 0.1449222
000030 32 39 ae 3d c4 8c 8e 3d b5 e3 65 3d c1 14 e3 3c
       0.08507003 0.06960443 0.05612536 0.027719857
000040 09 53 d4 bb ca 53 21 3e f2 d5 9f bd 7b 3b 91 3d
       -0.006479625 0.15754619 -0.07804479 0.07091423
000050 9b 43 82 3d a5 11 e7 3c 7c ab d8 3c 80 db ac 3d
       0.06360551 0.028206656 0.026448958 0.08440304
000060 14 1d 0d bc bb fc 01 3e 35 71 e6 bc ac 29 4e be
       -0.00861289 0.12694065 -0.028130153 -0.20133084
000070 d0 b8 a3 bd d2 4d 8c 3d 63 8a 8a 3c 76 fa 8f bd
       -0.079942346 0.068507805 0.016911691 -0.070301935
000080 2e 4c 78 3d 01 a5 83 3d 6e e0 a7 bd 2b be 01 3d
       0.060619526 0.06427956 -0.081971034 0.0316755
000090 f8 7e 9e 3d 4f d2 91 3d 06 08 4d 3d 46 cc ea 3d
       0.07739061 0.07120191 0.05005648 0.11464743
0000a0 5a 98 87 3d d2 e3 a7 bd 4f c1 25 bd 82 ce 71 3d
       0.06620856 -0.0819775 -0.040467557 0.05903483
0000b0 b2 c8 8f 3d a0 08 a2 bb 2a 6a b1 3c b5 0b 39 3d
       0.070207015 -0.004944876 0.021657068 0.04517718
0000c0 b6 e4 c2 bd 68 79 ea bc 2e 60 60 3d 05 0c 82 bd
       -0.095162794 -0.028622344 0.054779224 -0.06349949
0000d0 24 f4 70 3d 2f 54 10 3b d3 97 bb 3d 29 e3 54 3d
       0.05882658 0.0022022834 0.091598175 0.05197445
0000e0 fb 2c 52 bd 57 78 10 bd 63 b6 a0 bd ee 34 d1 3c
       -0.051312428 -0.035271015 -0.078472875 0.025537934
0000f0 6a 91 8a bd f4 17 01 3d fe 5c 9d bb 94 08 52 bd
       -0.06766017 0.031516984 -0.0048023453 -0.051277712
000100 35 0f 95 3d b1 dc 52 bc 62 8f 5b 3d 6c e4 1f 3d
       0.07278291 -0.01287 0.053603537 0.0390362
000110 ef dc 9c bd fa 53 0b be 65 fb 96 3c 07 e8 ae 3c
       -0.07659327 -0.13606253 0.018430421 0.021350874
000120 33 27 0c bc 9e 28 42 3a 22 58 17 be 3e f7 f5 ba
       -0.008554268 0.0007406565 -0.14779714 -0.00187657
000130 35 ed e8 bc 35 96 a0 3d aa 9d 00 be b9 62 61 bd
       -0.028433422 0.0784115 -0.12560144 -0.05502579
000140 52 b3 88 bd b9 c1 33 3c ff d4 27 3d 5f 75 06 3e
       -0.06674828 0.01097148 0.040974613 0.13130711
000150 38 1d 03 3d 7f 8f 20 bd 2b 42 85 3c e1 38 82 bc
       0.032010287 -0.03919935 0.016266903 -0.015896263
000160 2f 87 15 3c b8 f5 94 3d f4 73 0c bb 71 8b 30 3d
       0.009126469 0.0727343 -0.0021431418 0.04310173
000170 e5 2d 5d 3e 7f 7e bf bd e1 da 8f 3d 6e 00 d2 bc
       0.21599539 -0.09350299 0.0702417 -0.02563497
000180 10 a8 13 bc 39 68 2e bd 19 75 bd 3d 27 ec 19 bd
       -0.009012237 -0.042579863 0.0925085 -0.037578728
000190 3e 14 84 bd 8e d3 84 bc c0 1a 8e 3c f0 78 bf bc
       -0.064491734 -0.016214158 0.01734674 -0.023373097
0001a0 0b 55 36 3d c3 07 ce bc 63 9e bf 3d 46 a9 52 3b
       0.044514697 -0.025150185 0.09356382 0.0032144352
0001b0 f3 c8 a9 3d 8c cd 5c 3c de 1c 70 3b fd fc d9 3c
       0.08290281 0.013476741 0.00366383 0.026609892
0001c0 30 a6 4b 3d 5b 36 06 3e 5d 4b 15 bd 5a ac 24 3d
       0.049719036 0.13106672 -0.036448825 0.04020343
0001d0 12 7a 09 3e 81 0a 82 3d c5 83 28 3d 26 18 5b bc
       0.13425472 0.0634966 0.04114129 -0.013372457
0001e0 1f 13 81 3d e1 6e 4b bc f4 fb 48 3d c4 6a 24 3d
       0.06302475 -0.012416572 0.049068406 0.040140882
0001f0 9d 65 a7 3d d4 d8 0e 3d a0 02 c7 bd ff 43 70 bd
       0.08173678 0.034874752 -0.097172976 -0.058658596
000200 1d e1 86 3c bb e4 9b ba e8 74 60 bd da 20 ad 3d
       0.016464764 -0.0011893729 -0.05479899 0.084535316
000210 32 be dd bd 14 c9 1a 3c bc a1 e5 bc b1 99 cb 3d
       -0.108272925 0.009447355 -0.028031223 0.09941424
000220 92 1e 83 3d df a5 0c be 73 5d bb 3d 9e 92 50 bd
       0.06402315 -0.1373515 0.091486834 -0.050921075
000230 1c a6 3c bc e9 87 48 bd 67 56 b1 bd 29 da 92 bd
       -0.011514213 -0.04895774 -0.08659058 -0.07170517
000240 8d fc 35 bc 0c 69 0a 3e 1e 41 00 3d 51 3f 88 bd
       -0.011107576 0.13516635 0.0313121 -0.06652702
000250 1c 9e 09 bd 79 7b 35 3d c3 35 b7 bb 7c 95 6d 3b
       -0.03359805 0.044307206 -0.0055911257 0.003625243
000260 d8 84 70 3c 72 f6 31 3d 6d a2 4b 3d 92 8f d6 bd
       0.01468011 0.04344792 0.04971545 -0.104766026
000270 fd 8f 68 3c 8a 40 a5 3d a7 81 85 3d ae 3b df bd
       0.014194486 0.080689505 0.0651887 -0.10900055
000280 69 11 3b 3d 35 15 ad 3c 5c d5 89 3d c3 5a 0b bd
       0.0456709 0.021128276 0.06730148 -0.034022104
000290 6e f3 c1 bd bd a9 03 3d 76 e2 1e bd b7 35 15 bc
       -0.09470259 0.032144297 -0.03879019 -0.009107045
0002a0 ba 8c 4c 3d 80 b9 fe 3c 11 b5 94 3d 38 03 1b 3e
       0.049938895 0.031094313 0.07261098 0.15137947
0002b0 9f b7 2f be ad 97 19 3c f7 22 8a 3b b5 79 55 bd
       -0.1715989 0.009374541 0.004215594 -0.052118022
0002c0 4f fd 42 3d 74 9d 15 be 20 4f 07 b8 01 03 40 3d
       0.047604855 -0.14610845 -3.22602e-05 0.046877865
0002d0 03 04 16 3d b3 34 ff 3d fc 30 e3 bd b6 98 55 bd
       0.03662492 0.124612235 -0.110933274 -0.05214759
0002e0 4b 68 27 bd 93 6b f8 3b 05 0b 5a 3d 4f 57 e7 3d
       -0.040870946 0.007581183 0.053233165 0.1129595
0002f0 33 6a d4 bd 71 12 2b 3e 94 26 81 bd 6e 40 c1 3d
       -0.103718184 0.16706254 -0.06306186 0.09436117
000300 84 41 83 bd c7 7a b5 bd dd 1b f8 bb 0c f8 36 3e
       -0.064089805 -0.088613085 -0.007571681 0.1786806
000310 53 ec 9d bd d9 23 c7 3b 6d cc 1f 3e 11 f7 44 3e
       -0.07711091 0.0060772714 0.15605326 0.19234873
000320 ce 6e 12 bd 8c 00 6d bd ec da 29 3e 38 81 dd bd
       -0.035750203 -0.05786185 0.16587418 -0.10815662
000330 e0 d8 1f 3d dd 25 a3 ba 8b 30 8e bc fe af 4c 3d
       0.039025187 -0.0012447197 -0.017357131 0.049972527
000340 d7 8c 85 bc 6c e4 96 bd 85 8b d4 3d 87 73 f5 3c
       -0.01630251 -0.07367787 0.10378174 0.029962314
000350 0e fc 2f bd 9e bb 52 3d 6b 6b 83 bb ab 1c 8e 3d
       -0.042964987 0.051448457 -0.004010608 0.06939062
000360 fc a1 bd b9 37 36 1e 3e 5f 88 45 bc 48 4f 3c 3e
       -0.00036169577 0.15450369 -0.012056439 0.18389618
000370 27 cc 53 3d 4b 54 67 bd be c2 62 ba 0c 3b a7 bc
       0.051708367 -0.056476872 -0.00086502347 -0.020413898
000380 60 97 f0 3c 5f 1a 2d 3d 70 64 f4 3d af ab f0 3d
       0.029369056 0.042261478 0.119332194 0.11751496
000390 53 6a 54 3d 39 cf c6 bc 77 af 58 3d 80 6b c8 bc
       0.05185921 -0.024268733 0.05290171 -0.024465322
0003a0 62 5e 99 3d b6 cb c3 3d ba e3 54 3b bb 23 b9 bc
       0.07488705 0.09560339 0.0032484368 -0.022600045
0003b0 39 6e f3 bd 19 59 ac bd a7 77 9a 3a e4 72 94 3d
       -0.11886258 -0.084154315 0.0011784927 0.07248476
0003c0 93 2d 23 3d f6 75 48 bd 50 4a c7 3d 02 df 18 bc
       0.039838385 -0.04894062 0.09730971 -0.009330513
0003d0 df 34 49 3c a7 95 45 3d 52 ab 83 bb 9f ab 01 bc
       0.012280672 0.048238423 -0.0040182257 -0.007914453
0003e0 e9 33 42 bd a2 20 e7 bc 29 5a 64 bd fb 20 f0 3d
       -0.047412787 -0.028213803 -0.055750046 0.117250405
0003f0 88 90 31 3e 2c df 01 3d 99 60 95 3d 74 c1 8d 3c
       0.1734029 0.031706974 0.07293815 0.01730416

bias f4 [30]
000000 a2 81 2d 3d a8 cd c5 bd 5f 33 27 bc fd 14 59 bd
       0.042359956 -0.096583664 -0.010205119 -0.05299853
000010 f8 64 71 3d b3 0e 06 bd 91 56 30 bd 6f ba e3 3b
       0.058934182 -0.032728862 -0.043051306 0.006949715
000020 f7 be e5 bd 1b 9f 43 3d 48 71 2c 3d 6c aa 98 bc
       -0.11218064 0.047759157 0.04210022 -0.018635951
000030 fb 04 cc 3c ed d0 bb bd ff 08 38 3d fe cf 3b bd
       0.024904719 -0.09170709 0.044930454 -0.045852654
000040 76 38 05 3e b9 8d 34 3d d5 b4 92 3d af 67 84 bd
       0.1300982 0.04408047 0.07163397 -0.064650886
000050 3e 90 97 3d 1d 91 4e 3c 75 cb 6f 3c 6a b1 96 bd
       0.07400559 0.01260784 0.01463591 -0.07358058
000060 38 59 3d 3e 0e 20 9c bd 1c 6f bd 3d 5e dd 9c bc
       0.18491066 -0.076233014 0.09249708 -0.019148525
000070 4a e1 e2 bd 9e f6 ac 3c
       -0.11078127 0.02111369

weight f4 [10, 30]
000000 6a 98 87 3d f7 6d 47 3e b0 f4 82 bc 71 3d 8e 3d
       0.066208676 0.19475542 -0.015985817 0.06945313
000010 f1 24 14 3e 5e 7f d3 bd ce 19 f6 3d 61 86 84 bb
       0.14467217 -0.10327028 0.120166406 -0.0040443395
000020 f0 a1 eb 3d 85 94 cd 3d 8d 82 39 be c8 00 0c 3d
       0.115054965 0.100380935 -0.18116207 0.034180433
000030 eb 09 2a be 83 29 2e be 0d 42 70 3c df 19 dc bd
       -0.16605346 -0.17008023 0.014664185 -0.10747122
000040 6b f5 47 be a4 f9 24 3e a4 58 33 be 4e 63 58 3e
       -0.19527213 0.16110855 -0.17514282 0.21131632
000050 cc f8 27 3c 56 bd bb 3d 47 7f 05 be 49 79 a6 bd
       0.010252189 0.09166972 -0.13036834 -0.08128602
000060 a6 ff 28 be e8 fc cb 3c 9c 91 30 bd bf 12 04 3e
       -0.16503772 0.024900869 -0.043107614 0.12897776
000070 ce 25 b2 bc 25 db ee bd dd db 11 be 0d 4c 33 3a
       -0.021746542 -0.11662892 -0.14244027 0.00068396406
000080 e7 b5 08 3e 0b c2 1e be de c6 d0 bc 2a d2 86 3c
       0.1335064 -0.15503709 -0.025485452 0.016457636
000090 35 ac 8c 3d 08 cb 86 3b 91 52 2a 3e 5e 41 39 bd
       0.068687834 0.0041135587 0.16633059 -0.045228355
0000a0 67 10 e3 3d 4a a8 0b 3e 74 7d e7 3d a5 af 45 bd
       0.11087113 0.13638416 0.11303225 -0.04826321
0000b0 e0 8f d1 3d 62 2c 22 3e af a1 84 3b f2 8e 54 3e
       0.1023252 0.15837243 0.0040475945 0.20757654
0000c0 63 bc 1d 3e 37 c1 48 be cf 21 5a 3e 7e 25 63 3d
       0.15403895 -0.19604956 0.2130196 0.055455677
0000d0 ba c4 a1 3b f7 31 ef 3c 0a d6 83 be d4 66 13 3b
       0.0049367817 0.02919863 -0.25749236 0.002249171
0000e0 c1 15 91 be 2b 80 9a bd ce a1 aa 3d bd 77 57 3d
       -0.2833691 -0.07543977 0.08331643 0.052604426
0000f0 1b 8b 8f bd 70 97 23 3e 24 7f 4e 3d 90 0d 18 3e
       -0.07008954 0.15975738 0.05041422 0.14848924
000100 48 13 a3 bd 5d bb 88 3d 45 8c 15 3e 21 75 5f 3e
       -0.07962662 0.06676362 0.1460429 0.21822025
000110 6d be 3e be 81 44 f8 bc 4d 6a 96 ba e2 3c f0 bd
       -0.18627329 -0.030306103 -0.0011475772 -0.117303625
000120 6f 5f b2 3d 55 c4 da bd 98 27 d7 bd 54 e8 00 be
       0.08709609 -0.106819786 -0.10505599 -0.12588626
000130 65 8e b7 bd 17 d6 f3 bd bb 01 3e be c2 25 15 3e
       -0.089627065 -0.11906069 -0.18555348 0.14565185
000140 bc 47 6d 3d a7 16 0d 3e b6 73 60 bc dc 96 17 be
       0.05792974 0.13778172 -0.013699463 -0.14803642
000150 94 fc 31 3e 72 60 1c bd 37 d8 07 be 7e ec f1 3c
       0.17381507 -0.038177915 -0.13266073 0.029531714
000160 48 5d 19 3e 34 4a 59 3d 4b 4a 40 be c9 2a 13 bd
       0.1497699 0.05304928 -0.1877834 -0.035929475
000170 04 8a 80 bd c9 52 1c bd 3e 4e b9 bd 98 8c fc 3d
       -0.062763244 -0.038164888 -0.09048127 0.12331504
000180 a4 69 02 3e 9d c5 b4 bc 3a 51 11 bd ce ba 42 3d
       0.12735611 -0.022066886 -0.035477854 0.047541432
000190 c1 17 70 be 6c 9a b2 bd 87 67 c4 3d 99 34 23 3e
       -0.23446561 -0.0872086 0.09590059 0.15938033
0001a0 16 e9 b4 bd 48 ad bf 3d 83 6b 77 3d 6c 3b 4a bd
       -0.0883352 0.09359223 0.060405266 -0.049373075
0001b0 0a e3 ac 3d 95 da 37 3e 0a 22 6b bd bd fc 05 3d
       0.08441742 0.17954476 -0.05740551 0.032711733
0001c0 c6 3e 26 be 61 94 ed 3d 1e 77 c9 3d 7e 86 c7 3d
       -0.16234884 0.11600567 0.09837173 0.09742449
0001d0 b3 6d f7 3d 15 cb 1a bd d6 23 47 3d 18 fb 3a bb
       0.1208147 -0.03779133 0.04861816 -0.0028531011
0001e0 77 7c 28 be bd 95 30 be 46 ad 88 3d 82 e4 1d 3b
       -0.1645373 -0.1724462 0.06673674 0.00240925
0001f0 bd 80 07 3e de af 00 bd 8f ff f0 3c 0c 39 9d 3c
       0.13232704 -0.03141772 0.029418735 0.019192241
000200 5d 68 7f bd 9a 3a 01 3e 99 01 2e 3e 0b a5 09 3d
       -0.062355388 0.12620011 0.16992797 0.033604663
000210 9c 09 06 be ef 73 82 bd b2 43 33 bd a4 49 2c bd
       -0.13089603 -0.06369769 -0.04376573 -0.042062417
000220 98 ab f9 3c c8 dc 04 3d 4f 7f 9e be fb 19 a3 3c
       0.03047733 0.032437116 -0.30956504 0.01990985
000230 71 c1 3c bd 09 69 df bd e8 f7 df 3d 18 9f 84 3c
       -0.046082918 -0.10908706 0.10935956 0.016189143
000240 14 51 2f 3e a3 25 cb 3d 24 38 11 3c 45 e4 26 3e
       0.17120773 0.09919288 0.008863483 0.16298015
000250 51 36 72 bd f6 ef cb bd a9 67 85 39 72 0e f0 bd
       -0.05913383 -0.09957878 0.0002544497 -0.11721505
000260 f1 82 50 3d 31 cb 6f 3d 0c 21 e2 bd 68 6b 6c bc
       0.050906125 0.058543388 -0.110414594 -0.0144299045
000270 76 c3 9b 3d ad 68 f7 bd c0 a9 b0 3d 61 33 f8 3d
       0.076056406 -0.12080512 0.08626127 0.12119175
000280 90 bc 88 3d a4 ab 10 be eb 58 c2 3d 5e ae 9e bc
       0.066765904 -0.14127976 0.09489616 -0.019370254
000290 a3 c5 eb bd 0e e6 12 3d 54 cb ff bd 9d ec 58 be
       -0.115123056 0.03586393 -0.12489954 -0.21184011
0002a0 ec 08 5c 3d c7 bc 3b 3e 8e 7d 5c be ae ef c1 3d
       0.053719446 0.18333732 -0.2153227 0.094695434
0002b0 ba e0 29 be 7c fa 0f be 45 88 9c 3d 28 81 2a bd
       -0.16589633 -0.14060396 0.07643179 -0.04162708
0002c0 40 d9 36 3e 20 e6 56 be a9 3c f9 3d 2a bd 0f 3e
       0.17856312 -0.20986223 0.12169773 0.14037004
0002d0 59 55 96 bb d3 3f e8 3d 10 58 55 bd aa 84 08 be
       -0.004587811 0.113402985 -0.052085936 -0.13331857
0002e0 7e 63 11 be 33 64 71 be 08 72 1e 3e dc d6 2f 3d
       -0.1419811 -0.23573379 0.15473187 0.042929515
0002f0 39 4c c6 bb 22 c2 1b bd be 9b 42 be e8 09 ab bc
       -0.006051567 -0.038026936 -0.19004723 -0.020878747
000300 b5 6b de b7 0a 58 69 3c 8b cf 7a bd 35 36 f6 3d
       -2.6514617e-05 0.014242182 -0.061233085 0.12022058
000310 13 07 30 3e 85 c4 c0 3d 17 46 7f bd 58 c0 00 be
       0.17190199 0.09412483 -0.062322702 -0.12573373
000320 f0 49 9a 3d 65 34 06 be f3 c1 af bd 77 36 35 bd
       0.07533634 -0.13105924 -0.08581915 -0.044241395
000330 a5 16 52 3e 87 61 d0 bd c4 ca 07 3e f1 d7 1e be
       0.2051645 -0.10174852 0.13260943 -0.15512063
000340 1c 1c 77 3d fb 28 10 be 68 8f 36 3d 69 d9 4b be
       0.06032954 -0.14078133 0.044570357 -0.19907154
000350 e0 b1 2b 3e 1c f4 9f b9 9c 22 51 be 1b bc 44 3e
       0.16767073 -0.0003050872 -0.20423359 0.19212382
000360 0b 8f d7 bd a3 3a 1c be d6 35 37 3e f9 d2 f4 3d
       -0.1052533 -0.15256743 0.1789163 0.11954302
000370 d5 9f 9f 3d 31 e1 9b 3d b7 71 22 3e 36 fb e0 bd
       0.077941574 0.07611311 0.15863691 -0.10985415
000380 25 5d 16 3c 26 86 03 3e 74 79 25 be bd 6e 87 bc
       0.009177481 0.12844142 -0.16159612 -0.016532296
000390 e9 b0 dd 3c 5e 51 12 3e 58 63 3d be 2d 0c 71 be
       0.027061896 0.14288852 -0.18494928 -0.23539801
0003a0 9b 7f fe bd 03 85 2c bd fa 3e 27 3e 2a 7c 6f 3d
       -0.124266826 -0.042119037 0.16332617 0.05846802
0003b0 2a 6c 54 be 26 cf 1f 3e 5f 79 28 3e 10 26 aa 3d
       -0.20744386 0.15606365 0.1645255 0.08308041
0003c0 f2 03 c5 bd 3d 1e ee 3d 10 9d ac bd 0e 2c 26 3e
       -0.09619893 0.11626861 -0.08428395 0.16227743
0003d0 5a 88 3c 3e 6c 4b 7a be 50 31 b7 3c 71 c4 65 be
       0.18411389 -0.24442834 0.022362381 -0.22438218
0003e0 9f 70 3b be 34 7c 59 bd 93 8e ad bd 32 99 27 3c
       -0.1830468 -0.053096965 -0.084744595 0.010229396
0003f0 ce 68 95 3d f2 8b 81 3d 7b de b2 3d 6f 83 35 3e
       0.072953805 0.063255206 0.08733841 0.17725919

bias f4 [10]
000000 db f6 83 be db e7 54 bd 85 12 df bc f8 ac 3f 3c
       -0.25774273 -0.051978927 -0.02723051 0.011698954
000010 9b 21 ad 3d 6c 82 1d 3d 52 79 83 3e ff 84 51 be
       0.08453675 0.038454458 0.25678498 -0.2046089
000020 67 42 26 3e 99 56 9c 3c
       0.16236268 0.019084262
