Project_1/Part2/checkpoints/cnn_0_50.pth (torch, 546235 bytes, 20 tensors)

weight f4 [64, 3, 5, 5]
0	0x3e2cc28c	0.16871089
1	0x3e4a3106	0.19745263
2	0x3eb2e813	0.34942684
3	0x3e8ecc22	0.27890116
4	0x3e8a535a	0.27016717
5	0x3e23fae5	0.16013677
6	0xbcef5b2d	-0.02921828
7	0xbca0026d	-0.019532407
8	0xbddf839e	-0.10913776
9	0x3e2d5bc8	0.16929543
10	0xbe45f204	-0.19330603
11	0xbe805055	-0.25061288
12	0xbdee759b	-0.11643525
13	0xbeaddb5a	-0.33956414
14	0xbe52bfd3	-0.20580988
15	0xbeaf2d76	-0.3421437
16	0xbe9a8a95	-0.30183855
17	0xbe775736	-0.24154362
18	0xbec03f39	-0.37548235
19	0xbe94dd89	-0.29075268
20	0xbe6410e4	-0.22272068
21	0xbe69d7ea	-0.22836271
22	0xbea4cae7	-0.32186052
23	0xbe722469	-0.23646702
24	0xbe37ca7c	-0.17948335
25	0x3e571996	0.21005854
26	0x3ecbf237	0.39833233
27	0x3edfa8ce	0.43683475
28	0x3eca296e	0.39484733
29	0x3e7d721b	0.24750559
30	0x3e544fa5	0.20733507
31	0x3eaed569	0.34147194
32	0x3dcaf419	0.09909839
33	0x3e00bcbb	0.12571995
34	0x3c161e6a	0.009162525
35	0x3deea43e	0.116524205
36	0x3dec1adb	0.1152856
37	0x3e2277c5	0.15866001
38	0xbd80cf21	-0.06289507
39	0x3d13390b	0.035943072
40	0xbe2e89b9	-0.17044725
41	0x3d76c768	0.060248762
42	0x3e6bc21c	0.23023266
43	0x3c8ed923	0.017437523
44	0x3d4ce144	0.050019518
45	0x3b4ac5e3	0.0030940704
46	0x3e4504c3	0.19240098
47	0x3d135295	0.03596743
48	0x3d7f0f17	0.06227025
49	0x3cf64d07	0.030066026
50	0xbda47cb0	-0.08031595
51	0xbe501533	-0.20320587
52	0xbe51ba69	-0.20481266
53	0xbe68d8cd	-0.22738953
54	0xbd2c38a4	-0.042046204
55	0xbe672a27	-0.22574674
56	0xbf2d7d20	-0.6776905
57	0xbf277c09	-0.6542364
58	0xbf48e366	-0.7847198
59	0xbed78b31	-0.42098382
60	0xbe8c2a64	-0.2737609
61	0xbee14795	-0.43999925
62	0xbe60807c	-0.21924013
63	0xbe9cac5e	-0.30600256
64	0xbe3a26b9	-0.18178834
65	0x3e42194e	0.18954965
66	0x3e84665d	0.25859347
67	0x3eefa7b2	0.4680763
68	0x3ebe9d19	0.3722923
69	0x3edd68d9	0.43244055
70	0x3ef8e4c5	0.48612037
71	0x3e986f0c	0.29772222
72	0x3ec701bd	0.38868514
73	0x3e1f894e	0.15579721
74	0x3e736bac	0.23771542
75	0x3e438a2e	0.1909568
76	0xbdf88d7d	-0.12136362
77	0xbe908e9a	-0.28233796
78	0xbe14ed7f	-0.14543723
79	0x3d2bc182	0.04193259
80	0x3ca877f4	0.02056501
81	0x3a65801c	0.00087547465
82	0xbe93091a	-0.2871788
83	0xbe4e7638	-0.20162284
84	0xbe85fcbc	-0.26169384
85	0x3e950a41	0.29109386
86	0x3e917445	0.2840902
87	0xba24e714	-0.0006290537
88	0xbeba85ec	-0.364303
89	0xbee84b18	-0.45369792
90	0x3c3ce201	0.011528493
91	0x3e951a49	0.29121616
92	0x3ec31b0c	0.38106573
93	0x3e3f6924	0.18692452
94	0xbe66d538	-0.22542274
95	0xbce58c84	-0.028021105
96	0x3de0a991	0.10969842
97	0x3e71983a	0.23593226
98	0x3e86f7f8	0.2636106
99	0x3d0cb11f	0.034348603
100	0x3dba7bce	0.09105645
101	0x3c8ff64d	0.0175735
102	0xbe192477	-0.14955316
103	0xbe204f77	-0.15655313
104	0xbd9eab8d	-0.077475645
105	0xbd9fc6f4	-0.07801619
106	0xbe2beea2	-0.1679025
107	0xbdba05de	-0.0908315
108	0xbb4194ca	-0.0029538148
109	0xbca15845	-0.01969541
110	0x3e37419a	0.17896119
111	0x3dd75688	0.105145514
112	0xbda9c73e	-0.082899556
113	0xbe704d88	-0.23467076
114	0xbe542072	-0.20715502
115	0x3dfae31b	0.12250348
116	0x3e0f7fca	0.14013591
117	0x3e438b9c	0.19096226
118	0x3e043a83	0.12912945
119	0xbd03a0e8	-0.032135874
120	0x3eda0c12	0.42587334
121	0x3e89d89a	0.26923066
122	0x3e7417dd	0.23837228
123	0x3c696289	0.014244684
124	0xbe299489	-0.16560568
125	0x3d8f5f54	0.07000604
126	0x3e1d1628	0.15340483
127	0x3e506e22	0.20354512
128	0x3e947f2a	0.29003268
129	0x3e567cbf	0.20946024
130	0xbe50d503	-0.20393758
131	0x3e218285	0.15772445
132	0x3e8a2b2b	0.2698606
133	0x3f0d5fc2	0.5522424
134	0x3f4a4b69	0.79021317
135	0xbe913f8c	-0.28368795
136	0xbe9ad079	-0.30237177
137	0xbe00a690	-0.12563539
138	0x3e8b86a6	0.27251166
139	0x3f079394	0.5295956
140	0xbee70305	-0.4511949
141	0xbf22252f	-0.6333799
142	0xbf2a5fc2	-0.66552365
143	0xbe0c713d	-0.13715072
144	0x3ef1ba8a	0.4721263
145	0x3c5273b2	0.012844967
146	0xbea0880b	-0.31353793
147	0xbf3905e0	-0.7227459
148	0xbf0b19e0	-0.5433636
149	0x3cb54e9f	0.022132216
150	0xbdf8b762	-0.121443525
151	0xbe181476	-0.14851555
152	0xbe1d7f5a	-0.15380612
153	0x3e0f6754	0.1400426
154	0x3ea6c4c6	0.32572
155	0xbdca6f8d	-0.09884558
156	0xbe16c3e3	-0.14723162
157	0xbda25e91	-0.07928193
158	0x3e9f9f21	0.31176093
159	0x3eccd4c5	0.4000608
160	0xbe4e581f	-0.20150803
161	0xbe038d5d	-0.12846895
162	0xbe715e1b	-0.23571055
163	0x3e777cbf	0.2416868
164	0x3eed1f6b	0.46313033
165	0xbd679dfe	-0.056547157
166	0xbe74d340	-0.2390871
167	0xbde59fba	-0.11212106
168	0x3d900196	0.070315525
169	0x3e3f8083	0.18701367
170	0xbe35aaa6	-0.17740878
171	0xbe7f5e84	-0.24938399
172	0xbe0434c5	-0.12910755
173	0x3d9ef7a8	0.077620804
174	0x3de70dc9	0.11281926
175	0xbd99f217	-0.07516878
176	0xbdb38a86	-0.087666556
177	0x3d224ce7	0.03962412
178	0xbdbae086	-0.09124856
179	0xbd81c21d	-0.06335852
180	0x3d06aeb1	0.032881442
181	0x3e44fb2f	0.19236444
182	0x3dc0888a	0.09401043
183	0xbd28d27a	-0.04121635
184	0xbe91cd4b	-0.2847694
185	0x3ddc9794	0.10771099
186	0x3e3f1d81	0.18663599
187	0x39cceab9	0.00039084794
188	0xbc5c75e7	-0.0134558445
189	0xbe64e2bf	-0.22352122
190	0x3c9cdc43	0.019147998
191	0x3e1d402d	0.15356512
192	0xbd832189	-0.06402881
193	0x3d1e43b9	0.038638804
194	0xbe9f2dc0	-0.31089592
195	0x3ceaf47b	0.02868103
196	0x3d68ceda	0.056837894
197	0x3d52561a	0.051351644
198	0x3da36f52	0.07980217
199	0xbe38d339	-0.18049325
200	0x3ddb4c62	0.10707928
201	0x3e6abd7e	0.22923848
202	0xbe141fa2	-0.14465192
203	0xbe8dd764	-0.27703393
204	0xbee8113c	-0.4532565
205	0x3ed9751a	0.42472154
206	0x3f17e148	0.59328127
207	0x3e381cc0	0.17979717
208	0xbed2997e	-0.4113273
209	0xbf53f2d4	-0.827924
210	0x3e83844c	0.25686872
211	0x3f0bc60a	0.5459906
212	0x3e7ee8b8	0.24893463
213	0xbe8da208	-0.27662683
214	0xbf637bdd	-0.88860875
215	0x3dc2c702	0.09510614
216	0x3eae5319	0.34047773
217	0x3ea80158	0.32813525
218	0xbe1bb68d	-0.15206356
219	0xbf112442	-0.5669595
220	0x3d2a0db8	0.04151699
221	0x3eb091ee	0.34486336
222	0x3ea329bd	0.3186778
223	0x3dc86e21	0.097866304
224	0xbeeb360c	-0.45939672
225	0x3e6004e5	0.21876867
226	0xbe0cfe90	-0.13768983
227	0x3e7c9abf	0.24668406
228	0xbea00e90	-0.3126111
229	0xbe001779	-0.12508954
230	0x3df19b3e	0.11797188
231	0xbe98794c	-0.29780042
232	0xbe37bdf1	-0.1794355
233	0xbe22e528	-0.15907729
234	0xbe82328e	-0.25429195
235	0x3dd59977	0.10429662
236	0xbe1401dc	-0.14453834
237	0xbd38092b	-0.04493062
238	0xbec95737	-0.39324352
239	0xbdb97b11	-0.09056676
240	0xbd5f6c42	-0.054546602
241	0xbe6f8f82	-0.23394588
242	0xbe454bc2	-0.1926718
243	0xbe7f7b27	-0.24949323
244	0xbe16f61e	-0.14742324
245	0x3e5f5f5d	0.21813722
246	0xbe4dc145	-0.20093258
247	0xbd9dce8c	-0.07705411
248	0xbe599209	-0.21247114
249	0xbd711b3c	-0.058863863
250	0xbe66f067	-0.22552644
251	0xbef5f6af	-0.48039767
252	0x3e78670b	0.24258058
253	0xbd7f7c1c	-0.06237422
254	0x3cd3661e	0.02580553
255	0xbe967812	-0.2938848

bias f4 [64]
0	0xbbc856d5	-0.006113867
1	0xbe9f75c9	-0.3114455
2	0xbeb1eeba	-0.34752446
3	0x3d9573bd	0.07297466
4	0x3d85764f	0.06516706
5	0x3e004fad	0.12530394
6	0xbe5a74a0	-0.21333551
7	0x3c843677	0.016139252
8	0x3d18c912	0.03730113
9	0xbf065cea	-0.52485526
10	0xbe3f23d2	-0.18666008
11	0xbe54b76a	-0.20773092
12	0xbe06aec9	-0.13152613
13	0x3dd33ca5	0.103143014
14	0x3ca9da00	0.020733833
15	0xbe60c533	-0.21950226
16	0xbd0e549f	-0.03474867
17	0xbdc82b7e	-0.097739205
18	0x3dfa094a	0.12208803
19	0xbeb01395	-0.3438994
20	0xbe9546d2	-0.29155594
21	0x3d41bbf4	0.047298387
22	0xbcc27d1b	-0.023741296
23	0xbddab88d	-0.106797315
24	0x3bdf6740	0.0068177283
25	0xbd5a8b17	-0.053355303
26	0xbca3d4b8	-0.019998893
27	0x3e0dac7c	0.13835329
28	0xbea61f56	-0.32445782
29	0x3c9d0885	0.019169101
30	0xbddcc966	-0.10780601
31	0x3cb4f84c	0.022091053
32	0x3d815e9b	0.06316873
33	0xbe94be6f	-0.2905154
34	0xbe39b4af	-0.18135332
35	0xbc3a787f	-0.011381268
36	0x3d53fe08	0.051755935
37	0x3ca7906f	0.020454613
38	0x3d9e4115	0.07727257
39	0x3d8de3e9	0.06928236
40	0xbe955baf	-0.29171512
41	0xbe4487ab	-0.19192378
42	0x3de011c8	0.109408915
43	0xbdfd7b39	-0.123770185
44	0xbebd5d47	-0.36985227
45	0x3d0e08a7	0.03467622
46	0xbdc4a6a2	-0.09602095
47	0xbddaee61	-0.106899984
48	0x3dcb040a	0.0991288
49	0xbea7da1f	-0.327836
50	0xbdb2a59d	-0.087229945
51	0xbe5f321c	-0.21796459
52	0xbee2b2b7	-0.44276974
53	0xbcb5de24	-0.022200651
54	0xbe6180ff	-0.22021864
55	0x3e2ce675	0.16884787
56	0x3e062a8f	0.13102172
57	0xbdc320db	-0.09527751
58	0xbdc42799	-0.09577865
59	0xbed040e3	-0.40674505
60	0xbdba0f5e	-0.09084962
61	0xbe545b1e	-0.20737883
62	0x3dc3ea6b	0.09566196
63	0x3d3792dc	0.04481779

weight f4 [64]
0	0x3f3e0aae	0.74235046
1	0x3f6e6fed	0.93139535
2	0x3f4f7e8a	0.8105246
3	0x3f4909ec	0.78530765
4	0x3f691555	0.91048175
5	0x3f5bac86	0.85810125
6	0x3f27a50c	0.65486217
7	0x3f764e08	0.96212816
8	0x3f76696e	0.9625462
9	0x3f4379b0	0.76357555
10	0x3f666077	0.89990944
11	0x3f556643	0.83359164
12	0x3f64820f	0.89260954
13	0x3f754cc0	0.95820236
14	0x3f8032bc	1.0015483
15	0x3f45b085	0.7722247
16	0x3f378fc7	0.7170376
17	0x3f6080f6	0.8769678
18	0x3f58c612	0.8467723
19	0x3f79b838	0.9754672
20	0x3f96d067	1.1782349
21	0x3f6653e1	0.8997174
22	0x3f749894	0.95545316
23	0x3f82c01e	1.021488
24	0x3f961c73	1.1727432
25	0x3f5484b4	0.8301499
26	0x3f3ec174	0.74513936
27	0x3f5766ed	0.8414143
28	0x3f8b450b	1.0880445
29	0x3f63ab7e	0.8893355
30	0x3f79537b	0.97393006
31	0x3f4b63b5	0.79449016
32	0x3f6b05ae	0.9180554
33	0x3f3d0bf2	0.7384635
34	0x3f5fbf9b	0.8740174
35	0x3f50c498	0.8154998
36	0x3f3423e1	0.70367247
37	0x3f3e3bb8	0.74309874
38	0x3f97f68e	1.1872118
39	0x3f2b9d84	0.67037225
40	0x3f33f267	0.7029175
41	0x3f635779	0.8880535
42	0x3f8c9a15	1.0984522
43	0x3f215b87	0.63030285
44	0x3f8794c5	1.0592276
45	0x3f4d0191	0.80080515
46	0x3f76b19c	0.9636476
47	0x3f7797bc	0.96715903
48	0x3f73fa34	0.95303655
49	0x3f4485a3	0.76766413
50	0x3ef2734a	0.47353584
51	0x3f6c358c	0.92269206
52	0x3f83dc00	1.0301514
53	0x3f66f213	0.90213126
54	0x3f03f9af	0.5155286
55	0x3f4a7131	0.79078966
56	0x3f640498	0.8906951
57	0x3f839a29	1.0281421
58	0x3f35ec27	0.71063465
59	0x3f2d195c	0.6761682
60	0x3f4fea2b	0.81216687
61	0x3f283bc0	0.6571617
62	0x3fb0bc4d	1.3807465
63	0x3f7a6f37	0.9782595

bias f4 [64]
0	0xbf0f91c6	-0.5608181
1	0xbf2b677b	-0.66954774
2	0xbe99c183	-0.3003045
3	0xbea000db	-0.31250653
4	0xbf35b2a2	-0.709757
5	0xbf1c929a	-0.61161196
6	0xbea22aad	-0.31673184
7	0xbf6bbf0c	-0.9208839
8	0xbf4c9c4b	-0.79925984
9	0xbf2007c3	-0.62511843
10	0xbf3be7c1	-0.73400503
11	0xbef4a28d	-0.47780266
12	0xbf15ba0e	-0.5848702
13	0xbf3c6342	-0.73588955
14	0xbf5695d5	-0.83822376
15	0xbee7171c	-0.4513482
16	0xbedb385a	-0.4281643
17	0xbf535a7f	-0.8255996
18	0xbf542cbd	-0.82880765
19	0xbe366082	-0.17810252
20	0xbf743eb1	-0.9540816
21	0xbf59b14e	-0.8503617
22	0xbf16a9d2	-0.58852875
23	0xbf3435b8	-0.7039447
24	0xbf885eab	-1.065389
25	0xbf2af97c	-0.6678693
26	0xbef87881	-0.48529437
27	0xbf3f2ad7	-0.74674743
28	0xbe832db4	-0.25620806
29	0xbf2de79c	-0.6793153
30	0xbf327052	-0.6970264
31	0xbf27555d	-0.6536463
32	0xbf53bd34	-0.82710576
33	0xbedf576b	-0.43621382
34	0xbf28683f	-0.65784067
35	0xbf2ad350	-0.6672869
36	0xbedf7935	-0.4364716
37	0xbf0e8c4d	-0.5568283
38	0xbf6c9285	-0.9241107
39	0xbed0602f	-0.40698382
40	0xbeb6e6f7	-0.35723087
41	0xbf1b6710	-0.60704136
42	0xbf7176af	-0.9432172
43	0xbca7db4e	-0.020490315
44	0xbf12d923	-0.57362574
45	0xbf200130	-0.6250181
46	0xbf59c1d1	-0.85061365
47	0xbf75894a	-0.9591261
48	0xbf3b6815	-0.7320569
49	0xbeb38102	-0.35059363
50	0x3df5774d	0.119856454
51	0xbf13cfd2	-0.57738984
52	0xbeeb9d99	-0.46018675
53	0xbf32f279	-0.69901234
54	0x3cb0ef14	0.021598376
55	0xbf1bfe5e	-0.6093501
56	0xbf34b1e7	-0.7058396
57	0xbf440704	-0.76573205
58	0xbf5bbe00	-0.8583679
59	0xbe933707	-0.2875292
60	0xbf0bd6eb	-0.54624814
61	0xbe6e64ec	-0.23280686
62	0xbf73917e	-0.9514388
63	0xbf46766d	-0.77524453

running_mean f4 [64]
0	0xc0c52774	-6.161066
1	0xc0fbdbf7	-7.870601
2	0xc1081cde	-8.507048
3	0xc0e4410f	-7.1329417
4	0xc09e0c49	-4.9389997
5	0xc0e5a880	-7.176819
6	0xc0c6abbb	-6.208463
7	0xc0b7699f	-5.731643
8	0xc1026cda	-8.151575
9	0xc0dce555	-6.9029946
10	0xc0ff8694	-7.985178
11	0xc0b1388d	-5.538153
12	0xc0edb9c5	-7.428927
13	0xc0ca6805	-6.3251977
14	0xc117cceb	-9.487529
15	0xc0bdeea7	-5.9353824
16	0xc02fc2c5	-2.7462628
17	0xc08d3705	-4.4129663
18	0xc055f115	-3.3428395
19	0xc0941399	-4.6273923
20	0xc0db4b2d	-6.8529267
21	0xc0d467a2	-6.6376505
22	0xc0f19f29	-7.5506787
23	0xc10f3cdb	-8.952357
24	0xc0f5ded1	-7.6834493
25	0xc0fe1a71	-7.9407277
26	0xc091a327	-4.551166
27	0xc10326f2	-8.197008
28	0xc0ced6da	-6.463727
29	0xc0ea0b0a	-7.3138475
30	0xc0edcf5e	-7.4315634
31	0xc0dad940	-6.83902
32	0xc0e5adf1	-7.177483
33	0xc0cbe7cf	-6.372047
34	0xc0cdddae	-6.4333105
35	0xc0d0d7b0	-6.526329
36	0xc09316f1	-4.5965505
37	0xc0c7ca08	-6.243412
38	0xc1206f07	-10.027106
39	0xc0f03d59	-7.5074887
40	0xc0a66c4b	-5.2007194
41	0xc11a5941	-9.6467905
42	0xc105e25e	-8.367765
43	0xbff47a3c	-1.9099803
44	0xc0e96663	-7.2937484
45	0xc0b5a4b3	-5.676355
46	0xc0e9f14e	-7.310706
47	0xc10539b5	-8.326589
48	0xc0c3a76d	-6.1141877
49	0xc0e225dc	-7.0671215
50	0xc098b693	-4.772287
51	0xc0e448ac	-7.133871
52	0xc0d51bb4	-6.6596317
53	0xc0eb42e6	-7.3519163
54	0xc097f30a	-4.748418
55	0xc0be3e1b	-5.945081
56	0xc103a185	-8.2269335
57	0xc12229d8	-10.135216
58	0xc0150fee	-2.3290973
59	0xc0870b07	-4.220096
60	0xc09cca74	-4.8997135
61	0xbf089830	-0.5335722
62	0xc105626f	-8.336532
63	0xc1026fa0	-8.152252

running_var f4 [64]
0	0x42af8d57	87.776054
1	0x42eeadba	119.33931
2	0x43051fb5	133.12386
3	0x430518ac	133.09637
4	0x42d99431	108.78944
5	0x42fccef9	126.40424
6	0x42cdd8a6	102.92314
7	0x42a0353c	80.10397
8	0x42e894bf	116.29052
9	0x42dcae0f	110.33996
10	0x43222070	162.12671
11	0x42d061d8	104.1911
12	0x43287a05	168.47664
13	0x4316b1ad	150.69405
14	0x431d1d2b	157.11394
15	0x42e9c5b9	116.88618
16	0x42a20fb5	81.03068
17	0x4296bcf9	75.36909
18	0x42a7befe	83.87303
19	0x42bf50e6	95.658005
20	0x42ed903f	118.78173
21	0x42d06816	104.20329
22	0x432b61ad	171.38155
23	0x4334f5a2	180.9595
24	0x432ce318	172.88708
25	0x431cf1f4	156.94513
26	0x42e7ddbd	115.93308
27	0x42d1551b	104.66622
28	0x430addf2	138.86697
29	0x4309e7a3	137.90483
30	0x4336ee84	182.9317
31	0x42e53df1	114.62098
32	0x42d66f76	107.2177
33	0x42d6013d	107.00242
34	0x42d34ce7	105.6502
35	0x42aa32dd	85.09934
36	0x42ae2600	87.07422
37	0x42d39bbe	105.804184
38	0x435852f1	216.32399
39	0x4315c896	149.78354
40	0x42aed01b	87.406456
41	0x43204822	160.28177
42	0x430bdb8a	139.85757
43	0x42c8c1f8	100.378845
44	0x437b2500	251.14453
45	0x42dc3b23	110.1155
46	0x42e4e62a	114.44954
47	0x42beac0d	95.33604
48	0x431044e5	144.26912
49	0x4319d3db	153.82756
50	0x42d2962f	105.29333
51	0x43113ac6	145.22958
52	0x432b0a62	171.04056
53	0x42ec1676	118.04387
54	0x42b98974	92.76846
55	0x42cc0d75	102.02628
56	0x430c83ad	140.51436
57	0x43484bb0	200.29565
58	0x42a4c694	82.38785
59	0x42c692f3	99.28701
60	0x42f43440	122.10205
61	0x42a604d8	83.00946
62	0x431247b4	146.28009
63	0x43235abb	163.35442

weight f4 [64, 64, 5, 5]
0	0x3e8ba1ea	0.27271968
1	0x3eb7876b	0.35845503
2	0x3ed52b05	0.41634384
3	0x3abe7f8a	0.0014533859
4	0x3c048d30	0.008090302
5	0x3ea8aa66	0.32942504
6	0x3f2f5041	0.6848183
7	0x3f0209d5	0.5079625
8	0xbe8b237a	-0.27175504
9	0x3cdd5646	0.027018677
10	0xbdb1150d	-0.08646593
11	0xbebc1440	-0.367342
12	0xbe227ed1	-0.15868689
13	0xbdfb65e9	-0.12275297
14	0xbeacef0c	-0.33776128
15	0xbd761da2	-0.060086854
16	0xbf817a9d	-1.0115544
17	0xbf7ab55f	-0.97933
18	0xbde9cc0d	-0.11415873
19	0x3eb6c076	0.3569371
20	0x3c2d16c5	0.010564511
21	0xbf009d90	-0.5024042
22	0xbf633107	-0.88746685
23	0xbedd196d	-0.4318346
24	0x3b317ef2	0.0027083722
25	0x3de3046b	0.11084827
26	0x3e837d9c	0.2568177
27	0x3e82ee45	0.2557241
28	0x3e956a99	0.2918289
29	0x3e07063b	0.1318597
30	0x3d829051	0.063751824
31	0x3e2e6046	0.17028913
32	0xbdf41d91	-0.11919702
33	0x3ec779e0	0.3896017
34	0x3f10ef48	0.56615114
35	0xbf57df45	-0.8432506
36	0xbf098209	-0.5371404
37	0x3ce52a4e	0.027974274
38	0x3da9601e	0.08270286
39	0x3e36d565	0.17854841
40	0xbf3dea7d	-0.74185926
41	0xbef94ed0	-0.48692942
42	0xbeec1c18	-0.46115184
43	0x3e38961b	0.1802601
44	0xbd27adfe	-0.040937416
45	0xbf2e2146	-0.6801952
46	0xbf80c311	-1.005953
47	0xbf98e7e3	-1.1945766
48	0xbea2a9bf	-0.3177013
49	0xbf2041f1	-0.6260062
50	0x3e06236e	0.13099453
51	0x3e2b7fee	0.1674802
52	0x3dc6fd39	0.09716267
53	0x3dc99b6a	0.09844096
54	0x3e40a62f	0.18813394
55	0xbddd63d4	-0.10810056
56	0xbc48d7d4	-0.012258489
57	0xbe1bc05f	-0.15210102
58	0x3ee8a315	0.45436922
59	0x3e65bdf9	0.2243575
60	0x3d85429e	0.06506847
61	0xbe62dbf2	-0.22154215
62	0xbeb3113b	-0.34974083
63	0xbe4c64fb	-0.19960396
64	0xbe578693	-0.2104743
65	0x3e148e96	0.14507517
66	0x3d2a2df2	0.041547723
67	0xbe581284	-0.21100813
68	0x3e3e3952	0.18576553
69	0xbd4281c9	-0.047487054
70	0xbe629040	-0.2212534
71	0x3d9c60b1	0.0763563
72	0xbdb05cab	-0.08611425
73	0x3de77e40	0.11303377
74	0x3e594921	0.21219303
75	0xbebd819b	-0.37012944
76	0xbe9eca34	-0.31013644
77	0xbeb030b5	-0.3441216
78	0xbe88c67c	-0.26713932
79	0x3e9fbdbf	0.31199452
80	0xbee7e188	-0.45289254
81	0xbf583b3f	-0.844654
82	0xbf457b03	-0.77140826
83	0xbf0be150	-0.54640675
84	0x3dbd6082	0.09246923
85	0xbf5a50f0	-0.8527975
86	0xbf5ab2ae	-0.85428894
87	0xbf76f224	-0.9646323
88	0xbf57d5bc	-0.8431051
89	0x3e821c95	0.2541243
90	0xbf1d0426	-0.61334455
91	0xbf5fd76e	-0.87438095
92	0xbf236082	-0.63819134
93	0xbe98610a	-0.29761535
94	0x3f0a0932	0.5392028
95	0xbec55ece	-0.38548893
96	0xbef7ac48	-0.48373628
97	0xbd9ec0d8	-0.07751626
98	0x3df81dfb	0.12115093
99	0x3f07b5db	0.53011864
100	0xbd76ef91	-0.060287062
101	0x3e73f049	0.2382213
102	0x3e3a56df	0.18197201
103	0x3e588bc0	0.2114706
104	0xbdedc169	-0.11609156
105	0x3e8e6e4a	0.2781852
106	0x3f050c75	0.5197213
107	0xbdc321b1	-0.095279105
108	0xbf160544	-0.58601785
109	0xbeda43f2	-0.42629963
110	0x3e7b5edd	0.24547906
111	0x3e1c983d	0.1529245
112	0x3ebe263f	0.37138554
113	0xbed6e72f	-0.41973254
114	0xbe3cd295	-0.18439706
115	0xbc966d53	-0.018362677
116	0xbd8822e5	-0.066472806
117	0x3e8b359a	0.27189332
118	0x3be00f15	0.0068377354
119	0x3defa809	0.11701972
120	0xbf28d285	-0.6594623
121	0xbe61351d	-0.21992917
122	0x3c3d62ee	0.011559231
123	0x3e8ff625	0.2811748
124	0x3e93a650	0.28837824
125	0xbed2ee04	-0.41197217
126	0xbe832a79	-0.25618342
127	0x3e99b126	0.30017966
128	0x3eaf4597	0.3423278
129	0xbd482485	-0.048862953
130	0xbee71be8	-0.45138478
131	0xbe4481c3	-0.19190125
132	0xbeb6bc8c	-0.35690725
133	0x3e8726d6	0.26396817
134	0xbe2dcbd7	-0.1697229
135	0xbcee919b	-0.029122164
136	0xbe0e858c	-0.13918132
137	0xbe9792d2	-0.29604203
138	0xbe3f6ce9	-0.1869389
139	0xbe0ccc96	-0.13749918
140	0x3ee15f68	0.44018102
141	0x3e9eecc0	0.3104
142	0xbe30eb6f	-0.17277311
143	0x3cd20241	0.02563584
144	0x3d722aa2	0.05912269
145	0x3f02e74b	0.51134175
146	0x3f405bf2	0.751403
147	0x3e480dfb	0.19536583
148	0x3eadcf49	0.3394721
149	0x3ef32ff1	0.47497514
150	0xbd8dd028	-0.06924468
151	0xbe114869	-0.14187779
152	0x3e5f80eb	0.21826522
153	0x3e14145b	0.1446089
154	0xbd627f3b	-0.055297118
155	0x3deabc92	0.11461748
156	0x3d1133eb	0.035449903
157	0x3e9c835f	0.30568978
158	0x3e810be4	0.25204384
159	0x3d018db0	0.031629264
160	0xbd10d4f4	-0.035359338
161	0xbe6aa15b	-0.22913115
162	0xbe9abf8c	-0.30224264
163	0x3e6e1c86	0.23253068
164	0xbbd4e30d	-0.006496793
165	0xbe632308	-0.22181332
166	0xbe6e8173	-0.23291568
167	0xbf33e96c	-0.7027805
168	0xbe5bd5c5	-0.21468265
169	0x3e5da2ca	0.2164413
170	0xbeac59b1	-0.3366218
171	0x3e5426f1	0.2071798
172	0x3e3b1762	0.18270639
173	0xbe28eef3	-0.16497402
174	0x3e7c8140	0.2465868
175	0x3e3a871f	0.18215607
176	0x3e85707d	0.26062384
177	0x3f09b40d	0.5379036
178	0x3e817559	0.25284842
179	0x3f0f712a	0.5603205
180	0x3eb67bf2	0.35641438
181	0x3e5d243b	0.21595852
182	0x3d9aa821	0.07551599
183	0x3ecaee69	0.39635018
184	0x3efaef6f	0.49010798
185	0x3d73397c	0.059380993
186	0xbdfeefd7	-0.124480896
187	0xbe9f17a3	-0.3107272
188	0xbecc71b3	-0.39930496
189	0x3e09432d	0.13404532
190	0xbe94cd1d	-0.2906274
191	0x3c7cf918	0.015440248
192	0xbe77ba4b	-0.24192159
193	0xbe48fcf8	-0.1962775
194	0xbf03735e	-0.5134791
195	0xbd53e9d4	-0.051736668
196	0xbd89aba4	-0.06722191
197	0x3dfd05ae	0.12354599
198	0x3d7e7843	0.06212641
199	0xbd381b52	-0.04494793
200	0x3e8daf4f	0.27672812
201	0x3e7388b1	0.23782612
202	0x3ed05088	0.4068644
203	0xbd020a6e	-0.031748228
204	0xbe492205	-0.19641884
205	0x3e9b9ba3	0.3039218
206	0x3f32f579	0.6990581
207	0x3ea07376	0.3133809
208	0xbeed3dab	-0.4633611
209	0xbe948712	-0.290093
210	0x3db6bcf4	0.08922759
211	0xbbfe24c0	-0.007755846
212	0xbea132be	-0.31484026
213	0xbec32b03	-0.38118753
214	0xbebdb05d	-0.37048617
215	0x3caa84ba	0.020815242
216	0xbdf766a1	-0.12080122
217	0xbe63f650	-0.2226193
218	0xbe3d7e5d	-0.18505235
219	0xba7a3c82	-0.00095457595
220	0xbe6d6e05	-0.231865
221	0xbc77ef46	-0.015132731
222	0x3c1bb144	0.009502713
223	0x3dc26681	0.09492207
224	0x3e845bb3	0.2585121
225	0x3eb3a3a3	0.35085782
226	0xbea95659	-0.3307369
227	0xbeae6416	-0.34060735
228	0xbe944da8	-0.28965497
229	0xbdc1f814	-0.09471145
230	0xbeb6ade8	-0.35679555
231	0xbea3fa29	-0.32026795
232	0x3e2e98e2	0.17050508
233	0xbd60a476	-0.054844342
234	0xbec56f36	-0.3856141
235	0xbe585be3	-0.21128802
236	0xbe82b66f	-0.2552981
237	0xbc8a43ca	-0.016878027
238	0x3c0f2a6e	0.008738143
239	0xbe2d64bb	-0.16932957
240	0x3e6f301c	0.23358196
241	0x3dc4c52a	0.096079186
242	0x3e77853e	0.24171922
243	0x3e1128dc	0.14175743
244	0x3c7ee6b0	0.01555793
245	0x3eba6dd5	0.3641192
246	0x3cb1cb68	0.021703437
247	0xbe951e8e	-0.29124874
248	0xbe218aac	-0.15775555
249	0xbdd024ed	-0.10163293
250	0x3d707892	0.058708735
251	0x3e9cf85f	0.30658242
252	0xbdd53ccb	-0.10411986
253	0xbd651ccb	-0.055935662
254	0x3e463b7f	0.19358633
255	0x3e11f7ee	0.14254734

bias f4 [64]
0	0xbd0383e9	-0.03210822
1	0xbd28400e	-0.041076712
2	0xbda13b97	-0.07872694
3	0xbd7010b5	-0.058609683
4	0x3c12387c	0.0089246
5	0xbcc8959c	-0.024485402
6	0xbc4d0a7f	-0.0125147095
7	0x3b3acd13	0.0028503581
8	0x3c9cdf21	0.019149365
9	0xbb4ae86f	-0.0030961295
10	0xbc632d4a	-0.013865778
11	0xbd4c8455	-0.04993089
12	0xbd5b4674	-0.053533986
13	0x3d3c02ff	0.045901295
14	0x3ae9be72	0.0017833246
15	0xbcc9ebc3	-0.024648553
16	0xbc7c83cd	-0.015412283
17	0xbca5105e	-0.020149406
18	0x3bb05e2b	0.0053823194
19	0xbd91283b	-0.070877515
20	0xbca14925	-0.019688198
21	0xbcc289df	-0.023747383
22	0xbc2dc81d	-0.010606793
23	0xbcc45e07	-0.023970617
24	0xb830cd4b	-4.2152864e-05
25	0xbcc81ad0	-0.024426848
26	0xbcb0fe72	-0.021605704
27	0xbd1d0468	-0.03833428
28	0xbd3136ba	-0.043265082
29	0xbced2209	-0.028946893
30	0xbd6733ba	-0.056445815
31	0x3cbb4c28	0.022863463
32	0xbc2ab254	-0.010418493
33	0xbce1dfcd	-0.027572537
34	0xbd0c87c5	-0.034309167
35	0xbc0454e7	-0.008076883
36	0xbc6b3db5	-0.014357974
37	0x3c11c55c	0.008897152
38	0xbd3a5c33	-0.045498084
39	0xbd49ff10	-0.049315512
40	0xbbdd6592	-0.006756493
41	0xbc5ca0f4	-0.013466109
42	0x3c724f23	0.0147893755
43	0xbcee9670	-0.029124469
44	0x3c54c9db	0.012987579
45	0xbd07f8d6	-0.033196293
46	0xbc84819a	-0.01617508
47	0xbd3779f4	-0.044794038
48	0xbcc3acca	-0.023886103
49	0xbd5503f6	-0.05200573
50	0xbd6e8a72	-0.0582375
51	0xbcc51fe6	-0.024063062
52	0xbcb7c71e	-0.022433814
53	0xbd198721	-0.037482385
54	0xbcc8c6d1	-0.024508866
55	0x3c3e5c6c	0.011618715
56	0x3c3fa75a	0.011697615
57	0xbd16fdb1	-0.036863033
58	0x3cdc66d2	0.026904497
59	0xbcf55cf9	-0.02995156
60	0xbc845822	-0.016155306
61	0xbcdc6f92	-0.02690867
62	0xbd1767fa	-0.036964394
63	0xb8ba2a4b	-8.877049e-05

weight f4 [10, 64, 5, 5]
0	0xbafa05e5	-0.0019075243
1	0xbe7aacc7	-0.24479972
2	0x3de4e334	0.11176148
3	0x3f0a7d63	0.54097575
4	0x3e94e27c	0.29079044
5	0xbd1d41e7	-0.038392927
6	0x3e0607b8	0.13088882
7	0x3e0f4931	0.13992764
8	0x3efd41f4	0.4946438
9	0x3ebc9e88	0.368397
10	0xbdbe9dda	-0.093074515
11	0x3d0203df	0.031741973
12	0x3e3f673d	0.18691726
13	0x3eeeee64	0.46666253
14	0x3e956cc0	0.29184532
15	0x3e988aeb	0.29793486
16	0x3eadb2d9	0.33925512
17	0x3ed6952e	0.4191069
18	0x3ed62565	0.41825405
19	0x3ec4728e	0.38368648
20	0x3e86a429	0.2629712
21	0x3e82d647	0.25554106
22	0x3e003baf	0.12522767
23	0x3e3fd13e	0.18732163
24	0x3df894af	0.12137734
25	0xbdf6cc52	-0.1205069
26	0x3ea064bc	0.31326854
27	0x3d5e5822	0.05428327
28	0xbe359c0e	-0.17735311
29	0xbe959f88	-0.29223275
30	0xbe6424d3	-0.22279672
31	0x3e3da8ff	0.18521498
32	0x3eb7f748	0.35930848
33	0x3ede11cc	0.43372953
34	0x3ec79000	0.3897705
35	0xbbe06c79	-0.0068488684
36	0x3ed92944	0.42414296
37	0x3ee2219c	0.44166267
38	0x3e70147d	0.23445316
39	0x3e6bdfbe	0.2303457
40	0x3de7a3ab	0.11310514
41	0x3e2ec8cb	0.17068784
42	0x3eb32729	0.34990814
43	0x3e3e9e9a	0.18615189
44	0xbe3c736d	-0.18403406
45	0xbe504334	-0.20338136
46	0x3b9f326e	0.0048583066
47	0xbe45918e	-0.19293806
48	0x3def087c	0.1167154
49	0xbe567fe4	-0.20947224
50	0x3e892a87	0.26790258
51	0x3e12d8fc	0.14340585
52	0x3d9597b9	0.073043294
53	0xbbb21250	-0.005434312
54	0x3d74ecfb	0.059796315
55	0x3e4ea78a	0.20181099
56	0x3d665653	0.05623467
57	0x3e12a0b7	0.1431912
58	0x3e82aed6	0.25524014
59	0x3ed0922f	0.4073653
60	0x3e3d0e56	0.184625
61	0x3dc3da08	0.095630705
62	0x3df8c08e	0.12146102
63	0x3ec966b7	0.39336178
64	0x3f67a9dc	0.9049356
65	0x3d4b5cc3	0.04964901
66	0x3ddfe118	0.10931605
67	0x3e4caea2	0.19988492
68	0xbdd5e360	-0.10443759
69	0x3ec7547b	0.3893164
70	0x3ec119dd	0.37715045
71	0x3e81b33e	0.25332063
72	0x3e02f0c6	0.1278716
73	0x3dbd7059	0.09249944
74	0x3e9ae966	0.30256194
75	0xbeb0ab75	-0.3450581
76	0xbf0e9574	-0.556968
77	0xbecd171a	-0.40056688
78	0xbee279b2	-0.4423347
79	0x3e3f85d1	0.1870339
80	0xbe89a933	-0.268869
81	0xbf0bbc69	-0.54584366
82	0xbee703f0	-0.45120192
83	0xbe00e52b	-0.1258742
84	0x3b19621a	0.002340442
85	0xbdfcd89a	-0.12346001
86	0xbe8259ff	-0.25459287
87	0xbeb7d254	-0.35902655
88	0xbe9386e4	-0.2881385
89	0x3dba121a	0.09085484
90	0xbe5c6462	-0.21522668
91	0xbd9b5d4f	-0.075861566
92	0x3e59d49e	0.21272513
93	0x3e19eb11	0.15031077
94	0x3e56fc3c	0.20994657
95	0xbe8759c0	-0.2643566
96	0x3d0251d9	0.031816337
97	0x3d889c4a	0.06670435
98	0x3cb2fa64	0.021847911
99	0x3e326cd7	0.17424332
100	0xbf683ac5	-0.90714675
101	0xbe68de47	-0.22741042
102	0xbca69ade	-0.020337518
103	0xbe24fdff	-0.16112517
104	0xbee57f33	-0.44823608
105	0xbeedfbff	-0.4648132
106	0x3e28c408	0.1648103
107	0x3ee36551	0.44413236
108	0x3e898e3a	0.26866323
109	0x3e6f24a4	0.23353821
110	0xbe69bcdb	-0.22825949
111	0x3e40d093	0.18829565
112	0x3e710e4e	0.23540613
113	0x3eef046f	0.4668307
114	0x3e829b40	0.2550907
115	0xbe8909c4	-0.26765263
116	0xbe95e716	-0.29277867
117	0xbdf5710f	-0.11984455
118	0xbcb96915	-0.022633115
119	0xbeb7c511	-0.35892537
120	0xbe94b032	-0.29040676
121	0xbe74c07f	-0.23901556
122	0xbebe0338	-0.3711183
123	0xbee29ff8	-0.4426267
124	0xbf01cdcf	-0.50704664
125	0xbdda84d7	-0.106698684
126	0x3d9dd6c5	0.0770698
127	0x3ef5b537	0.47989818
128	0x3db52885	0.08845619
129	0xbc4c2fb4	-0.012462545
130	0xbcebdb78	-0.028791174
131	0xbdd5945b	-0.10428687
132	0xbe298e1e	-0.1655812
133	0xbf020289	-0.5078512
134	0xbe3750a6	-0.17901859
135	0xbd7eb231	-0.062181655
136	0xbda3b7b9	-0.07994027
137	0xbe7f28ce	-0.2491791
138	0xbe91e6c1	-0.28496364
139	0xbda2aecb	-0.07943495
140	0xbe29f7eb	-0.1659848
141	0x3e305ea4	0.17223603
142	0xbe6ed38b	-0.23322885
143	0xbda186ae	-0.07887016
144	0xbd1aa862	-0.03775824
145	0x3e4660de	0.1937289
146	0x3e7f78e3	0.24948458
147	0xbb3f7fc3	-0.002922044
148	0xbdd9412d	-0.106081344
149	0x3eb459b0	0.35224676
150	0xbe549c24	-0.20762688
151	0x3ce21fb2	0.027603004
152	0xbddff27f	-0.10934924
153	0xbe4b358e	-0.19844648
154	0x3da04edf	0.078275435
155	0x3e083c25	0.13304193
156	0x3df0951c	0.1174719
157	0x3e3c79bd	0.18405814
158	0x3e2e02d3	0.16993265
159	0x3e53a918	0.20669973
160	0x3d8208fa	0.063493684
161	0x3ebf2d89	0.37339428
162	0x3ea6bbb1	0.32565072
163	0x3e4c80e7	0.19971047
164	0x3e90f8da	0.2831486
165	0xbd5bf26d	-0.053697992
166	0x3e930787	0.2871668
167	0x3ed74236	0.42042702
168	0x3eac9d05	0.33713546
169	0x3ed95928	0.42450833
170	0xbebf149d	-0.37320414
171	0x3e662ae5	0.224773
172	0x3e652fab	0.22381465
173	0x3e9207f3	0.2852169
174	0x3e1e4411	0.15455653
175	0x3f24e72e	0.6441525
176	0x3f583554	0.8445637
177	0x3f49fbe2	0.7889997
178	0x3f433d4f	0.76265424
179	0x3edf21df	0.4358053
180	0x3eff298d	0.49836388
181	0x3ee8645f	0.45389077
182	0x3eb9c176	0.3628041
183	0x3f14eb27	0.58171314
184	0x3ef43055	0.47693124
185	0xbc743151	-0.014904336
186	0x3d21602a	0.03939835
187	0x3eb1146c	0.34585893
188	0x3eb6c0c3	0.3569394
189	0x3df5aaac	0.11995444
190	0xbd024299	-0.031801794
191	0xbdb1cddf	-0.08681845
192	0xbe3fc3ae	-0.1872699
193	0xbea1d028	-0.31604123
194	0xbd8da02c	-0.06915316
195	0xbd9bda6e	-0.076100215
196	0xbded1fc7	-0.11578327
197	0xbe082f51	-0.132993
198	0xbd82f672	-0.06394662
199	0xbb5861e3	-0.003301733
200	0xbde39e3a	-0.11114164
201	0xbd8b29fb	-0.067951165
202	0x3d29403c	0.041321024
203	0x3e1eb030	0.15496898
204	0x3ed3c814	0.41363585
205	0xbe14aa81	-0.14518167
206	0x3dff450d	0.12464342
207	0x3e9eb38a	0.30996352
208	0x3f114e12	0.5675975
209	0x3eec9ed6	0.46214932
210	0x3b952493	0.004551479
211	0x3e460c0c	0.19340533
212	0x3f0699ce	0.5257844
213	0x3ed25a31	0.41084436
214	0x3eb11f7d	0.34594336
215	0xbe449641	-0.19197942
216	0xbd9d447a	-0.076790765
217	0x3e62d8bb	0.22152989
218	0x3de19e61	0.110165365
219	0x3e71a52d	0.23598166
220	0xbf0bc5ce	-0.545987
221	0xbe961814	-0.29315245
222	0xbebae238	-0.36500716
223	0xbed0bc0c	-0.40768468
224	0xbdec0680	-0.11524677
225	0x3e372530	0.1788528
226	0x3edfadf7	0.43687412
227	0x3f08c25c	0.5342157
228	0x3e9af6f8	0.30266547
229	0x3f4f4464	0.8096373
230	0x3dbc4318	0.091924846
231	0x3e4100a1	0.18847896
232	0x3e9fb5b2	0.3119331
233	0x3e4065c5	0.18788822
234	0x3f217712	0.6307231
235	0x3e31d973	0.17368107
236	0x3db72b73	0.08943834
237	0x3e045b91	0.12925555
238	0x3e28c26d	0.16480418
239	0x3deca6dc	0.115552634
240	0x3e10fb13	0.14158277
241	0x3e4d2860	0.20034933
242	0x3e699824	0.22811943
243	0x3e273ca5	0.16331728
244	0xbd5718de	-0.05251395
245	0x3e18af87	0.14910708
246	0x3e3cdfdb	0.18444769
247	0xbddb96b4	-0.10722104
248	0xbe668f3a	-0.22515574
249	0x3d69ada1	0.05705035
250	0x3efd47d5	0.49468866
251	0x3e8902a6	0.26759833
252	0x3d008cce	0.03138428
253	0x3e6375e8	0.22212946
254	0x3e8c98c1	0.27460292
255	0x3e766bb9	0.2406453

bias f4 [10]
0	0xbdc3880a	-0.09547432
1	0xbd7aeafc	-0.061259255
2	0xbdb0b559	-0.08628339
3	0xbdcda77f	-0.10041713
4	0xbde286c5	-0.110608615
5	0xbaad1c25	-0.001320724
6	0xbe72349c	-0.23652881
7	0xbda1908f	-0.078889005
8	0xbd45fbac	-0.048335716
9	0xbdd54da6	-0.10415201

weight f4 [10]
0	0x3f5dde8f	0.8666772
1	0x3f4dd325	0.80400306
2	0x3f5d8806	0.8653568
3	0x3f8bcab7	1.0921239
4	0x3f825f1c	1.0185275
5	0x3f78edf5	0.97238094
6	0x3f8f1e3c	1.1181102
7	0x3f8dea61	1.1087152
8	0x3f53b91d	0.82704335
9	0x3f73205a	0.9497124

bias f4 [10]
0	0xbde3dd65	-0.11126212
1	0xbd6355a8	-0.05550161
2	0xbeaccd79	-0.33750513
3	0xbec9b98b	-0.3939937
4	0xbea5459c	-0.3227967
5	0xbdc40bf3	-0.09572592
6	0xbecf0b80	-0.4043846
7	0xbc80f966	-0.015743922
8	0xbe3b843e	-0.18312165
9	0x3d3eb4f1	0.046559278

running_mean f4 [10]
0	0xc014d420	-2.325447
1	0xbf78c370	-0.97173214
2	0xc0d1eb9c	-6.560011
3	0xc0af9b95	-5.487742
4	0xbf8064a7	-1.0030717
5	0xbe751f0c	-0.23937625
6	0xc102f515	-8.1848345
7	0xc0a1fe43	-5.062288
8	0xc06de137	-3.716871
9	0xc075ad3c	-3.8386984

running_var f4 [10]
0	0x42557016	53.35946
1	0x42537ef6	52.873985
2	0x423984db	46.37974
3	0x42675177	57.829556
4	0x424bed3c	50.981674
5	0x4283e2c4	65.9429
6	0x427a2e05	62.54494
7	0x42bc1fbc	94.06198
8	0x4254a5d7	53.161953
9	0x42576348	53.846954

weight f4 [145, 40]
0	0x3d8d34ac	0.06894812
1	0x3e6c2799	0.2306198
2	0xbdc50481	-0.0962
3	0xbe84c3d1	-0.25930646
4	0xbe915d55	-0.2839152
5	0xbdf464bc	-0.11933276
6	0x3cace44c	0.021104954
7	0x3e8a0e4a	0.26964027
8	0xbde00ce3	-0.10939958
9	0xbcc64aa7	-0.024205519
10	0x3d98fac3	0.07469704
11	0x3eb8308e	0.35974544
12	0xbecd670d	-0.40117684
13	0xbf4506a9	-0.7696329
14	0x3f179aef	0.59220785
15	0x3f13b2bf	0.5769462
16	0xbe8d3127	-0.27576563
17	0xbe2ca317	-0.16859089
18	0xbe37311d	-0.17889829
19	0xbe4af86f	-0.19821332
20	0xbe565b91	-0.20933367
21	0x3dbd38f8	0.092393816
22	0x3e417bfe	0.18894956
23	0xbdf00dca	-0.1172138
24	0xbeae6e9f	-0.34068772
25	0xbe8c2fd9	-0.27380255
26	0x3e326b7e	0.17423818
27	0x3e954c32	0.29159695
28	0xbd706c1d	-0.058696855
29	0xbdc9afb6	-0.09847967
30	0x3db88b71	0.09010971
31	0xbce54440	-0.027986646
32	0x3c75e79f	0.015008836
33	0x3e0cc086	0.13745317
34	0xbe4fc3e0	-0.20289564
35	0xbdd1bc01	-0.10240937
36	0x3d830336	0.06397097
37	0xbdf47330	-0.11936033
38	0xbdb2afa6	-0.087249085
39	0x3c5eec66	0.0136061665
40	0xbeed9d3c	-0.46409023
41	0xbe86e0cb	-0.26343378
42	0x3dced621	0.100994356
43	0x3f3d6b59	0.73991925
44	0x3c2f6690	0.010705605
45	0x3c309b61	0.010779233
46	0x3e49631a	0.1966671
47	0x3dd1916e	0.10232817
48	0xbe76df81	-0.24108697
49	0xbd721602	-0.05910302
50	0xbdf4e5c4	-0.11957887
51	0xbdc77e99	-0.097409435
52	0xbe1b615b	-0.15173857
53	0xbdfb3511	-0.12265981
54	0x3c21c73a	0.0098741595
55	0xbe1ee92c	-0.15518636
56	0x3d805d2d	0.06267772
57	0x3bc850db	0.0061131543
58	0x3df89485	0.12137703
59	0xbd9684a8	-0.07349521
60	0xbf4fba98	-0.81144094
61	0xbf960135	-1.1719118
62	0xbea26475	-0.31717268
63	0xbed02479	-0.40652826
64	0xbe4ccb72	-0.19999483
65	0xbebf3977	-0.3734853
66	0xbda7597f	-0.08171367
67	0x3d54bbcf	0.05193692
68	0x3d3f92ec	0.046770975
69	0xbe5618db	-0.20907919
70	0x3e6a19f9	0.2286147
71	0x3e39deb8	0.18151367
72	0xbde9e972	-0.11421479
73	0x3e21f7a3	0.15817122
74	0x3bf5ecb0	0.007505022
75	0xbe20bbda	-0.1569666
76	0xbe51b5c2	-0.20479491
77	0xbe7d9bd1	-0.2476647
78	0x3e466df3	0.1937788
79	0x3e0c17fd	0.13681026
80	0xbd39d352	-0.045367546
81	0xbe6f5111	-0.23370768
82	0xbce74886	-0.028232824
83	0xbc7d58d1	-0.01546307
84	0x3c0b2a51	0.008493976
85	0x3b3581db	0.0027695808
86	0xbd98f432	-0.074684516
87	0xbdbefb59	-0.093252845
88	0x3d159ebc	0.036528334
89	0x3d34ead5	0.044169266
90	0x3c5fda5f	0.013662904
91	0xbcce0391	-0.025148185
92	0xbd707039	-0.058700774
93	0xbd2f6cc7	-0.042828348
94	0x3e0c67c3	0.13711457
95	0x3d265f80	0.04061842
96	0x3c58c447	0.01323039
97	0x3d305520	0.04304993
98	0xbca269ef	-0.019825904
99	0x3be632a5	0.0070250803
100	0xbeaba829	-0.33526734
101	0x3e9a9529	0.30191925
102	0x3e447522	0.19185308
103	0xbe48fa00	-0.19626617
104	0xbb2f0a67	-0.002670908
105	0x3d23a48e	0.039951853
106	0xbd16d922	-0.036828168
107	0xbe31f099	-0.17376937
108	0x3d49c23c	0.049257502
109	0xbbf37c6c	-0.0074306037
110	0x3d54dffa	0.051971413
111	0xbdc55a3c	-0.096363515
112	0xbf1247da	-0.57140887
113	0x3f15c97b	0.5851056
114	0x3f93b8dc	1.154079
115	0xbf70a29b	-0.93998116
116	0xbd26d7a7	-0.040733006
117	0x3e7bea5d	0.24601121
118	0x3e928aa2	0.28621393
119	0xbe272b44	-0.16325098
120	0x3ecc9536	0.3995759
121	0x3e5a0ba3	0.21293502
122	0x3d9daee4	0.07699373
123	0x3d46b42c	0.04851167
124	0xbea8b419	-0.32949904
125	0xbc8744ea	-0.016512353
126	0x3e9dc966	0.30817717
127	0xbdbf2343	-0.093328975
128	0x3ed63052	0.4183374
129	0x3e8ba848	0.27276826
130	0x3e8dd13c	0.27698696
131	0x3d90b2d1	0.070653565
132	0x3dccf30b	0.10007294
133	0xbe426ec5	-0.18987568
134	0xbe5547e8	-0.20828211
135	0xbda91b9d	-0.0825722
136	0x3e06fcff	0.13182448
137	0x3e1716ed	0.14754839
138	0x3d867d1b	0.06566831
139	0xbe38c0a7	-0.18042241
140	0xbd410974	-0.047128156
141	0xbd94dc57	-0.07268589
142	0xbe9bbe2d	-0.3041853
143	0xbe6afcf4	-0.22948056
144	0xbe86aa0b	-0.26301607
145	0xbe515411	-0.20442225
146	0xbf44cb2b	-0.7687251
147	0xbf180fcf	-0.5939912
148	0xbe7ed7bf	-0.24886988
149	0xbc99c9fa	-0.018773068
150	0x3cfbe160	0.030747116
151	0x3dd7d9d2	0.10539593
152	0x3e8c070e	0.27349132
153	0xbdbffed8	-0.093747795
154	0xbe3cca59	-0.18436565
155	0xbe22d330	-0.15900874
156	0x3e4417ce	0.19149706
157	0x3ec8c852	0.39215332
158	0x3ccfdd06	0.025373947
159	0x3dd7edb3	0.105433844
160	0xbe2c96b3	-0.16854362
161	0xbea42ae4	-0.32063973
162	0xbd02c2d8	-0.0319241
163	0xbd3235de	-0.043508403
164	0xbe3ad4cb	-0.18245237
165	0x3beac5d4	0.007164696
166	0xbf0d083e	-0.550907
167	0xbf63606e	-0.88819015
168	0x3d557969	0.05211774
169	0x3e0b90a4	0.13629395
170	0xbcae2fba	-0.021262992
171	0xbd506e0c	-0.0508862
172	0xbe4459d5	-0.19174893
173	0xbe9b093f	-0.30280492
174	0xbf170ea6	-0.59006727
175	0xbf2ab850	-0.6668749
176	0x3de32a2c	0.11092028
177	0x3e0a04fa	0.13478461
178	0xbe8ec683	-0.27885827
179	0xbd2b74ba	-0.041859366
180	0xbe30b744	-0.1725741
181	0xbd65659b	-0.0560051
182	0x3d9bdfa2	0.07611014
183	0xbe9ee34c	-0.3103279
184	0x3e8605e8	0.2617638
185	0x3e93062b	0.28715643
186	0x3e8a913b	0.27063927
187	0x3e881a7a	0.265827
188	0xbd87e3b7	-0.0663523
189	0xbd1b19c1	-0.037866358
190	0xbe8db7f2	-0.27679402
191	0xbe77330f	-0.24140571
192	0xbef038d8	-0.46918368
193	0xbe7037c3	-0.23458771
194	0x3c48695c	0.012232151
195	0xbd758430	-0.059940517
196	0xbf57bd30	-0.8427305
197	0xbf56f27d	-0.8396376
198	0xbed19665	-0.40935054
199	0xbea6aa9c	-0.3255204
200	0x3e26652a	0.16249529
201	0xbdf42210	-0.119205594
202	0x3d7fc610	0.062444746
203	0xbe9175d1	-0.284102
204	0xbd6dd82a	-0.05806748
205	0x3d52d403	0.05147172
206	0xbe4aab61	-0.19791938
207	0xbdc9dcd6	-0.09856574
208	0xbf2ea3fc	-0.6821897
209	0xbf115c7b	-0.5678174
210	0xbee523bf	-0.44753835
211	0xbf42dd3c	-0.76118827
212	0x3df9e580	0.12201977
213	0xbabae260	-0.0014258139
214	0x3e25b122	0.16180852
215	0xbdb3b5cf	-0.087749116
216	0xbede5327	-0.43422815
217	0x3dc339cd	0.09532509
218	0xbef944f5	-0.48685423
219	0xbf117eda	-0.56834185
220	0xbf8541db	-1.0410722
221	0xbf6349b7	-0.88784355
222	0xbe38358c	-0.17989177
223	0xbd95d78e	-0.073165044
224	0xbe5bb0d3	-0.21454172
225	0xbf073ef2	-0.5283042
226	0x3d962e85	0.07333092
227	0x3e73f1c2	0.23822692
228	0xbe25a3ba	-0.16175738
229	0x3eb4d063	0.35315236
230	0x3dea52d3	0.11441579
231	0xbf087de6	-0.53317106
232	0xbdac2a74	-0.08406535
233	0xbd99d610	-0.07511532
234	0xbe8e475a	-0.27788812
235	0xbf0f5289	-0.55985314
236	0xbc5342cf	-0.012894346
237	0xbe055c52	-0.13023499
238	0x3e5ffca1	0.21873714
239	0x3e07bd8e	0.13255903
240	0x3f12b7c5	0.5731166
241	0xbebfd60a	-0.37467986
242	0x3df4f90e	0.11961566
243	0x3e529f74	0.20568639
244	0xbf35d3f4	-0.7102654
245	0xbed12449	-0.40847996
246	0x3ce3f5bd	0.027827138
247	0x3ce85229	0.02835949
248	0x3e077a04	0.13230139
249	0xbdc131d0	-0.09433329
250	0x3e130750	0.14358258
251	0xbe80479d	-0.25054637
252	0xbe96c247	-0.29445097
253	0x3d90f003	0.070770286
254	0xbcba7841	-0.02276242
255	0x3d02c4a6	0.03192582

bias f4 [145]
0	0xbcd61970	-0.026135176
1	0x3e875801	0.2643433
2	0xbddb980d	-0.10722361
3	0x3e22cfcd	0.15899582
4	0x3eeb677f	0.459774
5	0x3e6e19ad	0.23251982
6	0xbe93f9e9	-0.28901604
7	0x3cb16070	0.02165243
8	0x3f1617a9	0.5862985
9	0x3d9c3be8	0.07628614
10	0x3b100280	0.0021974146
11	0xbee68b5d	-0.450282
12	0x3e3ce4d1	0.18446662
13	0x3de3338f	0.110938184
14	0x3dd3320b	0.10312279
15	0xbd879dc0	-0.06621885
16	0xbeb23795	-0.3480803
17	0x3da5da4e	0.08098279
18	0x3e93ee62	0.2889281
19	0x3e1ae2de	0.15125605
20	0x3e03c7b1	0.12869145
21	0xbccfa676	-0.02534793
22	0xbd701ad9	-0.058619354
23	0x3d716caa	0.05894152
24	0xbd558227	-0.052126076
25	0xbe82ae4d	-0.25523606
26	0x3e504f76	0.20342812
27	0x3df5e98e	0.12007438
28	0x3eca8f55	0.3956248
29	0x3ebccc2d	0.36874524
30	0xbdc4d5b4	-0.09611073
31	0x3eaeea0c	0.3416294
32	0xbda41cc0	-0.08013296
33	0x3d7919ac	0.0608155
34	0x3e06fda9	0.13182701
35	0xbdc2e50b	-0.09516343
36	0x3ec70df4	0.38877833
37	0xbe5c3bf9	-0.21507253
38	0xbe1781a4	-0.14795548
39	0x3e1d7d17	0.15379749
40	0xbdaecfc9	-0.085357256
41	0xbe98822c	-0.29786813
42	0xbe5d6d11	-0.21623637
43	0x3ebf63ec	0.37380922
44	0x3bb8cbf5	0.005639548
45	0xbe92d11b	-0.2867516
46	0x3eb8bb3a	0.36080343
47	0x3c345e5b	0.011008824
48	0xbcb1979f	-0.021678744
49	0x3ea10e50	0.31456232
50	0x3e8ede33	0.279039
51	0x3d65c35f	0.056094524
52	0xbed6c510	-0.41947222
53	0x3d7ab40d	0.061206866
54	0xbe401fa5	-0.18762071
55	0xbbc472a3	-0.005995111
56	0x3dfc5a94	0.12321964
57	0x3ee0a08e	0.43872494
58	0xbec64a63	-0.38728628
59	0x3e43dbad	0.19126768
60	0xbe30526e	-0.17218944
61	0xbe5f3b78	-0.2180003
62	0x3bcbadb6	0.0062157763
63	0x3e3e7e1f	0.18602799
64	0xbcb4bf96	-0.022064012
65	0x3e614365	0.21998365
66	0xbe9c98c4	-0.305853
67	0xbc68df60	-0.014213413
68	0xbea802aa	-0.32814533
69	0x3e05c6be	0.13064095
70	0xbe363541	-0.17793752
71	0xbe0068f9	-0.12540044
72	0xbe096f03	-0.13421254
73	0x3cc950eb	0.024574718
74	0xbe08b0ef	-0.13348745
75	0xbe4a895c	-0.19778961
76	0x3d54baa7	0.051935818
77	0x3d1b5185	0.03791954
78	0xbd8b2ea7	-0.067960076
79	0x3ec2294e	0.37922138
80	0xbe1cdd77	-0.15318857
81	0x3e5c80cd	0.21533509
82	0xbc9f9d1e	-0.019484099
83	0x3e8c4205	0.2739412
84	0x3e824fa0	0.25451374
85	0x3da79e07	0.08184438
86	0x3cc835f9	0.024439799
87	0xbdec2847	-0.1153112
88	0x3e4469bc	0.1918096
89	0x3ebfa2ab	0.37428793
90	0xbf0f0ce8	-0.5587907
91	0x3dc65fe1	0.09686256
92	0x3dbb77f1	0.091537364
93	0xbe4b52ca	-0.198558
94	0xbe1f8a95	-0.15580209
95	0x3e23f9fb	0.16013329
96	0xbe6e23f1	-0.23255898
97	0xbcb5a1f9	-0.022171961
98	0x3e84d914	0.25946867
99	0xbc824d3e	-0.015905973
100	0xbcbf9f60	-0.023391426
101	0x3ef4995c	0.47773254
102	0x3e04abc7	0.12956153
103	0xbe0cd1d1	-0.13751914
104	0x3d8233cb	0.06357535
105	0xbe68db7e	-0.2273998
106	0xbe91c057	-0.28467056
107	0x3de79639	0.113079496
108	0x3e377068	0.17913973
109	0x3dd06ef5	0.101774134
110	0x3effa3ee	0.49929756
111	0x3de998cd	0.114060976
112	0x3b963b15	0.00458468
113	0xbdd2a782	-0.10285856
114	0xbda1d2bd	-0.07901523
115	0xbc283e4b	-0.010268758
116	0x3e13e52e	0.14442894
117	0x3de4ee96	0.11178319
118	0x3f06d02d	0.526614
119	0xbdbe8681	-0.09302998
120	0x3ee4c75f	0.44683358
121	0xbd5779de	-0.052606456
122	0x3e981c4b	0.29709086
123	0x3ea42741	0.32061198
124	0x3cee49f0	0.02908799
125	0x3dea32e4	0.11435488
126	0x3d9c668f	0.07636749
127	0xbe5e7d4c	-0.21727484
128	0x3e2a4301	0.16627122
129	0xbe9e2864	-0.3089019
130	0x3e596a06	0.21231851
131	0xbe9afc5a	-0.30270654
132	0x3ec85a78	0.39131522
133	0x3e72986b	0.23690955
134	0x3ea6c3be	0.32571214
135	0xbde04bca	-0.109519556
136	0xbdcacd5e	-0.09902452
137	0xbdaf8287	-0.08569818
138	0x3dd77802	0.105209365
139	0x3e2933a9	0.16523613
140	0xbdc8a2df	-0.0979669
141	0x3d852994	0.06502071
142	0xbd67cd31	-0.05659217
143	0xbddf4db1	-0.1090349
144	0xbe9f4459	-0.31106833

weight f4 [30, 145]
0	0xbde8525e	-0.11343835
1	0xbd9e3b47	-0.0772615
2	0x3d297759	0.041373584
3	0x3cebdea9	0.028792696
4	0xbd3825db	-0.044957977
5	0xbd7ee742	-0.062232263
6	0xbdd766ea	-0.10517676
7	0xbdcf40f8	-0.10119814
8	0xbc81e5d0	-0.015856653
9	0x3d059be4	0.032619372
10	0x3ce8fbf9	0.028440462
11	0x3cf7dcf3	0.030256724
12	0xbd0d0c5d	-0.03443562
13	0xbd8d4475	-0.06897823
14	0x3d248dab	0.040174168
15	0xbce034f4	-0.027369
16	0x3cb8769b	0.022517493
17	0xbcfc5e87	-0.030806793
18	0xbc686647	-0.014184541
19	0xbdbd09df	-0.092303984
20	0xbdb2186e	-0.08696066
21	0x3d00401d	0.031311143
22	0xbd47f1ae	-0.048814468
23	0xbd40505a	-0.04695163
24	0x3d1d306a	0.03837625
25	0xbce14a9c	-0.027501397
26	0xbd79beee	-0.0609731
27	0x3c65cd7e	0.014026044
28	0x3ce8b1aa	0.02840503
29	0xbd4391b1	-0.047746364
30	0xbdb0209b	-0.08599969
31	0x3c35f048	0.011104651
32	0x3d11ba6c	0.035578176
33	0xbd0f4d94	-0.034986094
34	0xbda49f60	-0.08038211
35	0xbda55c84	-0.080742866
36	0x3c312bf0	0.010813698
37	0xbaa4c341	-0.0012570397
38	0xbda638bb	-0.08116289
39	0x3d1f6f39	0.03892443
40	0xbc164aa6	-0.009173071
41	0xbc3dd156	-0.011585554
42	0xbbc55077	-0.006021555
43	0xbd153000	-0.03642273
44	0xbd8c006d	-0.06836019
45	0x3d43a72b	0.047766846
46	0xbc139485	-0.009007578
47	0xbd88295f	-0.06648516
48	0x3d09219f	0.03347933
49	0x3d1b5aec	0.037928507
50	0xbdbf1d06	-0.09331708
51	0x3cb20b41	0.021733882
52	0x3a981b57	0.0011604828
53	0xbd37b6d4	-0.044852093
54	0xbdade3c8	-0.084907115
55	0xbdac0447	-0.08399253
56	0xbcb64f87	-0.022254718
57	0xbd652e9f	-0.055952664
58	0xbd4c5ff0	-0.04989618
59	0xbcd2a06e	-0.025711264
60	0xbd7d6c65	-0.06187095
61	0x3db0b52e	0.08628307
62	0x3c53eb5b	0.012934531
63	0xbd512b29	-0.05106655
64	0xbc6e5247	-0.014545984
65	0xbe004403	-0.12525944
66	0xbdc45464	-0.09586409
67	0xbbbe1505	-0.0058008456
68	0xbdbb788f	-0.09153854
69	0xbc6a362b	-0.014295141
70	0xbc2cd8aa	-0.010549704
71	0x3bd83ea5	0.0065992647
72	0xbcdace38	-0.02670966
73	0xbd934266	-0.07190399
74	0xbd58ebc8	-0.052959234
75	0xbd43fe55	-0.04784997
76	0x3d8392ba	0.0642447
77	0xbd80b40f	-0.062843435
78	0x3ca879a4	0.020565815
79	0x3d442b3b	0.04789279
80	0xbd51c5bb	-0.05121396
81	0xbba6ae1d	-0.005086674
82	0xbdadbd00	-0.084833145
83	0xbbfc829b	-0.007705999
84	0xbd43c2cd	-0.0477932
85	0x3d0b5dc8	0.034024984
86	0xbcdfb8ba	-0.027309764
87	0xbc47068f	-0.01214756
88	0x3d58999f	0.05288088
89	0xbd6feb40	-0.05857396
90	0xbc8e3d7d	-0.017363304
91	0xbd5a1623	-0.053243767
92	0x3c8019c8	0.015637293
93	0xbd8b9fe4	-0.06817606
94	0xbd08e1fd	-0.033418644
95	0xbdc2739c	-0.09494707
96	0xbddfb591	-0.10923303
97	0xbcb310a8	-0.021858528
98	0xbca6a534	-0.020342447
99	0x3c7b5a44	0.015341345
100	0xbd51be74	-0.05120702
101	0x3cd2c0ff	0.025726793
102	0xbd9385f4	-0.07203284
103	0xbc32e696	-0.010919234
104	0x3d9c5497	0.07633322
105	0xbd1bb367	-0.03801289
106	0xbc863c24	-0.0163861
107	0xbd77abff	-0.060466763
108	0xbde3750d	-0.1110631
109	0x3d30c1e7	0.04315367
110	0xbc21e518	-0.00988128
111	0x3cc0e6f2	0.023547623
112	0xbcc6238b	-0.02418687
113	0x3d039962	0.0321287
114	0xbd8d1f94	-0.06890789
115	0xbcb73953	-0.022366202
116	0xbd7aa7c0	-0.061195135
117	0x3d567a9b	0.05236302
118	0xbd10a05f	-0.03530919
119	0xbd9a8365	-0.07544593
120	0xbd8a4d0f	-0.06752979
121	0xbdfca7b2	-0.12336673
122	0x3d41a31e	0.0472747
123	0xbd52bd76	-0.051450215
124	0x3d8cc004	0.068725616
125	0x3d2a868a	0.041632213
126	0xbd60e0e4	-0.054901972
127	0x3cc5b862	0.024135772
128	0x3d0c5027	0.034256127
129	0xbccf93ae	-0.025338974
130	0xbdc3719d	-0.095431544
131	0x3c74ec5b	0.01494893
132	0x3c132e5c	0.008983221
133	0xbd1dd1b2	-0.03853006
134	0x3c6671cb	0.014065216
135	0xbda3da71	-0.08000649
136	0xbdb4a365	-0.088202275
137	0x3c4bb910	0.012434259
138	0x3bfe3ff7	0.00775909
139	0xbd6bc912	-0.057564802
140	0xbd81bc5a	-0.06334753
141	0x3d61d059	0.055130336
142	0xbc1895f6	-0.009313097
143	0x3cafd079	0.021461712
144	0xbdc83f51	-0.09777702
145	0x3e945f7b	0.28979096
146	0xbc67b2ca	-0.014141748
147	0xbeac61cc	-0.33668363
148	0x3d23d51f	0.03999817
149	0x3e43897a	0.19095412
150	0xbe49c7f0	-0.19705176
151	0xbe3a431e	-0.18189666
152	0xbe8e454c	-0.27787244
153	0x3e848d74	0.2588917
154	0xbe1366e7	-0.14394723
155	0x3df809ed	0.12111268
156	0x3ed05ef0	0.40697432
157	0x3dbb4bfa	0.09145351
158	0xbdedad76	-0.11605351
159	0x3f2ec8b9	0.6827503
160	0x3e6546e6	0.22390327
161	0xbda055bf	-0.07828855
162	0xbe3ae3e4	-0.18250996
163	0xbda87bbb	-0.08226725
164	0x3e97ae8a	0.2962535
165	0x3c3e3514	0.0116093345
166	0x3f1f1a3d	0.6214941
167	0x3e127fa4	0.14306504
168	0x3e59fd6f	0.21288083
169	0x3f51e564	0.8199065
170	0x3e19c89a	0.1501793
171	0xbe654859	-0.2239088
172	0xbdbc43b0	-0.09192598
173	0x3db8cd29	0.09023506
174	0xbe648ab6	-0.22318539
175	0x3e3cae00	0.1842575
176	0xba48d9aa	-0.0007661829
177	0xbdfdac77	-0.12386411
178	0xbd19f8ba	-0.03759072
179	0xbde45c17	-0.11150377
180	0x3e99360e	0.29924053
181	0x3cb87b3c	0.0225197
182	0x3dfbf71a	0.1230299
183	0x3e188e29	0.1489798
184	0x3d640d6d	0.055676866
185	0x3e82aaee	0.25521034
186	0xbd43f1d1	-0.047838036
187	0x3eb44c26	0.35214347
188	0xbe56e2e7	-0.20984994
189	0xbe6eca11	-0.2331927
190	0x3e771a06	0.24131021
191	0xbda5c9d7	-0.080951385
192	0xbd843b12	-0.06456579
193	0x3e18291f	0.14859436
194	0x3dad3408	0.0845719
195	0xbda8e540	-0.08246851
196	0x3e78af66	0.24285659
197	0x3e1852ed	0.14875384
198	0xbc928ee8	-0.017890409
199	0xbe57e566	-0.21083602
200	0xbe1c3313	-0.15253858
201	0x3e1d9324	0.15388161
202	0xbe220e67	-0.15825807
203	0x3eab72d5	0.33486047
204	0x3df3eff3	0.11911001
205	0xbd9181ca	-0.071048334
206	0x3efe9170	0.49720335
207	0x3f26f87a	0.65222895
208	0xbce61517	-0.028086228
209	0xbee6a589	-0.45048168
210	0x3f00aa8f	0.5026025
211	0x3d855750	0.06510794
212	0x3dffef1b	0.124967776
213	0x3d9bb87a	0.076035455
214	0xbdf8d551	-0.12150062
215	0x3d819037	0.06326335
216	0x3e528373	0.20557956
217	0x3d693ca3	0.056942593
218	0x3ea7cf1e	0.32775205
219	0x3cdd928c	0.027047418
220	0x3d6988c7	0.057015207
221	0xbeaf4597	-0.3423278
222	0xbe67913f	-0.22614
223	0x3ec43a04	0.38325512
224	0x3db26365	0.08710364
225	0x3e68d6e3	0.22738223
226	0xbd245c59	-0.040127132
227	0x3e7bccf2	0.24589899
228	0xbdaaa78d	-0.08332739
229	0xbe55d15d	-0.20880647
230	0xbe8acc81	-0.2710915
231	0xbeb1aade	-0.34700674
232	0x3eea4c57	0.45761368
233	0xbeea97b1	-0.45818856
234	0x3e0f43d3	0.13990717
235	0xbd6d717e	-0.057969563
236	0xbddcd98e	-0.10783683
237	0x3cb58da7	0.022162272
238	0xbd04001c	-0.032226667
239	0x3db41d76	0.08794682
240	0x3d996f69	0.07491953
241	0xbdc90415	-0.09815232
242	0x3dbe72eb	0.092992626
243	0xbf06ee41	-0.52707297
244	0x3dd9cd11	0.106348164
245	0x3df5cadc	0.12001583
246	0x3edc97f5	0.43084684
247	0xbd717e4e	-0.058958344
248	0x3debdd61	0.11516834
249	0x3ec319ec	0.38105714
250	0x3d3098aa	0.04311434
251	0x3e52b43d	0.20576568
252	0x3d61f095	0.055161078
253	0xbe1a1c47	-0.1504985
254	0xbe31772a	-0.17330614
255	0xbe8ebca7	-0.27878305

bias f4 [30]
0	0xbdab7a84	-0.083729774
1	0xbd937e9c	-0.07201883
2	0x3ed42f9d	0.41442576
3	0xbcd1dcec	-0.02561804
4	0x3e08446d	0.13307352
5	0x3db8af78	0.09017843
6	0xbd5aaa74	-0.053385213
7	0x3f01bda9	0.50680023
8	0x3ead67e2	0.3386832
9	0x3edbbf1a	0.42919236
10	0xbe3e15e1	-0.18563034
11	0x3e92bcd1	0.2865968
12	0x3dc775fa	0.09739299
13	0x3eb9c756	0.36284894
14	0xbd2e2511	-0.042515818
15	0x3ea1f168	0.3162949
16	0x3d80f341	0.06296397
17	0x3ece9a6c	0.4035219
18	0x3e3662ec	0.17811173
19	0x3f173521	0.59065443
20	0x3edc1308	0.4298327
21	0x3e3ab099	0.18231429
22	0xbde8d7f5	-0.113693155
23	0x3f0afe91	0.5429469
24	0x3deb50ba	0.11490007
25	0x3f26011a	0.6484543
26	0x3eafa35f	0.3430433
27	0xbdb6ee19	-0.08932132
28	0xbde740cd	-0.11291657
29	0xbd9fc589	-0.07801349
