Project_1/Part2/checkpoints/model_cnn.pth (torch, 180629 bytes, 18 tensors)

conv1.weight f4 [8, 3, 5, 5]
0	0xbda16f09	-0.078825064
1	0xbe4fdb75	-0.2029856
2	0xbee0bdd7	-0.43894836
3	0xbe34ab72	-0.17643526
4	0xbe41aed1	-0.18914343
5	0xbd0e2029	-0.03469864
6	0xbe777d08	-0.2416879
7	0xbe80fd94	-0.25193465
8	0xbe9ac79c	-0.30230415
9	0x3d5adac9	0.053431306
10	0xbe0d1625	-0.13777979
11	0x3ea43e78	0.3207891
12	0x3f3cac6b	0.7370059
13	0x3ee36740	0.4441471
14	0xbd898038	-0.06713909
15	0x3d03b877	0.03215834
16	0x3e320889	0.17386068
17	0x3a0d5ec4	0.00053928443
18	0x3e07e64a	0.13271442
19	0x3c82133b	0.01587831
20	0x3e786d04	0.24260336
21	0xbdad25ba	-0.084544614
22	0xbeace0e0	-0.33765316
23	0xbd0f3656	-0.03496393
24	0x3e047d7b	0.12938492
25	0x3e913030	0.28357077
26	0x3c5fdfdf	0.013664215
27	0xbdddfef3	-0.10839643
28	0xbda71340	-0.081579685
29	0x3debfc0e	0.11522685
30	0x3e03260b	0.12807481
31	0xbe25a0b5	-0.16174586
32	0x3ae2753e	0.0017277373
33	0x3ccfbbc0	0.02535808
34	0x3dbab155	0.09115855
35	0xbe7d755d	-0.24751802
36	0x3e94d317	0.290673
37	0x3f4545d2	0.7705966
38	0x3ea7c132	0.32764584
39	0xbe005858	-0.125337
40	0xbe43ce13	-0.1912158
41	0x3cc4c662	0.024020378
42	0xbd9e96f3	-0.07743635
43	0x3bdb4ae3	0.006692277
44	0xbe075811	-0.13217188
45	0x3d4743ea	0.048648752
46	0xbdd9b4cc	-0.106301874
47	0xbef0ac9d	-0.47006693
48	0xbe54352b	-0.20723407
49	0x3e1db3ad	0.15400572
50	0x3d3c7273	0.046007585
51	0xbc83875d	-0.016055757
52	0xbc066060	-0.0082016885
53	0x3b816337	0.003948595
54	0x3d8a1f78	0.067442834
55	0xbdcdc7fd	-0.1004791
56	0xbe6e1709	-0.23250975
57	0xbe3fc7db	-0.18728583
58	0xbd689c97	-0.05678996
59	0x3d794596	0.060857378
60	0xbd9b50fd	-0.07583807
61	0x3e75b7ca	0.23995891
62	0x3efb5524	0.49088395
63	0x3e41ebb2	0.18937567
64	0xbde053d7	-0.10953491
65	0xbd329e67	-0.043608095
66	0xbd966152	-0.07342781
67	0xbd9f2dc0	-0.07772398
68	0xbd511c6f	-0.051052507
69	0xbd4b5189	-0.049638305
70	0x3e7a951e	0.24470946
71	0xbdeacc87	-0.11464792
72	0xbedb8e7e	-0.4288215
73	0xbe19a477	-0.15004145
74	0x3df76886	0.12080483
75	0x3e857bb7	0.2607095
76	0xbe5629fb	-0.20914452
77	0xbea4e765	-0.3220779
78	0x3d054a84	0.032541767
79	0x3eadfa4d	0.33980027
80	0xbe7dee36	-0.24797902
81	0xbf4375b1	-0.7635146
82	0xbf318571	-0.6934424
83	0xbed114de	-0.40836233
84	0x3d82fe0c	0.06396112
85	0xbe924399	-0.28567198
86	0xbe7f7979	-0.24948682
87	0x3e064812	0.1311343
88	0x3d9671ba	0.0734591
89	0xbcc6b2ff	-0.024255274
90	0xbdcff1df	-0.10153555
91	0x3e28607b	0.16443054
92	0x3e2ee8c8	0.17080986
93	0x3dec309b	0.11532708
94	0x3e03c446	0.12867841
95	0x3e70403f	0.23462008
96	0x3ec08dfd	0.37608328
97	0x3e98dae0	0.29854488
98	0x3ea03915	0.3129355
99	0x3e5924cc	0.21205443
100	0x3e20aa2e	0.15689918
101	0xbe3913a8	-0.18073905
102	0xbedd17be	-0.43182176
103	0xbe1cf339	-0.15327157
104	0x3e565610	0.20931268
105	0xbe6a3a9c	-0.2287392
106	0xbf2866cc	-0.65781856
107	0xbee1480d	-0.44000283
108	0xbe49f354	-0.19721729
109	0xbe576045	-0.21032818
110	0xbe34d52e	-0.17659447
111	0x3d893c0e	0.06700908
112	0x3d9de16f	0.07709014
113	0x3df8c849	0.12147576
114	0x3d35dcce	0.04440003
115	0xbd8b507f	-0.06802463
116	0x3df167bf	0.11787366
117	0x3e8953e8	0.26821828
118	0x3d5ba620	0.053625226
119	0xbdd19f0e	-0.102354154
120	0x3d36c6b3	0.044623088
121	0x3e6c28f1	0.23062493
122	0x3e5b6160	0.21423864
123	0x3d825516	0.06363885
124	0x3beb481e	0.007180228
125	0x3e81e586	0.25370425
126	0xbe1f9b3b	-0.1558656
127	0xbebbc2a7	-0.36671945
128	0xbdfbb66a	-0.12290652
129	0x3c00247d	0.0078211995
130	0x3e850984	0.25983822
131	0xbe779b17	-0.24180256
132	0xbe50c37c	-0.20387071
133	0xbe3c095b	-0.18362944
134	0xbd4cf89c	-0.05004178
135	0xbc9cbf91	-0.019134315
136	0x3da8926d	0.082310535
137	0x3e1de429	0.15419067
138	0x3c345ca4	0.011008415
139	0xbbe6001f	-0.0070190574
140	0x3d458f26	0.04823222
141	0x3e2efa5e	0.17087695
142	0x3e960225	0.2929851
143	0xbb01d374	-0.0019809874
144	0xbdbdaf37	-0.09261935
145	0x3d8b3181	0.067965515
146	0x3de80392	0.11328806
147	0x3e8c825d	0.2744321
148	0x3e721d99	0.23644103
149	0x3b199af2	0.0023438302
150	0x3ddffe95	0.109372295
151	0x3e4ce1a6	0.20007953
152	0xbe889a06	-0.2668001
153	0xbeaa9b67	-0.33321688
154	0xbe98c204	-0.29835522
155	0xbda6a9c2	-0.081378475
156	0x3dcd79ee	0.10033022
157	0xbce62d71	-0.02809784
158	0xbe8aebe3	-0.27133092
159	0xbedd7c5b	-0.43258938
160	0xbd030b20	-0.03199303
161	0x3e0f0b08	0.13969052
162	0x3e603d0f	0.21898292
163	0xbd9782da	-0.07398005
164	0xbe193e81	-0.1496525
165	0x3e2ecb28	0.17069685
166	0x3d428ed2	0.047499485
167	0x3e8ba9a5	0.27277866
168	0x3decf32a	0.11569817
169	0xbba8325d	-0.005132957
170	0x3e87ab95	0.26498094
171	0x3e67c838	0.22634971
172	0x3e7cf539	0.2470292
173	0x3ecbeb9d	0.39828196
174	0x3e271d7b	0.1631984
175	0x3c865525	0.016398022
176	0x3e10b9f4	0.14133435
177	0xbdf0aa0a	-0.117511824
178	0xbe80bdc7	-0.2514479
179	0xbe1643eb	-0.14674346
180	0xbe6c1c10	-0.2305758
181	0x3de4ac7a	0.1116571
182	0x3e51f957	0.20505272
183	0xbccc62b5	-0.02494941
184	0xbdf2f37d	-0.11862848
185	0xbead2c6e	-0.3382296
186	0x3c8ada2e	0.01694974
187	0x3e7c90d1	0.24664618
188	0x3e5c6076	0.21521172
189	0xbd8ce6ea	-0.06879981
190	0xbe6557bf	-0.22396754
191	0xbe89ba85	-0.26900116
192	0x3cdd42fc	0.02700948
193	0x3e39c756	0.18142447
194	0x3db7af8d	0.089690305
195	0xbe383025	-0.17987116
196	0xbe9fcc23	-0.3121043
197	0xbd1a1182	-0.037614353
198	0x3d741726	0.05959239
199	0x3dbef275	0.09323589
200	0x3ecaaef5	0.39586607
201	0x3ef2d190	0.47425508
202	0x3e5665c5	0.2093726
203	0xbe7bb413	-0.24580412
204	0xbd6add71	-0.05734009
205	0xbd3d7afa	-0.046259858
206	0x3f10caa0	0.5655918
207	0x3f2f7490	0.68537235
208	0x3e88ab37	0.26693127
209	0xbced4a79	-0.028966175
210	0xbe769cb5	-0.24083216
211	0x3d7d5ae6	0.061854266
212	0x3ec2000f	0.3789067
213	0x3e9ff3f2	0.31240803
214	0x3d6075d0	0.054799855
215	0xbe8fc628	-0.2808087
216	0xbe3bd25d	-0.18341966
217	0x3e3d6b33	0.18497925
218	0x3ddb938c	0.10721502
219	0x3dbb20d4	0.09137121
220	0xbedc3103	-0.43006143
221	0xbe9e0a67	-0.3086731
222	0xbeb724ff	-0.35770413
223	0xbd16ceb8	-0.036818236
224	0x3dacb7e6	0.08433513
225	0x3dd0e2cd	0.10199509
226	0xbc928623	-0.017886227
227	0x3d54773f	0.051871534
228	0xbe632927	-0.22183667
229	0x3e23e93e	0.16006944
230	0x3ceef6cd	0.029170418
231	0x3dceb5b6	0.10093252
232	0x3dbe7c87	0.093010955
233	0xbee66332	-0.44997555
234	0x3e00b85a	0.12570325
235	0xbe887cd9	-0.2665775
236	0x3ee0b31e	0.43886656
237	0x3e89c038	0.26904464
238	0xbef58fad	-0.47961178
239	0x3d81d79a	0.06339951
240	0xbe16c17a	-0.14722243
241	0x3ce7f150	0.028313309
242	0x3ec32597	0.38114616
243	0xbea4a936	-0.32160348
244	0xbc3cefda	-0.011531794
245	0x3e4d9af7	0.20078646
246	0xbe5bac92	-0.21452549
247	0x3e8f2d45	0.27964225
248	0xbe5e59d2	-0.21713951
249	0x3c7cedda	0.015437568
250	0xbd4e485e	-0.050361983
251	0xbe1c69c0	-0.15274715
252	0x3e2b7b5a	0.16746274
253	0xbdf45c39	-0.119316526
254	0x3da74bbf	0.08168744
255	0xbe32400a	-0.17407241

conv1.bias f4 [8]
0	0xbc3d63e7	-0.011559463
1	0xbd78ef3d	-0.06077503
2	0x3ccc2c8e	0.02492359
3	0xbeae6740	-0.34063148
4	0xbe1e88d7	-0.15481888
5	0x3e0d3b20	0.13792086
6	0xbec7e70f	-0.3904347
7	0x3ddb3465	0.10703353

batch1.weight f4 [8]
0	0x3f977dda	1.1835282
1	0x3f6c5efa	0.9233242
2	0x3f4cb999	0.799707
3	0x3fa39565	1.2779967
4	0x3f9094ca	1.1295407
5	0x3f469c68	0.77582407
6	0x3f475a3d	0.7787207
7	0x3f94c85f	1.1623648

batch1.bias f4 [8]
0	0xbe716d59	-0.23576869
1	0xbafc6a25	-0.0019257708
2	0xbda8c29d	-0.082402445
3	0xbe013822	-0.12619069
4	0xbdeab84c	-0.11460933
5	0xbd60625e	-0.05478131
6	0x3e8e26a8	0.27763867
7	0x3d0ce19c	0.034394845

batch1.running_mean f4 [8]
0	0xba7ddd55	-0.0009684165
1	0xbdf7ce8c	-0.120999426
2	0xbe105383	-0.14094357
3	0xbead1cc3	-0.33811006
4	0xbe246e12	-0.16057613
5	0x3e501302	0.20319751
6	0xbf5ec73e	-0.8702277
7	0x3e0e0639	0.13869561

batch1.running_var f4 [8]
0	0x3ed108c0	0.40826988
1	0x401d7f25	2.4608853
2	0x3f949382	1.1607516
3	0x3e98d0e5	0.29846874
4	0x3feaaa0e	1.8333147
5	0x3f6e4a5e	0.93082225
6	0x4025d3d7	2.5910547
7	0x3feee8f1	1.8664838

conv2.weight f4 [10, 8, 5, 5]
0	0xbea7092f	-0.32624194
1	0xbef3ab5d	-0.47591677
2	0xbe54e947	-0.20792113
3	0xbdf6fed8	-0.12060326
4	0xbee46932	-0.44611508
5	0xbe3a742d	-0.1820838
6	0xbed5ca4b	-0.417559
7	0xbef0f88e	-0.47064632
8	0xbf06d9cd	-0.5267609
9	0xbe8a9838	-0.2706926
10	0xbe74235a	-0.2384161
11	0xbf1cbe25	-0.6122764
12	0xbee1b4ab	-0.4408315
13	0xbe750bb2	-0.23930243
14	0x3d964901	0.07338143
15	0xbda9666a	-0.08271487
16	0xbe86cdd8	-0.2632892
17	0xbeaf1283	-0.3419381
18	0xbde6bd68	-0.11266595
19	0xbdfbe8ed	-0.123002864
20	0xbd4ed14c	-0.05049257
21	0xbd05b4b4	-0.032643035
22	0xbdb35a9e	-0.08757518
23	0x3baff42c	0.0053696837
24	0x3d075a90	0.03304535
25	0xbe4015ef	-0.18758367
26	0xbeccf546	-0.4003088
27	0xbe9bebc0	-0.304533
28	0xbed6b8d8	-0.419379
29	0xbefe6626	-0.49687308
30	0xbea406ce	-0.32036442
31	0xbf12d86f	-0.573615
32	0xbea1039b	-0.31448063
33	0xbd073bd3	-0.033016037
34	0x3e99b8f3	0.30023918
35	0xbeaf1d28	-0.34201932
36	0xbea3f533	-0.3202301
37	0xbe5bef6b	-0.2147805
38	0x3e8daeb4	0.2767235
39	0x3e035531	0.12825467
40	0xbdd70524	-0.10499027
41	0xbdf2c9ab	-0.11854871
42	0xbdf8a0a7	-0.12140017
43	0xbd553b26	-0.05205836
44	0x3d7f77ac	0.062369987
45	0x3e837005	0.25671402
46	0x3e9dba50	0.30806208
47	0x3e66599f	0.22495125
48	0x3d94cd88	0.072657645
49	0x3df8a78d	0.12141333
50	0x3e97d597	0.29655144
51	0x3e99bb49	0.300257
52	0x3ec00cd9	0.37509802
53	0x3ecf469a	0.40483552
54	0x3eb90f40	0.36144447
55	0x3dbe0b49	0.09279496
56	0x3c0b9390	0.008519068
57	0x3e0d3bcc	0.13792342
58	0x3e1f6f8f	0.155699
59	0x3c246bc8	0.010035463
60	0x3dd4670a	0.10371216
61	0x3c2f9e28	0.01071886
62	0x3e17e774	0.14834386
63	0x3e9cee08	0.30650353
64	0x3d756962	0.059914954
65	0x3e6e9377	0.23298441
66	0xbe2ccd20	-0.16875124
67	0xbdedc985	-0.116107024
68	0xbd7151eb	-0.058916014
69	0xbd887319	-0.06662578
70	0x3eafb1f4	0.34315455
71	0x3e0f294b	0.13980596
72	0xbd9ef020	-0.07760644
73	0x3d4e43e2	0.050357707
74	0x3e99a3d8	0.30007815
75	0xbe95e71c	-0.29277885
76	0xbe3003b2	-0.1718891
77	0xbe33b820	-0.17550707
78	0xbd750900	-0.059823036
79	0xbdb266e7	-0.08711033
80	0xbdefe972	-0.11714448
81	0xbe2f5cee	-0.17125294
82	0x3dce89f3	0.100849055
83	0x3dacfb29	0.084463425
84	0xbce8f24a	-0.028435845
85	0xbd582928	-0.052773625
86	0xbd2d584a	-0.042320527
87	0x3e6cf479	0.23140134
88	0x3e3e0059	0.1855482
89	0x3d7b699f	0.061380025
90	0xbe6a41cf	-0.22876666
91	0xbe2f095e	-0.17093417
92	0xbd8bc810	-0.06825268
93	0x3de7bfe7	0.11315899
94	0x3d208c04	0.03919603
95	0xbdb1affc	-0.086761445
96	0x3d47141a	0.048603155
97	0x3e1db2ce	0.1540024
98	0x3e80740f	0.25088546
99	0x3d515f2d	0.051116157
100	0x3d8d97da	0.06913729
101	0x3df02b78	0.11727041
102	0x3e41a3e3	0.18910174
103	0xba73ba22	-0.00092974503
104	0x3ec39325	0.381982
105	0xbd2fc3ae	-0.042911224
106	0x3d96af45	0.07357649
107	0x3e5cfac1	0.2158003
108	0x3d647fbd	0.055785883
109	0x3ea146b2	0.3149925
110	0xbc902294	-0.017594613
111	0x3e7f5554	0.24934894
112	0x3e97d070	0.29651213
113	0x3e7af9d8	0.2450937
114	0x3e4c7040	0.19964695
115	0xbd8019e6	-0.0625494
116	0x3ea54f27	0.3228695
117	0x3ee1ce29	0.441026
118	0x3ea254f1	0.3170543
119	0x3d86ebdf	0.065879576
120	0xbe07e3cd	-0.13270493
121	0x3e9493f1	0.2901912
122	0x3f19a15e	0.6001185
123	0x3ec713bb	0.3888224
124	0x3e076331	0.13221432
125	0xbe968235	-0.29396215
126	0xbe42a397	-0.19007717
127	0xbe9e7472	-0.30948216
128	0xbd004401	-0.031314854
129	0x3df4a711	0.11945928
130	0xbe2daa81	-0.16959573
131	0xbc6ab98a	-0.0143264625
132	0xbca8f308	-0.020623699
133	0xbd93d663	-0.072186254
134	0xbdc5d3ab	-0.09659513
135	0x3d49f920	0.04930985
136	0x3df8741b	0.1213152
137	0xbd2828bd	-0.041054476
138	0xbe49a4a3	-0.1969171
139	0xbdd74dfb	-0.105129205
140	0xbd9e3993	-0.07725825
141	0xbcee129b	-0.029061606
142	0xbd48e478	-0.04904601
143	0xbe365780	-0.17806816
144	0xbe12b183	-0.14325528
145	0x3ccf7458	0.025324032
146	0xbcd673b4	-0.026178218
147	0xbdacd071	-0.084381945
148	0xbde9006b	-0.11377033
149	0xbd68449f	-0.056706067
150	0x3ea1b1ce	0.31580967
151	0x3e543526	0.207234
152	0x3e49ec46	0.19719037
153	0x3eb7bfe6	0.35888594
154	0x3ecbaf10	0.39782
155	0x3e3618fe	0.17782971
156	0x3d78e5a2	0.06076587
157	0x3dd03532	0.10166396
158	0x3df1d4fc	0.11808202
159	0x3e2694e8	0.1626774
160	0x3e7f1802	0.24911502
161	0x3cba6b92	0.022756372
162	0x3d41006f	0.047119554
163	0xbe60a5c5	-0.21938236
164	0xbe65f773	-0.22457676
165	0x3e2ce722	0.16885045
166	0x3dfbf4e7	0.12302571
167	0xbdb065d1	-0.0861317
168	0xbe9fc978	-0.31208396
169	0xbea5b029	-0.32360962
170	0x3e8a533d	0.2701663
171	0x3e0d1a57	0.13779579
172	0xbe0507cb	-0.12991254
173	0xbe61d3ba	-0.22053424
174	0xbe2e8229	-0.1704184
175	0xbf3f2285	-0.7466205
176	0xbefffcf8	-0.49997687
177	0xbe9b178f	-0.3029141
178	0xbe771f8f	-0.24133132
179	0xbe99c458	-0.3003261
180	0xbee2d1a9	-0.44300583
181	0xbe4c3f7a	-0.1994609
182	0xbe62f28a	-0.22162834
183	0xbd69e14a	-0.057099618
184	0x3d84bdb1	0.06481493
185	0xbefedce8	-0.49777913
186	0xbd018d23	-0.03162874
187	0xbb819cad	-0.003955445
188	0x3e24ee8e	0.16106626
189	0x3e41d4cf	0.18928836
190	0xbec071b1	-0.3758674
191	0xbd86d0b4	-0.06582776
192	0x3e6d75c4	0.23189455
193	0x3e4d2af8	0.20035923
194	0x3e1ccb4a	0.15311924
195	0xbe2c0040	-0.1679697
196	0x3d89b11e	0.067232355
197	0x3eb29351	0.34878018
198	0x3eb510b8	0.35364318
199	0x3e2cc605	0.16872413
200	0x3e950061	0.29101852
201	0xbe00eeac	-0.12591046
202	0xbe877f1f	-0.26464173
203	0xbd1087aa	-0.03528563
204	0xbe2f87fd	-0.17141719
205	0xbe8cfb2e	-0.27535385
206	0xbe41d6a1	-0.1892953
207	0xbd07a845	-0.03311946
208	0xbddafc35	-0.10692636
209	0xbe0fb7cc	-0.14034957
210	0x3dcd9b46	0.10039382
211	0x3e50c66a	0.20388189
212	0xbefd2413	-0.49441585
213	0x3eaf588e	0.3424725
214	0xbe4cd7b6	-0.20004162
215	0x3e8a1872	0.26971775
216	0xbf0fe7b3	-0.5621292
217	0x3e19d1a0	0.15021372
218	0x3e460e22	0.19341329
219	0xbea64ad3	-0.3247896
220	0xbd0e3f9d	-0.034728635
221	0xbdcb81ef	-0.09936892
222	0x3e95cd3c	0.29258144
223	0xbe911062	-0.28332812
224	0x3c89b5da	0.016810346
225	0xbd2f4160	-0.042786956
226	0x3ca03f8e	0.019561555
227	0xbe45f9c1	-0.19333555
228	0xbe3e4be3	-0.18583636
229	0x3dbc4ec2	0.09194709
230	0xbc87d4cf	-0.016580967
231	0x3cac5857	0.021038217
232	0xbe46e863	-0.19424586
233	0xbcd90e86	-0.026496183
234	0x3e3267df	0.17422436
235	0x3c81b58a	0.015833635
236	0xbe11787e	-0.1420612
237	0x3df997a6	0.12187128
238	0x3edd7e3e	0.43260378
239	0x3e70425e	0.23462817
240	0xbe6b69f3	-0.22989635
241	0xbe3bf339	-0.18354501
242	0x3f1529d1	0.5826693
243	0x3d0075d9	0.03136239
244	0x3e767f40	0.2407198
245	0xbebb57e9	-0.36590508
246	0x3e26fb2b	0.1630675
247	0x3d6b6c61	0.057476405
248	0xbf091c6d	-0.53559
249	0x3df2ee36	0.118618414
250	0xbdf5e7d7	-0.120071106
251	0xbd7669d2	-0.060159512
252	0xbc3ba2ab	-0.011452357
253	0x3dc14bcb	0.094382845
254	0x3e742636	0.23842701
255	0xbd6cd771	-0.05782265

conv2.bias f4 [10]
0	0x3ea19685	0.3156015
1	0x3e8f609b	0.28003392
2	0x3e5e1555	0.21687825
3	0x3f0fe4d2	0.5620853
4	0x3ede5c1b	0.43429646
5	0xbcc2d81b	-0.023784688
6	0x3ef32541	0.4748936
7	0x3e35c438	0.17750633
8	0x3f1b9640	0.6077614
9	0x3e3735ca	0.17891613

batch2.weight f4 [10]
0	0x3f571b31	0.84025866
1	0x3f3ea9e4	0.7447798
2	0x3f4e7dce	0.8066071
3	0x3f4a88d3	0.7911503
4	0x3f593376	0.8484415
5	0x3f433e20	0.7626667
6	0x3f8040dc	1.0019794
7	0x3f6dbcc0	0.92866135
8	0x3f8e2f14	1.1108117
9	0x3f250a42	0.6446878

batch2.bias f4 [10]
0	0xbdbeece6	-0.093225285
1	0xbdd2678f	-0.102736585
2	0xbe74899a	-0.23880616
3	0xbd11182b	-0.03542344
4	0xbedc1faa	-0.42992908
5	0xbd980cfc	-0.074243516
6	0xbf023c33	-0.50873107
7	0xbeb4c5af	-0.3530707
8	0xbea8ea7d	-0.329914
9	0xbb2e568b	-0.0026601877

batch2.running_mean f4 [10]
0	0xc0347c93	-2.8201034
1	0xbfccccd9	-1.6000015
2	0x3ee9b1b0	0.45643377
3	0xc0ee3a75	-7.444636
4	0xbfa5ab2c	-1.2942863
5	0x3fc10a86	1.5081336
6	0xbffa646c	-1.9561896
7	0xbc7f4327	-0.015579975
8	0xc12afff5	-10.6874895
9	0xc01af8cc	-2.4214354

batch2.running_var f4 [10]
0	0x41c17e20	24.186584
1	0x41228ae3	10.158908
2	0x4147a0e6	12.476782
3	0x41c4bdab	24.592611
4	0x414f52d4	12.957722
5	0x419cbd71	19.5925
6	0x41377747	11.46662
7	0x414b48e3	12.705295
8	0x42292bd9	42.29282
9	0x41414438	12.079155

fc1.weight f4 [145, 250]
0	0x3e1ee027	0.15515195
1	0x3d76bf7f	0.06024122
2	0x3e5d9dc6	0.21642217
3	0x3e7c6d7a	0.24651137
4	0x3e893003	0.26794443
5	0xbe5f237f	-0.21790884
6	0xbcae3ec5	-0.021270165
7	0xbd102448	-0.03519085
8	0x3d58c8e2	0.05292595
9	0x3dc96666	0.09833984
10	0xbeafaf22	-0.34313303
11	0xbebdd9ba	-0.37080175
12	0xbe9b1eea	-0.30297023
13	0xbe5cde84	-0.21569258
14	0xbe0d5664	-0.13802487
15	0xbe38e63b	-0.18056576
16	0xbeaaa4ba	-0.333288
17	0xbe9f16ef	-0.31072184
18	0xbeb4b0f7	-0.35291263
19	0xbe8da6b5	-0.2766625
20	0xbde95a99	-0.11394233
21	0x3e336a0b	0.17520921
22	0x3e656a7c	0.22403902
23	0xbe13f0bf	-0.14447306
24	0xbe88388d	-0.26605645
25	0xbec249b1	-0.37946847
26	0xbe6c4b8c	-0.23075694
27	0xbdc497b1	-0.09599245
28	0x3e444419	0.19166602
29	0xbb7e768f	-0.003882799
30	0xbe8af593	-0.27140483
31	0xbe34d001	-0.17657472
32	0x3d8de7fa	0.06929012
33	0xbd457793	-0.048209738
34	0x3e48e3bc	0.19618124
35	0xbbeb76c0	-0.007185787
36	0x3d28c91e	0.041207425
37	0x3e5d5ac7	0.2161666
38	0xbe90ade7	-0.28257677
39	0x3d4d055a	0.05005393
40	0xbd6ab324	-0.057299748
41	0x3e2adeb6	0.1668652
42	0xbe3d1d60	-0.18468237
43	0xbefdbc86	-0.49557894
44	0x3db4983e	0.088181004
45	0x3d9e4473	0.077278994
46	0x3ea3212c	0.31861246
47	0xbe1dfd9a	-0.15428773
48	0xbf118621	-0.5684529
49	0xbe12d439	-0.14338769
50	0xbe30b810	-0.17257714
51	0xbea065a4	-0.31327546
52	0xbe93de0a	-0.2888034
53	0xbeb4fbe7	-0.35348436
54	0x3c2f72d8	0.010708533
55	0xbddfbdba	-0.10924859
56	0xbb624e28	-0.0034531448
57	0x3e43caea	0.19120374
58	0x3e9f478a	0.31109267
59	0x3e609a7f	0.21933936
60	0x3d9b2a3f	0.07576417
61	0x3ecb2bb4	0.3968178
62	0x3e763898	0.24045026
63	0x3d9d8d84	0.076930076
64	0x3e27706c	0.1635148
65	0x3cd678e9	0.026180701
66	0xbdad169d	-0.08451579
67	0xbe234205	-0.15943153
68	0xbe726bab	-0.23673885
69	0x3c9afd28	0.018919542
70	0xbebe81c1	-0.3720837
71	0xbc7a8c24	-0.015292201
72	0xbf257a90	-0.6464014
73	0xbea7bcdd	-0.3276128
74	0xbd600ecc	-0.05470161
75	0x3ed27670	0.41105986
76	0x3ecefd69	0.40427712
77	0x3e8a8c9d	0.27060404
78	0x3e8c4fe9	0.27404717
79	0x3e8cb8c1	0.27484706
80	0xbdbaf4d6	-0.0912873
81	0x3e854149	0.2602637
82	0x3e1ca5b3	0.15297584
83	0x3e7cbbe0	0.24681044
84	0x3e34b4ef	0.17647146
85	0xbeff67ba	-0.49883825
86	0xbe21325f	-0.15741871
87	0xbea90c2c	-0.330171
88	0xbe6c52b8	-0.2307843
89	0xbe8edc06	-0.2790224
90	0xbf1843de	-0.5947856
91	0xbe8e781f	-0.2782602
92	0xbeff2f79	-0.49840906
93	0xbe88df13	-0.26732692
94	0xbea37e1f	-0.3193216
95	0x3dbcdc9c	0.092217654
96	0xbd5a983b	-0.053367835
97	0x3e5d49d8	0.216102
98	0x3eefbfbd	0.46825972
99	0x3d928be8	0.07155591
100	0x3da4a0fe	0.08038519
101	0xbe8093aa	-0.2511266
102	0xbdbad753	-0.09123101
103	0xbebcdc5a	-0.36886865
104	0xbd9b318f	-0.07577812
105	0xbd1ebef8	-0.03875634
106	0x3e8d5c40	0.27609444
107	0xbd87680d	-0.06611643
108	0x3bff9ced	0.0078006894
109	0x3e29a43a	0.16566554
110	0xbda5e3e6	-0.08100109
111	0x3e244182	0.16040614
112	0xbce97a98	-0.02850084
113	0x3ca74b07	0.020421518
114	0x3e93dbb8	0.2887857
115	0xbdb753c0	-0.08951521
116	0x3e3862a9	0.18006386
117	0x3e98cbce	0.2984299
118	0x3e63f3d3	0.2226098
119	0x3ed10983	0.4082757
120	0xbeb8f13b	-0.36121544
121	0xbd0b2692	-0.03397233
122	0x3d537a43	0.05163027
123	0xbd80e27e	-0.062932
124	0xbeca83b9	-0.3955362
125	0xbd15f626	-0.0366117
126	0xbe85abcc	-0.26107633
127	0xbea04e18	-0.3130958
128	0xbd82771e	-0.06370376
129	0xbe8fa6c5	-0.28056923
130	0xbe8f35fe	-0.2797088
131	0xbe0bf2e6	-0.13666877
132	0xbe7ee658	-0.24892557
133	0xbe96aa7b	-0.2942694
134	0xbe15c620	-0.1462636
135	0xbe08a8a4	-0.13345581
136	0x3cfdd976	0.030987483
137	0x3e2890ee	0.16461536
138	0x3d805e07	0.06267934
139	0x3dcf2098	0.10113639
140	0x3d3cbc53	0.046078037
141	0x3e3172ba	0.17328921
142	0x3c8ef362	0.017450038
143	0xbca7e2e1	-0.020493926
144	0x3e791ddc	0.24327797
145	0x3c74969b	0.014928485
146	0xbcffcf36	-0.031226736
147	0xbe401d36	-0.18761143
148	0xbd60d240	-0.05488801
149	0x3e07c4ea	0.1325871
150	0xbe428c16	-0.18998751
151	0xbdd80ccb	-0.10549315
152	0xbd56aae9	-0.052409086
153	0xbe8ab8c6	-0.27094096
154	0xbed063b3	-0.40701064
155	0x3e8ad584	0.27116024
156	0xbe02d991	-0.12778307
157	0xbd38bb83	-0.0451007
158	0xbed13a5a	-0.4086483
159	0xbecc1338	-0.39858413
160	0xbe56f9f3	-0.20993786
161	0xbdb2aae0	-0.08723998
162	0x3e476f08	0.19475949
163	0xbcfc920f	-0.030831365
164	0x3d2c896a	0.042123236
165	0x3e11bbf9	0.14231862
166	0x3dc7de60	0.097592115
167	0x3d9c7827	0.07640105
168	0xbd9d4be1	-0.076804884
169	0xbdc6df55	-0.09710566
170	0x3e3fb0bf	0.18719767
171	0x3e1372b0	0.14399219
172	0x3cfe8ad6	0.031072062
173	0x3e729917	0.23691212
174	0x3bf5e13a	0.0075036557
175	0xbe7d0dea	-0.24712339
176	0xbe4da0e8	-0.20080912
177	0xbe8fd07c	-0.28088748
178	0xbe800cca	-0.25009757
179	0xbe23f88d	-0.16012783
180	0xbe9f3dd5	-0.31101862
181	0xbdb49e1a	-0.08819218
182	0xbe005c82	-0.12535289
183	0xbeb85dba	-0.36009008
184	0xbd3d7a3c	-0.04625915
185	0xbe335d91	-0.17516162
186	0xbe24f287	-0.16108142
187	0xbe02f960	-0.12790442
188	0xbdb1669a	-0.08662148
189	0xbe119c59	-0.14219798
190	0x3dd979ed	0.106189586
191	0x3dd19238	0.10232967
192	0x3e3a09ff	0.18167876
193	0x3d230041	0.039795164
194	0x3e003481	0.12520029
195	0x3ec5f73b	0.38665184
196	0x3e2bbb3e	0.16770646
197	0x3d6e080a	0.058113135
198	0x3de26632	0.110546485
199	0x3e349908	0.17636502
200	0x3be7b665	0.0070713037
201	0x3d706765	0.058692355
202	0x3e1ffbdc	0.1562342
203	0x3dc86718	0.097852886
204	0x3e7b85f3	0.24562816
205	0xbde0c908	-0.10975844
206	0x3d653e17	0.055967417
207	0xbe8c7dab	-0.27439627
208	0xbc32961d	-0.010900048
209	0x3e349ee7	0.17638741
210	0xbe497e82	-0.19677165
211	0xbd0e81ca	-0.034791745
212	0xbe9d753e	-0.3075351
213	0xb793cd46	-1.7619353e-05
214	0xbc573f5b	-0.013137664
215	0xbdc1f1a3	-0.09469917
216	0xbd423ef9	-0.047423337
217	0xbd2270fa	-0.039658524
218	0xbdf79327	-0.12088614
219	0xbdbdc7d4	-0.0926663
220	0x3e48b7e5	0.196014
221	0x3e9ba501	0.30399325
222	0x3ec0ad42	0.37632185
223	0x3e7afae9	0.24509777
224	0x3e78f003	0.24310307
225	0xbf0f14a9	-0.558909
226	0xbecc8e98	-0.3995254
227	0xbdc9bc73	-0.09850397
228	0xbe8faf8c	-0.2806362
229	0xbefd6f54	-0.49499
230	0xbe9a5a7d	-0.30147162
231	0xbe7257f0	-0.23666358
232	0xbd772651	-0.060339276
233	0xbe051dff	-0.12999724
234	0xbe163779	-0.14669599
235	0x3c8cc777	0.017184956
236	0x3dd35664	0.10319212
237	0x3e0c4fc2	0.137023
238	0x3e811fe9	0.25219658
239	0x3eaf1116	0.34192723
240	0x3e66c8e0	0.22537565
241	0x3ea65847	0.32489225
242	0x3ecfe9d2	0.40608078
243	0x3d29f10c	0.041489646
244	0xbd66de3e	-0.05636429
245	0xbd6c9eca	-0.05776862
246	0xbce0b883	-0.027431732
247	0xbd6f302f	-0.05839556
248	0xbe419479	-0.18904294
249	0xbef75bce	-0.4831223
250	0x3d0012fd	0.03126811
251	0x3e8e6ce8	0.27817464
252	0x3edd9f8f	0.43285796
253	0x3e44ff11	0.19237925
254	0xbe293866	-0.1652542
255	0xbda5d1a6	-0.08096628

fc1.bias f4 [145]
0	0x3e00c01d	0.12573285
1	0x3eaa37b5	0.33245626
2	0xbe6a4aff	-0.22880171
3	0xbdc462df	-0.09589171
4	0xbcb9e443	-0.022691851
5	0xbe1ac689	-0.15114798
6	0x3d46aa2b	0.04850213
7	0xbe2a66d2	-0.16640785
8	0x3c9a08a0	0.01880294
9	0x3dc4ea3b	0.096149884
10	0xbd893c98	-0.067010105
11	0x3f019b1a	0.5062729
12	0x3c2ad4b6	0.010426691
13	0xbe8ea165	-0.2785751
14	0xbd5582d4	-0.05212672
15	0x3d817097	0.06320303
16	0xbd347d15	-0.0440646
17	0xbe5e968e	-0.2173712
18	0x3f24ebba	0.6442219
19	0x3ecba52d	0.39774457
20	0x3e2217bc	0.15829366
21	0x3e660eb8	0.22466552
22	0x3d9f9f0d	0.077940084
23	0x3ed71f6b	0.42016158
24	0x3e29e3b3	0.16590767
25	0xbe582bd2	-0.21110466
26	0xbdb724b0	-0.089425445
27	0x3de91b6e	0.11382185
28	0x3d6afa4a	0.0573676
29	0x3c02cd2b	0.007983486
30	0xbe6b5f21	-0.22985508
31	0xbdd7d7b8	-0.10539192
32	0x3e0c2b90	0.13688493
33	0xbd8a8a1d	-0.06764624
34	0x3c7aad42	0.015300097
35	0x3d72d2e2	0.059283145
36	0x3f052bbe	0.5201987
37	0x3c28a5aa	0.010293404
38	0xbd2580de	-0.0404061
39	0x3e07a5ea	0.13246885
40	0xbdb8accd	-0.09017334
41	0x3f1b177e	0.6058272
42	0xbde64820	-0.112442255
43	0xbdd67783	-0.10472014
44	0x3ec01fa2	0.37524134
45	0xbced6888	-0.028980508
46	0xbca86b16	-0.020558875
47	0xbd939654	-0.07206407
48	0x3e569357	0.20954643
49	0x3d9eaa2e	0.07747303
50	0xbd143907	-0.036187198
51	0xbe133faf	-0.14379762
52	0xbe25822b	-0.16162936
53	0xba8ea9b8	-0.001088432
54	0xbe947d56	-0.29001874
55	0xbcd9f75e	-0.026607212
56	0xbe671683	-0.22567181
57	0xbdc890c9	-0.097932406
58	0xbd35b554	-0.04436238
59	0x3e847440	0.25869942
60	0xbe261296	-0.16218027
61	0x3c38bb38	0.011275105
62	0x3e13cafa	0.14432898
63	0x3d8a0e82	0.067410484
64	0x3e3960b8	0.18103302
65	0xbddb9b9c	-0.107230395
66	0xbc914dc8	-0.017737284
67	0xbd3f9006	-0.04676821
68	0x3e9960b9	0.29956606
69	0x3e492c43	0.19645791
70	0xbe41226a	-0.18860784
71	0xbe81a192	-0.2531858
72	0xbd4df90b	-0.050286334
73	0xbab7dc4f	-0.0014027449
74	0xbd6662c3	-0.05624653
75	0xbddb3cbf	-0.10704946
76	0x3edce4a4	0.4314319
77	0x3cc57931	0.02410564
78	0x3c3a74b9	0.011380368
79	0x3e08321d	0.13300367
80	0x3e5a9a7a	0.2134799
81	0x3d13eb07	0.03611281
82	0x3ea2ad30	0.31772757
83	0x3e81a214	0.25318968
84	0xbd86c3c1	-0.06580306
85	0xbd099a67	-0.033594515
86	0xbdb4305f	-0.087982886
87	0xbd836954	-0.06416574
88	0xbd7151c0	-0.058915854
89	0xbc8f4b24	-0.017491885
90	0x3ee6a9bb	0.4505137
91	0xbba9e163	-0.005184339
92	0x3e93b281	0.28847125
93	0x3ed2230b	0.4104236
94	0xbd9fa600	-0.07795334
95	0xbd58a363	-0.052890193
96	0x3e9603fe	0.2929992
97	0xbd2394f5	-0.03993698
98	0x3c994d3e	0.01871359
99	0x3e332a65	0.17496641
100	0x3db140b2	0.08654918
101	0xbda92ed0	-0.08260882
102	0xbddcd37b	-0.10782524
103	0xbca15ff8	-0.019699082
104	0x3edcb5b4	0.43107378
105	0x3e8b67f9	0.27227762
106	0x3d888837	0.06666606
107	0xbe0fa203	-0.14026646
108	0x3e7bd80b	0.24594133
109	0x3eab871f	0.33501527
110	0xbdd00765	-0.101576604
111	0xbd95138f	-0.07279121
112	0xbe89518b	-0.26820025
113	0x3e014fd4	0.12628108
114	0xbe6b33ed	-0.22969027
115	0x3eef95b1	0.46793893
116	0x3e937424	0.28799546
117	0x3e8cb621	0.27482703
118	0xbd28d413	-0.041217875
119	0x3cce0b79	0.025151955
120	0x3e5c314d	0.21503182
121	0xbf243ef2	-0.64158547
122	0xbd8eb1f7	-0.06967538
123	0x3e220578	0.15822399
124	0xbc9191ea	-0.017769773
125	0x3f5132ad	0.8171795
126	0x3df14ed4	0.117826134
127	0xbc6a5d25	-0.014304434
128	0xbe2b95b1	-0.16756321
129	0xbcc195d4	-0.023631014
130	0x3edfa1f8	0.4367826
131	0x3e0ac65b	0.13552229
132	0x3f025b31	0.509204
133	0x3e605256	0.21906409
134	0xbe3a4ed7	-0.18194138
135	0x3d077d4b	0.033078473
136	0xbd095f4e	-0.033538155
137	0xbe384718	-0.1799587
138	0x3e9d4a53	0.30720767
139	0x3da8a5e4	0.08234766
140	0xbd7ed276	-0.06221243
141	0xbe3f31a7	-0.18671285
142	0xbba1c673	-0.004936987
143	0xbd747f5b	-0.05969177
144	0x3eaaba45	0.33345237

fc2.weight f4 [30, 145]
0	0x3e076e2c	0.13225621
1	0xbec7d913	-0.39032802
2	0xbee41d9e	-0.44553846
3	0x3d1c633f	0.038180586
4	0x3c9bbcfa	0.01901101
5	0x3e8ec6a0	0.27885914
6	0xbe3d1661	-0.18465568
7	0x3e3e6b66	0.18595657
8	0x3e54a265	0.20765074
9	0x3ebcc679	0.36870173
10	0xbdc1952f	-0.09452283
11	0xbe3e1b0c	-0.18565005
12	0x3b806580	0.0039183497
13	0x3df4199f	0.11918949
14	0xbdaed910	-0.08537495
15	0x3e84e95f	0.25959298
16	0xbcdc31a3	-0.026879137
17	0x3d7b2ade	0.06132018
18	0xbe5d9b72	-0.21641329
19	0x3d92458c	0.07142171
20	0xbea87249	-0.32899693
21	0xbe0e2838	-0.1388253
22	0x3e780f6d	0.24224634
23	0x3e12dac8	0.14341271
24	0xbda9b411	-0.08286298
25	0x3e53aa03	0.20670323
26	0xbdbdbcbf	-0.09264516
27	0x3dc3e505	0.095651664
28	0xbe78d568	-0.24300158
29	0x3bc60af2	0.0060437853
30	0x3da41603	0.08012011
31	0xbe9e1077	-0.30871937
32	0xbe856afd	-0.26058188
33	0x3dcef168	0.10104638
34	0xbca8ad7f	-0.020590542
35	0x3e4da02e	0.20080635
36	0x3ddedfb1	0.108825095
37	0xbd605473	-0.054768037
38	0x3b9551d3	0.0045568733
39	0xbebe79f9	-0.37202433
40	0x3e336b42	0.17521384
41	0x3ea88d26	0.32920188
42	0x3e11f1a6	0.14252338
43	0x3dc1af94	0.09457317
44	0xbe6f9625	-0.2339712
45	0xbe9a9415	-0.30191103
46	0xbd16cfb5	-0.03681918
47	0xbbebca3d	-0.0071957395
48	0x3e0714f0	0.13191581
49	0xbe004904	-0.12527853
50	0xbd82b95b	-0.0638301
51	0xbd14e11e	-0.0363475
52	0x3e0117ed	0.12606783
53	0xbe097771	-0.1342447
54	0x3e9c9306	0.3058092
55	0x3cc435c7	0.023951424
56	0x3dec3f4e	0.11535512
57	0xbcca63cc	-0.02470579
58	0x3e09fae7	0.13474618
59	0x3e66dce6	0.22545204
60	0x3d06ed3c	0.032941088
61	0xbce6ade0	-0.028159082
62	0xbdd18201	-0.102298744
63	0x3d30375b	0.04302154
64	0xbeb40215	-0.35157838
65	0x3c78a093	0.015175003
66	0xbdd56367	-0.1041935
67	0xbe2bb5c7	-0.16768561
68	0xbe1f4009	-0.15551771
69	0xbb368122	-0.0027847965
70	0x3e695206	0.22785196
71	0xbd654b91	-0.05598027
72	0xbd128d71	-0.03577942
73	0xbcf986de	-0.030459817
74	0xbed0af3a	-0.40758687
75	0x3cfc70da	0.03081553
76	0x3c80e7ab	0.015735468
77	0xbda03ce4	-0.07824114
78	0x3d2575d2	0.040395565
79	0xbe01ae01	-0.12664033
80	0x3e3ebbcd	0.18626328
81	0xbe22ed4b	-0.15910833
82	0xbd0d1ca5	-0.034451146
83	0xbdfd7a92	-0.12376894
84	0x3db79977	0.08964818
85	0x3c0b8bbc	0.008517202
86	0x3c7545dd	0.01497027
87	0xbd4bbd89	-0.0497413
88	0xbccbb746	-0.024867665
89	0x3de1c77e	0.11024378
90	0x3dcd01b5	0.10010091
91	0xbda5a710	-0.08088505
92	0xbc02bca3	-0.007979545
93	0xbde72eb5	-0.112882055
94	0x3cd66abc	0.026173942
95	0xbd8adc89	-0.06780345
96	0xbf1d7ca2	-0.615183
97	0x3d5ffde6	0.054685496
98	0x3de2ad73	0.11068239
99	0xbe7f5ff7	-0.24938951
100	0xbe1f57cb	-0.15560834
101	0xbdeb0248	-0.114750445
102	0xbd83f6a9	-0.06443531
103	0xbb87e418	-0.004147064
104	0x3d8c750e	0.06858264
105	0x3eec97ed	0.4620966
106	0xbd0ad90c	-0.0338984
107	0x3eb17190	0.34656954
108	0x3db41d97	0.08794706
109	0x3e8bb9f6	0.27290314
110	0x3c9a4383	0.01883102
111	0xbe27595a	-0.16342679
112	0xbe022bdf	-0.12712048
113	0x3e1a875f	0.15090702
114	0xbe91e9b3	-0.2849861
115	0x3d501780	0.05080366
116	0xbea371be	-0.31922716
117	0xbe4df770	-0.20113921
118	0x3e1a16bc	0.15047735
119	0xbc2426d8	-0.010019027
120	0xbe28f875	-0.16501029
121	0x3ea00fab	0.31261954
122	0xbc23b261	-0.009991259
123	0xbe19701e	-0.14984176
124	0xbba18c3c	-0.0049300473
125	0xbe0740e9	-0.13208355
126	0xbe7bdad0	-0.24595189
127	0xbd9e04d2	-0.07715763
128	0xbe3460b2	-0.17615011
129	0x3c865001	0.01639557
130	0x3e5c2186	0.21497163
131	0x3c9cdb8d	0.019147659
132	0xbd20aa8c	-0.039225146
133	0xbf2a2154	-0.66457105
134	0x3dbdc3a3	0.0926583
135	0xbed64a54	-0.41853583
136	0xbda0a4b9	-0.07843918
137	0xbc2dd0b2	-0.010608839
138	0x39e1be1f	0.00043056995
139	0xbe955a72	-0.29170567
140	0x3d193810	0.03740698
141	0x3eb5e915	0.3552939
142	0x3e8c8894	0.2744795
143	0xbc7c9cc7	-0.015418238
144	0xbe26abb4	-0.16276437
145	0xbefd9e11	-0.49534658
146	0x3de630f2	0.11239804
147	0x3cd3239b	0.025773814
148	0xbd5ef9a5	-0.0544373
149	0xbdbdc737	-0.09266513
150	0xbe9ede69	-0.3102906
151	0xbc82729d	-0.015923792
152	0xbdfce9e1	-0.12349296
153	0x3e791c75	0.24327262
154	0x3ea21ea4	0.31664002
155	0x3d56a5f3	0.052404355
156	0x3d23f2b2	0.040026374
157	0xbd4f2120	-0.0505687
158	0x3f17d596	0.5931028
159	0xbc85b609	-0.016322153
160	0x3d94a56c	0.07258114
161	0x3d888dc0	0.06667662
162	0xbb41ac1c	-0.0029552048
163	0x3e7f698e	0.2494261
164	0xbe41102c	-0.18853825
165	0x3d78b634	0.060720637
166	0xbd3a859b	-0.045537572
167	0xbcc500d5	-0.024048248
168	0x3d421c9f	0.047390576
169	0xbe5079af	-0.20358919
170	0x3e234dfc	0.15947717
171	0x3d68fd19	0.056881998
172	0x3e82f153	0.2557474
173	0x3d80833d	0.06275032
174	0x3da3f042	0.0800481
175	0x3eb91bab	0.3615392
176	0x3d05f159	0.03270087
177	0x3dae6d58	0.085169494
178	0x3d99f913	0.0751821
179	0xbc42a7fa	-0.011880869
180	0x3d2a90db	0.04164205
181	0x3e48c0b5	0.19604762
182	0xbd09be14	-0.03362854
183	0x3cc46b6b	0.023977002
184	0xbea57d9c	-0.32322395
185	0xbd9dfea9	-0.07714588
186	0x3d947d0c	0.07250413
187	0xbec0fdc6	-0.37693614
188	0x3ea64947	0.3247778
189	0xbe59466e	-0.21218273
190	0xbdcbafc4	-0.09945634
191	0xbe44c1e1	-0.19214584
192	0xbd6ac4ab	-0.057316463
193	0xbd4aa14c	-0.04947023
194	0x3f0a53b8	0.54033995
195	0x3d6018b0	0.054711044
196	0x3e497069	0.19671787
197	0x3ca1a70f	0.01973298
198	0xbec3e754	-0.38262427
199	0x3d019a99	0.031641576
200	0x3d3d1816	0.04616555
201	0x3e901fdf	0.28149316
202	0x3d7f1e9c	0.06228505
203	0x3e94cfd0	0.29064798
204	0x3d69685d	0.056984294
205	0x3d1f5ca9	0.038906727
206	0xbbd0f2f8	-0.0063766204
207	0x3ee7a198	0.45240474
208	0xbdfaf6b9	-0.1225409
209	0xbc2f9728	-0.010717191
210	0xbe00a643	-0.12563424
211	0xbd2f949d	-0.042866338
212	0x3e8ed279	0.27894953
213	0x3d95e43f	0.07318925
214	0xbe2eecca	-0.17082515
215	0x3e2b1683	0.16707806
216	0xbd8e48a2	-0.06947447
217	0xbdc27695	-0.09495274
218	0x3d8a8572	0.06763734
219	0xbc65e659	-0.01403197
220	0xbda7cdd9	-0.08193559
221	0x3e1b6d90	0.15178514
222	0x3d347028	0.044052273
223	0xbe9178a6	-0.2841236
224	0xbe2b7237	-0.16742788
225	0x3d4952b6	0.049151145
226	0x3d75d0de	0.060013644
227	0xbecbb577	-0.39786884
228	0x3ee83c3a	0.4535845
229	0x3c2694a0	0.010167271
230	0xbb248e98	-0.0025109407
231	0xbdaa5a0a	-0.08317955
232	0xbd2e74e9	-0.042591963
233	0x3c14f873	0.009092438
234	0xbe2fbdff	-0.17162322
235	0x3eb45739	0.35222796
236	0xbbac1b1f	-0.0052522565
237	0x3e823a1e	0.25434965
238	0xbd46a0fb	-0.048493367
239	0xb8538d4a	-5.0437906e-05
240	0x3d9af53e	0.075663075
241	0xbe9d6bae	-0.30746216
242	0xbd9e7687	-0.07737451
243	0xbd17f179	-0.03709552
244	0x3e817a00	0.2528839
245	0x3ee1191f	0.43964478
246	0x3d34302b	0.04399125
247	0x3d3152bd	0.043291796
248	0x3d6a4473	0.057194185
249	0x3e0c80a7	0.13720952
250	0xbda8d652	-0.08244003
251	0xbdd72a41	-0.10506106
252	0x3e1cd24b	0.15314595
253	0xbe19b519	-0.1501049
254	0x3d5e2878	0.054237813
255	0xbea989b5	-0.33112875

fc2.bias f4 [30]
0	0x3e7e690b	0.24844758
1	0x3eae3f1e	0.3403253
2	0x3ee35417	0.44400093
3	0x3ef29e3c	0.47386348
4	0xbe51d666	-0.20491943
5	0x3be3b197	0.0069486606
6	0x3ec8e936	0.39240426
7	0x3f059a78	0.52188826
8	0x3e6abf4e	0.2292454
9	0x3e5abad5	0.21360333
10	0xbd53fbb6	-0.051753722
11	0x3da03fdc	0.0782468
12	0x3cd6171f	0.026134072
13	0xbe027691	-0.12740542
14	0x3eef8808	0.4678347
15	0xbd84c0bf	-0.06482076
16	0xbcfc9799	-0.030834006
17	0xbdcecdf9	-0.1009788
18	0x3c5c0b73	0.013430464
19	0x3e7bd07f	0.24591254
20	0x3f39a0a8	0.72510767
21	0xbe18c93f	-0.1492052
22	0x3ee1d00b	0.44104037
23	0xbddd14fa	-0.107950166
24	0xbd80ae13	-0.06283202
25	0xbd244c1f	-0.040111657
26	0xbdcd8e06	-0.100368544
27	0xbde3d93a	-0.11125417
28	0x3ee36f76	0.44420975
29	0x3e3d52cc	0.18488616

fc3.weight f4 [10, 30]
0	0x3d96b7ac	0.073592514
1	0xbea7332d	-0.32656232
2	0xbe1ba525	-0.15199716
3	0xbe93c471	-0.2886081
4	0x3e311286	0.17292222
5	0x3e3b59a9	0.18295921
6	0xbe33da45	-0.17563732
7	0xbef27165	-0.47352138
8	0xbdfa80a5	-0.12231568
9	0x3e8219cb	0.25410303
10	0x3e35eade	0.17765376
11	0xbeacac23	-0.3372508
12	0xbeb084f9	-0.3447645
13	0xbd2552b1	-0.040362064
14	0x3dd45b8d	0.103690244
15	0xbe05e5b3	-0.13075905
16	0xbd70bd54	-0.058774307
17	0xbe9d1f18	-0.30687785
18	0xbe897702	-0.26848608
19	0xbe1b9dbd	-0.15196891
20	0x3e17015f	0.14746617
21	0x3d42b65f	0.047537204
22	0xbc860c20	-0.016363204
23	0xbee4d24a	-0.44691688
24	0xbe90e4fa	-0.28299695
25	0xbbd12a92	-0.0063832486
26	0x3cb0939d	0.021554762
27	0xbdfa4dca	-0.12221868
28	0xbe625b15	-0.22105058
29	0xbe260fb8	-0.16216934
30	0xbe9220a0	-0.28540516
31	0xbdce25b9	-0.10065789
32	0xbef228c3	-0.47296724
33	0xbc0f508f	-0.008747234
34	0x3ec97a86	0.3935129
35	0xbe5159f5	-0.20444472
36	0x3e553374	0.20820409
37	0xbd83309c	-0.06405756
38	0xbdc0efd2	-0.09420742
39	0xbe749b91	-0.23887469
40	0x3e4f4668	0.20241702
41	0xbebc95f2	-0.3683315
42	0xbef2e706	-0.47441882
43	0xbd65bcaa	-0.056088127
44	0xbebc11a3	-0.36732206
45	0xbd22850e	-0.039677672
46	0xbe5ffe36	-0.21874318
47	0x3d77ff9a	0.060546495
48	0xbe5ef7e7	-0.21774255
49	0x3dc1d41d	0.094642855
50	0x3cbe0380	0.023195028
51	0x3d5a7d02	0.053341873
52	0x3d8b4772	0.068007365
53	0x3e166000	0.14685059
54	0xbee0ca82	-0.439045
55	0xbeb84a53	-0.35994205
56	0xbcf672aa	-0.030083973
57	0x3d09792a	0.033562817
58	0xbead4473	-0.33841285
59	0x3d9679cd	0.073474504
60	0xbe23f65a	-0.16011944
61	0x3eadf4c5	0.33975807
62	0x3e05902b	0.13043277
63	0xbe7c414e	-0.24634287
64	0xbca87243	-0.020562297
65	0xbe02ce0d	-0.12773915
66	0xbe4f7e7e	-0.20263097
67	0xbe1f65ee	-0.15566227
68	0x3c1116cf	0.008855536
69	0x3e5c9b0a	0.21543518
70	0x3c9fec9b	0.019522002
71	0xbd6f3628	-0.058401257
72	0x3cca5795	0.024699965
73	0xbdd981b4	-0.10620442
74	0x3d3f1b9e	0.046657197
75	0x3e04471b	0.1291775
76	0xbd06f644	-0.0329497
77	0xbe0fc912	-0.14041546
78	0xbe80dc62	-0.2516814
79	0xbd9b2c7e	-0.075768456
80	0xbd7b173f	-0.061301466
81	0xbca3e9b3	-0.020008897
82	0xbde7895f	-0.11305498
83	0xbe995dea	-0.29954463
84	0xbe438dba	-0.19097033
85	0x3e13192c	0.14365071
86	0xbd3983f6	-0.045291863
87	0xbcea93bb	-0.028634897
88	0xbdc3abe6	-0.095542714
89	0xbe29c1b0	-0.16577792
90	0x3d15efce	0.03660565
91	0x3c6cad41	0.014445604
92	0x3e2fc9ef	0.17166875
93	0x3d67ec39	0.056621764
94	0xbdfb6fcc	-0.12277183
95	0xbdcc51a5	-0.0997651
96	0xbe236210	-0.15955377
97	0x3be4c350	0.006981291
98	0xbdfb9c34	-0.12285653
99	0xbe75c5fa	-0.24001303
100	0xbe97a992	-0.2962156
101	0xbec52704	-0.3850633
102	0xbede5eaf	-0.43431613
103	0x3d311023	0.04322828
104	0x3e1b4aff	0.15165327
105	0xbdcfb7a2	-0.10142447
106	0x3d9e92fa	0.07742877
107	0xbf1e5e05	-0.6186221
108	0xbe62753c	-0.22115034
109	0x3e149f09	0.14513792
110	0xbd87f366	-0.066382214
111	0xbdfec6d8	-0.1244027
112	0xbe316684	-0.17324263
113	0xbe714b38	-0.2356385
114	0xbeb8385f	-0.35980508
115	0xbd74aa44	-0.05973269
116	0xbe2c88f1	-0.16849114
117	0xbce1a53f	-0.027544616
118	0xbe11bb7e	-0.14231679
119	0xbdf8afd8	-0.121429145
120	0xbdf66a21	-0.12031961
121	0xbd72db37	-0.05929109
122	0x3e8871de	0.26649374
123	0x3dc492b1	0.09598292
124	0xbe3d099d	-0.18460698
125	0xbea06d73	-0.31333503
126	0xbf00cd9e	-0.50313747
127	0x3bb4714e	0.005506671
128	0xbde83edb	-0.11340114
129	0x3d7058f6	0.05867859
130	0x3c457b11	0.012053267
131	0xbea844a5	-0.32864872
132	0xbe9e6bcb	-0.30941615
133	0x3c91d467	0.017801477
134	0xbe0e5dcc	-0.13902968
135	0x3d5719a8	0.052514702
136	0xbd3b11ef	-0.0456714
137	0xbe554696	-0.20827708
138	0xbe1dc4a6	-0.15407047
139	0xbe5a8d05	-0.21342857
140	0x3ecbe00a	0.39819366
141	0xbdfd6bb2	-0.12374057
142	0xbd8a1744	-0.06742719
143	0xbf25f141	-0.6482125
144	0xbe86ba25	-0.26313892
145	0xbe24e728	-0.16103804
146	0x3dcc2513	0.09968009
147	0xbd05bcee	-0.03265088
148	0x3e8078e6	0.25092238
149	0xbdb628e6	-0.088945195
150	0x3e917aa2	0.28413874
151	0x3e05d464	0.13069302
152	0x3ca9d470	0.02073118
153	0xbd17d33d	-0.037066687
154	0xbe6e68d0	-0.2328217
155	0xbe03b9df	-0.12863873
156	0xbe2d141c	-0.16902202
157	0xbd86412c	-0.06555399
158	0xbcfc1f91	-0.03077677
159	0xbe08e93f	-0.13370226
160	0xbe1119e1	-0.14170028
161	0x3dd3a27d	0.103337266
162	0xbe8e242d	-0.27761975
163	0x3d668e8a	0.05628828
164	0xbe041924	-0.12900215
165	0x3c516a6f	0.012781723
166	0xbe284a52	-0.16434601
167	0xbe9e79f9	-0.30952433
168	0x3d4defcc	0.050277516
169	0x3e078223	0.13233237
170	0xbdaa2e61	-0.08309627
171	0x3dfc4392	0.123175755
172	0xbe765abc	-0.2405805
173	0xbe97cae4	-0.2964698
174	0xbe5450fa	-0.20734015
175	0xbe4100ab	-0.18847911
176	0x3d59ac57	0.05314287
177	0xbe5d3f96	-0.21606287
178	0x3dc6999f	0.0969727
179	0xbd4a139d	-0.04933511
180	0xbde31030	-0.11087072
181	0x3de167f3	0.11006155
182	0xbe60d2d8	-0.2195543
183	0x3d725271	0.059160654
184	0xbeaf3e4e	-0.34227222
185	0xbe97f513	-0.29679164
186	0x3d0fcc55	0.035106976
187	0x3d142ee9	0.03617755
188	0xbe60972a	-0.21932665
189	0x3c81b106	0.015831482
190	0xbe89d30a	-0.26918823
191	0x3ddfa3a8	0.10919887
192	0xbeb79233	-0.3585373
193	0xbd473e04	-0.048643127
194	0x3eaec3d3	0.34133777
195	0xbb5916d1	-0.0033125172
196	0xbe2508d5	-0.1611665
197	0xbdf7f269	-0.12106783
198	0xbe72243f	-0.2364664
199	0xbe581e00	-0.21105194
200	0xbc15ae80	-0.009135842
201	0x3c1ce5da	0.009576285
202	0x3e936270	0.2878604
203	0xbec834e5	-0.39102855
204	0xbe9adcd3	-0.302466
205	0xbd7afe8a	-0.061277904
206	0xbe2954d5	-0.16536267
207	0xba134880	-0.00056184083
208	0x3c12fe6c	0.008971792
209	0x3e122a7f	0.14274023
210	0xbe2b272f	-0.16714166
211	0xbc9159d6	-0.017743032
212	0x3e4647d5	0.19363339
213	0xbdbd6329	-0.09247429
214	0xbebf02b3	-0.37306747
215	0x3e3a9553	0.18221025
216	0xbe824c79	-0.2544897
217	0xbe910947	-0.2832739
218	0xbe8d773d	-0.27630034
219	0xbe3ee32e	-0.1864135
220	0x3e495f71	0.19665314
221	0xbe6463b4	-0.22303659
222	0xbf4417e7	-0.7659897
223	0xbe316d98	-0.17326963
224	0xbe61a6cc	-0.22036284
225	0x3d58f1ed	0.052965093
226	0xbe352a82	-0.17691997
227	0xbe803327	-0.25039026
228	0x3e73ba5b	0.23801558
229	0x3d7015e7	0.058614638
230	0xbe42fcf9	-0.19041814
231	0xbe30b07b	-0.17254822
232	0xbcd725d4	-0.026263155
233	0xbd981d9f	-0.07427525
234	0xbdd1f91c	-0.10252592
235	0x3e9c8a18	0.30574107
236	0x3d0d178f	0.034446295
237	0xbe6f32df	-0.2335925
238	0x3e2ced08	0.16887295
239	0x3e3d1571	0.1846521
240	0xbef192ab	-0.4718221
241	0xbedaaf49	-0.42711857
242	0xbe327383	-0.17426877
243	0xbe47fc61	-0.19529869
244	0xbe3d5fb6	-0.18493542
245	0x3dace539	0.08442158
246	0x3e48f0ec	0.19623154
247	0xbec6a9e1	-0.38801482
248	0x3e00e4be	0.12587258
249	0x3e5606d8	0.20901048
250	0xbccaef7f	-0.024772404
251	0xbd1e1f99	-0.038604353
252	0xbe0bfeb0	-0.13671374
253	0xbd2696aa	-0.04067103
254	0x3cb69d32	0.022291753
255	0xbe4258ad	-0.1897914

fc3.bias f4 [10]
0	0xbea27475	-0.31729475
1	0xbee73727	-0.45159265
2	0xbeab6e5f	-0.33482644
3	0x3ec381d5	0.3818499
4	0x3e74fbd2	0.23924187
5	0xbd6e31ab	-0.058152836
6	0x3dc69e6d	0.09698186
7	0xbe4f5dcd	-0.20250626
8	0xbd5ab03f	-0.053390738
9	0xbde0a1ce	-0.10968362
