Project_1/Part3_clean/checkpoints/interpolation_model3.pth (torch, 161453 bytes, 4 tensors)

weight f4 [50, 784]
000000 25 d8 2d 3b 80 e7 11 3c 73 f0 1b bc 90 b0 10 bd
       0.0026526537 0.008905292 -0.009517777 -0.035324633
000010 2c fd 08 bd 9c 44 9b bb 27 e1 05 bd 4a 3c 64 3b
       -0.03344457 -0.0047384035 -0.032685425 0.0034825974
000020 2e 64 f6 bb 41 e8 7d bc a3 6c ca 3c 25 8e ae bb
       -0.0075192666 -0.015497268 0.024710005 -0.0053270035
000030 22 09 cb 3d 76 c0 53 3d ec 6c a4 bc 68 9c d6 3c
       0.09913851 0.051697217 -0.02007147 0.026197627
000040 ca 83 33 3c c3 8d c3 3c 4a 4c a0 bb a5 69 ae 3b
       0.010956714 0.023871308 -0.004891907 0.0053226524
000050 6e 7e 0a bc 80 3a 1d 3c ce b9 56 bc b7 51 5a bb
       -0.008452995 0.009596467 -0.013105823 -0.0033312866
000060 78 58 f5 bc 1a 30 06 bd e1 3f 5e bc 77 7d 32 bc
       -0.029949412 -0.032760717 -0.013565035 -0.010894171
000070 58 4f e6 3c fc 3e 03 3d 4a 23 7a 3c 73 ca 5c 3c
       0.028114006 0.03204249 0.015267203 0.013476002
000080 24 81 ed 3c cf 1a 30 3d 86 bd aa 3d aa 23 d1 3d
       0.028992243 0.042994317 0.0833693 0.102118805
000090 41 b0 97 3d 24 1e 2b 3d b8 b6 aa 3e 5f d6 7d 3e
       0.07406665 0.04177679 0.33342528 0.24788807
0000a0 98 53 9b 3d 71 36 93 bc 23 9f c5 3d 0a 54 1e 3e
       0.075843036 -0.017970296 0.096494935 0.15461746
0000b0 98 fc ac 3e d6 7b 54 3e 64 9e d6 3e e6 9e ca 3e
       0.33786464 0.20750365 0.41917717 0.39574355
0000c0 7f 95 a2 3e be f3 80 3e bf 41 cb 3d 05 8f f6 3d
       0.3175468 0.2518596 0.099246494 0.120389976
0000d0 97 b7 51 3c 1b 0a 0f bd 1a df 09 bd 3a 3f cd bc
       0.012800119 -0.034921747 -0.03366003 -0.025054563
0000e0 52 e4 0e 3d 0b 21 01 bd e4 f4 6e 3e 3d 48 12 be
       0.034885712 -0.031525653 0.23335606 -0.14285369
0000f0 e2 82 13 be 59 9a e5 3d 6b 07 2d 3e 90 03 26 bd
       -0.14405397 0.1121108 0.16897361 -0.04053074
000100 ee f7 c1 3e 18 6d 14 3f cd 22 e8 3e e8 9d cb 3e
       0.37884468 0.57978964 0.4533905 0.3976891
000110 b9 e9 0f 3f 55 e6 7e be d0 3b 9f 3c 25 9d 99 3d
       0.5621601 -0.24892552 0.0194377 0.07500676
000120 5b cd dd 3d 8f f6 0a 3e 39 68 8d 3e a8 69 aa 3d
       0.10830184 0.13570617 0.27618578 0.083209336
000130 bd 6e e6 3d a1 88 3d 3e 69 20 70 3e 06 79 fb 3c
       0.112515904 0.18509151 0.23449863 0.030697357
000140 6e 0d a5 3e b6 82 c9 3d 65 24 58 bc 70 e0 a3 bc
       0.3223681 0.09839384 -0.013192271 -0.020004481
000150 80 37 24 bb 38 65 7b bb 09 b6 77 3d 6a 46 94 be
       -0.0025057495 -0.0038359892 0.060476337 -0.28959972
000160 e4 8d 68 be bc ed d4 3c f7 fd c3 3d 79 e4 76 be
       -0.22710377 0.025992267 0.09569924 -0.24110593
000170 54 b3 f0 bd cd 4c f5 3e ac cc 83 3e ac c0 cf 3e
       -0.11752954 0.47910157 0.2574209 0.40576684
000180 3f db ad 3d 72 cc 30 3e 7f 2a d9 3d e0 aa 3e 3d
       0.084890835 0.1726549 0.106038086 0.046549678
000190 4e 19 d8 3d 20 df a0 3e 35 4c 12 3e be b2 8d 3d
       0.105517015 0.3142023 0.14286883 0.06918858
0001a0 94 60 1f be 25 63 0e 3e 8f 08 71 3e 0c 26 ca 3e
       -0.15564185 0.13905008 0.23538421 0.39482152
0001b0 fb 42 79 3e 53 e7 82 be 9d cb 3e 3d 6d e4 09 bd
       0.24341957 -0.2556711 0.0465809 -0.03366511
0001c0 23 4e 8d bc 3e 4f 51 bd b4 6b 93 3b c3 0d 8c be
       -0.017249173 -0.051100962 0.004498923 -0.2735425
0001d0 75 02 bf bd 5c f4 92 be 85 9d 47 be 7b f7 0d be
       -0.093266405 -0.28702056 -0.19493683 -0.13863938
0001e0 2f 79 c2 3d 07 26 8f 3e 6f 8e 06 3e a7 59 53 3d
       0.0949577 0.279587 0.13140272 0.05159917
0001f0 1e d7 16 3e 51 b1 99 3d 2a 5d 03 3d b5 9c 1b be
       0.14730498 0.075045235 0.03207127 -0.15196498
000200 94 23 0a be 51 42 2f 3c ac c3 9d bd f9 91 60 be
       -0.13490134 0.010696963 -0.07703337 -0.21930684
000210 89 24 c7 bd 6f 40 ab 3d a4 f9 f0 3d eb 2f b4 3c
       -0.097237654 0.08361899 0.11766365 0.021995505
000220 04 9b a8 3c fe f4 d6 bd 81 20 28 bd 2e 8f e7 3e
       0.02058173 -0.10495947 -0.041046623 0.45226425
000230 e3 b6 8f 3c e0 1e a0 3c 2c 39 79 be 68 15 da be
       0.017543262 0.019545972 -0.24338216 -0.42594457
000240 87 bb 6a be b2 73 88 be 3b 7e 06 3d 51 43 17 3e
       -0.22923099 -0.2665077 0.032835227 0.14771773
000250 1d 25 5e 3e ac 22 29 3e d5 fa 9d 3e 27 05 69 3e
       0.21693845 0.16517133 0.30855432 0.22755872
000260 5a c2 cd 3d ca 19 54 3c a8 50 97 3c 34 b2 10 bd
       0.10046835 0.012945602 0.018471077 -0.035326198
000270 3f 68 3f 3c 55 11 a7 3c 8a 71 40 bd e4 bf 88 bd
       0.011682569 0.020394007 -0.04698328 -0.06677225
000280 16 4a 52 be 30 3c 1a be a5 32 51 be ab eb 94 bd
       -0.20536074 -0.15062022 -0.20429476 -0.072715126
000290 82 ac 7b 3d 33 b1 a3 3e ed 30 65 3e 43 5b 89 3e
       0.061443813 0.3197113 0.22381945 0.2682744
0002a0 ae fc b1 bb 3d 95 8e be ba 3e 8a 3e ad ad 33 be
       -0.005431733 -0.27848235 0.27000982 -0.17546721
0002b0 81 ef db 3d 22 fa b8 3d 5c a9 91 3e 1c 29 26 3e
       0.10739041 0.09032084 0.28449523 0.1622662
0002c0 ff a9 89 3c 4c 6f 54 3e 16 b0 32 3e ec 7e 98 3e
       0.016804693 0.20745581 0.17449984 0.29784334
0002d0 64 4e 92 3e be 8e 96 3d b6 d5 e5 bc 12 bb b5 3d
       0.28575432 0.07351445 -0.028056007 0.088735715
0002e0 7e 71 d4 bd f6 e5 64 bd 8c ad 76 be 45 7a 15 3c
       -0.103732094 -0.05588337 -0.2408964 0.00912339
0002f0 eb 01 94 bd 9c 9f 24 3d 35 dc a2 3e 46 98 5b 3d
       -0.07226928 0.040191278 0.3180863 0.053612016
000300 aa 83 44 be 37 f9 ae bc 59 97 60 be 89 9d 65 3e
       -0.19190851 -0.02135907 -0.21932735 0.22423376
000310 fb ec f1 3c 95 2b ed 3d 4d ab 38 3e b6 68 19 3e
       0.029531946 0.11580578 0.18034096 0.1498135
000320 71 1d be 3e fe 43 03 3c e0 8f a1 3e 2b f6 f0 3d
       0.37131837 0.008011816 0.3155508 0.11765703
000330 de 21 15 3d b4 9f 61 3e b0 a2 7f 3e 9a 4c b0 3e
       0.03640925 0.22033578 0.24964404 0.34433442
000340 b6 29 c2 3d b6 da d8 3d 3f c3 41 bd 3e 5e 1d 3d
       0.09480612 0.10588591 -0.04730534 0.038419954
000350 b5 5a dc bd 2a e7 2c bd ee 65 9b 3d 61 46 ed bd
       -0.107594885 -0.042212643 0.07587801 -0.11585689
000360 2b c6 37 bd 89 36 47 3e bf c6 a6 3e 91 25 3c 3e
       -0.044866722 0.19454397 0.32573506 0.18373705
000370 79 0b b9 3d d8 93 db 3d 7c 8c a9 bd f3 6a 2f 3e
       0.09035391 0.10721558 -0.082787484 0.17130642
000380 d6 67 c3 3e e2 71 08 3f 69 df a0 bc 25 82 99 3e
       0.38165158 0.5329877 -0.01963778 0.29982105
000390 e7 08 b0 bb b3 f5 02 bd b2 8f ae 3e 6e 1b 3a 3e
       -0.005372155 -0.0319726 0.34094006 0.18174526
0003a0 c9 d3 fd 3d 83 1d c0 3e 8f b3 a1 3e 9c e8 80 3e
       0.123939104 0.37522516 0.31582305 0.25177467
0003b0 82 1e 80 3e 5a 4f 92 3e e4 76 b6 3d 7e 02 25 bd
       0.25023276 0.28576165 0.08909395 -0.04028558
0003c0 17 fa 88 bd b1 9a e1 3c 33 66 f1 bc 4e 03 b8 bc
       -0.06688326 0.027539583 -0.029467678 -0.022462513
0003d0 0a 64 8b bc c5 5a c3 bc 53 18 37 3d da ea ac 3e
       -0.017015476 -0.023846993 0.04470093 0.33772928
0003e0 9e 92 33 bd 3c 4c de 3d 91 b2 00 3e bc 33 8f be
       -0.043840997 0.10854384 0.12568118 -0.27969158
0003f0 c6 93 90 3e 79 d0 c1 3e 41 18 eb bc c1 67 be bc
       0.28237742 0.37854365 -0.028698089 -0.023242833

bias f4 [50]
000000 48 4a 82 3d c0 c6 55 bd 9b b3 93 3e 58 e0 92 bc
       0.06361824 -0.052191496 0.28847966 -0.017929241
000010 52 a8 02 bd da 0d 5c 3d 27 bb 5a bd d7 e0 7a 3e
       -0.031898804 0.053724147 -0.05340114 0.24499832
000020 5c 22 b1 3e 4a 47 fb bd 1a 7e e8 3d ae fe 33 bb
       0.34596527 -0.12269457 0.11352177 -0.0027465033
000030 e4 71 15 bc fb 9b 61 3e 12 6f 98 3e 3a 15 39 3e
       -0.009121392 0.22032158 0.2977224 0.18074504
000040 70 8c a2 be 67 64 29 3d c3 70 cc 3e 99 e7 30 3e
       -0.3174777 0.041355517 0.3992978 0.17275847
000050 8b 9a 12 3e 9f f2 26 bc 52 ed 88 bd 9a aa a1 3e
       0.14316766 -0.010189681 -0.0668589 0.3157547
000060 62 a1 0f 3e b4 fe 7c 3e 5f 92 50 3e ba 64 0a 3e
       0.14026406 0.24706537 0.20368336 0.13514987
000070 42 9b 98 3d d3 c0 b1 3b c8 09 66 3d c6 fe 82 be
       0.07451488 0.0054245978 0.056161672 -0.25585002
000080 0d ec 1b 3e f7 da 9c 3d 88 ac a1 3c e7 18 24 3e
       0.15226765 0.07658952 0.01973559 0.16025124
000090 4c 76 82 3e 02 cc 06 3d d7 3c 61 3e 1a d2 76 be
       0.25480878 0.0329094 0.21995865 -0.24103585
0000a0 ef bb 1f be 08 62 92 3d 4e c4 06 be b8 61 6e bd
       -0.15599035 0.07147604 -0.13160822 -0.05819866
0000b0 76 f8 ac be 4f 40 80 be 9a 0e 22 3e 95 f8 74 be
       -0.3378331 -0.25049064 0.15825883 -0.23922952
0000c0 78 ef c9 3d 06 98 91 3d
       0.09860128 0.07109074

weight f4 [10, 50]
000000 b8 0c 8e 3c 32 16 dd 3e 16 a7 76 3e a8 6c 9a bc
       0.01734005 0.43180996 0.24087176 -0.01885064
000010 cf 42 2f bc 9a db 63 bf c0 c6 42 bf 8a f9 e6 3d
       -0.010697081 -0.8900696 -0.7608452 0.112780645
000020 3a ae 6a be 45 3f 12 bf 37 27 c7 3c e5 75 07 bf
       -0.22918025 -0.5712779 0.024310691 -0.5291427
000030 b4 17 b1 bf 0e ff fb be 31 a3 46 bf f4 4d 58 be
       -1.3835359 -0.4921803 -0.7759276 -0.21123487
000040 e2 10 a1 bf 71 c9 e0 be 29 64 91 be 10 37 65 bf
       -1.2583277 -0.43903688 -0.2839673 -0.89537144
000050 5c 49 26 3e d2 fc c2 be bd 9d 6a 3e 89 aa 3a 3e
       0.16238922 -0.38083512 0.22911735 0.18229116
000060 de 8a e7 3e c9 2e a6 bd 3a c5 fd bb 19 bf 84 3e
       0.45223135 -0.08114392 -0.0077444585 0.25927046
000070 99 8c 38 3e a8 0d 28 3c e3 41 0e 3e d3 0f fb 3e
       0.18022384 0.010257162 0.13892321 0.4903551
000080 ce f4 92 3d 08 10 0e 3f a3 d6 87 3d 18 91 27 3c
       0.07175599 0.5549321 0.066327356 0.010227464
000090 6a 32 99 3e 9f 3c 8c bf 19 34 c1 be cc 2b 7f 3e
       0.29921275 -1.0956 -0.3773506 0.24919051
0000a0 11 9c 65 3c 6b 55 3d 3e a6 2e 4e 3e 79 e8 84 be
       0.01401426 0.18489616 0.20134982 -0.25958613
0000b0 0c 8e a0 bd 08 37 bf 3e cd 04 52 3e ac e6 b3 bd
       -0.07839593 0.37346673 0.20509644 -0.087842315
0000c0 8a 7a a2 be 03 d2 82 bf c1 b7 8a be d6 52 9e bc
       -0.31734115 -1.022034 -0.27093318 -0.019326609
0000d0 f5 5f 6a be bb 34 3b 3f 0d ca 05 be 56 2a 6c be
       -0.22888167 0.73127335 -0.13065358 -0.23063025
0000e0 fa 11 06 3f a8 61 ac 3d 19 77 a3 3e 0e 7e a5 3e
       0.5237118 0.08417064 0.31926802 0.32322735
0000f0 5c 3c cb 3c 4c 6b 86 be b3 c2 bd bd 4d a1 a2 3e
       0.024809055 -0.26253736 -0.092656516 0.31763688
000100 95 65 4f bd 12 59 f1 3e 7d de 84 3e 14 c5 9b bf
       -0.050633986 0.47138268 0.25950995 -1.2169518
000110 02 d2 ab bf ba cd e0 3e c7 bb 14 bf 19 40 1f 3e
       -1.3423464 0.43906957 -0.58099025 0.15551795
000120 c8 f3 e0 3d e1 cc b6 3e c1 61 82 3e 13 68 33 bb
       0.109839976 0.35703185 0.25465205 -0.0027375265
000130 cf e1 db 3e 6d 72 09 bf 04 22 cb be d0 3e 61 3e
       0.42945716 -0.53690225 -0.3967439 0.21996617
000140 b4 8e ab 3c a0 2d 7e be c8 c4 55 3e 85 ae 7b 3e
       0.02094207 -0.24822092 0.20875847 0.24578293
000150 d0 3f aa bd c9 36 3a be 7f 2c 30 bf c8 cc 2c 3f
       -0.083129525 -0.18184961 -0.68817896 0.6749997
000160 88 73 01 bf 38 e8 09 bf 89 b4 d7 3d 36 67 a4 be
       -0.5056691 -0.5386996 0.10532481 -0.32109994
000170 52 0c 67 3d b2 8c 12 be 04 64 86 bd f0 ae c1 3e
       0.056408234 -0.14311484 -0.06562045 0.3782878
000180 c7 b7 f8 bd 72 0b 9a 3e cc f4 a4 bd 6c c9 61 3e
       -0.12144428 0.30086857 -0.08054504 0.22049493
000190 69 fd 68 3e c3 98 21 3e 40 25 d0 3e e3 21 ea 3d
       0.22752918 0.1578093 0.4065342 0.11432245
0001a0 81 ea 01 be 3d 93 34 bf 75 a1 c5 3e f7 8e 2d be
       -0.12687112 -0.7053717 0.38599744 -0.16949068
0001b0 41 ef 80 bf bf f6 39 3e 87 76 a0 bf 3b 38 1c 3d
       -1.0073014 0.18160532 -1.2536172 0.038139563
0001c0 9f 4b 46 bf 3a f3 bd 3e c5 f0 fa be ee 25 7b 3d
       -0.7745914 0.3709963 -0.49011818 0.06131547
0001d0 1d ec a2 3e cc 17 b8 3e d9 c7 89 bd 07 8d ef 3e
       0.31820765 0.35955656 -0.06727571 0.46787283
0001e0 5d 77 ab bc 69 78 fa 3e 1c de 5f be 76 09 20 be
       -0.02093094 0.4891999 -0.21862072 -0.15628609
0001f0 d2 45 e7 be 0a 79 cf bd cc b7 fa 3d 57 e8 4e 3d
       -0.45170456 -0.10130508 0.12242088 0.050514545
000200 f6 ca 88 be d4 00 ff bc 23 fd 10 3e 4d ad e8 3e
       -0.26717347 -0.031128325 0.14159064 0.45444718
000210 ed e7 6d bf 06 b8 a4 3e d3 b8 1b be 20 6d 56 3d
       -0.92932016 0.3217165 -0.15207224 0.052350163
000220 42 46 a7 bd ac 68 70 bd 3d f2 97 3e f2 ad 3f 3e
       -0.081676975 -0.058693573 0.29677 0.18718699
000230 5b af 22 3d 6f b8 b2 be 85 48 32 3f 01 1d 0a 3e
       0.039718013 -0.34906337 0.69641906 0.13487627
000240 bf fa 95 3e 93 de 63 3e 25 66 95 3e 8e b3 6f 3e
       0.29292867 0.22252874 0.29179493 0.23408338
000250 45 33 8f be 3e 87 d1 3e 7f d6 24 bf 99 d9 9c 3e
       -0.27968803 0.40923494 -0.64389795 0.30634764
000260 ca 5a 41 bf fd 5e aa 3e 88 98 67 bd 80 d8 b7 3e
       -0.7552916 0.33275595 -0.05654195 0.35907364
000270 05 84 65 3e 50 a0 ef 3d f9 70 36 bf 3d 12 28 3f
       0.22413643 0.11700499 -0.7126613 0.6565283
000280 82 5b 81 3d 58 1e b8 bd f0 e2 8a 3e ab e0 73 bf
       0.06316282 -0.089901626 0.27126265 -0.9526469
000290 f8 83 94 3e 72 1a 9b bf 54 f4 c1 3e 86 48 c1 bd
       0.29006934 -1.2117445 0.3788172 -0.09437661
0002a0 62 a5 c3 3d 60 c6 ea be c2 62 83 bd 00 47 93 3e
       0.09553029 -0.45854473 -0.06415321 0.28765106
0002b0 c2 9e a3 3d 29 14 ea be 2f 12 8f bd b1 a4 bc 3d
       0.07989265 -0.45718506 -0.0698589 0.092111
0002c0 43 22 3b bf 9f db d4 3e 57 1b b3 3d 3e f9 58 3e
       -0.73099154 0.41573808 0.08745449 0.21188828
0002d0 65 52 87 bc 84 44 f9 3d 11 4d 0a bf da 11 3b bd
       -0.016518781 0.121712714 -0.54023844 -0.04567132
0002e0 17 65 95 3e dc a0 97 3d 55 73 18 bf cf ab c2 3e
       0.29178688 0.07403728 -0.5955098 0.38021705
0002f0 4a 51 02 3e aa fb f8 3e 90 5a 72 3e 10 05 95 be
       0.12726322 0.48629504 0.2366736 -0.29105425
000300 6a 8b 0c bf df 1d 74 3e ca b2 45 3e b0 03 25 bd
       -0.5490023 0.2383952 0.19306484 -0.04028672
000310 4b 9d 5e 3e 33 94 02 3f d2 d3 25 3e 65 83 fc be
       0.2173969 0.51007384 0.16194084 -0.49318996
000320 e1 52 99 3e 5c c5 c0 3d fc fe 0b 3f 88 80 64 3f
       0.29946044 0.09412643 0.5468595 0.89258623
000330 e5 44 d8 bd d2 c3 2a 3c 8c 0c 50 bf d0 51 48 bf
       -0.105600156 0.010422664 -0.81269145 -0.78249836
000340 0a d9 71 3e a6 0a 19 3f ff 4f d2 bd af be cd bf
       0.2361795 0.59781873 -0.10269164 -1.6073817
000350 ec e6 21 3f 58 0e 46 bc fe 3b 98 3e f9 52 31 3e
       0.63242984 -0.012088381 0.2973327 0.17316808
000360 54 97 88 3c e3 97 29 bd 87 25 7c 3e 32 da ce bc
       0.016673721 -0.041404616 0.2462369 -0.025250528
000370 6b c4 a2 bc 8a 74 36 bf 13 7d f5 3d fc e8 98 3e
       -0.01986905 -0.71271574 0.11986747 0.29865253
000380 7a ce 5d bf 1a cf 18 bf d1 2b c6 3e 1c a6 0b 3e
       -0.86643183 -0.5969101 0.38705304 0.13637584
000390 21 9c c9 3d be e1 53 bf 83 80 b6 bd 78 e5 a7 bf
       0.09844232 -0.8276633 -0.089112304 -1.3116903
0003a0 8a 8b 59 3e 8b 20 78 bf 79 fd aa 3d ca e3 05 3f
       0.21244636 -0.96924657 0.08349127 0.52300704
0003b0 51 8b b1 bf 07 d2 38 be 85 ec 1e 3e 7f 2c 5c bf
       -1.3870641 -0.18048869 0.15519913 -0.86005396
0003c0 a2 82 1b 3e 96 a5 ed 3d 67 70 00 3e 22 b5 15 bf
       0.15186551 0.11603849 0.12542878 -0.5847951
0003d0 15 07 af bf 5b 3b 5c bf 23 93 59 bf 7b d0 6d 3d
       -1.3674036 -0.8602807 -0.8499014 0.05806015
0003e0 99 9d 9c 3e cd cd 30 bf 60 be 01 bf ac 7a 34 bf
       0.30588987 -0.6906403 -0.50681114 -0.7049968
0003f0 a2 87 46 bd f5 03 81 bf a4 c3 d9 bd 82 fd cd 3e
       -0.048469193 -1.0079333 -0.106330186 0.40232474

bias f4 [10]
000000 83 65 d1 bd 74 f7 94 bd cf 3e ab bd ab 9d 50 be
       -0.1022444 -0.072737604 -0.08361589 -0.20372646
000010 c3 8b b0 3e e0 d0 f7 3d af f6 05 3d b6 6c 93 bd
       0.3448163 0.121003866 0.03270596 -0.07198469
000020 de a5 44 3d 8f 98 55 3d
       0.048009746 0.052147444
