Project_1/Part3_clean/checkpoints/interpolation_model2.pth (torch, 161453 bytes, 4 tensors)

weight f4 [50, 784]
000000 00 1f aa bc 1c 2f f2 bc d7 88 80 bc 3a 5e ae 3c
       -0.020766735 -0.02956348 -0.01569025 0.021285165
000010 77 e8 01 bd ea 54 46 bc 73 7d 0b bc 4a 97 64 3b
       -0.031715836 -0.012105206 -0.008513796 0.0034880214
000020 93 9d 0d bd 0e 4f 97 3c 0b 09 0f bd 80 16 9d 3b
       -0.034574103 0.018470313 -0.034920733 0.004793942
000030 cd 70 dc 3d c4 48 a2 3d 86 78 ea bb 6c 97 1d bd
       0.107637025 0.07924035 -0.007155481 -0.038474485
000040 a5 51 4a bc dc 24 2a bb 25 77 81 ba 94 a7 01 bd
       -0.012348567 -0.0025961911 -0.0009877427 -0.031653956
000050 d7 d1 da 3c 70 f1 03 bd 38 5f 6c 3b 37 a7 48 bb
       0.026711388 -0.032212675 0.0036067497 -0.0030617246
000060 93 64 ab b9 9a 52 9c 3c 17 84 cb 3c 13 e5 69 bc
       -0.00032690595 0.019082356 0.024843259 -0.014275807
000070 6a 1c 74 bc b8 4b 60 bc 4e f3 bc 3c 32 2b 0b bd
       -0.014899353 -0.013689928 0.023065235 -0.03397674
000080 8e 5e 46 3d 93 ed aa 3d 10 ea 25 3e 2a c9 40 3e
       0.048430018 0.08346095 0.16202569 0.18826738
000090 55 bc 45 3e 65 20 f4 3d b6 fc 23 3e 19 43 88 3e
       0.19310124 0.11920241 0.1601437 0.2661369
0000a0 d4 5d 8e 3e 20 c3 86 3e b9 2f b8 bd 28 21 16 3e
       0.2780596 0.26320744 -0.089934774 0.14661086
0000b0 1a 56 33 3e 9f 0c 8b 3e 59 30 9b 3e 04 6b 87 3e
       0.17513314 0.27158067 0.30310324 0.26448834
0000c0 31 c4 7a 3e 27 6d 33 3e 86 38 39 3e 80 aa 29 3e
       0.24488904 0.17522107 0.18087968 0.16568947
0000d0 5c 01 5b 3b ae a8 0a bd a0 5f 06 bd 1c 7e 49 bc
       0.0033417558 -0.03385227 -0.03280604 -0.012298133
0000e0 e6 3e 00 3d ee 1d 2e bc 88 18 41 3d df f8 41 3e
       0.031309985 -0.010627253 0.047142535 0.18942593
0000f0 30 e4 60 3e 40 5f d4 3d ec 96 3d 3e 06 e8 9e 3e
       0.21962047 0.1036973 0.18514603 0.31036395
000100 bb db 5d 3e 3c a9 fe 3c 12 4e 4c 3e a1 51 60 3e
       0.21665852 0.031086557 0.19951656 0.21906139
000110 77 4c 17 3e a3 0a aa 3d 73 d1 f0 bc f1 da 6b bd
       0.14775263 0.0830281 -0.029396748 -0.057581846
000120 80 62 68 3d 90 57 aa 3d c1 dd 27 3e 71 b2 67 3e
       0.056734562 0.083174825 0.16393186 0.22626664
000130 a2 77 22 3e 40 07 61 3e b4 60 3a 3e c4 f9 63 3e
       0.15865949 0.21975422 0.18200952 0.22263247
000140 09 4c 3b 3e 81 4d 07 3d c7 7c 89 bc 0a dd fc bb
       0.18290724 0.033032898 -0.016783131 -0.0077167796
000150 4a d6 70 ba e5 a7 08 bc 08 80 09 3d 1e e8 05 3e
       -0.0009187205 -0.00834081 0.033569366 0.13076827
000160 51 2c 49 3c 07 f4 e6 3b 8c de 7e 3d ef f7 c5 3c
       0.012278632 0.0070481333 0.062223956 0.024166076
000170 8f 39 af 3d 80 df a8 3b d4 7a d6 3c 84 33 bd bb
       0.085559 0.0051535964 0.026181616 -0.0057739634
000180 5e 5f 42 3c f9 77 3f 3d 0d 33 98 3d 09 e7 7f 3c
       0.011863558 0.046745274 0.07431612 0.015619048
000190 88 22 f5 bc 97 2b b6 bc f2 d1 1b bd 52 4e df bd
       -0.029923692 -0.022237582 -0.038042016 -0.1090361
0001a0 91 15 21 be a1 54 da bd e0 a3 04 bc cc 11 81 3d
       -0.15730883 -0.10660673 -0.0080957115 0.063022226
0001b0 93 9e af bd 6b 22 80 bd 8f f5 f7 bd e0 fa 0d bc
       -0.085751675 -0.06256565 -0.121073835 -0.00866577
0001c0 25 9e b9 bb fc fc a1 bc 9b a8 47 3d 62 71 13 3d
       -0.0056646043 -0.019773953 0.04874478 0.035996802
0001d0 0d 9d d7 3d b9 55 d2 bd a0 fe bb bd 88 ca 7e bd
       0.10528002 -0.102702565 -0.09179425 -0.062204868
0001e0 e1 4a 87 bc a6 1a 1f bd c9 07 34 bd 9f e9 84 bd
       -0.016515197 -0.038843773 -0.043952737 -0.06489872
0001f0 d3 8a 0d be 44 3c 9a bd fe d4 92 bd a4 99 8f bd
       -0.13822488 -0.07531026 -0.07169531 -0.070117265
000200 1e d9 c5 bd 11 c0 12 bd 9b 74 15 bd 37 26 b8 bd
       -0.096605524 -0.0358277 -0.036488157 -0.08991664
000210 15 84 2d bd f7 a9 85 bd 72 3a 18 3d 9c 1c 0a bd
       -0.04236229 -0.06526559 0.037165113 -0.03371869
000220 94 37 8f be ef e2 41 be 20 95 41 be f3 90 09 3d
       -0.2797209 -0.18934225 -0.18904543 0.0335855
000230 4a bb 16 3c 7e ce ae bc c8 82 31 bb e1 f3 51 be
       0.009199927 -0.021338698 -0.0027086008 -0.20503189
000240 0f a5 14 3d d1 28 5c bd cd ca f8 3c da 2a 3a bd
       0.036290225 -0.053749863 0.03037014 -0.045451023
000250 17 cb 86 bc 2b e6 b2 bc 0a b1 a8 3b b6 ea 20 bc
       -0.016454263 -0.021838268 0.005148058 -0.009821584
000260 2d ca 3c 3d b3 84 f1 3d 9f 5a b5 3d 1a 49 4e 3c
       0.046091247 0.117928885 0.08855175 0.012590671
000270 05 68 b0 bd 9b 41 c5 bd 93 43 7c bd b2 16 ae bd
       -0.0861359 -0.09631654 -0.06158788 -0.085004225
000280 80 ed a3 bd d6 e3 38 bd bf 84 d3 bd 58 bd c9 bd
       -0.08004284 -0.045139156 -0.10328054 -0.098505676
000290 d6 1f 32 be 57 8d 72 be b3 f5 2b be 27 13 fd bd
       -0.17394957 -0.2368673 -0.16792946 -0.12357169
0002a0 e0 49 01 bc 8a 89 c2 bd 43 64 a3 3d b2 9e c5 3d
       -0.007891148 -0.0949889 0.07978108 0.09649409
0002b0 d9 fa 87 bd 2c 16 a4 bd 9e 88 d5 bc 06 98 53 bd
       -0.06639642 -0.080120414 -0.02606612 -0.051658653
0002c0 b4 95 db bc 88 ee 1d bd 06 f9 6d 3d 6a 03 84 3d
       -0.026804782 -0.03855756 0.058098815 0.06445964
0002d0 a2 67 cd 3d b7 ec 1c 3e e1 08 0a 3e 8e ce 8e 3d
       0.10029532 0.15324675 0.1347995 0.06972991
0002e0 a0 c0 c9 3b d2 cb 32 bd 34 cc c6 bc 32 6f 22 bd
       0.006156996 -0.04365141 -0.024267294 -0.039656825
0002f0 1b 78 fb 3b 27 df 0b 3d 62 ca 84 bc b2 7c 24 be
       0.00767423 0.03414836 -0.016209785 -0.16063192
000300 e0 fe 4d be c9 26 88 be 4e b1 7e be e6 a5 5e be
       -0.20116758 -0.2659209 -0.24872324 -0.21742973
000310 d0 39 b6 3c 6d 27 ad bd 3f c2 34 3d b5 57 9b 3d
       0.022244364 -0.084547855 0.04413056 0.07585088
000320 75 7a 82 be ae b6 28 be 4c 8d 9b bd e2 13 4f 3b
       -0.25484052 -0.16475937 -0.075953096 0.0031597544
000330 5f 13 29 bc 08 c5 29 3c 0d 77 59 3d 50 80 b1 3d
       -0.01031956 0.010361917 0.05309205 0.08667052
000340 15 a7 f7 3d 62 fc 89 3d c9 46 93 3c 74 0b 0a 3d
       0.12092415 0.06737591 0.017978089 0.03370233
000350 ed 28 5b 3d d0 b7 cb bb 6e 77 9c bc 6d 91 86 3b
       0.053505827 -0.0062169805 -0.019099917 0.0041066916
000360 79 71 45 3d e7 a6 09 3d 17 c5 a6 3a 23 0a 7a bd
       0.04820392 0.033606436 0.0012723532 -0.061044823
000370 6d 95 f1 bd e0 34 40 be 67 a1 73 be e2 43 2e be
       -0.11796079 -0.1877017 -0.23792039 -0.17018083
000380 e9 3c 02 3e 5d 9c ff 3d e5 0f 9d 3c 56 68 45 bd
       0.12718548 0.12480996 0.019172618 -0.048195206
000390 c4 b6 51 be 21 f4 4d bd 97 18 5b 3c f3 f3 49 3d
       -0.20479876 -0.050281648 0.013372562 0.049304914
0003a0 a1 49 e6 3d 9f 90 d8 3d 7c a2 bb 3c ce a8 e5 3b
       0.11244512 0.10574459 0.022904627 0.0070086485
0003b0 09 50 4e bd 75 cd 60 bd 72 14 3d 3d 2c 83 a1 3d
       -0.050369296 -0.05488344 0.046162076 0.07886347
0003c0 d8 e0 cf 3c 49 4e 4a 3d 14 58 98 3d 80 37 e8 3b
       0.025375769 0.049391065 0.074386746 0.0070866942
0003d0 b0 ea 4a 3d 52 b7 a0 3d f4 84 38 3d 31 68 85 bd
       0.04954022 0.078474656 0.04504867 -0.065140136
0003e0 b8 5d 89 bd db 1e 62 be e7 ab 9b be fb d4 31 be
       -0.067073286 -0.22082083 -0.3040459 -0.17366402
0003f0 b4 68 9b 3d ab 49 4c 3e 46 28 cd 3a 49 a1 08 3d
       0.0758833 0.19949977 0.0015652261 0.03335694

bias f4 [50]
000000 c0 de 7d 3c a8 de aa 3d 27 e9 04 3e 83 4a 28 be
       0.015495002 0.083432496 0.12979566 -0.16434674
000010 4e 30 2d 3e 3a a7 b1 bd 7b 0c e3 3d ab 20 32 bd
       0.16912958 -0.08674474 0.11086365 -0.043488186
000020 2e 18 9f 3d f0 ef 2c 3e d6 89 75 bc eb 78 54 ba
       0.07768284 0.16888404 -0.014986476 -0.00081051764
000030 cc f9 53 be 17 e2 d8 3b c5 46 d7 3d 01 f4 0a be
       -0.20700759 0.006618749 0.10511545 -0.13569643
000040 25 38 e5 3d 2b 2f bd 3d f1 2c 20 3e d8 dc 0c 3e
       0.11192349 0.09237512 0.15642144 0.1375612
000050 6a af c3 3d 7b e8 de 3d 12 f6 39 3e 6b f3 8e bd
       0.09554942 0.10884186 0.18160275 -0.06980022
000060 19 0e e6 bd 51 53 0d 3e 7e a7 e6 bd 2c 12 cd bd
       -0.11233158 0.13801314 -0.11262415 -0.10013232
000070 17 85 cd bd e8 2b 05 3e 8c 65 3b 3e f7 95 45 bd
       -0.100351505 0.1300503 0.18300456 -0.04823872
000080 42 5f b1 3d 1b 73 7d 3d 85 fa 34 3e 02 d9 04 3e
       0.08660747 0.06187735 0.1767369 0.12973407
000090 65 03 da 3d 09 15 85 3d 59 68 35 3e 75 c3 44 3e
       0.10645179 0.06498153 0.17715587 0.19215186
0000a0 79 8a dd bd 44 cf e2 3d 04 60 a7 3c 44 70 c3 3d
       -0.10817427 0.11074689 0.020431526 0.09542897
0000b0 a3 5a bf 3d b5 d8 28 3e 63 0a 25 3e 16 e4 be 3d
       0.093434595 0.16488917 0.16117243 0.09320848
0000c0 c9 d4 5d be 32 88 e2 3c
       -0.21663202 0.027652834

weight f4 [10, 50]
000000 b6 94 86 3e 40 d9 0a bf 3d 87 d6 bd 7f 35 89 3d
       0.26285332 -0.5423775 -0.104750134 0.06699657
000010 4d cf 6b 3d 12 04 a0 bd 3b a7 0c be 53 e2 d4 bb
       0.057570744 -0.07813276 -0.13735668 -0.0064967065
000020 b2 01 2f be 78 21 77 be 2f eb 7c 3e 65 f0 4b 3e
       -0.1709049 -0.24133861 0.2469909 0.19915922
000030 77 2b 6e 3d 89 ea 90 be 79 8f 01 3c 71 40 0a 3e
       0.05814692 -0.28303936 0.007907742 0.13501145
000040 b6 78 a1 3d 28 ab ff bd 7e f7 da 3c 01 81 5f bd
       0.07884352 -0.12483817 0.026729342 -0.054566387
000050 f3 e4 5c be 63 d8 33 be 03 22 13 3e 8d bb 8c 3e
       -0.21571712 -0.17563014 0.14368443 0.2748684
000060 88 b9 27 be 61 f0 c1 3d 29 9b 8d 3e 3f ec 8f 3e
       -0.16379368 0.09469677 0.2765744 0.2810993
000070 c4 c9 59 be 6e 96 7c 3e 5e 98 bb be d6 cd 5e 3e
       -0.21268374 0.2466676 -0.36639684 0.21758208
000080 5a c2 10 3e 6b 72 cb 3d 0c cb 92 be a7 7a 58 be
       0.14136639 0.09933933 -0.28670537 -0.21140538
000090 61 64 59 3d fe b9 18 3e ba 60 2e 3e df 66 95 bc
       0.053074244 0.149147 0.17029086 -0.01823753
0000a0 97 28 bb be c1 c4 11 3e 26 95 7e be 53 9b a9 3b
       -0.36554405 0.14235212 -0.24861583 0.005175987
0000b0 5d 94 05 be 6b b4 da be ea cc 62 be 91 ce 53 3e
       -0.13044877 -0.42715773 -0.22148481 0.20684268
0000c0 7f 39 4e be ab ef 81 3e 99 93 82 3d 27 ab 83 be
       -0.2013912 0.25378165 0.06375808 -0.25716516
0000d0 26 66 46 be 8c e1 9d be 10 bd 41 3e e4 58 5d 3e
       -0.19374904 -0.3083614 0.18919778 0.2161594
0000e0 09 a7 88 be 58 10 0a be be 8b b3 bc 8c e4 4b 3e
       -0.26689938 -0.13482797 -0.02191722 0.19911402
0000f0 80 fd 84 3e a2 30 41 3e 8b 17 68 3c f0 7e 37 3c
       0.25974655 0.18866208 0.014165769 0.011199698
000100 e4 c6 de ba ec 26 77 be 57 f3 95 3e d4 f7 ac 3d
       -0.001699653 -0.24135941 0.29287216 0.08445707
000110 b0 2c 49 3e 66 f2 00 3f 37 4f 3d 3d 74 5a 68 3e
       0.19645953 0.5036987 0.046218123 0.22690755
000120 a3 55 9e be 63 c4 1d be 7c 2e 66 be 12 07 93 be
       -0.3092471 -0.15406947 -0.2247867 -0.28716332
000130 4a 78 17 be c0 44 4f be 7f 37 72 3d 6b 99 8b be
       -0.1479198 -0.2024107 0.059134956 -0.27265486
000140 5a 9e 6d 3e a3 1b 96 be cc a3 68 be 46 c1 a4 be
       0.23204938 -0.2931796 -0.22718734 -0.32178706
000150 39 bb 54 3e 10 93 66 3e 69 f9 1e be b1 54 17 be
       0.20774545 0.22517037 -0.1552483 -0.14778401
000160 4c 4e 34 3f b0 56 41 be 79 0e 0f be c8 53 8f bd
       0.7043197 -0.18880725 -0.13970365 -0.06998402
000170 0f d1 c8 be ee cc 14 3e d9 f9 48 3e 29 14 e0 be
       -0.39222 0.145313 0.1962656 -0.4376538
000180 96 26 54 3e c4 5d 85 be b9 0a 20 be 13 9c 23 3e
       0.20717844 -0.260481 -0.1562909 0.15977506
000190 c5 c1 ad be d4 ef 0d 3f 5e 3e b7 be 1d 4c 3c bd
       -0.33936897 0.55444074 -0.3578977 -0.045971025
0001a0 b4 2d 10 bf cc 8a 8a 3e 96 16 1b 3e fa a9 0b be
       -0.5631974 0.2705902 0.15145335 -0.1363906
0001b0 51 47 84 3e 0d ff cd be 96 75 0e be 30 53 39 3d
       0.2583566 -0.4023365 -0.13912043 0.04524535
0001c0 0e 72 90 be 90 8b 83 be d5 54 51 3e 11 24 75 3e
       -0.28212017 -0.25692415 0.20442517 0.2393954
0001d0 d4 c8 a4 3e 73 20 94 3d e1 60 b8 3e 2e 35 03 bf
       0.3218447 0.07232752 0.36011413 -0.5125302
0001e0 60 d6 6f be 37 ad 23 3e b3 d5 ab 3d 26 3f bd bc
       -0.23421621 0.15984045 0.08390369 -0.0231014
0001f0 34 1c f8 3d 90 29 99 bd bb 18 48 3e 54 35 14 3e
       0.12114754 -0.074786305 0.19540684 0.14473468
000200 a4 02 0d bc fd 92 a8 3e a1 aa 21 be f5 13 5c be
       -0.008606587 0.32924643 -0.15787746 -0.21491988
000210 f4 98 4d 3e f8 79 4e be 70 62 40 3e c8 a1 4c bb
       0.20077878 -0.20163715 0.18787551 -0.0031224359
000220 f9 33 d6 3e 2c 43 54 3d a6 6e c7 be 89 80 c9 3e
       0.41836527 0.051821873 -0.38951606 0.39355877
000230 e6 21 16 3d 42 61 b3 bd 92 0f ff 3d 1a c7 8d be
       0.03665342 -0.08758785 0.12454142 -0.27690965
000240 3d 38 08 3e ef ac b2 be 27 55 e9 3d a5 f7 63 be
       0.13302703 -0.34897563 0.11393195 -0.22262438
000250 8c 37 85 bd 79 2d 4e bd ed d0 03 be 14 39 70 be
       -0.06504735 -0.050336335 -0.12872668 -0.23459274
000260 91 be 6a 3e 6a 1a 16 be 43 c2 ff be d5 64 c9 3d
       0.22924258 -0.14658514 -0.49952897 0.09833685
000270 60 b7 b7 be e5 81 75 be f0 bd 85 3e 9e 85 c6 be
       -0.35882092 -0.23975332 0.26121473 -0.38773817
000280 47 1a e6 bd b7 f2 88 3e 0c f4 7b 3d 97 8d f7 3d
       -0.11235481 0.26747677 0.061512038 0.12087553
000290 3c ba ae 3d ee d0 a3 3d 93 30 90 be 45 a6 20 be
       0.08531615 0.079988346 -0.2816206 -0.15688427
0002a0 b0 10 b2 be b5 8f 8a bd 60 d4 ff be e0 99 1b 3e
       -0.34778357 -0.06765691 -0.49966717 0.15195417
0002b0 f8 84 0c be 95 b4 8c be ce 55 ae 3d 29 ed 96 be
       -0.13722599 -0.27481523 0.0851246 -0.29477814
0002c0 b9 5e 56 3e 6d fe f0 3d ca 75 83 3e b5 08 98 3d
       0.20934571 0.11767278 0.25675803 0.07423536
0002d0 60 33 89 3e 4f 02 55 3d 64 e7 1e be 23 a1 7f be
       0.2679701 0.052004155 -0.15517956 -0.24963813
0002e0 bc 04 97 3b 38 a8 41 3e fc 22 0e 3e e1 cf 9d 3e
       0.0046087187 0.18911827 0.13880533 0.30822662
0002f0 70 54 15 bd 70 64 9f be 2a 4d 79 3e 02 49 97 3d
       -0.03645748 -0.31131315 0.24345842 0.07386972
000300 6c df 04 3e 82 19 6f 3e 86 43 c7 be fa 3e a0 3e
       0.12975854 0.23349574 -0.38918704 0.31298047
000310 e9 03 ae be 78 99 11 3e cf 29 05 be dd ec 47 be
       -0.33987358 0.142187 -0.1300423 -0.1952395
000320 7e 98 7e be 53 d5 44 be 03 ad 16 bc 04 d5 b0 3c
       -0.24862859 -0.19222002 -0.009196523 0.021585949
000330 86 09 17 3e 6d 6e e8 bd f3 72 18 3e 15 8c 69 3e
       0.14749727 -0.11349187 0.148876 0.22807343
000340 39 ac 50 3e 6c 75 20 3e 3b a4 68 be 07 f9 84 be
       0.20378198 0.15669793 -0.22718899 -0.25971243
000350 16 e0 62 3e f4 52 11 be 94 a6 45 3e 8c f0 0b 3e
       0.22155795 -0.141918 0.19301826 0.1366598
000360 30 6f 06 be 86 ee e7 bd cb 48 4d 3e 69 65 52 3e
       -0.13128352 -0.113247916 0.200473 0.20546497
000370 40 b2 96 3e 0d 95 7b be ea b7 99 3d 1e d0 84 be
       0.2943287 -0.24568577 0.07505782 -0.2594003
000380 10 49 6a bd 06 d0 a8 bd 6a 80 9f be 49 03 8c be
       -0.057198584 -0.08242802 -0.3115266 -0.27346256
000390 92 ac 73 be dd 2a d1 be aa da 19 3e f7 e5 72 be
       -0.23796299 -0.40853015 0.1502482 -0.23720537
0003a0 b6 41 85 bd 6d 0d 43 3e de 88 a1 be 9a 9c 3d be
       -0.06506674 0.1904809 -0.31549734 -0.1851677
0003b0 2b 90 c4 3c 6e 71 df 3d d2 1b e8 be b7 6b 3c 3e
       0.023994526 0.10910307 -0.45333725 0.18400465
0003c0 d6 6d 8f bd 20 3a 16 be f2 ec 1b 3e 26 c5 ac bc
       -0.070033714 -0.1467061 0.15227106 -0.021090101
0003d0 84 ac 69 3c 7f d1 7d 3e 10 b1 f7 bd d5 b6 97 3e
       0.014262322 0.24786948 -0.12094319 0.29631677
0003e0 ce 42 42 3e 87 5e a7 3d 08 30 7a be 6a c4 83 3d
       0.18970796 0.081723265 -0.24432385 0.064339474
0003f0 31 9c 81 3e cf c1 b3 bd 29 c5 9f 3e c2 e4 94 be
       0.25314477 -0.087772004 0.3120511 -0.29080778

bias f4 [10]
000000 4b 1e 16 be 6f a2 72 3d c2 ef e6 3d 81 9b b8 bc
       -0.14659993 0.05923694 0.11276199 -0.022535088
000010 8f 65 ae 3d 4b da 85 3e 68 f0 b6 bd 09 57 da 3c
       0.085154645 0.26143107 -0.089325726 0.02665283
000020 2a c2 56 be 62 36 17 be
       -0.20972505 -0.14766839
