Project_1/Part3_clean/checkpoints/interpolation_model1.pth (torch, 161453 bytes, 4 tensors)

weight f4 [50, 784]
0.03535455 0.030845465 -0.030249264 0.005837394 -0.0054373997 -0.0015252106 -0.028291754 0.035696663
-0.018929977 -0.015422166 -0.017113542 0.012575606 0.07918397 0.09394501 0.1872387 0.07968955
-0.020632068 0.025785549 0.0075371354 -0.004441819 0.009206321 0.025981257 -0.0018520058 0.025878916
0.012195239 0.01668217 -0.031120574 -0.010512305 -0.0076207053 0.027757809 0.014310169 0.014078163
0.081028976 0.1496587 0.21069592 0.23203443 0.13664085 0.05826555 0.34564346 0.23962268
0.57325745 0.73033446 -0.10041979 -0.48731044 0.1412275 0.8266281 0.8199444 0.04383176
-0.25022703 -0.46768653 -0.098837405 0.1931745 -0.018258356 0.015698386 0.03081224 0.028524812
0.03300586 0.0009435799 0.17261022 0.844452 0.90249014 0.44657424 0.48642638 0.3630922
1.316553 1.5468029 1.5203655 0.7333222 0.57064736 0.59665006 0.53950274 0.1670529
0.22417505 0.6068704 0.8350144 0.26798975 0.20852783 1.394685 1.0571433 0.9423985
1.0371687 0.21534882 -0.014377522 -0.017257806 0.020606536 -0.023077123 -0.7459402 0.62279046
-0.11076862 1.4975971 0.89613813 1.043121 0.7396632 0.8396713 -0.3560402 -0.5178312
-0.5001884 -0.8533001 -0.92823625 -0.28234088 0.5057987 -0.021680383 -0.111019894 0.8555053
0.09906791 0.6906697 0.91421705 0.26195017 0.81113136 1.561837 1.6117755 -0.0016601597
0.025390388 -0.1385225 -0.792471 -1.4775487 0.086185575 0.35297424 0.7464508 -1.1022248
0.33340687 0.55453223 0.29278162 0.18526107 0.5880256 -0.5699084 -0.51475227 -0.2964506
0.18124646 0.31706467 -0.054590125 0.43136963 -0.19389687 -0.22802366 0.2818424 0.28373843
-0.18220592 -0.13404784 1.1610347 0.09056017 0.01059095 -0.0123784505 -0.12855515 -0.90381294
0.56936306 0.17426583 0.14615874 -0.27060968 0.71813333 0.072230734 0.3969332 -0.084264725
-0.1279559 -0.40087903 0.099474706 0.28342822 0.5640499 0.21935412 0.23716937 0.18922277
0.23488893 -0.41275474 -0.65060323 -0.13981779 -0.5397331 0.119612776 1.3680421 0.06874754
0.023804078 0.030012265 -0.5547273 0.53308296 -0.79081285 0.47459632 1.1203309 0.049692933
0.58198935 0.14981708 -0.62555504 -0.9407169 -0.96402895 -0.5528532 -0.116595745 0.31662494
0.19197528 -0.6458479 -0.34303272 -0.12956405 -0.49599305 -0.77464414 -0.5347114 -1.1251116
-1.2052063 1.5300605 0.7391149 0.80542266 -0.015606289 0.17238517 -0.56663126 -0.2745882
-0.36551976 0.16489877 0.5699167 0.42871386 1.0226246 0.13217297 0.073480405 -0.153601
-0.7710701 -0.5175571 0.055851217 -0.28875986 -0.104359046 -0.18524066 -0.33792302 -0.59805995
0.0419439 -0.3865314 0.3965138 -1.6877333 0.35994357 2.8070223 0.44770363 0.99588233
1.4476446 1.0698707 0.08157954 -1.0517067 -1.1127089 -0.21294546 0.21665312 -0.25409064
-0.5904794 0.62516505 0.22041036 -0.440926 -0.5061372 -0.08969821 0.37237135 0.100675665
-0.27144203 -0.0442182 -0.028758712 -0.25796792 0.14208144 -0.98053396 -0.22322227 0.21403839
0.42934734 1.1480821 1.6556119 0.39738515 0.019180099 -0.24207242 0.30159247 1.0120959
00000000: efcf 103d a1af fc3c 4ecd f7bc 9c47 bf3b
00000010: 372c b2bb 93e9 c7ba 1cc4 e7bc aa36 123d
00000020: 0a13 9bbc 41ad 7cbc b331 8cbc ea09 4e3c
00000030: 352b a23d 3e66 c03d 80bb 3f3e 4634 a33d
00000040: 9504 a9bc 373c d33c 13fa f63b ae8c 91bb
00000050: 1cd6 163c a5d6 d43c 01bf f2ba 0500 d43c
00000060: 8ace 473c 0ca9 883c 93f0 febc ce3b 2cbc
00000070: 1cb7 f9bb 5864 e33c 3375 6a3c 18a8 663c
00000080: 85f2 a53d 2140 193e acc0 573e 6f9a 6d3e
00000090: 94eb 0b3e dba7 6e3d 2ef8 b03e a65f 753e
000000a0: 00c1 123f 33f7 3a3f e4a8 cdbd c180 f9be
000000b0: f19d 103e e69d 533f e0e7 513f ee88 333d
000000c0: c21d 80be 9c74 efbe 446b cabd 89cf 453e
000000d0: 8c92 95bc e799 803c f369 fc3c deac e93c
000000e0: 2731 073d 935a 773a bcc0 303e 022e 583f
000000f0: 9809 673f 61a5 e43e e10c f93e 39e7 b93e
00000100: cf84 a83f a3fd c53f 569b c23f 01bb 3b3f
00000110: f215 123f 0fbe 183f da1c 0a3f ea0f 2b3e
00000120: 258e 653e dc5b 1b3f 81c3 553f f435 893e
00000130: 5288 553e 0a85 b23f 7950 873f 0741 713f
00000140: f2c1 843f 6784 5c3e b38f 6bbc 3e60 8dbc
00000150: 0acf a83c 3c0c bdbc f0f5 3ebf 326f 1f3f
00000160: a9da e2bd 43b1 bf3f 4f69 653f fd84 853f
00000170: 915a 3d3f b3f4 563f e74a b6be 9690 04bf
00000180: 590c 00bf e071 5abf e4a0 6dbf fc8e 90be
00000190: 067c 013f 0f9b b1bc 665e e3bd 6502 5b3f
000001a0: 1ee4 ca3d bbcf 303f 210a 6a3f 551e 863e
000001b0: 4ea6 4f3f 46ea c73f a94e ce3f b799 d9ba
000001c0: 81ff cf3c d8d8 0dbe 61df 4abf 5120 bdbf
000001d0: 1082 b03d 0ab9 b43e 6617 3f3f b415 8dbf
000001e0: 4eb4 aa3e d3f5 0d3f 79e7 953e 14b5 3d3e
000001f0: d988 163f 84e5 11bf cec6 03bf 5fc8 97be
00000200: ac98 393e 4d56 a23e e599 5fbd 7bdc dc3e
00000210: e78c 46be 097f 69be a64d 903e 2a46 913e
00000220: 3094 3abe d643 09be c99c 943f 9c77 b93d
00000230: aa85 2d3c fcce 4abc f6a3 03be 4960 67bf
00000240: c7c1 113f be72 323e a3aa 153e 5a8d 8abe
00000250: 96d7 373f b5ed 933d d43a cb3e fc92 acbd
00000260: df06 03be 0440 cdbe 65b9 cb3d 811d 913e
00000270: 9365 103f 5e9e 603e 87dc 723e 9dc3 413e
00000280: b986 703e 9754 d3be ef8d 26bf 652c 0fbe
00000290: f32b 0abf 8bf7 f43d 011c af3f 83cb 8c3d
000002a0: c500 c33c 48dc f53c 9c02 0ebf 2078 083f
000002b0: b672 4abf 4afe f23e 0167 8f3f d18a 4b3d
000002c0: 41fd 143f a669 193e 6024 20bf d3d2 70bf
000002d0: 9aca 76bf ca87 0dbf c0c9 eebd aa1c a23e
000002e0: 2b95 443e 4a56 25bf fca1 afbe 70ac 04be
000002f0: cdf2 fdbe 144f 46bf d9e2 08bf a803 90bf
00000300: 3344 9abf 06d9 c33f a236 3d3f 2e30 4e3f
00000310: 85b1 7fbc bd85 303e bf0e 11bf d396 8cbe
00000320: 6825 bbbe 39db 283e 10e6 113f 6280 db3e
00000330: 5de5 823f 5a58 073e e57c 963d 9549 1dbe
00000340: da64 45bf 9f7e 04bf 3fc4 643d 55d8 93be
00000350: 32ba d5bd baaf 3dbe 3f04 adbe 751a 19bf
00000360: 5ecd 2b3d 72e7 c5be db03 cb3e a507 d8bf
00000370: 864a b83e 41a6 3340 6939 e53e 25f2 7e3f
00000380: 6b4c b93f 86f1 883f 2d13 a73d 539e 86bf
00000390: 3f6d 8ebf 600e 5abe 51da 5d3e 2b18 82be
000003a0: a829 17bf d10a 203f 41b3 613e 0dc1 e1be
000003b0: 3592 01bf b2b3 b7bd 75a7 be3e 0b2f ce3d
000003c0: 73fa 8abe 251e 35bd 6497 ebbc 5f14 84be
000003d0: cc7d 113e 4604 7bbf 6194 64be e12c 5b3e
000003e0: 6ad3 db3e 5bf4 923f 17eb d33f 1176 cb3e
000003f0: 951f 9d3c d5e1 77be 546a 9a3e 5c8c 813f

bias f4 [50]
0.5338836 -0.08619838 -0.1506597 0.22183757 -0.40319002 0.3559834 0.021448843 -0.4285191
-0.76573944 0.3511959 0.3944842 0.27856076 -0.74246764 -0.020631062 -0.20887579 -0.4200114
-0.15991959 0.33135626 -0.47430944 -0.5964471 0.57349485 -0.11502851 -0.3346286 -0.63674396
-0.2940762 0.80988866 0.28718844 0.09453201 -0.20983434 -0.2977291 0.58896947 -0.48564544
0.19257914 0.3530819 0.30854183 -0.42020884 0.3949864 0.8008574 1.0191668 -0.11345341
-0.029053105 -0.68396986 -0.06789714 0.6495191 0.23315518 -0.42698613 -0.14632466 -0.6641005
0.38981748 -0.8175316
00000000: 98ac 083f c788 b0bd 8946 1abe 6329 633e
00000010: ec6e cebe 7543 b63e 7cb5 af3c db66 dbbe
00000020: 8007 44bf f3cf b33e d5f9 c93e 849f 8e3e
00000030: 5c12 3ebf 7902 a9bc 89e3 55be bc0b d7be
00000040: f6c1 23be 87a7 a93e b0d8 f2be c2b0 18bf
00000050: 8fd0 123f 1194 ebbd 7154 abbe a701 23bf
00000060: 2891 96be dd54 4f3f 5d0a 933e 009a c13d
00000070: d0de 56be f36f 98be b4c6 163f 85a6 f8be
00000080: 7733 453e 27c7 b43e 32f9 9d3e 9d25 d7be
00000090: a83b ca3e fe04 4d3f 0f74 823f 435a e8bd
000000a0: c700 eebc a618 2fbf a80d 8bbd e246 263f
000000b0: 3bc0 6e3e ed9d dabe 22d6 15be 7e02 2abf
000000c0: 2896 c73e c049 51bf

weight f4 [10, 50]
0.45097417 -0.87345713 0.12909822 0.62834823 -1.9462465 0.5691884 0.6223792 0.14138995
0.46087644 -0.9378582 -0.18006375 1.0186028 0.20948732 -1.538664 0.32435113 -2.2867804
-1.5248445 -0.30712152 0.18897827 -0.7068235 0.12356182 0.14061646 -1.7419634 0.42862135
-0.23162974 -0.50828725 0.26097584 0.4904747 0.6677348 -0.7594729 -0.043404084 0.5522705
-2.1153414 0.21015291 -0.9550403 -3.2405252 -1.7263875 0.08876024 -1.4940046 -0.12339934
0.107751034 0.28883997 0.83576983 -0.22142436 -0.86330783 -1.4638127 0.72251135 -1.8599772
0.3581027 -1.8570614 -1.3106378 0.7803688 -2.2801168 -1.6452783 0.7019229 0.071181
-0.21661617 0.5322306 -0.6881529 0.03684072 -0.6075716 -0.72640145 -0.06363521 -1.9563468
0.047216773 -0.30385375 -0.19156034 1.2176383 -0.23419191 0.4801132 0.8701664 -1.2564912
0.13305962 -0.35526624 0.32535166 0.096447855 -2.0641584 0.12547648 0.6213762 0.417406
-2.9040713 -1.4905605 -0.7685229 -1.4553747 -1.6546675 -0.30410048 0.0277596 1.5298624
0.31460074 0.14045303 -0.13653721 0.58233535 -1.3382766 0.74250585 0.4096476 0.3141342
-0.21299547 0.24267527 0.90792876 0.76415557 1.5656242 -0.022748312 -0.5252565 -1.2748404
0.38793665 0.15120314 -0.93292904 0.64413923 0.7171719 0.06347201 -0.25008097 -0.4870369
0.75497127 0.66681635 0.09142541 -0.5792669 -1.1586483 0.341246 0.7677201 0.110734716
-0.33563626 0.25002667 1.2229999 -0.5281097 -1.5752645 -0.2835834 0.089274295 0.02307091
0.1902001 -0.9001005 -0.86796385 -0.07099321 -2.211621 0.15076534 0.43075022 -2.180885
-0.8873118 -0.8573333 -0.41204396 -1.8579738 0.021267885 0.0947344 0.42991206 0.3758572
-0.348975 1.0799224 0.55490166 0.4008213 0.24896 0.7856659 -1.5293866 -0.7852069
0.16551635 -0.5235844 0.11379192 -0.65329903 0.4830447 -0.5269715 0.26269057 0.25791135
-0.49259233 0.6417699 0.32441404 -0.18268418 0.08835645 0.6795463 0.22195359 0.18038236
0.39035526 -0.3915056 -1.7034798 0.06561772 0.20883146 0.30585995 0.13158296 -1.5167246
-0.50362206 -1.3333755 -0.17512238 0.5708626 -1.3569343 0.43761262 0.804411 0.15088248
0.011183731 1.0617787 -2.5892694 -0.51847637 0.8423755 -0.0057656467 0.11323452 0.5758402
0.41843402 -1.1938956 0.0027649424 1.0813795 -0.055895 -0.26138443 -0.45347437 0.84109694
-0.05951782 0.36110675 0.19281265 -0.8631951 0.7002719 -0.7359051 0.899106 0.57195765
-2.6828842 -0.022192266 0.42909253 -2.6244738 -1.7996112 0.6881853 0.296433 0.2910255
0.27878937 -2.3368876 0.6777614 0.46509057 0.0869042 0.1597497 -1.4837102 -0.22575611
-0.072048865 -0.55806875 0.649694 0.4384893 -0.0779366 -1.1084926 -0.010987685 0.11461356
0.63144 -0.63701946 -0.08411765 0.38464406 -0.29957324 1.3059912 0.15557033 0.6775863
-0.014994139 0.05830459 -1.6762035 0.21970569 -0.58644855 -0.4919411 -3.0124657 0.23568568
-0.0032418466 -2.428906 0.042617146 -2.4546177 0.27574012 0.7119955 -0.053985797 -0.17451502
00000000: 16e6 e63e e39a 5fbf 5332 043e 6edb 203f
00000010: 9b1e f9bf 55b6 113f 3e54 1f3f 87c8 103e
00000020: fff7 eb3e 7a17 70bf a262 38be 9461 823f
00000030: d883 563e f1f2 c4bf 5a11 a63e 9c5a 12c0
00000040: 1b2e c3bf 083f 9dbe 8583 413e 63f2 34bf
00000050: fb0d fd3d c3fd 0f3e a8f8 debf 4274 db3e
00000060: 5930 6dbe 1d1f 02bf a09e 853e 801f fb3e
00000070: abf0 2a3f d16c 42bf 7bc8 31bd 9961 0d3f
00000080: c161 07c0 5332 573e 857d 74bf c464 4fc0
00000090: 44fa dcbf eec7 b53d 8b3b bfbf cbb8 fcbd
000000a0: 93ac dc3d d5e2 933e 03f5 553f 11bd 62be
000000b0: be01 5dbf 375e bbbf 81f6 383f bc13 eebf
000000c0: 3d59 b73e 30b4 edbf fbc2 a7bf 40c6 473f
000000d0: 6fed 11c0 7b98 d2bf 38b1 333f 58c7 913d
000000e0: a1d0 5dbe 4440 083f ca2a 30bf 4be6 163d
000000f0: d089 1bbf 72f5 39bf 2d53 82bd 9269 fabf
00000100: 6066 413d b892 9bbe 6528 44be 92db 9b3f
00000110: 01d0 6fbe 66d1 f53e 3ac3 5e3f b4d4 a0bf
00000120: c840 083e 75e5 b5be 7e94 a63e 7486 c53d
00000130: 2c1b 04c0 e87c 003e 8312 1f3f 3db6 d53e
00000140: 4edc 39c0 b0ca bebf ebbd 44bf b849 babf
00000150: 25cc d3bf 0fb3 9bbe 1a68 e33c 88d2 c33f
00000160: 5913 a13e ebd2 0f3e 69d0 0bbe ee13 153f
00000170: a64c abbf dd14 3e3f 55bd d13e 33d6 a03e
00000180: 7c1b 5abe de7f 783e 056e 683f b39f 433f
00000190: 6066 c83f ab5a babc 3677 06bf f82d a3bf
000001a0: a29f c63e ffd4 1a3e 70d4 6ebf 4fe6 243f
000001b0: 9498 373f 9dfd 813d 9d0a 80be e75c f9be
000001c0: cc45 413f 7ab4 2a3f 3f3d bb3d d64a 14bf
000001d0: 964e 94bf ccb7 ae3e 4e89 443f e2c8 e23d
000001e0: 84d8 abbe 7f03 803e 438b 9c3f 3332 07bf
000001f0: 44a2 c9bf d831 91be 71d5 b63d 34ff bc3c
00000200: d1c3 423e fd6c 66bf e132 5ebf e364 91bd
00000210: 338b 0dc0 3b62 1a3e 4b8b dc3e 9f93 0bc0
00000220: de26 63bf 327a 5bbf 6df7 d2be 16d2 edbf
00000230: fd39 ae3c 1c04 c23d 6f1d dc3e 5b70 c03e
00000240: daac b2be e63a 8a3f 090e 0e3f 7338 cd3e
00000250: 5fef 7e3e 6721 493f f1c2 c3bf 5203 49bf
00000260: 1e7d 293e a109 06bf bd0b e93d 9b3e 27bf
00000270: a351 f73e 9be7 06bf 617f 863e f50c 843e
00000280: 1035 fcbe 084b 243f 9919 a63e 9011 3bbe
00000290: 3af4 b43d bff6 2d3f cd47 633e 27b6 383e
000002a0: a5dc c73e 6c73 c8be a00b dabf 9562 863d
000002b0: ead7 553e ad99 9c3e afbd 063e 0824 c2bf
000002c0: 60ed 00bf 0cac aabf 4853 33be 0d24 123f
000002d0: 06b0 adbf c30e e03e e1ed 4d3f f080 1a3e
000002e0: f83b 373c 5de8 873f 97b6 25c0 deba 04bf
000002f0: eca5 573f c0ed bcbb 80e7 e73d 436a 133f
00000300: fc3c d63e 92d1 98bf 0934 353b a56a 8a3f
00000310: 28f2 64bd 2ed4 85be cb2d e8be 2152 573f
00000320: f5c8 73bd fce2 b83e ae70 453e 5bfa 5cbf
00000330: 0545 333f 4764 3cbf d02b 663f d16b 123f
00000340: 60b4 2bc0 8ecc b5bc 04b2 db3e 61f7 27c0
00000350: a959 e6bf e92c 303f 11c6 973e 4b01 953e
00000360: 7bbd 8e3e 918f 15c0 c581 2d3f 5a20 ee3e
00000370: d4fa b13d 6d95 233e 37ea bdbf 9c2c 67be
00000380: 5b8e 93bd 98dd 0ebf 5952 263f ab81 e03e
00000390: 399d 9fbd 16e3 8dbf b105 34bc 84ba ea3d
000003a0: 0da6 213f b513 23bf e045 acbd 11f0 c43e
000003b0: aa61 99be b82a a73f d44d 1f3e 4c76 2d3f
000003c0: faa9 75bc cbd0 6e3d d68d d6bf 87fa 603e
000003d0: 7e21 16bf b4df fbbe 3dcc 40c0 9657 713e
000003e0: 2975 54bb 3273 1bc0 518f 2e3d 7518 1dc0
000003f0: cf2d 8d3e 5645 363f 3620 5dbd 11b4 32be

bias f4 [10]
-0.26805833 -0.024466392 -0.23356462 -0.9409064 0.08549717 0.089557804 0.20405418 -0.07374625
0.96008813 -0.047302768
00000000: f13e 89be be6d c8bc 902b 6fbe 3edf 70bf
00000010: 2419 af3d 156a b73d 94f3 503e 4608 97bd
00000020: 56c8 753f 8cc0 41bd
