Project_1/Part3_clean/checkpoints/interpolation_model4.pth (torch, 161453 bytes, 4 tensors)

weight f4 [50, 784]
0	0xbc902db3	-0.017599916
1	0xbd0bfe6a	-0.034178175
2	0xbd0ffa5c	-0.03515087
3	0x3bb99cc1	0.0056644385
4	0xbbe17c5c	-0.00688128
5	0x3b7fb538	0.0039017927
6	0x3c0b1400	0.008488655
7	0xbcdcba23	-0.026944226
8	0x3c893780	0.016750097
9	0xbc18c16e	-0.009323461
10	0xbc3cdc85	-0.011527185
11	0x3c4ce853	0.012506562
12	0xbe33db10	-0.17564034
13	0xbe2f7e6d	-0.17138071
14	0x3d1911a3	0.037370335
15	0x3cdd55bf	0.027018426
16	0xbcefca61	-0.029271306
17	0x3a85acdc	0.0010198611
18	0xbc53e161	-0.0129321525
19	0x3d1162b8	0.035494536
20	0xbb8629ca	-0.004094337
21	0x3ca5da87	0.020245804
22	0x3cd5f483	0.026117569
23	0x3ba5dc53	0.005061665
24	0x3cbe4b45	0.02322925
25	0x3b71a825	0.0036873904
26	0xbcf4f0ca	-0.029899973
27	0x3cedbadc	0.029019766
28	0x3ca4573c	0.020061128
29	0x3d071a4d	0.032984067
30	0xbb8fdd6e	-0.00439041
31	0x3cc93f35	0.024566272
32	0xbd633df3	-0.055479
33	0xbdd1d8e4	-0.10246447
34	0xbe31528b	-0.17316644
35	0xbe87a144	-0.26490223
36	0xbed3b7e0	-0.41351223
37	0xbe989e54	-0.29808295
38	0xbea08551	-0.31351712
39	0xbe5b412c	-0.2141158
40	0xbf20929b	-0.627237
41	0xbeea895a	-0.45807916
42	0x3ef1a8e6	0.47199172
43	0xbe96b89c	-0.2943772
44	0xbe8ee6be	-0.27910417
45	0xbed5150b	-0.41617617
46	0xbf0e29a3	-0.5553228
47	0xbeeeecc2	-0.46665007
48	0xbf123ca3	-0.57123774
49	0xbf0421e8	-0.51614237
50	0xbe8e7540	-0.2782383
51	0xbdf2b0a5	-0.118500985
52	0x3cfd24d5	0.030901352
53	0xbcd97dd1	-0.026549252
54	0xbcd72227	-0.026261402
55	0x3cd54333	0.02603302
56	0x3d0f4b45	0.034983892
57	0x3d0ba97e	0.034097187
58	0xbdd0c18a	-0.10193165
59	0x3e9534ec	0.2914194
60	0xbed06e10	-0.4070897
61	0xbe549493	-0.20759802
62	0xbe95b197	-0.29237053
63	0xbf89bc02	-1.07605
64	0x3f035ed0	0.5131655
65	0x3f0fc583	0.56160754
66	0x3e9e736c	0.30947435
67	0xbec16692	-0.37773567
68	0x3eb31737	0.3497865
69	0x3f163ffb	0.58691376
70	0x3ed256a4	0.41081727
71	0x3f56fe25	0.83981544
72	0x3f0e130c	0.55497813
73	0x3f3d3c6c	0.7392032
74	0x3e7fcfca	0.24981609
75	0xbefcbbac	-0.49361932
76	0x3d9a2b86	0.07527833
77	0x3b1fa79e	0.0024361382
78	0x3d20f62a	0.03929726
79	0x3ead0359	0.33791617
80	0x3e149ef0	0.14513755
81	0x3e6c0b88	0.23051274
82	0xbafc4125	-0.0019245489
83	0x3cf8e121	0.030380787
84	0xbd100322	-0.035159238
85	0x3b891a00	0.0041840076
86	0x3f382a77	0.71939796
87	0x3f6fee1a	0.9372269
88	0x3f4fec77	0.8122019
89	0xbee26f7b	-0.44225678
90	0xbdbf1f60	-0.09332156
91	0x3f02e11d	0.51124746
92	0x3f109d9c	0.5649049
93	0xbeae16bc	-0.3400172
94	0xbddd9c9a	-0.10820885
95	0x3ea2cb3c	0.3179568
96	0x3f6c44b5	0.9229234
97	0x3e2cb46f	0.16865705
98	0xba9c96a7	-0.0011946753
99	0x3ec702f4	0.3886944
100	0x3ed654e0	0.4186163
101	0x3e491129	0.19635452
102	0x3e5d52af	0.21613573
103	0x3f2a53c4	0.66534066
104	0x3e492385	0.19642456
105	0xbf4c8df1	-0.79904085
106	0xbf67fc40	-0.9061928
107	0xbf985a8c	-1.1902633
108	0x3c754cf8	0.014971964
109	0xbe373e72	-0.17894915
110	0xbf2ea536	-0.6822084
111	0x3d111542	0.035420664
112	0x3cc96263	0.024583047
113	0x3cd95f40	0.026534677
114	0x3f49dc2f	0.788516
115	0x3f569ab5	0.83829814
116	0x3eda409b	0.42627415
117	0x3e841a13	0.25801143
118	0x3f797b2b	0.97453564
119	0x3e376a4d	0.17911644
120	0x3d17584a	0.036949433
121	0xbef89e9f	-0.48558518
122	0x3c0d4409	0.008622178
123	0xbd98b18a	-0.07455738
124	0x3d01c22e	0.031679325
125	0xbe2bee5b	-0.16790144
126	0x3dace8c1	0.08442832
127	0x3d2e7d0f	0.042599734
128	0x3da717d0	0.08158839
129	0x3b341141	0.0027476104
130	0xbd2bf439	-0.041980956
131	0xbd1e773f	-0.03868794
132	0xbe1bd9f0	-0.15219855
133	0xbedbefd5	-0.42956415
134	0xbee92f35	-0.4554383
135	0xbf3114aa	-0.69172156
136	0xbf1f9397	-0.6233458
137	0xbf29ca49	-0.6632429
138	0xbf5a6b75	-0.85320216
139	0xbf6e0a0a	-0.9298407
140	0x3a71716e	0.0009210323
141	0x3cc49761	0.023997964
142	0x3e857c1e	0.26071256
143	0x3f814b43	1.0101093
144	0xbf095abb	-0.5365407
145	0x3e280b4f	0.16410564
146	0x3e8caf94	0.27477705
147	0x3df2c53c	0.11854026
148	0x3dfd0fc7	0.12356525
149	0xbe1a08bf	-0.15042399
150	0xbe835728	-0.25652432
151	0xbec517d3	-0.3849474
152	0xbd76b722	-0.060233243
153	0xbe188129	-0.1489302
154	0xbe97e578	-0.29667258
155	0xbdb3e23e	-0.08783387
156	0x3ebdc4ad	0.37064114
157	0xbd341672	-0.043966718
158	0xbc0d23a4	-0.008614454
159	0x3e6c9a9e	0.23105857
160	0x3ea107c3	0.31451234
161	0x3e9575c7	0.2919142
162	0x3e4abb6f	0.19798063
163	0xbde5986a	-0.11210711
164	0xbe9c9458	-0.30581927
165	0xbf2762fb	-0.6538541
166	0xbf89f4ed	-1.077787
167	0xbf686756	-0.9078268
168	0xbcf38833	-0.02972803
169	0x3e8ded99	0.27720335
170	0xbe4875bf	-0.19576167
171	0xbe426264	-0.18982846
172	0xbebe5366	-0.37173003
173	0xbd9ad8e1	-0.075608976
174	0x3bb267a2	0.005444483
175	0x3e0b09f5	0.13578017
176	0x3dd8c5d5	0.105846085
177	0x3ef207f9	0.47271708
178	0x3ecd36db	0.40080914
179	0xbdc8bfcb	-0.098022066
180	0xbec5d313	-0.386376
181	0xbe9a5cbe	-0.30148882
182	0xbe6f7e54	-0.23388034
183	0x3cf832fd	0.03029775
184	0x3eb042c9	0.34425953
185	0x3ce78446	0.028261315
186	0xbd7ec9f7	-0.062204327
187	0x3e97dc37	0.29660198
188	0xba0548e7	-0.00050844107
189	0xbe447376	-0.1918467
190	0x3df136a9	0.11778004
191	0xbd5882e2	-0.052859195
192	0x3e1e1d96	0.15440974
193	0xbf544725	-0.8292106
194	0xbf570950	-0.83998585
195	0xbf5faa7c	-0.87369514
196	0x3d2dee29	0.042463455
197	0x3ed7fc98	0.421849
198	0x3f06df63	0.5268461
199	0x3f19183c	0.59802604
200	0xbdf4c75c	-0.11952087
201	0x3eb0ccac	0.34531152
202	0x3d284bcc	0.04108791
203	0x3e5669ce	0.20938799
204	0x3d13ecd0	0.036114514
205	0x3ee0f29f	0.43935105
206	0x3f0f07b6	0.5587114
207	0x3e84ed11	0.25962117
208	0x3d57609e	0.052582376
209	0xbe131a55	-0.14365514
210	0xbd6fe4e9	-0.058567915
211	0x3d70530e	0.058672957
212	0x3e6fc7e6	0.23416099
213	0x3e3e869c	0.18606037
214	0x3d3bc20c	0.045839354
215	0x3eb5f11d	0.35535517
216	0x3e2c3768	0.16818011
217	0xbde295f1	-0.11063755
218	0x3df0fcd9	0.11766977
219	0x3e1d3c48	0.15355027
220	0xbd0f10ee	-0.034928255
221	0xbf873128	-1.0561876
222	0xbf3b6840	-0.7320595
223	0xbf4cff9f	-0.80077547
224	0xbe0efaeb	-0.13962905
225	0x3e809a1d	0.2511758
226	0xbec7c2f9	-0.3901594
227	0xbdb4bf4b	-0.08825549
228	0xbe51cf7c	-0.20489305
229	0x3de1eab8	0.11031097
230	0xbe282df5	-0.16423781
231	0x3e7e2181	0.24817468
232	0xbd99299b	-0.07478639
233	0x3e821dc3	0.2541333
234	0x3eeac88c	0.4585613
235	0x3ed76b48	0.42074037
236	0x3e6c4126	0.23071727
237	0xbd4228ca	-0.04740218
238	0x3c9416aa	0.018077213
239	0x3e0b0683	0.13576703
240	0xbdb7ac84	-0.089684516
241	0x3e9eb343	0.3099614
242	0x3e24a61e	0.16078994
243	0x3d897f0c	0.067136854
244	0xbcda9785	-0.026683578
245	0xbe652832	-0.22378615
246	0x3dd081ed	0.101810314
247	0x3f1742ed	0.59086496
248	0xbe4b1fc7	-0.19836341
249	0xbf596313	-0.849168
250	0xbf02986b	-0.5101382
251	0x3a8f8c81	0.0010951908
252	0x3d33fa54	0.043939903
253	0xbba3981d	-0.0049924986
254	0xbdf84b40	-0.12123728
255	0x3f1871cc	0.5954864

bias f4 [50]
0	0xbe25a2c6	-0.16175374
1	0xbbb33b3e	-0.0054697087
2	0x3d4fc346	0.050723337
3	0x3e00c1c6	0.12573919
4	0x3e66f694	0.22555
5	0xbe3189a4	-0.17337662
6	0x3e46204d	0.1934826
7	0x3dd77284	0.10519889
8	0xbd1a1d21	-0.037625436
9	0xbeb3754b	-0.35050425
10	0xbe1999c1	-0.15000059
11	0xbdba3d5c	-0.090937346
12	0xbda20b28	-0.07912284
13	0x3ebcffa6	0.36913794
14	0x3e4e976b	0.20174949
15	0x3e97091c	0.29499137
16	0x3e3e5b0c	0.18589419
17	0xbd828059	-0.063721366
18	0x3e22374b	0.15841405
19	0xbed4a47c	-0.41531742
20	0xbe6afe69	-0.22948612
21	0xbd940281	-0.0722704
22	0x3e6276ea	0.22115675
23	0x3f07ffbe	0.53124607
24	0x3e02d175	0.12775214
25	0x3eadee23	0.33970746
26	0x3eeb34fa	0.45938855
27	0x3ed9704a	0.42468482
28	0x3ddf9636	0.10917322
29	0x3ee3add0	0.44468546
30	0xbe1600d9	-0.14648761
31	0x3eafaba1	0.3431063
32	0xbd600ec4	-0.05470158
33	0x3ea6f0e0	0.32605648
34	0x3c5c610b	0.013450871
35	0xbe0217ae	-0.12704346
36	0x3ee546fc	0.4478072
37	0xbe23b5b7	-0.15987287
38	0x3c9e0e83	0.01929403
39	0x3d3dd9e8	0.04635039
40	0xbed38396	-0.4131133
41	0x3e14e56a	0.1454064
42	0x3e0dfeb6	0.13866696
43	0xbd3bb790	-0.045829356
44	0x3e21cb27	0.15800153
45	0x3eeb31b5	0.4593636
46	0x3dadd644	0.084881335
47	0xbddfec17	-0.109337024
48	0xbb84412a	-0.0040360885
49	0xbd9816d4	-0.07426229

weight f4 [10, 50]
0	0xbf9e4ab0	-1.2366543
1	0xbf88ea68	-1.0696535
2	0x3ee437a6	0.44573706
3	0xbfc8fbe7	-1.5701874
4	0x3e10a841	0.14126684
5	0x3ebba6b9	0.36650637
6	0x3e704265	0.23462828
7	0x3eefe1fb	0.46852097
8	0x3f0a3be0	0.5399761
9	0x3e8f048e	0.27933162
10	0xbe75b2dd	-0.23994012
11	0x3e82d07c	0.25549686
12	0x3e1f9311	0.15583445
13	0xbfcea4b9	-1.6144019
14	0x3eb423f3	0.35183677
15	0x3c2b926f	0.010471924
16	0x3ee2fef3	0.44335136
17	0x3e5b51a4	0.21417862
18	0xbea54195	-0.32276598
19	0x3e8f17aa	0.27947742
20	0x3e49251f	0.19643067
21	0x3ed99fee	0.4250483
22	0xbdc03f1d	-0.09387038
23	0xbfdbf33d	-1.7183605
24	0xbf26561a	-0.6497513
25	0xbf8ffd2a	-1.1249135
26	0xbe62eac5	-0.2215987
27	0x3e7cb977	0.24680124
28	0xbea42ce4	-0.320655
29	0xbe8bac41	-0.27279857
30	0x3f4aaba1	0.79168135
31	0x3e29e8ba	0.16592684
32	0x3f403287	0.750771
33	0x3ea63abf	0.32466695
34	0x3eb637d8	0.3558948
35	0x3dc9c4ef	0.09852015
36	0xbee03ca8	-0.43796277
37	0xbd2e616a	-0.04257337
38	0xbd2c01e3	-0.041993987
39	0xbea68743	-0.32525072
40	0xc02a43fa	-2.660399
41	0x3ee29de9	0.442611
42	0xbddfcf9d	-0.10928271
43	0x3d211160	0.03932321
44	0xbf86c73b	-1.052955
45	0x3cff7c26	0.031187128
46	0xbf5ef491	-0.8709193
47	0x3e68cae1	0.22733642
48	0x3e9775c3	0.29582033
49	0x3f28fc4d	0.6600998
50	0x3ef45ab7	0.4772546
51	0xbc232576	-0.009957662
52	0xbff99793	-1.9499382
53	0x3e82f025	0.2557384
54	0x3fc65c7b	1.5496973
55	0xbf282730	-0.65684795
56	0x3f3609aa	0.71108496
57	0xc00170ce	-2.02251
58	0xbf1cf3ac	-0.61309314
59	0x3f318027	0.6933617
60	0xbeaec9f5	-0.34138456
61	0xbf771f56	-0.9653219
62	0x3e8b5e32	0.27220303
63	0x3b734da2	0.003712513
64	0xbe2bf733	-0.16793518
65	0xbf2dbadd	-0.67863256
66	0xbe7aa489	-0.24476828
67	0xbf590397	-0.847711
68	0x3f080972	0.5313941
69	0xbd87c66f	-0.06629645
70	0x3cddd183	0.027077442
71	0x3f01007a	0.5039135
72	0xbef73a76	-0.4828679
73	0xbea62c4b	-0.32455668
74	0xbdc2f27b	-0.09518906
75	0x3e993074	0.2991978
76	0x3eeae9d5	0.45881525
77	0x3eb2299a	0.34797364
78	0xbd49dc34	-0.049282268
79	0xbf440863	-0.765753
80	0x3ed5acba	0.41733342
81	0xbf418bdf	-0.7560405
82	0x3e728c2d	0.23686285
83	0xbee18149	-0.4404395
84	0x3f8e8d07	1.1136788
85	0x3fa28e87	1.2699746
86	0xbf8b3db2	-1.0878203
87	0x3f218518	0.6309371
88	0x3d7150ab	0.05891482
89	0xbeb9faac	-0.3632406
90	0x3eee6185	0.46558776
91	0xbc83e1b1	-0.016098829
92	0x3e1e1e3b	0.1544122
93	0xbed546b5	-0.41655508
94	0x3e5cae7b	0.21550934
95	0xbe8c0e48	-0.27354646
96	0x3d9aff98	0.07568282
97	0x3e8c3188	0.2738154
98	0x3efdae77	0.4954717
99	0x3e9170aa	0.28406268
100	0x3f155b8f	0.5834283
101	0x3eb11add	0.34590808
102	0x3f173b0a	0.5907446
103	0xbe61962a	-0.2202994
104	0xbf3a9a8a	-0.7289206
105	0x3ef130f8	0.47107673
106	0x3ed54966	0.4165756
107	0xbf5b788b	-0.8573081
108	0x3f4ceff4	0.8005364
109	0x3c7af9ef	0.015318378
110	0x3f33ef46	0.7028698
111	0x3f0da597	0.55330795
112	0x3f3fcf50	0.7492571
113	0x3e544526	0.20729503
114	0xbf28a284	-0.6587298
115	0xbe906f1e	-0.28209776
116	0xbf1c9f85	-0.6118091
117	0xbd4a372c	-0.049369022
118	0xbf910f01	-1.1332704
119	0x3db7357e	0.0894575
120	0x3f375919	0.7162033
121	0xbf658c88	-0.8966756
122	0xbf7a6527	-0.97810596
123	0xbf836727	-1.0265855
124	0xbe1cddb2	-0.15318945
125	0xbf125921	-0.5716725
126	0xbfb7d08c	-1.4360518
127	0xbc8b9c3c	-0.017042272
128	0x3e066e0c	0.13127917
129	0x3f84af4d	1.0365998
130	0xbe88c426	-0.2671215
131	0x3d948ccc	0.072534174
132	0x3f1c9e63	0.6117918
133	0x3e66d76f	0.22543119
134	0xbee33e29	-0.44383362
135	0x3e27d682	0.16390422
136	0xbe8d3069	-0.27575997
137	0x3ee0f0b1	0.43933633
138	0xbdbf603c	-0.09344527
139	0x3e8165ba	0.25272924
140	0x3e4d8d06	0.20073327
141	0x3eb568fd	0.35431662
142	0x3f939d78	1.1532431
143	0x3ec606d4	0.38677084
144	0xbf71534e	-0.9426774
145	0xbfe4a76e	-1.7863595
146	0x3f2f259f	0.6841678
147	0x3ef85d54	0.48508704
148	0x3d18f0ed	0.03733914
149	0x3ed8784c	0.4227928
150	0x3ec072f7	0.3758771
151	0x3f640f83	0.8908617
152	0x3e16a336	0.14710698
153	0x3ec12ab5	0.37727895
154	0x3e880bc3	0.26571473
155	0xbee935f2	-0.4554897
156	0xbf9744e1	-1.1817895
157	0x3f2d2c0f	0.67645353
158	0x3e59d579	0.2127284
159	0x3f16fc52	0.5897876
160	0x3cd55452	0.026041184
161	0xbef65267	-0.48109743
162	0x3e97d8fc	0.29657733
163	0x3eb29730	0.34880972
164	0x3d753672	0.059866376
165	0xbedfa744	-0.436823
166	0x3ebea3e4	0.37234414
167	0x3e7d9067	0.24762116
168	0xbf0fc9ee	-0.56167495
169	0x3f60f9b0	0.8788099
170	0x3e2fd3fa	0.17170706
171	0x3dbcb597	0.09214323
172	0xbf9571fd	-1.1675411
173	0x3f6830f6	0.9069971
174	0x3e3c0970	0.18362975
175	0xbff6238b	-1.9229597
176	0xbf894e5b	-1.0727037
177	0xbf3b2b0d	-0.73112565
178	0xbf58c271	-0.84671694
179	0xbf3d03ea	-0.738341
180	0x3e2e8e29	0.17046417
181	0x3e644981	0.22293665
182	0x3f0fddcd	0.56197816
183	0xbf46b314	-0.77617
184	0xbffa1851	-1.9538671
185	0x3e8f218e	0.27955288
186	0xbdfb8ecc	-0.12283096
187	0x3e814911	0.25251058
188	0xbd270530	-0.04077643
189	0x3f68a0bc	0.9087026
190	0xbf001da2	-0.50045216
191	0xbf96bd0d	-1.1776444
192	0x3e4461d3	0.19177942
193	0xbefcc4ef	-0.49368998
194	0x3ea50e1d	0.3223733
195	0x3ec716a9	0.38884476
196	0xbeed2e60	-0.46324444
197	0xbe3af480	-0.18257332
198	0x3e8733a6	0.26406592
199	0xbf34ac9d	-0.70575887
200	0x3e5924b2	0.21205404
201	0xbfe5115d	-1.7895924
202	0xbfd6d143	-1.6782612
203	0x3da37202	0.0798073
204	0xbf899e00	-1.0751343
205	0xbfba9951	-1.4578038
206	0x3ebb3fb1	0.3657203
207	0xbdb73a61	-0.08946682
208	0x3eb4f555	0.35343423
209	0xc01f5043	-2.4892738
210	0xbecd2093	-0.40063915
211	0xbdb9fac1	-0.09081031
212	0xbf54e902	-0.8316804
213	0x3e9657d3	0.2936388
214	0x3ed7b0c5	0.42127052
215	0x3d9fe0f9	0.07806582
216	0xbfb8b9ac	-1.4431663
217	0xbf809982	-1.0046847
218	0x3f49c2a3	0.7881262
219	0xbfd2e225	-1.6475264
220	0xbfce7d7c	-1.6132045
221	0xc022c976	-2.5435462
222	0x3e2362bf	0.15955637
223	0x3ebd283b	0.36944756
224	0x3b85c040	0.004081756
225	0x3f917fce	1.1367128
226	0xbf0868c7	-0.5328488
227	0x3f2996f9	0.6624599
228	0x3f0c2518	0.547441
229	0xbd95292e	-0.07283245
230	0xbf3329d3	-0.69985694
231	0x3e806ccc	0.25083005
232	0xbf991047	-1.1958092
233	0x3fa752eb	1.307218
234	0x3e5a1f4c	0.21301001
235	0x3f9f6f60	1.2455864
236	0x3f333003	0.69995135
237	0xbd0bee20	-0.03416264
238	0x3d092a73	0.03348775
239	0x3e7a5d63	0.24449687
240	0xbe620a58	-0.22074258
241	0xbfdd1418	-1.7271757
242	0x3d46d5f9	0.048543904
243	0xbe80cb6b	-0.25155196
244	0xbd63b613	-0.05559356
245	0x3e829d19	0.2551048
246	0xbe498564	-0.1967979
247	0xbf28357c	-0.6570661
248	0x3f6af99a	0.9178711
249	0x3ee03d75	0.43796888
250	0x3eda0224	0.42579758
251	0x3d1788bb	0.03699563
252	0xbed107c2	-0.4082623
253	0xbd57b35b	-0.05266128
254	0x3f5556af	0.83335394
255	0xbd0e9e7f	-0.034819122

bias f4 [10]
0	0xbead5cf9	-0.33859995
1	0xbd4ba5ca	-0.049718656
2	0xbe7ca67c	-0.24672884
3	0xbd6b8bb1	-0.057506267
4	0x3e93ce0c	0.2886814
5	0x3ec707ad	0.38873044
6	0xbdc40eb6	-0.095731184
7	0xbe0bbc4b	-0.13646047
8	0xbce8a321	-0.028398098
9	0xbd8ab3e0	-0.0677259
