Project_1/Part3_clean/checkpoints/interpolation_model4.pth (torch, 161453 bytes, 4 tensors)

weight f4 [50, 784]
000000 0a eb e9 3c 5c 88 89 3b 5c 19 91 bb 01 0d 56 3b
       0.028554458 0.0041971635 -0.004428072 0.003266156
000010 aa 8a 6a bc 6e fb 36 3c 54 61 11 3d 8c b1 da bc
       -0.014315287 0.011168344 0.03549321 -0.02669599
000020 85 be 0e 3d 67 c9 bc 3c 41 4e f6 3c d5 67 09 3d
       0.034849662 0.023045255 0.030066611 0.033546288
000030 c4 80 89 3d f0 be e1 3c 2f 4e 80 bd 0b ea 0b ba
       0.06714013 0.027556866 -0.06264912 -0.00053373043
000040 df 17 08 3d 93 7d c6 bb b2 60 06 bd 13 32 02 bd
       0.03322589 -0.00605745 -0.03280706 -0.031786036
000050 57 8b 20 bc 45 7e 53 3c 6e f6 08 bb 57 05 04 bd
       -0.009798846 0.012908523 -0.0020898837 -0.032231655
000060 25 5b c5 3a d3 64 aa bb 0a c5 96 bc 35 a1 c7 3c
       0.001505707 -0.0052000075 -0.018404502 0.024368862
000070 d7 12 2c bc dc 94 9c 3c 9e bc 91 3c 3e dc 85 bc
       -0.010502539 0.01911395 0.017790135 -0.016340371
000080 c3 e1 8f 3d f2 54 c5 3d e0 8b 3a 3e bd ad 3d 3e
       0.070254825 0.09635343 0.1821742 0.18523307
000090 0e e1 1d 3e 9c 2b 00 3e d6 d8 09 3e db af 8a 3e
       0.15417883 0.12516636 0.13461623 0.27087292
0000a0 a3 3c bb 3e 95 57 82 3e 82 c3 8a be cd 8d b0 bd
       0.365697 0.25457445 -0.27102286 -0.08620796
0000b0 d2 a2 81 3e c3 1b b0 3e 37 1c 89 3e 7a 50 53 3e
       0.25319535 0.3439618 0.2677934 0.20636168
0000c0 53 75 6e 3e 27 dd 16 3e 9a 80 1e 3e 83 54 52 3e
       0.23286943 0.147328 0.15478745 0.20540051
0000d0 5c 81 83 bb 60 fe 02 bd 6e e6 cd ba dc 9c d6 3a
       -0.0040132236 -0.031980872 -0.0015708932 0.0016373652
0000e0 aa 8b 93 bc 47 e5 a6 3c 9e ff cc 3c c4 7c 8f 3e
       -0.018010933 0.020373 0.025024232 0.28024876
0000f0 fc 10 19 3e 0f e0 3e 3d 1d 2f 34 3e 7f 5f 8c 3e
       0.14947885 0.046600398 0.17596097 0.27416608
000100 0c bd a8 3e b9 86 04 3e 46 aa 45 3e 95 b0 97 3e
       0.3295673 0.12942018 0.19303235 0.2962691
000110 09 2f c7 3d fa 54 72 be 91 3e 6b bd b8 b8 18 be
       0.09725768 -0.23665228 -0.057432715 -0.14914215
000120 ab 84 dd bd 3b 7d eb b9 b0 68 15 3d ca 3f d7 bd
       -0.1081632 -0.00044915997 0.03647679 -0.10510214
000130 bc c9 e0 bc 12 0c 2f 3e 44 d3 7c 3e db 9e 6f 3e
       -0.027439944 0.17094448 0.24689966 0.23400442
000140 93 93 15 bd 0c 10 23 be 6a b6 8b bc d3 7d 9d bc
       -0.03651769 -0.1592409 -0.017054755 -0.019225037
000150 d7 3e 09 bd 2e 88 a5 bc 1b 00 76 be b8 3e 7c 3e
       -0.033507194 -0.020206537 -0.24023478 0.246333
000160 d4 9f 22 bd d2 b2 9d 3e 1c ea 7d 3e dd c4 7d 3d
       -0.039703205 0.30800492 0.24796337 0.06195532
000170 67 62 64 3e 9e 2a 83 3e ae 3c 78 3e cd fc c9 3e
       0.22303163 0.25618452 0.24241897 0.39450684
000180 1d f6 24 3e 46 75 77 3e 21 18 c3 3e 66 f1 8e 3e
       0.1610951 0.2416583 0.38104346 0.27918547
000190 64 08 52 3e 72 ee e0 3d 63 73 1d 3d 5d 03 14 bd
       0.20511013 0.1098298 0.03844012 -0.03613602
0001a0 89 b6 e9 bc 3e 72 d1 3d 2b 78 08 3e b6 de a6 3e
       -0.028529422 0.10226868 0.1332709 0.3259179
0001b0 23 e6 10 3e cc f1 4a be 51 e7 fa 3d 85 7c 11 3d
       0.1415029 -0.198188 0.12251151 0.03551914
0001c0 57 23 93 3c b3 7e 37 3d 83 44 78 be ac e7 ef bd
       0.017961187 0.044798564 -0.24244885 -0.1171411
0001d0 80 bc 1f 3e 53 79 e1 bc 42 d3 16 be 91 07 d2 3c
       0.15599251 -0.027523672 -0.14729026 0.025638374
0001e0 5f 9a 20 3e 46 15 64 3e 99 49 37 3e f7 8f 44 3e
       0.15683888 0.2227374 0.17899169 0.19195543
0001f0 58 9b 23 3e 48 5e 90 3c a3 d3 20 3e b7 07 a5 3d
       0.15977228 0.017623082 0.15705733 0.08058112
000200 6b 0e b6 3d 97 06 10 3e 21 e8 82 3d 14 84 34 bc
       0.08889469 0.14065014 0.06391931 -0.011017818
000210 39 36 7a 3d c7 86 ad 3d a0 a3 00 3e 22 c4 8d 3d
       0.061086867 0.08472972 0.12562418 0.06922175
000220 24 1b 33 3d 06 6f b7 3d 75 0f 94 3e da e8 9c 3e
       0.043727055 0.08956723 0.28918043 0.30646402
000230 ee 85 82 bb 10 c5 9e 3c b1 18 bc 3c fe 7d 20 be
       -0.003983251 0.019381076 0.022960993 -0.15673062
000240 51 33 4f 3e f5 70 c8 be 30 f8 fd bd 02 b2 e1 3d
       0.2023442 -0.3914868 -0.12400854 0.110202804
000250 9f bb 0d 3e af 80 7f 3d 31 c5 1d 3e 06 58 03 3e
       0.13841103 0.06237858 0.15407254 0.12826547
000260 a4 b3 7d 3d 6f 9c 85 3d 1d 0c 46 3e 54 52 08 3d
       0.061938897 0.06523978 0.19340558 0.03328164
000270 a1 5b da 3d 3e 27 d8 3d 08 cd 53 3d 56 51 21 3e
       0.10662008 0.1055436 0.051709205 0.15753683
000280 37 7f ce 3d 5f 1b 34 bb 26 78 67 bd 08 10 bc bc
       0.10082858 -0.0027482135 -0.056511067 -0.022956863
000290 8c 43 9a 3d 82 f4 ae 3e c9 3a 5f 3e 19 ab 6c 3e
       0.07532415 0.3417092 0.21799769 0.23112144
0002a0 80 45 0d bd 46 16 40 3e c8 b2 87 be 1c d7 22 be
       -0.03449011 0.18758497 -0.26503587 -0.1590237
0002b0 28 c4 f2 3d 86 e1 d5 3d e5 dd 64 3a 63 a2 a5 3d
       0.1185382 0.10443406 0.00087305746 0.080876134
0002c0 b0 a1 e2 3d 28 c7 98 3d ef 2b 48 3c ff dc 4d bd
       0.11065996 0.07459861 0.012217506 -0.050259586
0002d0 5c c0 78 3d 95 ca 71 3d 1b 6d 82 3c 3a 97 be 3d
       0.060730323 0.059031088 0.015921166 0.09306188
0002e0 05 3b 1c 3d bc bd 9b 3c ad c3 c9 bc cc b0 99 3d
       0.038142223 0.01901137 -0.024629438 0.075044245
0002f0 7e 66 a1 3d 54 6c cb 3d b3 05 d7 3d 7b 3c 06 3e
       0.07880877 0.09932771 0.10499134 0.13109009
000300 83 78 b2 3d 17 25 13 3e 3f 50 fb bc 82 cf f9 3d
       0.08714392 0.14369617 -0.030677913 0.12197782
000310 10 0d 0e bd e3 5e ad 3e 11 22 0e be 60 bd 31 be
       -0.034680426 0.33861455 -0.13880183 -0.17357397
000320 59 e0 99 3e b1 59 97 3e 0e de 4d 3a ca 81 2b 3d
       0.30053976 0.29560617 0.0007853218 0.041871823
000330 a6 3d 90 3d ed 9a a9 3d 37 d5 20 3d c5 e4 01 3d
       0.070430085 0.08281503 0.039265838 0.031712312
000340 0b 7d 85 ba 9b b8 93 3d f7 9d 68 bd 33 29 b9 3d
       -0.001018436 0.07212945 -0.056791272 0.09041061
000350 6e ed 18 bd a7 5d cc 3d ba 08 0d 3e 07 24 24 3e
       -0.037335806 0.099788 0.1377286 0.16029368
000360 f7 6f 53 35 cd 59 96 3d f4 7b 4a 3d ab fb 1b 3e
       7.8766556e-07 0.07341347 0.049434617 0.15232722
000370 cd 70 9c 3e dc f0 39 3e c6 ce 45 be 19 3b 42 3e
       0.3055481 0.18158287 -0.19317159 0.18967856
000380 25 cd 73 3e 4f c6 88 bd 64 cd e0 3d 37 5d a4 3e
       0.23808725 -0.06678449 0.10976675 0.32102367
000390 d7 7e aa 3e c2 1b 51 3e fb 3d 64 3d 43 3d af 3d
       0.33299896 0.20420745 0.05572317 0.085566066
0003a0 d5 23 9d 3d b7 4a b1 3d d5 a8 06 3d b5 7b 47 3d
       0.0767285 0.08656829 0.032875855 0.04870196
0003b0 c3 04 e7 3d dd e5 58 3e 67 2c 85 3d da 79 05 3d
       0.11280205 0.21181436 0.0650261 0.03258691
0003c0 5e 02 c9 3d 4a f9 38 3d 32 82 0e 3e f8 1f d5 3d
       0.09814905 0.045159616 0.13916853 0.10406488
0003d0 d6 6a c5 3d 85 58 fe 3c 26 b3 8e 3d af f5 31 3d
       0.09639518 0.031048069 0.069677636 0.043447193
0003e0 d2 03 0e 3e cc 4f 4a 3d a5 49 cf 3c 6b 5b d5 3d
       0.13868645 0.049392506 0.025303671 0.10417827
0003f0 54 36 4e bd ec 4a 06 3d 42 03 ed 3d 1c 5a 5d 3e
       -0.05034478 0.032786295 0.11572887 0.21616405

bias f4 [50]
000000 6d 86 73 bd 0a 05 cc bd e7 54 bb 3d d3 b3 5a bc
       -0.05945437 -0.099618986 0.09147053 -0.0133485375
000010 93 cf 29 3d 4c 4d 16 3e 70 43 cc 3e 23 fe f7 bd
       0.041457724 0.14677924 0.398952 -0.121090196
000020 fa c0 57 bd e0 bc bb 3d 98 03 60 3e ef f3 6f 3d
       -0.05267427 0.091668844 0.21876371 0.058582243
000030 fb d5 04 3e 7a 37 3d 3e c8 71 f6 bd b4 1c 1f be
       0.12972252 0.18478194 -0.12033421 -0.15538293
000040 8d 00 04 3e fd ae 5d 3e b6 e5 6d 3d 29 49 a4 3d
       0.12890835 0.21648784 0.058080398 0.08021767
000050 97 c4 91 3d 9d 23 78 bd 74 d7 ac 3d 70 93 55 3e
       0.07117575 -0.06058084 0.08439532 0.20857024
000060 39 fa f4 bd 37 ba 55 3e 0d 81 fa bc c0 24 2e 3e
       -0.11961789 0.20871817 -0.030579114 0.17006207
000070 46 91 af bc 68 86 80 3d 4a f6 47 3e 85 e8 0e 3e
       -0.021431576 0.06275636 0.19527546 0.13955887
000080 6c da 1a 3e c9 c4 43 3d ce 3f a1 3d 2d 04 2d 3e
       0.15122384 0.04779509 0.07873498 0.16896124
000090 8c 1a 46 bd 7e c1 0b be e7 b9 b0 3d 97 7b 13 3b
       -0.04836516 -0.1364803 0.08629208 0.0022504085
0000a0 57 92 12 bd 07 d1 f5 3d d7 6e 67 3e 99 22 79 ba
       -0.03578409 0.120027594 0.22600876 -0.00095037516
0000b0 67 f7 59 3e 1d af fe 3d e9 a9 c6 3d e3 5c a1 3d
       0.21285783 0.12435744 0.097003765 0.07879045
0000c0 a0 f1 ad bc f1 21 e4 bb
       -0.02123338 -0.006962054

weight f4 [10, 50]
000000 b9 9a 69 3e f6 1e 34 3e 17 d9 31 3e 5a ba 96 3e
       0.22812928 0.17589936 0.1736797 0.2943905
000010 70 55 df 3e 23 14 11 bf ea 79 64 bd 6a fa 89 3e
       0.4361987 -0.5667135 -0.05578033 0.26948863
000020 ef c6 74 be 6a dc 42 bd 3b d4 67 bf 75 85 96 3e
       -0.23904012 -0.047573484 -0.90558213 0.29398695
000030 23 a4 10 bf 6d 2e 96 be 12 45 af be 0b 1c d8 be
       -0.5650045 -0.29332295 -0.34232384 -0.42208895
000040 a4 3b df be c0 24 0a 3e 32 0c 21 3e f2 f8 d5 be
       -0.4360019 0.13490582 0.15727308 -0.41791493
000050 57 b3 3e 3e a6 77 67 bc cb 6d cf bc 64 a2 d8 be
       0.186231 -0.0141276475 -0.025320908 -0.42311394
000060 81 c5 82 3d 99 51 be be 10 76 51 be b8 85 a7 3d
       0.06385327 -0.3717163 -0.20455194 0.08179802
000070 87 73 a7 be 2d f1 86 3e d9 46 12 bf 84 16 8e 3b
       -0.32705328 0.26355878 -0.57139355 0.00433618
000080 61 44 85 3e 04 85 65 3e 28 ad 0d be d6 82 54 bd
       0.2602873 0.22414023 -0.13835585 -0.051882587
000090 49 3a c9 3c c7 d6 a5 be cf 14 b3 be 10 86 c9 bd
       0.024563925 -0.32390425 -0.34976813 -0.098400235
0000a0 01 29 2e 3e 54 76 ec 3d 28 ea a4 3e e6 80 da ba
       0.17007829 0.11546007 0.32209897 -0.0016670495
0000b0 cb 10 fa bd 8e 77 7a be 3b 8a 1b 3d 6f 77 0e bf
       -0.12210234 -0.24459669 0.037973624 -0.5565099
0000c0 05 27 a6 bd 6b 97 39 3e 43 eb cf be bb f7 35 3e
       -0.08112911 0.18124168 -0.40609178 0.17770283
0000d0 d9 18 80 be 49 f8 45 bd 5d 14 7d 3e 20 35 95 be
       -0.25018957 -0.048332486 0.24714799 -0.29142094
0000e0 e4 e9 1e 3e f0 3b 85 bd fc f5 35 3e 90 a2 a6 3e
       0.1551891 -0.06505573 0.17769617 0.325459
0000f0 5b 9f 95 be e4 1a 9e be a8 be 94 bd a5 ef 20 bf
       -0.2922314 -0.3087989 -0.07262927 -0.6286567
000100 52 5d 53 bd 8d c1 49 3e 1b 8d 87 3f 89 2a 3d 3c
       -0.05160267 0.1970274 1.0589937 0.011545786
000110 b3 a9 8c 3b 9a 9f 8d 3e 21 51 1b 3f a1 77 e1 be
       0.0042926907 0.2766083 0.6067067 -0.44036582
000120 55 71 a9 3e 02 d5 3f 3e 57 e5 fe 3d 38 e6 ee 3e
       0.33094278 0.187336 0.12446087 0.46660018
000130 90 8e 43 be 2a b2 93 3d 7e a9 b9 be 9a d9 7c be
       -0.19097352 0.072117165 -0.36262125 -0.24692383
000140 a9 cf 78 3e 3d 2d 99 bd e1 36 fe 3d 8b 57 cb bd
       0.24297966 -0.07479332 0.12412811 -0.09928807
000150 0e da 00 be ba e3 de 3e c5 32 03 be 1a 95 bb 3d
       -0.12583181 0.43533117 -0.12812336 0.09159298
000160 26 75 6c 3e c9 dc df bd 6a 13 9f 3d 3e 38 d3 bd
       0.23091564 -0.10930783 0.07767375 -0.10313462
000170 14 36 ca 3c 21 d1 62 bf 90 6f 8d 3d 28 11 a1 bd
       0.02468399 -0.88600355 0.069060445 -0.078646004
000180 9e e8 56 be e8 ba 76 be ff 82 84 bd ec 4f e6 be
       -0.20987174 -0.24094737 -0.06470298 -0.4498285
000190 7b 6e 7b bd 99 ac b1 3d ad 55 90 be eb d6 a7 be
       -0.06138466 0.086754985 -0.28190365 -0.32781157
0001a0 28 9f e9 3e 4f f0 9d 3e 90 42 80 bf 7f 1c 42 bc
       0.4562924 0.30847403 -1.0020313 -0.011847614
0001b0 c4 be 81 3e d7 00 bf 3e e8 84 d1 be 8c 2e b1 bd
       0.25340855 0.37305328 -0.40921712 -0.08651456
0001c0 0f c9 0f be 61 2b 59 3e 0f cf ce bd 90 f0 6d 3e
       -0.14041542 0.21207954 -0.10098087 0.23236299
0001d0 6b ec 6c bf ac 60 9b 3e 98 32 db 3e 1c 9e a7 3e
       -0.92548245 0.30347192 0.42812037 0.32737815
0001e0 d3 a2 87 3d 5c 81 2b 3e 96 b7 94 3d 4f 94 ad 3e
       0.06622853 0.16748565 0.07261579 0.33902213
0001f0 b1 c3 ca 3d 6a f4 6c bd 25 82 97 3e de 71 0c bf
       0.099006064 -0.05785028 0.2959148 -0.5486125
000200 56 92 4e bf c7 53 d7 3e 8b 43 f2 3d 4a 47 01 bf
       -0.8069204 0.42056105 0.11829289 -0.50499403
000210 ef 42 d0 3d c2 34 f1 3e 15 5b ad 3e 0c 7d ab 3e
       0.101690166 0.47110564 0.33858553 0.3349384
000220 f1 18 7e 3e 4d d4 71 3e 3f 01 27 bc 1b 86 d8 bb
       0.24814202 0.23616143 -0.010193168 -0.0066077835
000230 38 a8 84 be 60 ae 86 be 35 e5 f9 3a 87 a2 f9 be
       -0.2590959 -0.26304913 0.0019065501 -0.4875681
000240 67 c3 34 bf db b7 dc 3e 5d eb b5 be a5 94 9e be
       -0.7061066 0.4310902 -0.3553113 -0.30972782
000250 8b 47 0e be 7c 99 ac 3d ac 43 54 3d f1 26 52 3e
       -0.13894479 0.08427712 0.05182235 0.20522667
000260 e4 33 38 be 46 a8 d3 bd df 09 09 bf 5e 9f e3 3d
       -0.17988545 -0.1033483 -0.5353069 0.11114381
000270 b0 09 9d be c2 bc ef bd 01 63 27 3d b3 d3 75 be
       -0.30671453 -0.117059246 0.0408659 -0.24006538
000280 1c 86 d0 3e d3 16 ff bd 0d b6 6c 3e ed c1 61 3e
       0.40727317 -0.12455525 0.23116322 0.22046633
000290 36 a7 80 3d 04 c7 f2 3e 74 24 02 bf b0 0e 08 bf
       0.06281893 0.47417462 -0.50836873 -0.5314741
0002a0 7b a8 fb bd 78 28 87 3e 63 35 50 be f8 f0 73 be
       -0.122879945 0.26398063 -0.20332865 -0.23822391
0002b0 eb 56 46 bf b6 3d aa be d5 fa b7 3d 03 ae 83 3e
       -0.77476376 -0.33250207 0.08983389 0.25718698
0002c0 d6 d8 94 3e 96 5c 60 3e ab 1d 7b 3e f1 d5 25 3e
       0.29071683 0.21910319 0.24523036 0.16194893
0002d0 ab 95 00 3e 00 7b ce 3e 73 f5 14 be f7 2e 3c 3e
       0.12557094 0.40328217 -0.14546756 0.1837729
0002e0 39 93 a0 3e e3 1d 6b be 6e 0a c1 3d 7a 5b 3a 3e
       0.31362322 -0.2296062 0.094258174 0.18198958
0002f0 f0 2f 89 3e de 7c b8 bc 9c 10 d4 3e 78 11 fd be
       0.26794386 -0.022520479 0.41418922 -0.4942739
000300 4b b6 e4 be c6 78 99 be b2 93 60 bf 89 18 c6 be
       -0.44670328 -0.29974955 -0.87725365 -0.38690594
000310 2b f0 d5 bd 6d 84 5d 3e 2c c8 73 3d 2b 33 e8 3d
       -0.10446199 0.21632548 0.05951707 0.113378845
000320 f3 38 2d 3c 2c 0c 7c bf 51 4c 99 be de 91 52 bd
       0.01057266 -0.9845607 -0.29941037 -0.05140864
000330 77 c6 3f be 7c cc 85 3e 7e 74 83 be 84 75 93 be
       -0.18728052 0.26132572 -0.25674814 -0.28800595
000340 71 9c 81 3d 01 5b 4a 3c 89 7f 88 3e f4 57 1b bd
       0.06328667 0.012350799 0.26659802 -0.037925676
000350 36 4b 89 3e 42 fa 02 3e 1c 3d d5 be d2 af b9 be
       0.26815194 0.12790778 -0.41648185 -0.36266953
000360 d5 88 1c bf 8c 6c 12 3e 45 9f c7 bc 40 a2 b8 bd
       -0.6114629 0.1429922 -0.024367938 -0.09015322
000370 90 03 d7 3e f4 75 c9 3d a9 9e 04 3f 72 1a b1 bd
       0.41994905 0.09836951 0.51804596 -0.08647622
000380 d5 d5 45 be 73 56 31 bf 4f 64 6b bf 1a a0 44 bd
       -0.19319852 -0.69272536 -0.91949934 -0.048004247
000390 17 bb bf 3e 18 4f a4 3e d8 11 c1 3e 6f 1a dd 3d
       0.37447426 0.32091594 0.37708926 0.107960574
0003a0 96 40 2b 3e d1 41 4a bf 18 99 20 bf a6 6d 93 3d
       0.16723856 -0.7900668 -0.627336 0.07198648
0003b0 f9 af b7 be 50 30 84 bf c0 6a 31 3e b6 57 1b 3d
       -0.35876444 -1.0327244 0.17325878 0.037925445
0003c0 58 60 26 be a0 73 b2 3e 2b 02 31 3d 5c 8d ec 3d
       -0.1624769 0.3485384 0.04321496 0.115504
0003d0 73 5b bd bd ad e6 27 3e 41 46 32 3e 15 f5 80 3e
       -0.09245958 0.1639659 0.17409612 0.25186983
0003e0 cd c4 07 be 06 25 53 3e 00 e9 ad bd 9a b7 09 bf
       -0.13258667 0.20619592 -0.08491707 -0.5379578
0003f0 75 c5 9e 3e c8 3c c1 bd 6f c8 5d bf e2 de 91 3c
       0.31010023 -0.09435421 -0.8663396 0.017806474

bias f4 [10]
000000 21 2d 04 3c 3f 6b aa bd bf 76 00 3e d8 9e 9b bc
       0.0080674 -0.08321237 0.12545298 -0.018996641
000010 e9 e8 fb 3d 92 0b 69 3e 13 3f af 3b 1e b5 ac 3d
       0.123002835 0.2275832 0.005348095 0.08432983
000020 3f 0d 1b be 6a ad f7 bc
       -0.15141772 -0.030234057
