Project_1/Part3_clean/checkpoints/interpolation_model1.pth (torch, 161453 bytes, 4 tensors)

weight f4 [50, 784]
000000 01 d3 e7 3c 3e 33 f2 3c 35 45 04 3d fe b2 b3 3c
       0.028298857 0.02956545 0.032292563 0.021935936
000010 6e a1 bd bb 7a f4 a0 bc 4c 08 c9 bc c1 b2 d6 bc
       -0.005787066 -0.019647826 -0.02454009 -0.026208283
000020 d6 7d 04 3d e1 12 7d 3c a1 91 f6 bc 81 e7 58 3b
       0.03234657 0.015446396 -0.030098738 0.0033096971
000030 f3 70 15 3d 07 00 07 3d 73 38 ac 3c fe d9 39 3d
       0.03648467 0.03295901 0.02102301 0.04537391
000040 b7 90 13 3c 53 08 c9 bc 13 09 d0 bc 73 60 14 3c
       0.009006671 -0.024540102 -0.025394952 0.009056198
000050 78 e5 fa bc 80 a2 a7 3c 01 c2 79 3c 25 cf c7 bb
       -0.030626997 0.020463228 0.015244008 -0.0060976916
000060 b1 6a af 3c 5c 75 47 bb 25 f5 d0 3b b8 df db 3a
       0.02141318 -0.0030434942 0.0063768798 0.0016775047
000070 ba 9c b4 bc f3 c6 6a bc 63 c7 ea bc 08 ca df 3c
       -0.02204739 -0.01432966 -0.028659528 0.027318016
000080 18 d2 e0 3c 83 ae d8 3c bf 31 1c 3b 67 74 d5 bc
       0.02744393 0.026450401 0.0023833362 -0.026056482
000090 b9 e5 b0 bc 7a 1f ef bc fd 1a ff bc fb 21 be bc
       -0.021593915 -0.029189814 -0.031140799 -0.023209563
0000a0 38 62 19 bd fe 41 31 bd 69 53 21 bb 99 2a 6a 3d
       -0.037447184 -0.043275826 -0.0024616367 0.05716953
0000b0 63 48 86 3d c9 22 91 3d 0f 4e bc bb 90 73 0f bd
       0.065567754 0.07086713 -0.00574661 -0.03502232
0000c0 24 d6 5b bd e1 4f 3c bd 3c 7b 0b bd 18 b0 7f bc
       -0.053671017 -0.045974616 -0.034053072 -0.015605949
0000d0 45 37 7d bc 65 04 e0 bb 2a 96 4c bc 28 9d e0 bc
       -0.015455072 -0.0068364614 -0.012486974 -0.027418688
0000e0 57 43 03 bd 9c 97 da bb b3 9b 45 3c 07 4a 2c 3d
       -0.032046642 -0.0066709053 0.012061047 0.042062785
0000f0 bd 7b fc 3c 84 4a 2e 3c f1 cb b5 bc 25 46 67 bc
       0.030820722 0.010637883 -0.022191973 -0.014115845
000100 db 22 1d bd bf 5d 15 bd 97 6c c1 bd 0c 3e a5 bd
       -0.03836332 -0.036466356 -0.0944454 -0.08068475
000110 3c 22 37 bc c9 12 0c 3d fc 65 fb ba 9e 45 98 3b
       -0.011177596 0.034197602 -0.0019180174 0.004646971
000120 02 b8 4b 3d a9 50 b6 3c 28 b6 9d bd ac 0f 88 bd
       0.04973603 0.022255259 -0.07700759 -0.06643614
000130 44 a9 85 bd 6d 67 ab bd bc 88 c5 bd 85 86 07 bc
       -0.065264255 -0.08369336 -0.09645221 -0.008271818
000140 b9 75 c0 bb fc 3b 71 bb 55 61 e2 bc 7a 20 d6 bc
       -0.0058734086 -0.0036809435 -0.027634302 -0.026138533
000150 83 22 83 bc 05 da b1 bc 78 34 bc bc 41 2d 1d 3d
       -0.016007667 -0.021710405 -0.022974238 0.038373236
000160 65 e0 30 3b 5c 01 c5 bc 2f cf 64 bd 6a e7 9c bc
       0.0026989218 -0.0240485 -0.05586165 -0.019153316
000170 ed 43 64 bc 7f 5e 43 bd 9c 72 4a bd 4c 0c d0 bc
       -0.01393221 -0.04769754 -0.049425706 -0.025396489
000180 66 1c 10 3d 85 1d 6d 3c 5c 41 05 3c 21 64 2d bd
       0.035183333 0.01447237 0.008133259 -0.04233182
000190 6e 86 bb bc 9c 4f 50 bd 3f 0e e6 bd c7 cd f5 bd
       -0.02289125 -0.05085717 -0.11233186 -0.120021395
0001a0 64 6b 09 be 9f 0c c6 bd f8 fe 91 bd 94 be 9d bd
       -0.13419873 -0.09670376 -0.071287096 -0.077023655
0001b0 9e a8 3c bd eb 8d 33 bd 03 69 78 bd 25 31 1a b9
       -0.046059243 -0.043836515 -0.060647022 -0.00014704892
0001c0 57 b4 2b bc b8 d3 11 bc f0 3b 22 3c 4f bd 7c bc
       -0.010480008 -0.008900575 0.0099019855 -0.015425994
0001d0 8b b3 eb bc 9a 39 07 bc 1a 18 c4 ba 02 bd 0c 3d
       -0.028772136 -0.008253479 -0.0014960796 0.03435994
0001e0 a0 0c a6 bb 52 d9 9b 3c 7e aa b7 bc 65 1d 12 3d
       -0.005067423 0.019024525 -0.022420164 0.035672564
0001f0 b6 c3 9f 3d 24 c0 c0 3d 89 e5 f4 3d 78 11 8d 3d
       0.07801001 0.09411648 0.11957843 0.068880975
000200 c6 76 93 3d e1 74 2f bc 29 40 3b 3b 6c 87 d9 bc
       0.072003886 -0.010709018 0.0028572178 -0.026553832
000210 7a 8c 75 bd 83 f8 a6 bd c1 cf cb bd 6e f4 e6 bd
       -0.059948422 -0.081528686 -0.09951735 -0.1127709
000220 b4 2d 9d bd 79 11 26 bd f8 40 5b bc 52 1f 92 bc
       -0.07674733 -0.040544007 -0.013382189 -0.0178372
000230 7e f0 ea 3c 63 61 e1 bc d0 0f 2e 3d 9a 4c 7b 3d
       0.028679129 -0.027512258 0.04249555 0.06135235
000240 39 40 3a bd 6b 78 89 bc 01 a4 29 3d 31 9a 0e bc
       -0.045471404 -0.016781053 0.041416172 -0.008703754
000250 9c 27 4a bc 3c 07 e5 3b 44 88 1d bb c1 ca 8d bc
       -0.012338545 0.006989388 -0.002403752 -0.017308595
000260 7b 09 8f 3c 7d 4c 73 3b ee 94 94 3d 2b 09 cf 3d
       0.017460575 0.0037124448 0.072549686 0.101091705
000270 29 de fc 3d aa 16 76 3d 5b 2d 74 3d 97 e4 1b bb
       0.12347061 0.060080208 0.059613567 -0.0023787373
000280 7a 4c 1f bd a2 26 6b b9 6e ec 43 bc cd 75 eb bd
       -0.038891293 -0.00022425738 -0.011958225 -0.11497078
000290 0e 7c e3 bd f3 df c8 bb df 58 13 bd 59 fc 58 bd
       -0.11107646 -0.0061302125 -0.035973426 -0.052975032
0002a0 b8 9b 69 bc 2a 69 65 3d 02 99 ae bc 23 2b 9f 3d
       -0.014258318 0.056008495 -0.021313194 0.077718996
0002b0 ea 4f 4d 3d 1c 83 9d 3d c3 1d a3 3d 12 53 4d 3d
       0.05012504 0.07691023 0.07964661 0.05012805
0002c0 b4 01 4b 3d 7d 27 a9 3d 40 c6 b4 3d 6c 50 94 3d
       0.04956217 0.08259485 0.08826876 0.07241902
0002d0 2f 85 2e 3d 10 8e 25 3d bf ff 30 3d dd 9a 7f 3b
       0.042607483 0.040418684 0.04321265 0.0039002218
0002e0 f4 68 21 3d 2f 62 44 3c 4c 46 48 3c 47 e3 fe bc
       0.03940673 0.011986299 0.012223791 -0.031114234
0002f0 3b ba 82 bc 5a 24 6f 3d 27 b4 fd ba 13 c8 41 bd
       -0.015957942 0.058384277 -0.0019356058 -0.047309946
000300 24 66 8c bd d2 17 89 bd 8d 66 7d 3c 34 48 37 bc
       -0.06855419 -0.066939965 0.015466345 -0.011186648
000310 55 16 e3 3b df 6e 3b 3d 24 d0 b1 3d f2 f5 02 3e
       0.0069301524 0.04576003 0.08682278 0.12789133
000320 fa f9 22 3e 77 3a ec 3d d0 20 0d 3e dd 60 5b 3d
       0.15915671 0.11534589 0.13782048 0.053559173
000330 82 9c 94 3d 01 fd 06 3e be e6 14 3e 15 86 b8 3d
       0.07256414 0.13182451 0.14541146 0.09009949
000340 af 0b e2 3d b4 cc ba 3d ca 87 56 3d 74 60 1a bc
       0.11037385 0.09121075 0.052375592 -0.00942241
000350 55 a8 59 bb 64 4a cf 3c 02 99 b2 3d 07 b3 f3 3c
       -0.0033211906 0.025304027 0.0872059 0.029748453
000360 51 cf 6d 3d 2a 91 9d 3d aa 9c 9e 3d 5a e8 94 bc
       0.05805904 0.076937035 0.07744725 -0.0181772
000370 46 51 e3 bd f8 a9 cd bd 8b c0 df bc ec 64 13 3c
       -0.11099486 -0.100421846 -0.027313491 0.00899623
000380 c6 a3 3c 3d 3e 59 c0 3d 30 13 86 3d 10 96 0f 3e
       0.046054624 0.093920216 0.065466285 0.14022088
000390 53 0e 16 3e a3 cb f0 3d ef b6 9b 3d 7b 92 1a 3e
       0.14653902 0.117575906 0.07603251 0.1509494
0003a0 8b 7e 05 3e cd b4 e1 3d 8f 21 0d 3e be 2d c3 3d
       0.13036554 0.11020813 0.13782333 0.09530209
0003b0 3d 13 12 3e 25 51 af 3d 83 0a 2b 3d 46 df be 3d
       0.14265151 0.08560399 0.04175807 0.0931993
0003c0 f2 56 ae 3d 3c fa eb 3d 58 74 09 3e 60 49 85 3d
       0.08512677 0.11522338 0.13423288 0.06508136
0003d0 49 c5 a7 3d 80 65 fe 3c f1 f8 b0 3d a7 b7 a6 bc
       0.08191926 0.031054258 0.08641232 -0.020351244
0003e0 6f 31 74 bd e6 16 d1 bd 3d 54 46 bd c2 93 b7 bc
       -0.059617456 -0.10209446 -0.04842018 -0.022409324
0003f0 a6 58 ba 3c 40 9e aa 3d 7f 70 45 3d e3 69 35 3e
       0.022747349 0.08330965 0.048202988 0.17716174

bias f4 [50]
000000 c5 34 85 bd 1a 0e 81 3d c7 57 1a bd c1 d9 e0 3d
       -0.065042056 0.06301518 -0.037681367 0.10979033
000010 5d a3 f0 3d b1 2d 00 3d 3d c1 cc bc 1c 4f 48 3e
       0.11749909 0.031293575 -0.024994487 0.19561428
000020 46 30 16 3c 11 13 05 bc b5 61 78 bc 6e c3 b8 3d
       0.009166783 -0.008122222 -0.015160014 0.0902165
000030 63 04 0c bd 46 d6 04 3e 19 1c 9e 3d 1e 3b 62 bd
       -0.03418387 0.12972364 0.07720203 -0.05523216
000040 1f ff a0 bc 97 2f b2 3d 8a 10 7a 3d f9 b9 38 3e
       -0.019652901 0.08700483 0.06105093 0.18039693
000050 82 30 de 3d 32 f4 03 3d 15 8a 30 3d b9 91 9e bd
       0.10849096 0.032215305 0.043100435 -0.07742638
000060 7d 9d a6 3d 46 4b 3b bd a4 6f 3c bb 1c ae 39 3e
       0.08135507 -0.045726083 -0.0028753066 0.18132824
000070 70 97 d2 3c 23 ae 64 3d 5f 95 d7 3d ab 69 03 3e
       0.025706977 0.055830132 0.10526537 0.12833278
000080 91 70 63 3c 04 e6 67 3e 71 10 2f bc 7c 7e 83 bd
       0.013881818 0.22646338 -0.010685072 -0.06420609
000090 61 98 c4 3d b4 58 27 bd 79 c9 79 bd ae 83 a7 bd
       0.095993765 -0.04085608 -0.060983155 -0.08179413
0000a0 dd 97 2e bb 48 0a e6 3d bb 9a 25 3d 72 f4 a9 bd
       -0.002664081 0.1123243 0.040430766 -0.08298577
0000b0 6f 07 3e 3e 42 22 fb bc 43 e3 d5 3d 87 19 62 3d
       0.18557523 -0.030655984 0.10443737 0.055200126
0000c0 b7 05 e2 bd bb 8e 32 be
       -0.11036246 -0.1743726

weight f4 [10, 50]
000000 fa 55 01 bc ca 81 aa be ab cf 53 3d c4 4e 64 bd
       -0.007894034 -0.33302146 0.05171172 -0.05573918
000010 d1 0d 23 bd 7c a9 28 3d c7 bc 21 3e 38 9c 9e be
       -0.0398081 0.041177258 0.15794669 -0.3097856
000020 61 06 a8 3d 8f 24 77 bc 9f 39 c5 bd 72 56 ad bd
       0.08204342 -0.0150844 -0.09630131 -0.08463754
000030 a6 98 ba bc 92 21 30 be fa 85 26 be 39 39 2a be
       -0.022777867 -0.17200306 -0.16262046 -0.16623391
000040 50 a1 a2 be 09 f2 27 3e 1e e1 15 3e 24 58 04 be
       -0.31763697 0.16400923 0.14636657 -0.12924248
000050 66 49 f9 3d 73 ac 16 3e 4f ab ab be e0 d6 18 39
       0.12172203 0.14714222 -0.33529136 0.00014575897
000060 63 c4 bc be ec 0a 84 3e 13 85 c4 bd f3 21 17 bd
       -0.3686858 0.25789583 -0.095956944 -0.03689761
000070 64 40 13 be 27 da 88 be f5 56 2d be 72 6d bf be
       -0.14380032 -0.26728937 -0.16927703 -0.37388188
000080 19 12 98 be 96 47 8e be de da 05 3e 9f 4a 4d 3e
       -0.29701307 -0.2778899 0.13071772 0.20047997
000090 c7 8f dd bd b0 68 a9 3d cb d7 87 be 17 64 12 be
       -0.10818439 0.08271921 -0.26531824 -0.14295994
0000a0 73 20 ad 3d fc 11 0a be 14 14 dc bd 9a 52 d7 3d
       0.08453455 -0.13483423 -0.10746017 0.10513802
0000b0 64 9d 62 3e 51 0a 36 3e c6 d6 52 3e a1 44 47 3e
       0.22130352 0.17777373 0.20589742 0.19459774
0000c0 a9 7f 04 3c 97 04 14 3e 1b 24 cd 3d 32 25 84 3d
       0.008087077 0.14454876 0.10016652 0.06452407
0000d0 b6 37 8b bd 43 15 c5 3d 2e 9b fe 3d de b0 67 be
       -0.067977354 0.09623196 0.12431942 -0.22626063
0000e0 a1 6f aa be b4 ac 2f 3e e7 b7 95 be 9e 57 8e be
       -0.3328829 0.17155725 -0.2924187 -0.27801222
0000f0 3a 54 18 3e 73 3c b1 3e 84 ab f9 bd 33 79 84 3e
       0.1487588 0.34616432 -0.12190917 0.25873718
000100 c7 4c 31 bc d6 f8 cf 3d aa 45 63 3d 8a 57 b6 bd
       -0.010821528 0.101548836 0.05548636 -0.089034155
000110 6f 91 80 be 51 1c 92 3e 6c 4d 1d be 46 e9 4f 3d
       -0.25110957 0.2853723 -0.15361565 0.050759576
000120 bd 2e 5b 3d 27 9e af be ad f4 6d 3e 4c 58 3c be
       0.05351137 -0.34300348 0.23237868 -0.18393058
000130 68 96 75 be 10 57 dd bd 3e b8 4a 3e 4e 5f 90 bd
       -0.23983157 -0.108076215 0.19796845 -0.07049428
000140 44 93 55 bd b5 aa 60 3e e8 5b a3 be f4 e0 39 bd
       -0.052142397 0.2194012 -0.31906056 -0.045380548
000150 b5 4e a8 be 25 a1 1d 3e 14 4e 96 be 3c 5c 01 bd
       -0.3287255 0.15393503 -0.29356444 -0.031582102
000160 f2 92 9e bb 23 91 97 3d 6d 75 a9 bc 02 ec 69 be
       -0.0048392946 0.074007295 -0.020685876 -0.22843936
000170 23 95 32 3e c0 3a 3a 3e e9 be 7d 3e 2e 50 90 be
       0.17439704 0.18186474 0.24779858 -0.28186172
000180 cc b0 8f be ca 5d bc bc f1 f6 09 be aa 6b 29 be
       -0.28064573 -0.02299394 -0.13473107 -0.16544977
000190 eb 10 6b 3e 29 ef a9 be 27 d5 ff bc 23 fc 0c 3d
       0.22955672 -0.33190277 -0.031229569 0.034420144
0001a0 b6 13 86 3e 9d d4 2a 3e de 6f 71 bc 94 b6 28 bd
       0.26186913 0.16682668 -0.014736144 -0.041189745
0001b0 ef 19 17 3e 20 79 f1 3d 51 7c 20 3d d2 7b 34 3e
       0.14755987 0.11790681 0.039181057 0.17625359
0001c0 cd be 21 3e c5 84 00 bf f8 6b e0 3d 34 b6 4d be
       0.15795441 -0.5020259 0.109580934 -0.20089036
0001d0 7a 8b 17 3e 35 06 93 bd 54 bf f0 bd fe e0 b3 3d
       0.147993 -0.07178918 -0.11755243 0.08783148
0001e0 17 f9 4f be 6d 9a 7c be 1c 0e e0 be 6b d3 52 3e
       -0.20309864 -0.24668284 -0.43760765 0.20588462
0001f0 53 62 0c 3e 31 c2 88 3c 1b a0 11 3e b1 4a 27 bf
       0.13709383 0.01669416 0.14221232 -0.65348345
000200 f9 b4 35 bd 58 08 84 bd 30 6a 66 3e 7f df f0 3d
       -0.044362042 -0.06446904 0.22501445 0.117613785
000210 6b 09 f4 3d 6d 7f 98 bd 6e 16 47 3e c4 ee 02 bd
       0.11915859 -0.074461795 0.1944215 -0.031965986
000220 f3 d4 78 be de 0f 1d be 11 39 29 3e bc 0d 2a 3e
       -0.24299984 -0.15338084 0.16525675 0.16606802
000230 32 c5 af 3d f7 bf 7f be e9 6d 33 3e 40 0b 6d 3e
       0.08582534 -0.24975573 0.17522396 0.23148823
000240 bd 3e 7a 3c 9f fe 51 ba 42 5f d7 bc 0f d7 fd 3c
       0.015273747 -0.0008010659 -0.02629054 0.030986337
000250 48 9f 8c 3b d3 64 81 bd 10 bd 9d 3d 44 59 ce bd
       0.0042914487 -0.06318059 0.077020764 -0.1007562
000260 f2 7f d8 ba fd d3 d1 bd bc dc 36 be 98 bf 2a 3e
       -0.0016517623 -0.10245512 -0.17857641 0.1667465
000270 46 b2 37 ba 0d b7 bb 3b 60 63 51 be f9 ed 30 be
       -0.0007007461 0.0057286085 -0.20448065 -0.1727828
000280 93 4a 91 3d 71 14 c9 be d7 59 e9 3b 1f c1 cd 3d
       0.07094302 -0.39273408 0.0071213054 0.100466006
000290 90 d3 29 be 15 83 07 3d 45 b5 3b 3e c4 64 64 3b
       -0.16584611 0.033083994 0.18330868 0.00348501
0002a0 8d 44 4d 3e e1 8f cb be 70 01 f1 3d 77 1c f9 3d
       0.20045681 -0.39758208 0.11767852 0.12163632
0002b0 a5 a3 68 3e 46 04 e3 3d 51 b6 fd 3d 84 08 37 bd
       0.22718675 0.110847995 0.1238829 -0.044685856
0002c0 ee b2 99 bd 65 90 ce be e6 98 ed bc 16 9f 57 3e
       -0.07504831 -0.4034454 -0.029003572 0.2105678
0002d0 b8 50 0c 3e 0b fa 74 3e 14 67 eb bb fe 50 d8 bd
       0.13702667 0.23923509 -0.0071839187 -0.10562323
0002e0 d8 2b 72 3e 39 b3 32 be a9 d4 c6 bd 0e f3 ba be
       0.23649538 -0.1745118 -0.097085305 -0.3651356
0002f0 17 98 50 be 65 1b 97 3d e2 ef 03 be 75 a5 d4 3d
       -0.20370518 0.07378272 -0.12884477 0.10383121
000300 23 e7 5c be ee 5a 65 3e cb 54 2c 3d 2e 96 6f 3d
       -0.21572547 0.22397968 0.042073052 0.058492832
000310 dc 40 bd bd e8 62 2d be 3f b2 9b 3e 71 20 5b 3d
       -0.092408866 -0.16932261 0.30409428 0.053497735
000320 ea 1d f2 bd 23 54 76 3c 62 f8 44 3d b9 cb c6 3d
       -0.11822112 0.015034708 0.04808844 0.09706826
000330 ca f0 fe bd 02 8b 9c be 68 60 03 be b3 9e 6c 3e
       -0.124482706 -0.30574805 -0.12829745 0.23107414
000340 14 b3 c4 3d 21 c5 6f 3e 37 b6 a4 be dd 21 21 3e
       0.09604469 0.23415042 -0.3217027 0.15735574
000350 6c e6 6a be 59 f4 06 be 97 20 27 3e f4 d6 ad be
       -0.22939461 -0.13179149 0.16321026 -0.3395306
000360 c9 61 ae bc b7 87 ca 3d f2 a0 83 bd 55 17 68 bd
       -0.021286862 0.09889167 -0.06427182 -0.056662876
000370 50 c0 82 3d cb 3b be bc f4 fd f9 3d 5a 0b 75 be
       0.06384337 -0.02322187 0.12206641 -0.23930112
000380 3d a1 1d be a9 f8 b6 be 2c e4 57 3e 4d ab ba bd
       -0.15393539 -0.35736588 0.21083134 -0.09114704
000390 d5 88 28 3e e0 4d 7d bd c4 24 a3 bd 42 c0 af 3d
       0.16458447 -0.061841846 -0.07965997 0.08581592
0003a0 af ee f6 3d c0 da 8f 3d 8b b5 3c be f5 4b d9 bd
       0.12057244 0.07024145 -0.18428628 -0.10610191
0003b0 1e f2 ea 3d fe c6 ef 3d d7 07 2f 3e 96 b1 ad be
       0.114719614 0.117078766 0.17092834 -0.3392455
0003c0 a0 56 0b bf 67 f6 03 3e 1b c7 43 bd e1 74 96 be
       -0.54429054 0.12886964 -0.047797304 -0.29386047
0003d0 e0 a5 9e be ea 7e 63 ba 76 7b a7 bd 91 04 9c bd
       -0.30985928 -0.00086782745 -0.08177845 -0.076180585
0003e0 70 db 33 be 20 61 f1 3d f8 2b 2e be ad 0d bf 3c
       -0.17564178 0.11786103 -0.1700896 0.02332195
0003f0 13 0a 7d 3d 6d 16 e6 bd c3 57 34 bc 02 a4 43 be
       0.061777186 -0.11234746 -0.011007252 -0.19105533

bias f4 [10]
000000 2d 9c d2 bd 5e ca 6b bd a6 4d cf 3d 9a c6 10 be
       -0.102836944 -0.05756604 0.10122232 -0.1413826
000010 2e 26 a4 3d 13 a8 ff 3d 3d 09 74 3d 93 68 4a 3e
       0.08015095 0.124832295 0.059579123 0.19766454
000020 2a 0f 1f be 12 20 5d 3c
       -0.15533128 0.013496416
