Project_1/Part3_clean/checkpoints/interpolation_model5.pth (torch, 161453 bytes, 4 tensors)

weight f4 [50, 784]
000000 0e e2 a1 bc 13 68 c8 bb 7a d4 04 3d 25 64 aa bb
       -0.019761112 -0.0061159222 0.032429196 -0.0051999264
000010 73 d6 7d bc ea 86 92 3c 3a a2 a4 3c e5 56 05 bc
       -0.015493023 0.017886598 0.020096887 -0.008138393
000020 ca a7 eb 3b 4b 6c 0e 3d 5a 3a a2 bc e5 f6 ef 3b
       0.007191633 0.034771245 -0.019803215 0.0073231333
000030 38 d9 8e 3d c9 80 b8 3d f3 95 1d be 19 7f 95 bd
       0.06975025 0.09008939 -0.15389232 -0.072996326
000040 97 c2 aa 3c 5c ee cb bc a5 95 53 3c 81 eb b5 bc
       0.02084474 -0.024893932 0.012914096 -0.022207024
000050 2b c8 0f 3d 37 a2 bb 3b 80 7f 84 bb ca 69 4c bb
       0.035103004 0.0057261246 -0.0040435195 -0.0031190985
000060 0e 5c 1c bc aa 88 0c 3c 3a 80 89 bc 25 8c 91 bb
       -0.009543432 0.008577505 -0.016784776 -0.0044417554
000070 4a b4 3a 3b 6e d9 11 3d fc cd 73 bc e1 5e 4a 3c
       0.0028488808 0.035607748 -0.0148806535 0.012351722
000080 84 80 2e bc 1b cd 2e 3d 52 a9 3f 3e eb 4e 15 3e
       -0.010650758 0.042676073 0.18716934 0.14580886
000090 6a f5 ca 3d bf bb be 3d 5a 7f 0e 3e d6 e0 7f 3e
       0.0991009 0.093131535 0.13915768 0.24988112
0000a0 9c 7a a4 3e a3 5a 3d 3e f4 4c f0 3d 3e 6c 91 3e
       0.32124794 0.18491606 0.11733428 0.28402895
0000b0 df 4f b8 3d c1 ef 57 3e e1 0f 62 3e 55 3d 0a 3e
       0.08999609 0.21087553 0.2207637 0.13499959
0000c0 a6 c6 4b 3e 49 7e 04 3e 1e 3d 14 3e 40 fb ab 3d
       0.19899997 0.12938799 0.1447644 0.083975315
0000d0 01 c8 70 ba 2c 8a 89 3c b3 0f 49 3c a5 d2 1c bb
       -0.00091850763 0.016789518 0.012271809 -0.0023929265
0000e0 c8 80 ed bc 66 cf 0f 3d b9 7d ed 3c 05 2a 96 3d
       -0.028992072 0.0351099 0.028990613 0.07332233
0000f0 a9 c0 ef 3d 23 61 6a bd d2 1d 9d 3c ba e5 5d 3e
       0.11706669 -0.057221543 0.019179258 0.21669665
000100 3e 4b 4c 3e 98 b4 54 3e a0 b6 8e 3e bc df 24 3e
       0.19950578 0.20772016 0.27873707 0.16100973
000110 96 01 c3 3d c2 d2 14 be b9 21 21 bd fe 8a 6f 3d
       0.09521787 -0.14533523 -0.0393388 0.058482163
000120 74 bb 23 3d b5 4f d3 bd a3 57 a3 bd 40 b2 58 3e
       0.03997369 -0.10317937 -0.079757 0.21161747
000130 b0 71 4c 3e a0 94 25 3e f1 e0 46 3e e1 3c 60 3e
       0.19965243 0.16169977 0.19421746 0.21898223
000140 70 3c 83 3d 33 34 af 3c 3e 30 9c 3c 23 d7 0a bd
       0.06408012 0.021387195 0.019065972 -0.033896577
000150 80 57 85 3c 0a f2 8a 3c 40 10 40 3e 3f f3 a0 3d
       0.016277075 0.016961116 0.18756199 0.078588955
000160 c3 4f 5f bd fa 97 4e bc 5e 97 ed 3d 5c 01 a4 3d
       -0.054519426 -0.012609476 0.116011366 0.08008072
000170 75 55 27 3e dc e2 df 3c a0 3c 1e 3d d2 7d 0d bc
       0.16341193 0.027329855 0.038632035 -0.008635955
000180 b5 28 e2 bd f9 88 84 be 4d 0c 9a be 19 81 40 be
       -0.110429205 -0.25885752 -0.3008751 -0.18799247
000190 ba d0 7a be 48 f8 4c be 94 6e 64 be 46 ac 47 3d
       -0.24493685 -0.20016587 -0.22307807 0.048748277
0001a0 22 33 f8 ba 39 b2 0e be 59 e9 3d be df 69 8e bd
       -0.0018936137 -0.13935174 -0.18546046 -0.06953787
0001b0 ca a8 0e 3d 07 19 2c be 28 85 0f 3d 70 c7 05 bd
       0.03482894 -0.16806422 0.035039097 -0.0326609
0001c0 87 9e cb 3c 64 5e 91 3c 2c dd 3c 3e 66 5c e8 3d
       0.024855865 0.017745204 0.18443745 0.113457486
0001d0 4c c3 80 3e f0 76 79 3e 58 6a ab bd 04 58 c7 bd
       0.25149 0.24361777 -0.08369893 -0.097335845
0001e0 f6 0c f1 bd 68 4b ce bd 03 e1 d6 bd 10 1d 19 be
       -0.1177005 -0.10072976 -0.10492136 -0.14952493
0001f0 49 e1 58 be 6b 4f 74 be b4 17 54 be eb 38 38 bd
       -0.2117969 -0.2385842 -0.20712167 -0.044976156
000200 ff 19 98 bd a3 c2 d0 bd f9 43 41 bd b5 ae a1 3d
       -0.07426833 -0.10193374 -0.047183964 0.07894651
000210 ae 03 b8 3d b0 e9 ae 3d 06 f8 55 3d 31 c7 dc 3d
       0.08985077 0.08540666 0.052238487 0.1078018
000220 3f ec 6f be c6 79 bd be aa 8f 77 be a7 50 a2 3c
       -0.23429964 -0.37006968 -0.24175897 0.019813849
000230 ee eb 71 bc d5 d9 92 bc 0d 5f 51 3e 2a e0 32 bd
       -0.014765723 -0.017926136 0.20446415 -0.04367081
000240 37 41 fa 3d a7 aa 6b 3e 50 98 21 3d 5e 55 06 be
       0.1221947 0.23014317 0.039451897 -0.13118502
000250 61 fa 50 bd f4 e3 2f 3d 59 d6 92 3d 0a 9d 0c be
       -0.05102003 0.042942002 0.0716979 -0.1373178
000260 37 71 8c be de cb bb be 7f 17 23 be 75 c8 7e bd
       -0.27430126 -0.36678976 -0.15926932 -0.06220289
000270 b9 c5 9e 3c d7 00 86 3c 1e 81 c8 3d 5a af b0 3c
       0.01938139 0.016357822 0.09790252 0.02156799
000280 0e ec e4 3c 1b be b1 3d d0 64 2d 3e 1e d4 8e 3e
       0.02794459 0.08678838 0.16932988 0.27896208
000290 2f c2 c5 3d 17 3a 33 be ee 17 42 bc 64 73 f0 3d
       0.09656178 -0.17502628 -0.011846526 0.11740759
0002a0 38 d3 e4 3c 12 bf 31 3e 0d 68 39 3e f2 e2 b2 3d
       0.027932748 0.17358044 0.18106098 0.08734693
0002b0 ca 96 d9 3d 9f 06 83 3c 21 45 8e bd 05 88 af bc
       0.10624464 0.015994368 -0.06946779 -0.021427164
0002c0 fe 97 03 3d 6a 9a 0b 3e 6a 2f c1 3d 81 86 8e bd
       0.032127373 0.13633123 0.09432872 -0.06959248
0002d0 ba f2 8a be 04 c7 bd be 87 5f 8b be 81 83 f6 bd
       -0.2713831 -0.370659 -0.2722132 -0.12036801
0002e0 af a1 cd 3d bd 2b f9 3d db c5 22 3e e5 d9 14 bc
       0.10040604 0.121665455 0.15895788 -0.009085153
0002f0 ef 24 e2 3c d7 56 8a 3d 65 b1 e9 3d 5b a3 f0 3d
       0.027605502 0.06754845 0.114107884 0.117499076
000300 c6 36 bc 3d 42 1b 2b be 19 3e 3f 3d 94 91 0f 3e
       0.09190135 -0.16709617 0.04669008 0.14020377
000310 64 52 d7 3c 5f 28 92 3e 82 03 95 bb 2c 2e b3 3d
       0.026284404 0.28546426 -0.0045475373 0.08749041
000320 a7 be 10 3e 3f 38 57 3d 81 b2 be bd 7d f1 5d 3d
       0.14135228 0.052543875 -0.09311391 0.05418538
000330 7a 37 bf 3a 39 09 ee 3d b9 2d be 3d c6 33 61 bd
       0.0014588677 0.11622853 0.09286065 -0.054981016
000340 25 e5 75 be e9 33 ac be c2 7e 68 be dc d6 ad bb
       -0.24013193 -0.33633354 -0.22704604 -0.0053051542
000350 24 f8 02 3e 86 9e 7f 3e 45 7b fd 3d 26 ef 3a 3d
       0.1278997 0.24962816 0.123770274 0.045638226
000360 92 76 66 3d 0c dd 44 bc 34 11 a5 3d f1 c5 af 3d
       0.05626542 -0.012015592 0.08059922 0.08582676
000370 24 7d 8a bd 19 73 96 be 02 51 cb 3d 13 a8 21 3e
       -0.0676215 -0.29384688 0.099275604 0.15786771
000380 6f e6 84 3e ac ea f6 3d 4d 77 06 3e aa 03 9c 3d
       0.25957057 0.12056479 0.13131447 0.07617886
000390 a2 56 1e 3e 83 24 3c 3d b9 48 73 bd 10 3f 17 bc
       0.15462735 0.045933258 -0.059395526 -0.009231344
0003a0 35 62 10 bd 2a 32 d9 3d 35 35 bd 3d 17 d3 e5 bc
       -0.035249908 0.10605271 0.09238664 -0.028054757
0003b0 2f c4 2d be 27 da cf be 28 00 56 be f3 d7 6e 3d
       -0.1696937 -0.40596125 -0.20898497 0.058311414
0003c0 04 b7 5a 3e a9 5b 70 3e 05 ba 96 3d 7d d6 88 3c
       0.21358877 0.23472466 0.07359699 0.016703838
0003d0 fa 38 bf 3c ed f3 bd bd ec 04 c1 bc be c6 94 bd
       0.023342598 -0.09275041 -0.023561917 -0.072644696
0003e0 e6 f6 29 be 98 55 8d be 87 35 81 bd 79 e8 db bd
       -0.1659809 -0.27604365 -0.06309038 -0.107377
0003f0 6e d0 59 3d 75 39 27 3e 2d 0f 2a 3e e7 aa 44 3d
       0.05317729 0.16330512 0.16607352 0.048014548

bias f4 [50]
000000 22 99 14 bd c0 4d 93 bd 0e 47 0e 3e 55 d8 5b 3e
       -0.03627885 -0.07192564 0.13894293 0.21469243
000010 e3 90 c1 3d d2 7e fc 3d 16 e2 d4 bb f2 28 cc 3d
       0.09451463 0.123288766 -0.006496678 0.09968747
000020 a0 25 e7 3d 74 58 cc bb a6 b2 28 3e 8a 5b 29 3e
       0.11286473 -0.0062361304 0.16474399 0.16538826
000030 d5 8c 95 3d 80 b8 8e 3d 80 bb 09 bb 4a 4c c7 bc
       0.07302252 0.06968784 -0.00210163 -0.02432837
000040 62 e5 87 3d 94 92 4b be 8d bf 73 3d 63 00 74 3d
       0.06635548 -0.19880134 0.05950885 0.05957068
000050 d4 42 dc 3d 71 35 90 be 00 f3 4a bd 7d 22 b0 bc
       0.10754934 -0.28165773 -0.04954815 -0.02150082
000060 1d 89 05 3e 9f a3 90 3e df b5 00 3e 5a 06 0f bd
       0.13040586 0.28249833 0.12569378 -0.034918167
000070 93 67 b6 3c 6c ad b9 3d df ed 87 bc 0e 51 6e 3e
       0.022266185 0.09066281 -0.016592918 0.23273107
000080 50 9b 57 3d 18 52 f1 bd 56 70 3b 3e fb 11 0d 3e
       0.052638352 -0.11783236 0.18304572 0.1377639
000090 b8 cc 1a 3c 3d 3f a5 bd 97 df 00 3e e6 73 58 3e
       0.009448223 -0.08068702 0.12585293 0.21137962
0000a0 c3 af 9a bd e9 c1 20 3e 73 9e 49 be d9 20 6f 3d
       -0.07553055 0.15698971 -0.1968935 0.058380935
0000b0 35 45 7d 3d d7 5f c5 3d f3 07 6c 3d f6 04 85 3e
       0.06183358 0.096374206 0.05762477 0.25980347
0000c0 44 c8 28 bd bd 68 46 3e
       -0.041206613 0.19375892

weight f4 [10, 50]
000000 8f e0 92 3e de 38 8c 3d 31 54 9e 3e 73 bc 78 3d
       0.2868695 0.06846784 0.30923608 0.060726594
000010 9d 29 1d bf 7c 77 7a be 66 93 d4 bd 0d 1c 34 bf
       -0.6139162 -0.24459642 -0.103796765 -0.703553
000020 a1 28 f2 be 82 5e 5c 3e 1c 3d bd 3d 56 44 0b 3e
       -0.47296622 0.21520427 0.09240171 0.13600287
000030 0a 94 5a 3e 73 c6 db be 18 b6 26 3e 1e 0b 33 3e
       0.21345535 -0.42924842 0.16280401 0.1748471
000040 a1 06 66 bd e4 42 26 3e 46 26 84 3c 2c 0f e3 bc
       -0.056158666 0.16236454 0.016131531 -0.027717195
000050 82 c0 03 bf f1 c5 73 3e 79 44 05 bf 38 d8 95 bd
       -0.5146562 0.23805977 -0.52057606 -0.07316631
000060 af c9 85 bc 5d 16 e1 be 16 9d 22 3e 2d df 43 3e
       -0.016331522 -0.43962374 0.15880236 0.19128104
000070 db fc 18 be 2d 59 6b be cb 75 12 bf 0f f6 8d 3e
       -0.14940207 -0.22983237 -0.5721099 0.2772679
000080 86 c7 1b bf 9d 19 24 3c fd c5 99 bd b2 0e 1a be
       -0.60851324 0.010015872 -0.075084664 -0.15044668
000090 3a f3 cd 3d f6 c6 70 be 86 7d 52 bc 1f c9 04 be
       0.100561574 -0.23513398 -0.01284731 -0.12967347
0000a0 aa 1d 69 3d 08 19 ad be 27 e1 be 3d de 95 ae 3e
       0.056913055 -0.3380816 0.09320288 0.34098715
0000b0 56 47 f7 bd f3 3a 76 be 9a f6 3c 3e 8e d9 31 3e
       -0.12074153 -0.24045925 0.18453446 0.17368147
0000c0 1b c4 3b 3d 91 02 8f bd 88 b5 dd 3e 62 db a4 be
       0.045841318 -0.069829114 0.4330256 -0.32198626
0000d0 7b 7a f2 3e 7f 8b e7 3e c6 72 4d 3e 47 77 1c 3e
       0.4735907 0.45223615 0.20063314 0.15279876
0000e0 9a 0e 8d 3e 71 1b 02 be 87 0d 3f 3e b4 6d 84 3e
       0.27550203 -0.1270578 0.18657504 0.25864947
0000f0 c5 14 4e bd bb 5e c9 3d 00 81 4f be 09 9a 52 3e
       -0.050312776 0.098325215 -0.20264053 0.20566572
000100 79 ea 1c 3e 65 01 a5 be 92 57 bb be 2e d9 0e be
       0.15323819 -0.32227626 -0.36590248 -0.13950035
000110 f4 d4 18 3e 10 8a 85 3e 6d d1 ec 3d 71 c0 1f be
       0.14924985 0.26081896 0.11563382 -0.15600754
000120 d2 a0 2f 3e 80 c2 03 3e e4 e2 64 be 08 53 4e 3e
       0.17151192 0.12867165 -0.22352177 0.20148861
000130 62 a5 a7 be 93 90 64 be ce 23 e3 be b4 fa 32 bc
       -0.32743365 -0.22320776 -0.44363254 -0.01092403
000140 9a f7 a6 3e 34 9f 97 be 81 52 58 3e 52 d4 ac be
       0.3261078 -0.2961365 0.21125223 -0.33755738
000150 9a 3b c4 3e 68 83 0c 3d b0 31 ba 3d 7d 98 9e be
       0.38326722 0.034305006 0.090915084 -0.30975714
000160 d7 32 2f 3e 3b 9e 2b 3e b6 aa 50 be fe eb 88 3e
       0.17109238 0.16759579 -0.20377621 0.26742548
000170 c9 f5 95 be d6 92 50 bd c6 5d 00 3e 75 87 23 bf
       -0.29289082 -0.050921284 0.12535772 -0.63878566
000180 b9 c4 ab be d5 0c a2 be 68 f5 87 3e c4 3f 97 be
       -0.33548525 -0.31650415 0.26554418 -0.29540837
000190 ee b6 32 be a2 c8 fc bd 53 4f 2b 3e 7b fc b7 be
       -0.17452595 -0.12342955 0.16729479 -0.35934815
0001a0 a0 32 37 3e e2 a3 d0 3e f6 74 db be f2 4e 39 bf
       0.17890406 0.40750033 -0.42862672 -0.72386086
0001b0 4a cc d3 3e d6 b8 ce bd 2f f6 a1 bd 68 d3 16 bf
       0.41366798 -0.100938484 -0.07908284 -0.5891633
0001c0 66 2d 6a 3e 81 87 77 3c be 51 99 3e 11 d2 1c 3e
       0.2286888 0.01510799 0.29945177 0.15314509
0001d0 9a 13 9e bc 7d 5c fc 3b b7 a4 b2 bd bc c0 83 3e
       -0.019296456 0.007701455 -0.08722823 0.25732982
0001e0 6c 41 48 be 17 1b 58 3e 42 d6 ed 3e d6 b0 f2 bd
       -0.19556206 0.21104084 0.46452528 -0.11850135
0001f0 4c 2b cc 3d ef c4 e5 be 94 15 14 3e 45 f4 0f 3e
       0.09969196 -0.4487681 0.14461356 0.14058025
000200 4c 79 32 3e c6 dc 9e be 69 3b 90 3e 1c 90 04 be
       0.17429084 -0.31027812 0.28170326 -0.12945598
000210 02 f0 03 3f e2 ff 22 be e7 31 aa 3e ec 5b 1f 3e
       0.515381 -0.15917924 0.33241197 0.15562409
000220 7c 58 9b ba 71 68 37 be 8e c7 0a 3e 64 36 00 bf
       -0.0011851932 -0.17910935 0.13552687 -0.50082994
000230 b8 05 2b be 12 32 a8 3c a7 22 8e 3e 3f a8 4a 3e
       -0.167014 0.020531688 0.27760813 0.19790743
000240 33 76 36 3e 42 cf b7 be 71 60 64 be 75 53 1d 3e
       0.17818527 -0.35900313 -0.22302414 0.15363868
000250 34 18 5c 3e 95 f5 1d 3e 8b 12 db 3d 22 f8 01 be
       0.21493608 0.15425713 0.10696896 -0.12692311
000260 f1 10 f2 bd 07 53 07 bf 15 2d 56 3e 61 0f 71 3d
       -0.118196376 -0.52861065 0.20915635 0.058852557
000270 d5 47 61 3e 80 f5 04 3f be b5 8c be e2 36 0f 3c
       0.22000058 0.51937103 -0.27482408 0.008741112
000280 78 5e 63 be 83 96 ec 3d bd c5 b5 3d 3f 36 15 3e
       -0.22204006 0.11552145 0.08875606 0.14571474
000290 91 fc 69 3e 88 b8 7c 3e a6 2d 75 be c4 6a 91 3e
       0.22850253 0.24679768 -0.23943195 0.28401768
0002a0 96 86 cc 3d 40 dd a4 3d c3 be a1 3e 55 32 8c 3d
       0.09986608 0.080500126 0.31590852 0.068455376
0002b0 37 e8 83 3e d8 f0 12 3e ec 65 10 3d 0b 2f 05 be
       0.25763103 0.14349687 0.03525345 -0.13006227
0002c0 c5 84 b6 3e b6 d3 72 be bd 25 a9 3d 54 f6 84 3e
       0.3564817 -0.23713574 0.08259151 0.25969183
0002d0 72 44 b1 3e f2 88 55 be 82 27 2a be 90 da 61 3e
       0.34622532 -0.20853022 -0.16616634 0.22056031
0002e0 e0 b6 30 be 38 f0 0f be e4 09 04 3e b4 c0 57 bd
       -0.17257261 -0.1405648 0.12894398 -0.05267401
0002f0 e3 f3 27 bf 35 09 fc be bb 5f 87 be ed ef 87 be
       -0.65606517 -0.49225774 -0.26440224 -0.26550236
000300 7b 8a c1 3d 6c e1 58 be 19 10 eb be 31 d2 81 bd
       0.09450241 -0.21179742 -0.4591072 -0.06338919
000310 06 41 15 3e 00 ed a2 be 35 44 47 3e 3e cb 91 bd
       0.14575586 -0.31821442 0.19459613 -0.071188435
000320 f9 8b 73 3e 2b 22 fb 3d f8 1e a6 be fb e5 b5 3d
       0.23783864 0.122623764 -0.32445502 0.08881756
000330 34 db ea 3d 09 ec 80 3e eb 40 e2 3e 1e 5c c3 3e
       0.11467591 0.2518008 0.44190153 0.38156217
000340 9a d1 ff bd 73 f5 54 be 14 4a 82 3e 57 58 ce be
       -0.1249115 -0.20796756 0.25447142 -0.40301773
000350 a0 f1 b0 be 86 d1 cd bd 65 7b 24 bf d6 90 2d bf
       -0.34559345 -0.10049729 -0.64250785 -0.6779913
000360 f5 64 cc 3d 3b 8c 98 bd 8e 54 8a be 2b 2b 2d be
       0.099801935 -0.07448622 -0.27017635 -0.16910999
000370 42 94 2e 3e 54 90 74 3e a1 fe 92 be 98 95 bd 3d
       0.17048743 0.23883182 -0.2870989 0.09257048
000380 bf 55 79 3e 46 21 81 3e a2 4e 36 3d 5f 76 e6 3c
       0.24349116 0.25220698 0.044508584 0.028132616
000390 5f dd 34 bb dd 0c 98 be 98 50 3f 3e 83 19 aa bd
       -0.0027597768 -0.29697314 0.18683088 -0.08305647
0003a0 67 8b dd bd fa 27 c5 3d de 1c d0 bd 6a 00 8a be
       -0.108176045 0.096267655 -0.10161756 -0.2695344
0003b0 03 ee e7 3d 24 5a 27 bd b8 4f db 3e 6f 0a 8c 3e
       0.11324694 -0.04085745 0.42834258 0.2735171
0003c0 a1 9e 55 3e 87 b8 a7 be 49 e5 58 be 46 da b3 be
       0.20861293 -0.3275797 -0.21181215 -0.35127467
0003d0 9d 19 51 3e 83 d4 19 3e e0 a1 1a be 57 f2 ea bd
       0.20419927 0.15022473 -0.15100813 -0.11472004
0003e0 f8 3e 88 bc 7e f1 88 3e d6 c8 95 3d a6 b6 76 be
       -0.016631588 0.26746744 0.07313697 -0.24093112
0003f0 c0 58 58 3e 25 1b b1 3d e3 a1 f5 3d 6f 23 ab be
       0.21127605 0.086477555 0.11993768 -0.3342547

bias f4 [10]
000000 8b a1 a9 bd d7 06 54 3e fd 7d 33 be 29 22 7a bd
       -0.08282765 0.20705734 -0.1752853 -0.061067734
000010 c8 1c 04 be 63 30 a4 3e 91 ec 0b bd 2c 70 0a 3d
       -0.12901604 0.32068166 -0.034161154 0.03379838
000020 59 1b 13 be 83 e1 f8 3c
       -0.14365901 0.03038097
