Project_1/Part3_clean/checkpoints/interpolation_model3.pth (torch, 161453 bytes, 4 tensors)

weight f4 [50, 784]
00000000: 4ed6 cd3c 01f5 bc3c 0ef1 ca3c a73a 8dbc
00000010: 3cc1 513c 13e9 453b 5c91 95bc 1ce4 60bc
00000020: eeaa 61bc dccc 673b 8a04 d23c 0efe 0abc
00000030: 41fa 7739 8b97 efbb 11ae 873c 25d7 113c
00000040: 6521 9abb 387c ffbb 93f2 403a 6a70 0fbc
00000050: acd1 d93c 4ee2 0ebd d5c9 cdbc 0a42 a23b
00000060: 45cc b03c 00d4 85ba f149 ecbc 4caf ea3c
00000070: 5c68 0c3c 639d a0bc 1a2a d5bc 011a f43c
00000080: d8ac a7bc 1ce6 75bc 7542 5f3d 809b c83b
00000090: 14d6 5f3c 896f d73b 68cc 253d ea3e e13b
000000a0: 5345 cd3c b185 3e3d 5073 e7b8 fa6e 50bc
000000b0: 86c1 9dbc 640e 383b 48c8 303d 9c7b 833d
000000c0: f6d1 1abb 0734 4f3d 2a72 ab3d 12af 11bc
000000d0: 3e2e a1bc 7ccf 22bc 6501 fb3b e33c 0e3d
000000e0: 732b 99bc 1176 f33c 06d7 283d 0dce 743c
000000f0: d3e8 2b3c da87 503d b5ff be3c ccd5 ce3d
00000100: 4f03 b93d d135 c33d 131a 5a3d b3e8 153d
00000110: c89e 973d ded6 483d 024d 393d faf9 bd3d
00000120: d57c 973d 533f 2a3d 5154 253d 6699 d53c
00000130: 5272 ae3d 149b c03d 634a 323d 7fb8 a6bb
00000140: 927e 253d 10b0 3fbd 57f3 13bc ae76 cb3b
00000150: ca55 ff3b 1c85 9abc c67d 9cbc f541 1fbc
00000160: 0edf 0a3c 413d 1fbc 21ac daba aaca 733d
00000170: e156 18bb c66c c13c 7abf 133d 1d51 9abb
00000180: ad16 13bd c11f 5fbd b7bd 2ebd 2ee3 45bd
00000190: 6d1b 693b c3b0 c83c 899d d4ba 5ed3 813c
000001a0: 501f 333d acbc a63d 4d87 dc3d accf e63d
000001b0: 82e2 993c b8cd fc3c 7e7a 133d eec2 cb3b
000001c0: 8175 c8bc 60bd 51bd a949 883c 176e b33c
000001d0: 14c0 cf3c cf3d 19bd f55c 07bd 4cd4 323a
000001e0: b769 b0bb 63c1 c2bc e692 b5bc 290a 9dbc
000001f0: 0c06 16bd 4f8e 4dbd 2f3f d0bc bcd9 2fbd
00000200: 45dd 57bc b551 16bd 196d 15bd 4973 173b
00000210: 710f 123d 0739 573d 3e36 983d a048 2a3d
00000220: b811 97bc 033f d1bc 45b6 f33c 7691 293d
00000230: d366 1c3c 5c16 28bc ce0e ee3c 3faf 7ebd
00000240: d767 a0bc 4b1f 04bd 1a5c b7bc 9205 22bc
00000250: 5f28 85bc 31e3 80bb ec54 0ebb 6ca5 ab3c
00000260: bf6d 173d 7537 20bc c088 5c3c f262 adbb
00000270: 9b48 04bd efe3 41bd 652e 3cbb 01bf ffbc
00000280: efdb 0c39 9dd1 1dbd 531b 40bd 0b06 1e3c
00000290: f2f8 07bc 65b9 1bbd 2327 74bd 5d06 163d
000002a0: 0ebd 653c 7235 c9bc c8db 90bc b757 e9bc
000002b0: ff09 92bb 5c18 56bd 6c3f 82bd 1eb2 66bc
000002c0: 7977 9e3c 98ce 243d 63e2 1abc c3e7 703c
000002d0: adea 013d 5348 40bc 1c05 873b 601e 9e3c
000002e0: 3f5d d939 a176 9a3c b70b 05bd 5e98 b53b
000002f0: 0ca8 52bd ab9e 65bd 524c c2bd 8b26 98bd
00000300: c7cf 82bd 10fa 90bd 0f1b 5fbd 0e37 95ba
00000310: 82d4 02bc 14f6 48bd 110f 6ebb 9a08 7cbc
00000320: a5f7 7dbd 79c9 d2bc 5cb0 40bd 7b7f 5e38
00000330: 20db 04bb 7cb0 a23c 0bfe d43c 85ac 213c
00000340: 62dc 053d 9e0b c43c d6ff dc3c bfde 583d
00000350: 3ccb 553d 895d 1a3d 5a01 073d 1e5e d1bc
00000360: 654a 433c 2d55 c63b ae9b aabd 595d a7bd
00000370: 9262 37bd 7c96 a9bd c86d 7bbd 4b84 59bc
00000380: ab6d d33c 1307 8cbb c61f 483d 3535 dbbc
00000390: 000a b3bc 2a49 f8bc 1215 713c cf33 3a3d
000003a0: cc18 453d 58c2 e93c f20a 193d f58b 9c3c
000003b0: e941 943d 418c fa3c 032a 213d 1843 6a3c
000003c0: dccb 5d3d 350d d63c 4d89 5f3c 700b a93b
000003d0: 314f 07bd 01a8 73bd 1551 17bd 7a42 87bd
000003e0: 883b 0ebe 52b4 bfbd 0cc8 48bd 1ee7 fd3b
000003f0: 3138 16bc 71da de3c d00f fe3c e2c2 a73c
0.025126603 0.023066046 0.024773147 -0.017239882 0.012802418 0.0030198738 -0.01825779 -0.0137262605
-0.013773663 0.0035369908 0.02563693 -0.008483423 0.00023648982 -0.0073117665 0.016562494 0.008901392
-0.004703688 -0.0077967905 0.0007360365 -0.008754829 0.026589237 -0.03488379 -0.025120655 0.00495172
0.021581778 -0.0010210276 -0.028843852 0.028648041 0.008569803 -0.019606298 -0.026021052 0.029797556
-0.02046816 -0.015008476 0.054506738 0.0061220527 0.01366188 0.0065745753 0.04047814 0.006873955
0.02505747 0.046514217 -0.00011036417 -0.012721771 -0.019257318 0.002808475 0.043159753 0.06420061
-0.0023623682 0.050586727 0.083713844 -0.008891838 -0.01967537 -0.009937163 0.0076600784 0.034726035
-0.018697476 0.029719384 0.041220687 0.014941704 0.010492521 0.05091081 0.02331529 0.10099372
0.09033834 0.09531749 0.053247523 0.036598872 0.07403332 0.04903304 0.045239456 0.09276195
0.07396857 0.041564297 0.040363614 0.026074123 0.085178986 0.09404579 0.043527972 -0.0050879116
0.04040391 -0.046798766 -0.009030185 0.006209216 0.0077922093 -0.0188623 -0.019102942 -0.009720315
0.008476032 -0.009719194 -0.0016683378 0.059519447 -0.0023245143 0.023611438 0.03607128 -0.0047093765
-0.035910297 -0.054473642 -0.042661395 -0.04831236 0.0035569326 0.024498349 -0.0016221266 0.015847858
0.043731034 0.08141455 0.10767994 0.11270079 0.018784765 0.030859813 0.03600549 0.006218306
-0.024470093 -0.051205993 0.016636686 0.02190308 0.025360145 -0.03741246 -0.033047635 0.0006821796
-0.005383696 -0.023773855 -0.022164773 -0.019169884 -0.03662686 -0.050184544 -0.025420753 -0.042932257
-0.013175313 -0.036699016 -0.036480997 0.0023109487 0.035659257 0.05254462 0.07432221 0.041573167
-0.018441066 -0.025542742 0.029749999 0.041398488 0.009546 -0.010259237 0.029059794 -0.062178846
-0.019580765 -0.032256406 -0.022382785 -0.009889023 -0.016254602 -0.0039333333 -0.0021718098 0.020952903
0.036969896 -0.009778847 0.013460338 -0.005291336 -0.032295804 -0.047336515 -0.0028714177 -0.031219007
0.00013433372 -0.03852998 -0.04690106 0.009644995 -0.008299099 -0.038018603 -0.059607636 0.036627162
0.014022125 -0.024561618 -0.017682925 -0.028484209 -0.004456758 -0.052269325 -0.06359753 -0.014080552
0.019344078 0.040236086 -0.009453389 0.014703694 0.031717945 -0.011735993 0.004120482 0.019301593
0.0004145894 0.018855395 -0.032481875 0.005541845 -0.051429793 -0.05605952 -0.09487213 -0.074292265
-0.06387287 -0.07078946 -0.054469164 -0.0011384205 -0.007985236 -0.049062803 -0.0036324898 -0.01538291
-0.06200375 -0.025730835 -0.04704319 5.304765e-05 -0.002027221 0.019859545 0.026000043 0.009867792
0.032680877 0.02393132 0.02697746 0.052946802 0.052195773 0.03768686 0.032960273 -0.025557574
0.0119195925 0.006052634 -0.08330475 -0.081721015 -0.04477174 -0.08280656 -0.061383992 -0.01327617
0.02580913 -0.0042733043 0.048858427 -0.02675877 -0.021855354 -0.030308325 0.014714496 0.045459565
0.04811935 0.028535053 0.037363954 0.019109705 0.07239134 0.030584456 0.039346706 0.014298223
0.054149494 0.026129344 0.013643575 0.005158834 -0.033034507 -0.059486393 -0.03694256 -0.06604476
-0.13889897 -0.09360565 -0.049018905 0.0077484986 -0.0091686705 0.02720377 0.0310134 0.02047867

bias f4 [50]
00000000: 6117 973c 5356 4e3d 3ddd aebd 8377 3b3d
00000010: 184a a23c 669c 0fbd 02c2 01bd 6e6f d23d
00000020: c89a 85bc 5960 35bd 31dc 92ba 8af7 163e
00000030: 5b16 073d 98c8 6e3d ee81 063e 8bdc eabc
00000040: 9aef c83c 923b 083c 6dbd eebd 9457 81bd
00000050: 79a5 1a3d 9200 fe3c 0de0 de3d 5fe3 5e3c
00000060: 9094 4e3e e0eb 0d3e d067 38bb 7fc4 7a3d
00000070: 9d30 143e 490c fe3c 7c7d 753e 52d7 7f3d
00000080: daab 1fbe 93cd e93d 01a5 243d f590 e9bc
00000090: f27e ddbd f724 813c ac89 a83d 1f2c 87bc
000000a0: 2bbc 023e 5bf4 b0bc 2ee6 053e 470d be3d
000000b0: fef1 423c 2a5a 04bd c4e0 b43d f3f2 0b3e
000000c0: b490 bf3d 13c6 3ebc
0.018443765 0.050375294 -0.085382916 0.045768272 0.019810721 -0.035061263 -0.03167916 0.1027516
-0.016309157 -0.044281337 -0.0011204538 0.14742866 0.032980304 0.05829677 0.13135502 -0.028669616
0.024528313 0.008314984 -0.11657224 -0.06315532 0.037755463 0.031006131 0.10882578 0.013604014
0.2017386 0.1385951 -0.002813805 0.06122255 0.1447167 0.031011717 0.2397365 0.062461205
-0.155929 0.11416163 0.040196422 -0.028511504 -0.108152285 0.015764697 0.08229384 -0.01650053
0.12767093 -0.021600893 0.13076088 0.09279876 0.011898516 -0.03231255 0.08831933 0.13666897
0.09353772 -0.011643904

weight f4 [10, 50]
00000000: 095e 28be a942 713d 509e 7b3e 8dcd 84be
00000010: e75c 9abe 8e93 77bd bfa9 713e e4ce bc3d
00000020: 6e9c 16be 320c ffbb d33b 91be b203 94be
00000030: 986b b83d 913a 30bd becb 6ebe dd14 84be
00000040: e3e3 843d a13a 23bd 007c 04be e86f debb
00000050: bd59 113e 696b 5b3e 1d65 743d 02e4 82be
00000060: a1dc 043e 08bd bbbd 415a 42bd 11fe 7cbe
00000070: d969 3fbe c10b 053e 8f50 a2be d43c 053e
00000080: 25d3 b53c 89b2 18be b8c5 483e cde1 06be
00000090: a64e 843d 6506 9f3d 44e7 f2bd ba54 273e
000000a0: 7f52 2dbe 1554 ba3b 988e dcbb 52c3 5fbe
000000b0: 8d2d 473e 817e 013e c2e6 27be 3cb2 e6bd
000000c0: 2f3b 7d3e 10c6 b43c 850e b5bd f8ae 32bd
000000d0: e806 64be 81d4 083e 6577 893e 0527 c1be
000000e0: 911c 5e3e a642 39be 9990 59be 04fe d9bd
000000f0: 17b3 1f3e 2995 91be ed0a 82be 789a 8a3c
00000100: 36d6 3abe 1fca 77bd 5963 00bd 0aa0 46be
00000110: 8b23 063d 5ec6 6d3e a7ab 97bd 921f f03d
00000120: dc79 a4be 7744 be3d 1ce6 6ebe 5c8f 66bd
00000130: b311 cf3d 1c1f 1ebe 3fc1 323e 9435 8bbe
00000140: fd98 803e 8448 6cbe 6757 9dbe dc36 653e
00000150: 33e4 a5be c89b 0ebe e648 81bd ba95 30bd
00000160: e3b5 533e e1c5 92be 51db bb3d 3ec1 99be
00000170: 9f90 333e b194 813e 60ec 003d c1af 4fbc
00000180: e3c9 553e 7893 7e3d 0a4b 8bbc f8e4 403e
00000190: aeb2 78bc d839 6abe 789f 0bbe 7864 a2bd
000001a0: 9a04 0e3e 7693 973d 94cb c53c 92e7 7c3e
000001b0: 2e3d f9bd 179e 043e 27ed cd3d f1b7 36be
000001c0: 6415 af3d 3c69 ac3c 49e7 e33d 2545 7a3e
000001d0: 2075 debc 6730 45be 3ae6 393e bae0 0abc
000001e0: 39b2 763e 2023 813e ce9c 7cbe 7a91 3ebc
000001f0: e68b d33c e21d 88be 414c 74bd 8eaa 1fbe
00000200: 2ba2 be3c 9d23 5e3e 4b8b 8bbe 8fef 533e
00000210: 1495 e03d 78a8 5d3e 7fc7 07be 800b 6b3d
00000220: 8860 6f3e c480 babd 0163 153d c2f6 b83d
00000230: 15ff 5cbe ddc4 44be 3fd0 d6bd b2c7 803e
00000240: a4f1 f1bc abce 7dbe 947d debe df61 253e
00000250: d873 81be 7723 89bd 6214 58be 312f 683e
00000260: 0973 2fbe c066 6cbe 2b70 413e 2a1f 28be
00000270: 8cd8 1abd ac97 bf3d c739 9bbd 8362 d13d
00000280: 1bef 663d 5adb 2bbe 3588 89be 8763 9c3d
00000290: f659 d73c a8a1 a13c 5a71 84be 1da6 553e
000002a0: 04d6 553e 7b0f c93d 0da7 5bbe 9bf7 a63c
000002b0: 1229 b3ba f065 413e 7a0e 213d 4937 3fbe
000002c0: 66e1 9e3d e9a1 d2bc 9b99 4ebe ea05 5a3e
000002d0: d36e b6bd 2705 543e ab40 813d 6e9d dc3c
000002e0: 25ad 74be 9a25 9fbd d97b 77be d89d a03c
000002f0: 85f6 133e 2d3c f03d 8851 d23d 35c2 373e
00000300: 79da 5bbe 0962 9d3d cd8c 633e f058 e73d
00000310: a286 bfbe 716e 123d 637f 16be 1617 033e
00000320: 46f1 943d a62c afbe 68cc b5bc 088f 4c3d
00000330: 1846 083e 7a0c b5bd 117e c7be a328 603e
00000340: 7935 ed3c d235 a7bd 80b1 89bd dd62 5f3e
00000350: 76e8 ec3d 57b4 f5bc 8dee 823e f142 d6bc
00000360: 99eb 793e 9cb7 5c3e bc0c 8c3b 01d3 e5bd
00000370: 1e20 90be b033 7fbe f93e 8fbe 614c 9abe
00000380: a80d 3f3e 7f91 123e 920e a13d 48ba 773d
00000390: 83d0 aabe 8375 b7be 32ed 473e 9a0f b4be
000003a0: 0b6d c4bd 86da 7ebe 8ba7 70bb cadc d03d
000003b0: a5e8 2cbd 4516 08be 6d3c b9bc 6bc5 9dbe
000003c0: 58b5 7bbe 6b43 0a3e 6431 9d3d c90b 67bd
000003d0: b152 afbe c862 edbd 30c2 fb3d 5b18 1a3e
000003e0: f51c ba3d ea71 20be 6893 20be 1601 fbbd
000003f0: 372b 9cbd f3b6 66be c154 fdbd f012 d6bd
-0.16442122 0.058901463 0.2457211 -0.25938073 -0.30149004 -0.060443453 0.23599909 0.09219149
-0.1470811 -0.007783436 -0.28365955 -0.2890907 0.09004897 -0.043024603 -0.23319909 -0.25797167
0.064887784 -0.039850835 -0.12937927 -0.0067882426 0.14194389 0.21427692 0.05966674 -0.2556458
0.12974788 -0.09166914 -0.047449354 -0.24706294 -0.18692721 0.12992765 -0.31702086 0.13011485
0.022195408 -0.14911856 0.19606674 -0.13172074 0.064603135 0.077648915 -0.11860517 0.16340914
-0.16926001 0.005686293 -0.0067308657 -0.21851853 0.1945097 0.12645914 -0.16396621 -0.11264464
0.24729608 0.0220671 -0.0884066 -0.043623894 -0.2226826 0.13362314 0.26848903 -0.37725082
0.21690585 -0.1809183 -0.21246566 -0.10644153 0.15595661 -0.28434113 -0.2539896 0.01691936
-0.18245777 -0.060495492 -0.031344745 -0.19396988 0.03274874 0.23220202 -0.07405787 0.117247716
-0.3212422 0.092904024 -0.23329967 -0.056289062 0.10110798 -0.15441555 0.1745653 -0.27189314
0.2511672 -0.23074538 -0.30730745 0.22384208 -0.32400665 -0.13926613 -0.063127324 -0.04311154
0.20674853 -0.28666595 0.09172691 -0.30030245 0.17535637 0.25308755 0.031475425 -0.01267618
0.20877795 0.062152356 -0.017003555 0.18837345 -0.015179319 -0.22873628 -0.13635051 -0.07929319
0.13868943 0.07401173 0.024144925 0.24697712 -0.12169872 0.12950931 0.10054999 -0.17843606
0.08549002 0.021046273 0.111280985 0.24440439 -0.027155459 -0.19256745 0.1815423 -0.008476431
0.24091424 0.2522211 -0.24669191 -0.011631364 0.025823545 -0.265853 -0.059643034 -0.15592405
0.023270687 0.21693273 -0.2725471 0.20696853 0.109659344 0.21646297 -0.13259695 0.057384014
0.23376667 -0.09106591 0.03647137 0.0903144 -0.21581681 -0.19215722 -0.104889385 0.25152355
-0.029534169 -0.24785869 -0.43455184 0.16150616 -0.25283694 -0.066962175 -0.21101525 0.22674252
-0.17133726 -0.23086071 0.18890445 -0.16418138 -0.03780417 0.09355101 -0.075793795 0.10223868
0.056380372 -0.16782895 -0.2686173 0.07636171 0.026288014 0.019730404 -0.2586773 0.20864148
0.20882422 0.09817406 -0.21450444 0.02038174 -0.0013668856 0.18886542 0.039320447 -0.18673433
0.07757835 -0.02571197 -0.20175783 0.21291319 -0.08907857 0.2070509 0.063111626 0.026930537
-0.23894174 -0.07770844 -0.24168338 0.019606516 0.14449508 0.117302276 0.10269457 0.17945178
-0.2147006 0.07684714 0.2222168 0.1129626 -0.37407404 0.035749856 -0.14697032 0.12801775
0.07272582 -0.34213752 -0.022192195 0.049941093 0.13307989 -0.0884027 -0.3896337 0.21890502
0.028956162 -0.08164562 -0.067233086 0.21815057 0.11567776 -0.02999322 0.25572625 -0.026154967
0.2440628 0.21554416 0.004273979 -0.112218864 -0.28149503 -0.24922061 -0.27977732 -0.30136397
0.18657553 0.14313315 0.07864107 0.060480386 -0.33362207 -0.35831842 0.19524077 -0.35168153
-0.09591111 -0.24888048 -0.0036720957 0.10198362 -0.042214055 -0.13289745 -0.022611821 -0.3081468
-0.24580896 0.1350228 0.07675436 -0.056407724 -0.34242776 -0.11591107 0.12292898 0.15048353
0.09087554 -0.15668455 -0.15681231 -0.122560665 -0.0762543 -0.22530727 -0.12369681 -0.10452831

bias f4 [10]
00000000: f003 d73c db9c 903d 3814 bb3d 7aef 10be
00000010: 000a d83c e90a 753b 4939 19be 3d40 473e
00000020: 7fe4 d3bc 841e 40bc
0.026246995 0.07061168 0.09134716 -0.14153853 0.026371956 0.0037390536 -0.14963259 0.19458099
-0.025865791 -0.0117260255
