Project_1/Part3_clean/checkpoints/interpolation_model3.pth (torch, 161453 bytes, 4 tensors)

weight f4 [50, 784]
0.010995712 0.00953384 0.017374048 0.014478365 0.016712334 -0.009018609 0.0022417181 0.025691833
-0.03490884 -0.021552129 0.013770279 0.023114946 0.17189343 0.08767647 -0.2731388 -0.08366571
0.012087022 0.026841 0.009490541 0.008521285 -0.021676848 0.027091125 -0.03186065 0.03217686
-0.018435156 0.008292923 0.008323747 0.02613872 0.0010622996 0.014915016 -0.0034807879 -0.007904692
0.044541422 0.0789753 0.19822836 0.19394232 0.16518457 0.2176179 0.06323754 -0.076954484
0.5829812 0.40427014 -0.37013796 0.32753214 0.18992732 -0.6429997 0.0087244185 0.38744253
0.42118993 0.3974913 0.3488588 0.3083254 -0.0011400155 -0.0039950865 0.03436951 0.013545931
-0.022941059 -0.023206856 0.027340438 0.08504205 0.23437092 0.014056282 -0.14811654 0.7252826
-0.72614527 -1.1383898 -1.0368667 -1.261711 -0.98734033 -0.63877946 -0.42929754 -0.18108688
0.2118286 0.15287781 -0.1012049 0.39102906 0.03351051 -0.4113718 -0.22150579 1.0383663
-0.5810487 -0.04862403 -0.018923096 -0.022216411 0.010524861 -0.023725532 -0.5078759 1.2274258
1.6325488 0.9025495 -0.32980883 -0.3096184 -0.004092491 0.070945114 -0.2520152 -0.40854868
-0.019185806 -0.37419578 -0.7517429 0.2858732 -0.07247844 0.20367911 -0.3334892 -0.43584937
0.41914612 0.78188264 0.14134894 -0.25802344 -0.018575601 0.11351391 0.4329832 -0.005716971
-0.000106935 0.004067734 -1.4070174 0.75795287 -0.5676924 -0.62932897 -0.27786145 -0.3160287
-0.021872701 0.61052644 0.3881277 0.0332526 -0.20576859 -0.6644412 -0.25116342 0.20731002
0.18855807 0.08821132 0.11389209 -0.26959476 -0.30126706 0.46311554 -0.049505375 0.14163795
0.4119204 1.6166164 1.7534072 1.2937015 0.00041773918 -0.027428802 -0.51456785 1.1327188
-1.191453 -0.45745733 -0.08090214 -0.3197588 -0.10172336 0.43503955 0.059180718 0.033838376
-0.0977822 -0.16440736 0.22346656 0.028906366 0.13110292 0.16451961 -0.19174996 0.30867743
0.49956915 0.019696249 0.16824636 -0.14098886 -0.27971572 0.8271312 1.4103444 1.3599962
-0.01077119 -0.07985326 1.1627228 -0.11112904 -0.023646645 0.08313148 -0.9155956 -0.49732524
0.014945845 0.0651056 -0.24395439 -0.13404581 -0.17681445 -0.08738377 0.109281406 0.30847415
-0.017271878 0.2079141 0.25327477 0.8583584 1.1311802 0.49033707 0.54411674 0.52817863
0.4512943 1.1589589 1.4192569 -0.13151221 -0.017213762 -0.2257588 0.5527139 -0.39280462
-0.32002017 0.30569765 -0.1677596 -0.46150702 -0.20490742 0.15349768 0.5874781 0.06898394
-0.14753665 -0.2578447 0.10422673 0.520451 0.3752426 0.5911624 0.8053357 0.9534635
0.8736138 0.50294405 0.7725927 0.3438266 0.19432573 0.27690247 1.4346012 -0.0110972645
-1.06863 0.10142091 0.3723454 0.35124677 0.18855277 0.05776948 -0.2270822 0.13632955
0.18234858 -0.024258388 -0.030882206 0.5580804 0.11271903 0.022011127 -0.15390268 0.20587619
0.42637226 0.37943003 0.7100376 0.5360121 0.3795897 0.5056472 0.36839977 -0.24245894
0.30759764 -0.118095055 1.2336218 0.20476489 -0.015010998 0.16570684 -0.6878499 0.6717695
00000000: 5c27 343c d333 1c3c 0554 8e3c aa36 6d3c
00000010: 4ee8 883c cac2 13bc cae9 123b ae77 d23c
00000020: 92fc 0ebd 178e b0bc bc9c 613c 8e5b bd3c
00000030: d504 303e b98f b33d d9d8 8bbe ee58 abbd
00000040: a508 463c a8e1 db3c 377e 1b3c dc9c 0b3c
00000050: a593 b1bc 35ee dd3c 5080 02bd e2cb 033d
00000060: 5305 97bc 0adf 073c 5360 083c de20 d63c
00000070: dc3c 8b3a 1c5e 743c ee1d 64bb ae82 01bc
00000080: 1171 363d cdbd a13d 60fc 4a3e d198 463e
00000090: 2526 293e 3ad7 5e3e af82 813d 509a 9dbd
000000a0: 423e 153f 7ffc ce3e b982 bdbe 4bb2 a73e
000000b0: 4f7c 423e a19b 24bf ddf0 0e3c de5e c63e
000000c0: 35a6 d73e fb83 cb3e 9f9d b23e d4dc 9d3e
000000d0: 936c 95ba 37e9 82bb 0bc7 0c3d c1ef 5d3c
000000e0: e3ee bbbc 4e1c bebc 0ef9 df3c 872a ae3d
000000f0: eefe 6f3e 524c 663c ddab 17be 1fac 393f
00000100: a8e4 39bf c2b6 91bf 0cb8 84bf bf7f a1bf
00000110: 56c2 7cbf 0d87 23bf e3cc dbbe d76e 39be
00000120: 99e9 583e 008c 1c3e 8444 cfbd f634 c83e
00000130: 5142 093d 539f d2be 6ad2 62be 30e9 843f
00000140: 9cbf 14bf fe29 47bd 9c04 9bbc 31ff b5bc
00000150: 7770 2c3c 0c5c c2bc 2804 02bf 4a1c 9d3f
00000160: 5cf7 d03f 7c0d 673f b4dc a8be 4e86 9ebe
00000170: 4e1a 86bb ac4b 913d 2308 81be 4b2d d1be
00000180: 8d2b 9dbc 9796 bfbe 3972 40bf f95d 923e
00000190: 946f 94bd 4291 503e 19bf aabe a627 dfbe
000001a0: 529a d63e 7629 483f c7bd 103e a61b 84be
000001b0: dc2b 98bc fb79 e83d f9af dd3e 6e55 bbbb
000001c0: 4a42 e0b8 a04a 853b 2519 b4bf 3309 423f
000001d0: 4a54 11bf b41b 21bf db43 8ebe 84ce a1be
000001e0: 612e b3bc 764b 1c3f adb8 c63e e133 083d
000001f0: 00b5 52be d218 2abf 7e98 80be 1449 543e
00000200: 5e15 413e 23a8 b43d 4240 e93d 5308 8abe
00000210: ad3f 9abe 7b1d ed3e 26c6 4abd 8a09 113e
00000220: 3be7 d23e 49ed ce3f a66f e03f 0398 a53f
00000230: 0104 db39 5eb2 e0bc b8ba 03bf eefc 903f
00000240: 8881 98bf d937 eabe 05b0 a5bd 6db7 a3be
00000250: 5654 d0bd 81bd de3e 7b67 723d 1c9a 0a3d
00000260: 0942 c8bd 675a 28be 6bd4 643e 0bcd ec3c
00000270: d83f 063e d477 283e 1a5a 44be f80a 9e3e
00000280: 87c7 ff3e 075a a13c c648 2c3e 625f 10be
00000290: e636 8fbe dfbe 533f 2a86 b43f 5b14 ae3f
000002a0: a579 30bc 1b8a a3bd 1ad4 943f 9f97 e3bd
000002b0: 9cb6 c1bc d640 aa3d 7964 6abf 6aa1 febe
000002c0: 6bdf 743c 1656 853d 2ecf 79be 4e43 09be
000002d0: d90e 35be 43f6 b2bd eece df3d 53f0 9d3e
000002e0: c17d 8dbc 6fe7 543e 3bad 813e 60bd 5b3f
000002f0: 83ca 903f 760d fb3e 3c4b 0b3f b736 073f
00000300: 0c10 e73e c458 943f 36aa b53f 23ab 06be
00000310: e003 8dbc 512d 67be a87e 0d3f b01d c9be
00000320: afd9 a3be 6784 9c3e 2cc9 2bbe a64a ecbe
00000330: 40d3 51be 7f2e 1d3e f764 163f 7447 8d3d
00000340: d913 17be 3804 84be d374 d53d 473c 053f
00000350: cc1f c03e 6b56 173f 7b2a 4e3f 2f16 743f
00000360: 27a5 5f3f f1c0 003f a3c8 453f 0a0a b03e
00000370: 53fd 463e 29c6 8d3e 03a1 b73f 4dd1 35bc
00000380: dec8 88bf c4b5 cf3d 0ea4 be3e 9ed6 b33e
00000390: fa13 413e b19f 6c3d 3c88 68be f999 0b3e
000003a0: 96b9 3a3e 87b9 c6bc aefc fcbc 5bde 0e3f
000003b0: 3cd9 e63d ae50 b43c aa98 1dbe 35d1 523e
000003c0: 774d da3e a744 c23e 06c5 353f 1738 093f
000003d0: 9559 c23e 1872 013f e59e bc3e 2847 78be
000003e0: 707d 9d3e d2db f1bd 52e7 9d3f e3ad 513e
000003f0: b0f0 75bc 0eaf 293e ee16 30bf 16f9 2b3f

bias f4 [50]
-0.27023008 0.3417746 0.27645668 0.1779433 0.47888297 -0.13149466 0.034720387 -0.09143367
-0.077396125 0.40398043 -0.7453486 0.30672058 -0.018832259 0.124245875 -0.004363424 -0.041480638
0.3818792 0.61412823 0.2099254 -0.29866 -0.14793622 -0.13158467 0.17674865 0.42415136
-0.5080904 0.6195159 0.48170686 -0.38473913 0.12410272 0.73643184 -0.5614675 0.059995785
-0.3976725 -0.44083777 -0.64494306 0.29011005 0.123817705 -0.3028616 -0.16380827 -0.3693757
0.13525718 -0.1396471 0.5357456 0.69971377 -0.6152065 0.10104884 0.27496633 -0.31434616
0.35642445 0.38137612
00000000: 995b 8abe 15fd ae3e bb8b 8d3e c536 363e
00000010: 2630 f53e 89a6 06be f736 0e3d 9341 bbbd
00000020: dc81 9ebd 86d6 ce3e 2acf 3ebf 7b0a 9d3e
00000030: 1c46 9abc 9f74 fe3d 0efb 8ebb 9ae7 29bd
00000040: ac85 c33e 8237 1d3f aff6 563e f7e9 98be
00000050: 987c 17be 22be 06be 99fd 343e 5e2a d93e
00000060: 3612 02bf 9898 1e3f 48a2 f63e 87fc c4be
00000070: 9129 fe3d cc86 3c3f 56bc 0fbf 24be 753d
00000080: bb9b cbbe 7db5 e1be fd1a 25bf 4e89 943e
00000090: 2394 fd3d ad10 9bbe 5bbd 27be d01e bdbe
000000a0: dc80 0a3e a6ff 0ebe a026 093f 7120 333f
000000b0: 2c7e 1dbf b2f2 ce3d 63c8 8c3e fbf1 a0be
000000c0: 447d b63e bb43 c33e

weight f4 [10, 50]
-1.5875764 -0.40337658 0.11676311 1.0086771 -0.5179872 0.47367203 0.1157954 0.21333687
0.1917498 0.5512819 -1.2776275 0.3474439 -0.49036613 -2.2856998 0.08806064 -0.012148733
0.26166776 0.53737813 0.19153753 -0.032684054 -2.0447018 0.3175705 0.44365564 0.22623882
-2.5180645 0.032972 -0.69964904 -0.15144017 0.49993888 0.38418293 0.31350544 -1.5734866
0.25849083 -2.4182851 -0.92614084 0.5459622 -0.9760651 0.28136176 0.62015456 -1.1827615
-0.15745953 -0.11885008 -0.19308351 -0.9637938 -0.7737202 0.40594038 -0.2236739 0.88941205
-0.9540438 -0.67336273 -0.9111721 -0.11034981 -1.3793182 -0.3422127 -0.6842043 -0.8396836
-0.0708132 -1.0824214 0.23544697 0.68546385 1.0027751 0.9067687 0.3337021 -1.083238
-0.0023075477 -0.13424644 0.56064403 -0.019391363 -0.6402616 0.27967238 0.490581 -1.1492839
0.18093392 1.0130019 0.3171236 -0.020175133 0.009647861 0.30483592 -1.088178 -2.177895
1.4223651 -0.31918514 0.8770515 -0.16497505 0.65835905 0.72980195 -1.013428 0.4045697
-1.3658781 -0.36283574 -0.8678978 -0.3571532 -0.7449361 0.10918891 0.8864679 2.1513484
-0.38001013 -0.64351636 0.6471861 0.50233996 -2.1830564 -0.89521277 0.55579895 0.6512916
-0.14075296 -0.0003897756 -0.36808726 0.6995769 0.4001046 1.2803576 0.59106386 0.79923683
-0.32291323 -0.74409837 -0.11465523 0.058130745 0.19007021 -0.119172946 -0.794543 0.75768626
0.6171404 0.36096153 -2.210258 0.43225244 0.990828 -1.2860324 0.13083407 -0.6539308
-0.106508315 -0.18261957 -0.73388004 -0.6107202 -0.98625565 -0.14097893 0.24763158 -0.5746251
-1.5015872 1.1138638 0.27951247 0.10407397 0.2576486 0.33144274 -0.43566176 0.18552773
0.26409352 -0.8539844 0.095951475 0.38967425 -0.33967113 0.45167533 -0.14728875 -0.31479347
-0.30795926 0.12887329 -0.08368798 -0.80168426 0.57465744 0.08479036 -1.0196011 -0.23016465
0.7372178 -1.088978 0.49024153 0.58603865 -0.04429852 -0.024669217 -0.29545546 -0.7518677
0.33754036 -0.18117438 -0.54429406 0.23479052 0.15018624 -0.7460277 0.2870328 -1.2592517
0.05220891 0.25808632 0.2784472 -0.6014392 -0.6648874 0.3712227 0.70433265 0.6806054
0.8164528 0.34983793 0.6428965 -0.2355741 0.17873843 1.1084626 0.3961875 0.603302
0.30518717 -0.5143709 0.6251107 -0.6056493 0.20948412 0.3266387 -1.6378646 -2.1507347
-0.39931378 0.15021862 0.4196435 0.25821957 0.53066474 -2.2755911 -1.0737406 -1.991864
-0.18959646 0.033557393 -0.8116144 -0.81452364 0.25756896 0.8990586 -0.069028996 0.00072613196
-0.26567492 -0.3812603 0.4338061 -0.07763954 -0.33857444 -2.1193101 0.4697559 1.1251578
-0.913581 0.010233705 0.3510262 -0.003303408 0.17639324 -0.0029669777 0.5505928 -0.75702935
-1.3556992 -0.14103124 0.99816006 0.7372099 0.01885815 -0.4078371 -2.3228936 -1.1045848
-1.1715094 0.28837338 0.20685203 0.054814618 1.2852741 -0.535449 -0.53945005 -2.5749223
0.8582031 0.6214562 0.96704674 0.6657385 -0.31802616 -1.5837572 -0.6169357 1.0771401
00000000: b435 cbbf 6087 cebe 7f21 ef3d 551c 813f
00000010: cf9a 04bf 2485 f23e 2426 ed3d fb74 5a3e
00000020: 0f5a 443e d020 0d3f 4c89 a3bf 2be4 b13e
00000030: 4511 fbbe e848 12c0 2359 b43d 7b0b 47bc
00000040: 51f9 853e 9d91 093f 6a22 443e b7df 05bd
00000050: 65dc 02c0 9a98 a23e d526 e33e 26ab 673e
00000060: f827 21c0 a60d 073d 331c 33bf 2213 1bbe
00000070: fdf7 ff3e a0b3 c43e c983 a03e 0268 c9bf
00000080: e958 843e 2fc5 1ac0 9117 6dbf 2ec4 0b3f
00000090: 67df 79bf a60e 903e 73c2 1e3f bb64 97bf
000000a0: 123d 21be ac67 f3bd afb7 45be 31bb 76bf
000000b0: 8712 46bf 6bd7 cf3e c50a 65be 82b0 633f
000000c0: 373c 74bf 8061 2cbf 9342 69bf 15ff e1bd
000000d0: 808d b0bf 8136 afbe 0328 2fbf 81f5 56bf
000000e0: 8306 91bd c98c 8abf 0319 713e 8f7a 2f3f
000000f0: ef5a 803f fe21 683f 00db aa3e 8ba7 8abf
00000100: 3a3a 17bb e677 09be 5e86 0f3f a3da 9ebc
00000110: 2fe8 23bf 3831 8f3e 6f2d fb3e bc1b 93bf
00000120: be46 393e 0caa 813f 065e a23e 5246 a5bc
00000130: 1012 1e3c 7413 9c3e 6b49 8bbf a262 0bc0
00000140: 0f10 b63f 3c6c a3be 7286 603f 38ef 28be
00000150: 388a 283f 4dd4 3a3f 02b8 81bf c223 cf3e
00000160: 18d5 aebf 9bc5 b9be 8d2e 5ebf c9dc b6be
00000170: 22b4 3ebf 6f9e df3d 8fef 623f b1af 0940
00000180: b090 c2be 7dbd 24bf fdad 253f 5a99 003f
00000190: 32b7 0bc0 aa2c 65bf d748 0e3f 0cbb 263f
000001a0: 8b21 10be cc5a ccb9 ef75 bcbe 7917 333f
000001b0: 83da cc3e c2e2 a33f f64f 173f c99a 4c3f
000001c0: e254 a5be 3b7d 3ebf 5cd0 eabd 811a 6e3d
000001d0: c4a1 423e f210 f4bd 2c67 4bbf baf7 413f
000001e0: eafc 1d3f f3cf b83e de74 0dc0 3150 dd3e
000001f0: e7a6 7d3f b69c a4bf 5ef9 053e 0268 27bf
00000200: 0821 dabd a000 3bbe 90df 3bbf 2958 1cbf
00000210: 407b 7cbf c85c 10be 2293 7d3e a11a 13bf
00000220: 0234 c0bf 1793 8e3f 421c 8f3e bc24 d53d
00000230: 84ea 833e ddb2 a93e 0f0f dfbe fbfa 3d3e
00000240: 4437 873e b99e 5abf 3582 c43d 6283 c73e
00000250: 60e9 adbe fd41 e73e ddd2 16be 9c2c a1be
00000260: d6ac 9dbe 5cf7 033e 9b64 abbd 2e3b 4dbf
00000270: c01c 133f 91a6 ad3d 4a82 82bf 48b0 6bbe
00000280: 4eba 3c3f a263 8bbf f000 fb3e a106 163f
00000290: 5d72 35bd 1917 cabc f045 97be 677a 40bf
000002a0: 17d2 ac3e c785 39be db56 0bbf ed6c 703e
000002b0: 6cca 193e acfb 3ebf f7f5 923e 292f a1bf
000002c0: 03d9 553d e423 843e a290 8e3e ebf7 19bf
000002d0: 1036 2abf e710 be3e 254f 343f 283c 2e3f
000002e0: 0d03 513f f51d b33e dd94 243f 563a 71be
000002f0: 3507 373e 1ae2 8d3f 17d9 ca3e 0072 1a3f
00000300: 7e41 9c3e d0ad 03bf 4107 203f d50b 1bbf
00000310: 0183 563e 303d a73e 8ca5 d1bf a3a5 09c0
00000320: db72 ccbe e9d2 193e 83db d63e 5b35 843e
00000330: a5d9 073f 49a3 11c0 5570 89bf 66f5 febf
00000340: 9325 42be 7a73 093d f6c5 4fbf 9f84 50bf
00000350: 14e0 833e b428 663f 135f 8dbd e459 3e3a
00000360: 8b06 88be 8d34 c3be d51b de3e 7b01 9fbd
00000370: a159 adbe c7a2 07c0 d883 f03e 2c05 903f
00000380: 72e0 69bf 45ab 273c b5b9 b33e fd7d 58bb
00000390: 6ea0 343e a071 42bb a6f3 0c3f adcc 41bf
000003a0: 8d87 adbf 7e6a 10be 6b87 7f3f cab9 3c3f
000003b0: 687c 9a3c 06d0 d0be 4aaa 14c0 0963 8dbf
000003c0: 05f4 95bf ada5 933e 05d1 533e 4b85 603d
000003d0: dd83 a43f 3013 09bf 6619 0abf 87cb 24c0
000003e0: 33b3 5b3f c117 1f3f 6090 773f d76d 2a3f
000003f0: 53d4 a2be 8eb8 cabf 7fef 1dbf badf 893f

bias f4 [10]
-0.109117076 -0.24263054 -0.26879936 -0.5223167 0.43444315 0.20381218 0.32850143 -0.6330869
0.4532841 0.40524802
00000000: c678 dfbd 2474 78be 12a0 89be 8cb6 05bf
00000010: 556f de3e 24b4 503e 5731 a83e fc11 22bf
00000020: db14 e83e ab7c cf3e
