Project_1/Part3_clean/checkpoints/interpolation_model1.pth (torch, 161453 bytes, 4 tensors)

weight f4 [50, 784]
0.012621748 0.035147917 0.0060338294 -0.008324424 0.013404872 0.003406972 -0.007496038 0.03401884
-0.016461527 0.031814903 0.019698352 0.015546007 -0.031087544 0.033830695 0.014704824 -0.029898023
0.028391078 0.026382763 -0.025765063 -0.0061149388 -0.001457074 0.0070315474 -0.010275403 -0.004830152
-0.0009762219 0.007942651 -0.008340499 0.021442194 0.01514113 -0.034516238 -0.032104157 -0.012977507
0.034054954 -0.016317138 -0.05357592 -0.040086783 -0.23045088 -0.21827629 -0.08037797 -0.120374545
-0.13585539 -0.16974038 0.097380005 0.07620154 -0.11209406 -0.25172085 0.0183686 -0.064219944
-0.019647328 0.021993242 0.025874432 0.031110292 -0.024133535 -0.0153372 0.010828223 -0.010599813
-0.0072935526 0.01499733 0.016456686 0.023205005 -0.1986972 -0.2578124 -0.22821198 -0.4059912
-0.33022204 -0.44029424 -0.3187476 -0.438102 -0.8117305 -0.7589564 -0.38510984 0.37653923
0.46765462 0.6422768 0.54567975 0.20735534 0.4461542 -0.32810733 -0.15427458 -0.03272766
0.019141788 0.04098581 -0.010476147 0.025832003 -0.005251259 0.014555672 0.06655628 0.05431812
0.40174484 0.7111462 0.52849746 0.405102 0.7902225 0.056886498 0.09267078 -0.23363079
-0.26317617 -0.11271228 0.010314389 0.36320943 -0.1642222 -0.5525178 -0.4123377 -0.49416608
-0.40461358 -0.39973673 -0.38623768 -0.36015543 0.2846733 -0.055935886 -0.04245206 0.0047360533
-0.0009283211 0.05128022 0.06282541 0.7155518 0.67319477 0.16679049 -0.15403226 0.16208234
-0.107559755 0.095144056 0.24904618 0.36252564 0.097454116 -0.11070944 -0.0658019 0.3038309
0.19766198 -0.10467607 0.14300813 0.12979369 -0.2838106 -0.26881436 -0.2865071 -0.16287972
-0.053415876 0.2968995 -0.07797282 -0.3732842 0.030130545 0.023381604 0.4671199 -0.24126413
0.060013253 0.19830222 0.230182 0.036256604 -0.12635408 0.16738138 0.19698781 -0.16160202
-0.29582697 -0.17751919 -0.30800238 -0.22798876 0.054310236 0.1512584 -0.008151369 -0.1637516
-0.0346221 -0.26540613 -0.2433814 -0.20829232 -0.07711984 0.001957694 -0.0032888055 -0.30267078
0.0017425674 0.13784327 0.2935676 -0.59178305 -0.28539726 -0.009097895 -0.18081865 -0.037087053
0.21425854 0.1800414 0.087922744 -0.06967986 -0.063224085 0.00037186843 -0.18764897 -0.11290937
0.22236516 0.0061350907 -0.19713072 -0.09878897 -0.18242796 -0.052257594 0.21155544 0.4853203
0.23124903 0.13501298 0.84321076 0.3604479 -0.05277906 -0.128794 0.22171721 -0.33687994
-0.13253306 0.35865766 -0.24110207 -0.10909124 0.117551036 0.013979828 0.054158043 -0.06505851
-0.034703415 -0.25614494 -0.18780428 -0.122064434 0.0627937 0.08627962 -0.033526715 0.100445025
0.2989361 0.093087 0.2623818 0.17169352 0.33788213 0.6843425 0.6730844 0.21882774
-0.035441868 -0.6349442 0.31156594 0.24745183 0.06863896 0.18563168 -0.20472814 0.032126065
0.19965237 0.1734784 -0.08975827 0.045498677 -0.0048911558 -0.15727639 -0.28737754 -0.07558961
0.077553816 0.2666491 0.039974764 0.28368637 0.14737216 0.20578662 0.16764636 -0.19983223
0.24952418 0.1571825 0.21889009 0.57016796 -0.052861616 -0.22016189 0.42234045 0.28204146
00000000: 73cb 4e3c 43f7 0f3d 6eb7 c53b 2a63 08bc
00000010: 1ca0 5b3c 8147 5f3b 53a1 f5bb 5757 0b3d
00000020: 53da 86bc 5850 023d 705e a13c aeb4 7e3c
00000030: 4eab febc 0e92 0a3d 81ec 703c b3ec f4bc
00000040: 6894 e83c aa20 d83c 4111 d3bc d35f c8bb
00000050: 4afb beba e568 e63b 2a5a 28bc 4046 9ebb
00000060: 25e9 7fba e521 023c 97a6 08bc 8aa7 af3c
00000070: 8112 783c e660 0dbd a67f 03bd 9c9f 54bc
00000080: 357d 0b3d 85ab 85bc 6d72 5bbd 0a32 24bd
00000090: 51fb 6bbe d283 5fbe 359d a4bd ee86 f6bd
000000a0: ad1d 0bbe 6cd0 2dbe 2b6f c73d 8e0f 9c3d
000000b0: 9291 e5bd 8ee1 80be bf79 963c bf85 83bd
000000c0: 6ff3 a0bc 2c2b b43c 9ef6 d33c 03db fe3c
000000d0: b1b3 c5bc e148 7bbc dc68 313c d7aa 2dbc
000000e0: c1fe eebb 5cb7 753c 2cd0 863c 6c18 be3c
000000f0: 4777 4bbe fdff 83be 67b0 69be 14de cfbe
00000100: dd12 a9be 3f6e e1be e332 a3be e84e e0be
00000110: 92cd 4fbf f74a 42bf 1e2d c5be c0c9 c03e
00000120: 6d70 ef3e 416c 243f abb1 0b3f f554 543e
00000130: 536e e43e affd a7be 28fa 1dbe 700d 06bd
00000140: 3dcf 9c3c bde0 273d 25a4 2bbc a39d d33c
00000150: c112 acbb ea7a 6e3c a94e 883d ad7c 5e3d
00000160: 80b1 cd3e ad0d 363f 9c4b 073f 8869 cf3e
00000170: 064c 4a3f d101 693d 2eca bd3d e93c 6fbe
00000180: 07bf 86be b2d5 e6bd affd 283c 96f6 b93e
00000190: dd29 28be ce71 0dbf ed1d d3be 5603 fdbe
000001a0: 8329 cfbe 4baa ccbe f2c0 c5be 4b66 b8be
000001b0: b3c0 913e 071d 65bd 36e2 2dbd e530 9b3b
000001c0: 935a 73ba 350b 523d 9caa 803d 672e 373f
000001d0: 7e56 2c3f 20cb 2a3e a2ba 1dbe eaf8 253e
000001e0: 4a48 dcbd e3da c23d f605 7f3e f69c b93e
000001f0: 0696 c73d a2bb e2bd 26c3 86bd b98f 9b3e
00000200: e767 4a3e 6860 d6bd b970 123e a3e8 043e
00000210: 9f4f 91be 09a2 89be 0fb1 92be f1c9 26be
00000220: 9bca 5abd 3603 983e 37b0 9fbd 1b1f bfbe
00000230: 55d4 f63c c78a bf3c 572a ef3e f20d 77be
00000240: 75d0 753d bd0f 4b3e d5b4 6b3e ce81 143d
00000250: f762 01be 0666 2b3e 2cb7 493e 007b 25be
00000260: a276 97be 97c7 35be 7db2 9dbe e375 69be
00000270: 6974 5e3d 7be3 1a3e 528d 05bc 80ae 27be
00000280: e7cf 0dbd 50e3 87be f938 79be 954a 55be
00000290: 02f1 9dbd a84c 003b 0089 57bb aaf7 9abe
000002a0: dc66 e43a c926 0d3e 7e4e 963e 187f 17bf
000002b0: 971f 92be 560f 15bc 8628 39be 98e8 17bd
000002c0: 9766 5b3e c65c 383e d710 b43d 50b4 8ebd
000002d0: a17b 81bd 56f7 c239 0d27 40be 073d e7bd
000002e0: b1b3 633e df08 c93b a3dc 49be df51 cabd
000002f0: 65ce 3abe 0f0c 56bd fda1 583e e77b f83e
00000300: 8ccc 6c3e d840 0a3e a9dc 573f a18c b83e
00000310: db2e 58bd 93e2 03be d609 633e 877b acbe
00000320: bfb6 07be faa1 b73e 76e3 76be 3a6b dfbd
00000330: 99be f03d a60b 653c d3d4 5d3d 653d 85bd
00000340: 2b25 0ebd 6e25 83be c44f 40be ebfc f9bd
00000350: fc99 803d 5fb3 b03d 4f53 09bd 1fb6 cd3d
00000360: 270e 993e 66a4 be3d e856 863e 6dd0 2f3e
00000370: e3fe ac3e 1231 2f3f 424f 2c3f 6114 603e
00000380: 7e2b 11bd b48b 22bf 9285 9f3e 0364 7d3e
00000390: 9592 8c3d 3b16 3e3e 41a4 51be 9f96 033d
000003a0: ac71 4c3e 52a4 313e 2fd3 b7bd d25c 3a3d
000003b0: fd45 a0bb 100d 21be 2623 93be bace 9abd
000003c0: 89d4 9e3d 3b86 883e 94bc 233d 573f 913e
000003d0: bae8 163e bab9 523e 7dab 2b3e d2a0 4cbe
000003e0: 4483 7f3e 73f4 203e b924 603e 87f6 113f
000003f0: 6c85 58bd 1e72 61be 023d d83e bd67 903e

bias f4 [50]
-0.23326558 0.18056501 0.07007336 0.22271281 0.36730328 0.30368018 0.15479529 -0.35910833
-0.0017133501 0.09306402 0.24725664 0.22068684 0.050916456 -0.39484912 -0.12813604 0.38695297
-0.03367181 0.34673053 -0.20726648 -0.088116854 0.3719786 0.010455131 0.16307877 0.3275751
-0.0036259056 -0.095755875 -0.16437183 0.10483562 0.45835382 0.4716553 0.20215707 0.2618533
0.6493251 -0.09179402 0.013736342 -0.035934053 0.043109927 -0.27959943 -0.18336682 -0.033231344
-0.23212394 -0.069882244 -0.1389985 0.004997746 0.51550686 -0.42710298 0.014781783 -0.03763833
0.0643655 -0.0569478
00000000: 2cdd 6ebe 09e6 383e 9f82 8f3d d40e 643e
00000010: 2d0f bc3e f87b 9b3e a882 1e3e 0cdd b7be
00000020: 7d92 e0ba 5998 be3d d830 7d3e bbfb 613e
00000030: c68d 503d aa29 cabe 1836 03be b31e c63e
00000040: 74eb 09bd aa86 b13e aa3d 54be 9c76 b4bd
00000050: fb73 be3e ff4b 2b3c 1ffe 263e ecb7 a73e
00000060: 9aa0 6dbb a81b c4bd 1751 28be 0fb4 d63d
00000070: 5aad ea3e ce7c f13e 4302 4f3e a311 863e
00000080: 2b3a 263f 81fe bbbd 650e 613c 962f 13bd
00000090: 0994 303d a827 8fbe 83c4 3bbe 971d 08bd
000000a0: e6b1 6dbe 6c1e 8fbd 9f55 0ebe 22c4 a33b
000000b0: 42f8 033f 3ead dabe 4b2f 723c a62a 1abd
000000c0: 0fd2 833d 1942 69bd

weight f4 [10, 50]
-2.363049 -1.063637 -0.6273377 0.22400029 -0.30846077 -0.9116257 0.38468596 -0.20236257
0.21891451 0.06828831 -0.5976855 -0.49091688 0.07431032 0.06948008 0.08099019 0.54563975
-0.01945528 -1.3104601 0.49280587 0.14793961 -1.264969 0.039549056 -0.22201136 0.34794587
0.017331641 0.2967791 0.64623755 0.2838615 -0.10891909 0.16459087 -1.3707718 0.13993943
-0.1810994 0.12738255 0.03482075 0.19578993 -0.032992765 -0.78577423 -0.029876594 -0.4708032
-0.04160452 0.07941108 0.28355962 -0.07191136 0.7631052 0.52860135 -1.258906 -0.691701
-0.3098002 0.13930054 0.24381813 0.19820651 0.3973521 0.16529796 0.26800373 -1.0104111
-1.3181757 -0.19533081 0.17146145 -0.03517479 0.56846625 0.019352041 0.38539132 -0.26814374
-0.5174726 0.3404857 -1.8944528 -0.6219565 0.14126539 -1.2203182 0.17912659 -0.20917857
-0.07869306 -1.1326566 -0.107871294 -1.3495427 -0.7065243 0.065354206 -0.092327505 0.71541715
0.2393086 0.57010794 -0.25252485 -0.7930522 0.10743919 -1.0849543 -0.8210237 0.48189542
-0.5425662 0.24129348 0.2805438 0.23803636 0.49083355 -0.090890944 0.05671913 -0.53766936
0.427607 0.057483792 0.78679335 0.15733714 -1.0016407 0.15009516 0.052660987 -0.8556075
0.6153446 -0.25720075 0.0006394652 0.2846649 -0.16926321 0.57230246 -1.0286579 0.33034563
0.034284994 0.41241983 0.061144635 0.114186645 -0.89133865 -0.14614478 0.091989964 0.1566962
-0.25132096 -0.34858543 -0.036297705 0.018640213 0.020514414 -0.05464401 0.36774492 0.24665439
-1.4109385 -0.10302527 -0.31737608 0.22609586 0.69652575 -0.6239268 -0.07884139 -0.290477
0.3590626 0.38860306 0.15779987 -0.4978222 -0.36012194 0.077454284 0.282554 -0.122329704
0.21946117 0.09209307 0.49836624 0.7600612 -0.8012901 0.41579354 0.3887946 0.15033574
0.20348834 0.40731543 -0.5615023 0.74084806 0.64415604 0.71481884 0.25205103 0.34714746
-1.0357801 -0.072614335 -0.7456619 0.20767778 0.004011454 -0.26056588 -0.6128875 0.36417946
0.077175595 0.04002007 0.24869622 0.5742387 -0.27639753 -0.6077087 -0.13308823 -0.5471512
0.090329826 -0.12675725 -0.2201094 -1.1640993 -1.1001844 -1.0177788 -0.8763544 0.44646907
0.12645374 -0.13270472 -0.81392455 0.3164076 0.11486372 0.13330097 0.36418164 -0.05525145
-0.38466147 0.023608103 0.20101942 0.19879264 0.047148142 -0.36507702 -0.85417753 -0.057770845
0.34895995 -0.34780073 -0.21343175 -1.3844229 0.17286536 0.050464362 -0.55260885 -0.09886195
-1.2204704 0.2943214 0.59876347 -0.2039782 0.08829078 -1.8036174 0.18608393 -0.54499257
0.20148319 0.23267242 -1.09014 -0.36624363 0.6698338 -0.6135119 0.28685015 0.018067421
-0.0846711 0.34895888 -1.0051447 0.79865366 0.13119777 0.90139276 -0.7874688 -0.9649993
0.25226548 -0.8104715 -0.116411276 -0.065624766 0.41898388 -1.5214982 0.3946767 0.2654843
0.55611885 -0.59081095 0.084684715 -0.049253307 -2.5666995 -0.81217945 -0.979542 -0.2702342
-1.0950812 0.26445493 0.46382734 -0.26179746 0.20952517 0.5811957 0.45369902 0.3603561
00000000: 323c 17c0 4225 88bf 3499 20bf 5560 653e
00000010: 92ee 9dbe 4d60 69bf 8ff5 c43e 2238 4fbe
00000020: 202b 603e beda 8b3d eb01 19bf 7559 fbbe
00000030: 0230 983d 924b 8e3d 2fde a53d 0caf 0b3f
00000040: ae60 9fbc 28bd a7bf 0d51 fc3e 7b7d 173e
00000050: 81ea a1bf 31fe 213d f256 63be f625 b23e
00000060: 16fb 8d3c 6ef3 973e d36f 253f 4b56 913e
00000070: f910 dfbd 828a 283e 7375 afbf 484c 0f3e
00000080: 1f72 39be 9270 023e 34a0 0e3d 287d 483e
00000090: 6c23 07bd 8028 49bf c2bf f4bc 1e0d f1be
000000a0: 8069 2abd 47a2 a23d ba2e 913e 4346 93bd
000000b0: dd5a 433f 6b52 073f d523 a1bf 5113 31bf
000000c0: 229e 9ebe cda4 0e3e 76ab 793e a6f6 4a3e
000000d0: bc71 cb3e de43 293e c937 893e 2755 81bf
000000e0: fbb9 a8bf cd04 48be 9793 2f3e 7113 10bd
000000f0: 0187 113f 2c88 9e3c 0352 c53e 234a 89be
00000100: 1679 04bf 2454 ae3e 6e7d f2bf 8b38 1fbf
00000110: e0a7 103e 6333 9cbf f66c 373e e832 56be
00000120: d429 a1bd e4fa 90bf a0eb dcbd d1bd acbf
00000130: c7de 34bf 6dd8 853d 3416 bdbd 9425 373f
00000140: 500d 753e 98f2 113f f04a 81be 7805 4bbf
00000150: 1409 dc3d c8df 8abf 9c2e 52bf ffba f63e
00000160: 9ee5 0abf a315 773e 70a3 8f3e cebf 733e
00000170: 894e fb3e 0825 babd 5252 683d b3a4 09bf
00000180: 4eef da3e 2074 6b3d 4a6b 493f fd1c 213e
00000190: c335 80bf 8cb2 193e 0cb3 573d 1809 5bbf
000001a0: 3987 1d3f d1af 83be c8a1 273a 99bf 913e
000001b0: 5653 2dbe 6a82 123f 10ab 83bf 1023 a93e
000001c0: 6c6e 0c3d b128 d33e cc72 7a3d b0da e93d
000001d0: c52e 64bf faa6 15be 3c65 bc3d f874 203e
000001e0: 24ad 80be ca79 b2be e7ac 14bd 5cb3 983c
000001f0: d80d a83c 66d2 5fbd 1049 bc3e f892 7c3e
00000200: a299 b4bf eafe d2bd 1e7f a2be ac85 673e
00000210: 834f 323f abb9 1fbf 9877 a1bd 67b9 94be
00000220: 0ed7 b73e fbf6 c63e 4a96 213e 8de2 febe
00000230: e761 b8be 5aa0 9e3d ebaa 903e ff87 fabd
00000240: 6eba 603e 4b9b bc3d dc29 ff3e 5f93 423f
00000250: 5921 4dbf e4e2 d43e 1610 c73e 9df1 193e
00000260: 3f5f 503e a68b d03e 9dbe 0fbf 38a8 3d3f
00000270: 69e7 243f 5efe 363f d50c 813e 50bd b13e
00000280: 7194 84bf d3b6 94bd b3e3 3ebf 7ca9 543e
00000290: 8472 833b e468 85be 32e6 1cbf bb75 ba3e
000002a0: 3d0e 9e3d 16ec 233d 39aa 7e3e 4f01 133f
000002b0: fa83 8dbe cc92 1bbf 4848 08be 1a12 0cbf
000002c0: d8fe b83d a7cc 01be 5c64 61be 3501 95bf
000002d0: d8d2 8cbf 9346 82bf c358 60bf 9897 e43e
000002e0: 177d 013e bfe3 07be 5c5d 50bf 2d00 a23e
000002f0: ac3d eb3d 0d80 083e 0476 ba3e 584f 62bd
00000300: 59f2 c4be c865 c13c 09d8 4d3e 4c90 4b3e
00000310: 691e 413d 60eb babe 61ab 5abf 1fa1 6cbd
00000320: e1aa b23e f012 b2be da8d 5abe c534 b1bf
00000330: 9e03 313e b8b3 4e3d c677 0dbf 2278 cabd
00000340: 6038 9cbf 4bb1 963e 9048 193f a9df 50be
00000350: ccd1 b43d efdc e6bf c98c 3e3e a284 0bbf
00000360: 9c51 4e3e ae41 6e3e b589 8bbf 4984 bbbe
00000370: 3a7a 2b3f 1e0f 1dbf 06de 923e 2102 943c
00000380: 0b68 adbd bdaa b23e 95a8 80bf 9174 4c3f
00000390: b558 063e adc1 663f 8e97 49bf 320a 77bf
000003a0: f128 813e 0f7b 4fbf 0969 eebd 4766 86bd
000003b0: 0e85 d63e 74c0 c2bf 1013 ca3e 8fed 873e
000003c0: ce5d 0e3f 633f 17bf 2e6f ad3d d6bd 49bd
000003d0: ce44 24c0 feea 4fbf 44c3 7abf 235c 8abe
000003e0: 9f2b 8cbf a366 873e c77a ed3e 510a 86be
000003f0: c48d 563e 3ec9 143f 3d4b e83e 9880 b83e

bias f4 [10]
-0.2561605 -0.01126213 -0.12348399 -0.3154182 0.48430887 0.28452265 0.12190182 -0.21748881
0.17826214 0.06390445
00000000: 7827 83be cc84 38bc 2de5 fcbd 7f7e a1be
00000010: 55f7 f73e f4ac 913e a9a7 f93d 63b5 5ebe
00000020: 5a8a 363e 56e0 823d
