Project_1/Part3_clean/checkpoints/interpolation_model2.pth (torch, 161453 bytes, 4 tensors)

weight f4 [50, 784]
0.02909147 0.012726005 0.012382095 -0.01738975 -0.03411489 0.00029554538 0.027284965 0.016469548
0.030431945 -0.0009733822 -0.010576585 0.015091471 0.051712282 0.052542023 -0.022906706 -0.038081013
0.015400202 0.012576721 0.021449512 -0.012995372 0.010206351 -0.029863605 0.022501849 5.4964e-05
0.018234726 0.033903968 -0.013656804 0.009563689 0.0106677925 -0.0073675816 0.02610885 0.0030910077
0.008739966 -0.05642429 -0.1788689 -0.15229389 0.10745436 0.23021376 -0.025382223 -0.14906168
0.039955374 0.21439572 0.24607435 -0.24237268 -0.09878717 -0.23170221 -0.08736603 -0.10604937
0.08309633 -0.0018667271 -0.13609192 -0.16430937 0.027300354 0.013704586 0.008281308 0.01706954
-0.0016426359 -0.001627854 0.013673696 0.18490899 0.3464186 -0.09261267 -0.122178234 -0.1486322
-0.35767034 -0.5239878 -0.5639942 -0.3387392 0.11026677 0.07420791 -0.2094643 -0.52049637
-0.29742432 -0.29361552 -0.56860435 -0.3434114 -0.36638126 -0.12971184 0.13612506 -0.11001721
-0.088659704 -0.0005846291 0.0011580586 0.016412728 0.007519948 -0.017408231 -0.5129177 -0.32163957
-0.5941165 0.15399113 -0.12171857 0.15962899 0.062268212 -0.36985207 -0.12141501 0.06316316
-0.049593076 -0.08518847 0.24916069 -0.01137218 0.05050283 -0.123807505 -0.29216003 -0.24122407
0.20216843 -0.4257103 -0.58932614 -0.25326777 -0.09708178 -0.08720027 0.12049561 -0.0020769963
0.024755904 -0.014784179 0.06773622 0.3077224 0.055792846 -0.13123162 -0.34580714 0.01232506
0.044125587 -0.18033679 -0.13319749 -0.05041338 -0.020518035 0.02934603 -0.14133734 -0.096583694
-0.14174537 -0.09408181 -0.08480727 -0.061646514 -0.05330064 -0.11950429 0.0075152465 -0.39564472
-0.24143517 -0.04654755 0.040523335 0.46439442 -0.013572566 -0.01943278 0.016148942 -0.10398858
-0.06019515 -0.02437634 -0.09418735 0.08880957 0.017221024 0.08904608 0.03769313 0.06150539
0.18977252 0.11843487 0.12941754 0.065498695 -0.059323426 -0.16204092 -0.032745156 -0.055681523
-0.14248995 -0.4282013 -0.27019456 -0.09058255 -0.20789193 -0.17292967 0.04367924 0.25384748
-0.028804775 0.16209829 0.07227051 0.020830758 -0.026844965 0.15810508 -0.019412179 -0.059009146
-0.06378436 0.086133346 0.1028093 0.09226821 -0.00343664 0.056049056 -0.0033707363 0.04565181
0.04494959 0.1268153 0.011101594 -0.0070948093 -0.105939195 0.15074159 -0.0072006993 0.1898253
-0.007746413 -0.4188121 -0.24250413 0.08726086 -0.007700508 0.3113305 0.17895752 0.07428967
0.014615895 0.01580902 0.09573428 -0.030027486 -0.15195353 0.032258023 -0.04658432 0.0051335897
0.02742568 0.06339633 0.11240134 0.13290974 0.101306126 0.28882062 0.33606628 0.27477193
0.120406926 -0.09321006 -0.004167531 0.24671891 0.15561359 -0.13710457 0.0739057 0.20123279
0.7492181 0.040103033 0.43727246 0.15758517 0.06390112 0.09796513 -0.02026364 0.03678886
0.10551486 0.020245591 0.09480309 0.024733493 0.16056307 0.17540427 0.32487547 0.3214964
0.21738914 0.2121912 0.3595319 0.119833395 0.059188254 0.12026593 0.21223953 -0.287837
-0.1282205 -0.1192913 0.072191305 -0.29618418 0.050688982 0.3691668 0.4466099 0.38644055
00000000: 3c51 ee3c bc80 503c 45de 4a3c f374 8ebc
00000010: 0ebc 0bbd 6ef3 9a39 b884 df3c 25eb 863c
00000020: 6a4c f93c 932a 7fba 6a49 2dbc 3842 773c
00000030: 42d0 533d 4e36 573d d8a6 bbbc d6fa 1bbd
00000040: 2151 7c3c 970e 4e3c e3b6 af3c 8aea 54bc
00000050: 8a38 273c 85a4 f4bc cc55 b83c 2589 6638
00000060: fe60 953c e3de 0a3d cac0 5fbc 05b1 1c3c
00000070: f7c7 2e3c c16b f1bb 3ae2 d53c 8192 4a3b
00000080: 1332 0f3c 281d 67bd 6929 37be eef2 1bbe
00000090: 0811 dc3d 28bd 6b3e 61ee cfbc a0a3 18be
000000a0: 3fa8 233d 8d8a 5b3e eafa 7b3e 8b30 78be
000000b0: ee50 cabd 5843 6dbe f6ec b2bd 6930 d9bd
000000c0: 692e aa3d f8ac f4ba ae5b 0bbe b740 28be
000000d0: fea4 df3c 3389 603c 53ae 073c 6cd5 8b3c
000000e0: b74d d7ba b75d d5ba a307 603c c858 3d3e
000000f0: c75d b13e b6ab bdbd 9538 fabd 0a33 18be
00000100: 9120 b7be 1124 06bf ed61 10bf 396f adbe
00000110: 8bd3 e13d 51fa 973d cf7d 56be 403f 05bf
00000120: 0048 98be c654 96be 0e90 11bf 9ed3 afbe
00000130: 5396 bbbe 2ed3 04be 5e64 0b3e b450 e1bd
00000140: 3893 b5bd cb41 19ba 00ca 973a fc73 863c
00000150: e569 f63b b59b 8ebc 934e 03bf f1ad a4be
00000160: 0518 18bf daaf 1d3e 9647 f9bd c875 233e
00000170: f40c 7f3d 405d bdbe 6fa8 f8bd b05b 813d
00000180: 1c22 4bbd 4b77 aebd fb23 7f3e 6152 3abc
00000190: 0edc 4e3d ca8e fdbd 0096 95be 7103 77be
000001a0: 3e05 4f3e b3f6 d9be 14de 16bf 50ac 81be
000001b0: d0d2 c6bd 0e96 b2bd 67c6 f63d 371e 08bb
000001c0: e5cc ca3c 5739 72bc 4ab9 8a3d ca8d 9d3e
000001d0: 0a87 643d 9561 06be a20d b1be 0cef 493c
000001e0: 08bd 343d 35aa 38be ec64 08be 437e 4ebd
000001f0: 7015 a8bc 1667 f03c bcba 10be accd c5bd
00000200: b325 11be f7ad c0bd 6faf adbd 0e81 7cbd
00000210: c651 5abd aabe f4bd 7542 f63b f291 cabe
00000220: c83a 77be a5a8 3ebd ccfb 253d 1bc5 ed3e
00000230: 785f 5ebc 7e31 9fbc c94a 843c f7f7 d4bd
00000240: 318f 76bd e4b0 c7bc 4ce5 c0bd cbe1 b53d
00000250: 1b13 8d3c cb5d b63d 1d64 1a3d 13ed 7b3d
00000260: ba53 423e fb8d f23d 0886 043e 2e24 863d
00000270: 1ffd 72bd 0eee 25be c91f 06bd 4f12 64bd
00000280: e3e8 11be 333d dbbe f156 8abe 5883 b9bd
00000290: 9fe1 54be 7a14 31be 01e9 323d 4cf8 813e
000002a0: fef7 ebbc 18fd 253e 9002 943d 44a5 aa3c
000002b0: f9e9 dbbc 4ce6 213e 4a06 9fbc 93b3 71bd
000002c0: 60a1 82bd ae66 b03d af8d d23d 1ef7 bc3d
000002d0: 4039 61bb b293 653d 92e7 5cbb 64fd 3a3d
000002e0: 101d 383d dfdb 013e 76e3 353c 937b e8bb
000002f0: a6f6 d8bd 015c 1a3e d8f3 ebbb 9061 423e
00000300: 9fd5 fdbb 8a6e d6be 0153 78be d2b5 b23d
00000310: 8b54 fcbb b666 9f3e a440 373e 2f25 983d
00000320: 8277 6f3c eb81 813c 5610 c43d 34fc f5bc
00000330: b599 1bbe fd20 043d 33cf 3ebd ac37 a83b
00000340: d2ab e03c efd5 813d ac32 e63d 7e19 083e
00000350: 9679 cf3d 4ce0 933e e110 ac3e e8ae 8c3e
00000360: e897 f63d eae4 bebd c98f 88bb e2a3 7c3e
00000370: 2b59 1f3e 2465 0cbe df5b 973d f80f 4e3e
00000380: c2cc 3f3f 1443 243d 2de2 df3e 025e 213e
00000390: 97de 823d f1a1 c83d efff a5bc eaaf 163d
000003a0: 2d18 d83d 15da a53c 1f28 c23d e59d ca3c
000003b0: a56a 243e 2d9d 333e 1456 a63e 2d9b a43e
000003c0: 429b 5e3e a648 593e 9114 b83e 366b f53d
000003d0: 626f 723d fc4d f63d 5255 593e 5f5f 93be
000003e0: 3c4c 03be ff4e f4bd 09d9 933d 74a5 97be
000003f0: 409f 4f3d 6e03 bd3e 0eaa e43e 89db c53e

bias f4 [50]
0.010974613 -0.04102192 0.026363255 -0.03221844 0.0246662 0.24645185 0.22786397 0.13352157
-0.23276457 -0.17818055 0.051469494 -0.024060063 -0.067791454 0.15080401 -0.27114162 0.19270559
-0.097225204 0.29871264 0.10214665 0.019173533 0.17936762 -0.016791971 0.09073928 0.06591337
0.11679831 -0.02916841 0.0030548538 0.32207024 0.26568627 0.18481459 -0.20187056 -0.01609895
0.15411936 0.13321887 0.11386652 0.24597815 -0.038983535 0.2607341 0.044304855 0.022396168
0.25236088 0.03964263 -0.10907571 0.09218176 0.30850515 0.029838588 0.23105411 0.025280077
0.0741223 0.24145709
00000000: ddce 333c 9a06 28bd c1f7 d73c 7cf7 03bd
00000010: c510 ca3c e05d 7c3e 2c55 693e e1b9 083e
00000020: d659 6ebe f674 36be add1 523d 9c19 c5bc
00000030: 3fd6 8abd 5e6c 1a3e 13d3 8abe 9d54 453e
00000040: 021e c7bd ddf0 983e 4332 d13d d011 9d3c
00000050: 25ac 373e 518f 89bc 84d5 b93d 97fd 863d
00000060: f433 ef3d 97f2 eebc f133 483b 64e6 a43e
00000070: 0808 883e 0940 3d3e 28b7 4ebe f2e1 83bc
00000080: 77d1 1d3e 876a 083e da32 e93d b2e1 7b3e
00000090: 33ad 1fbd f17e 853e 0279 353d 2b78 b73c
000000a0: 7235 813e 4f60 223d 1663 dfbd cac9 bc3d
000000b0: 63f4 9d3e 0e70 f43c 7399 6c3e 2a18 cf3c
000000c0: 6fcd 973d 8740 773e

weight f4 [10, 50]
0.2527567 -0.025345901 0.06375303 0.14725475 0.48187512 -0.027258134 -0.40565932 -0.048460655
-0.10701295 0.3659245 0.03277002 0.20379043 0.23682056 -1.1896008 0.09968456 -0.23784001
0.56930786 -0.43186367 -0.078981176 -0.57344985 -0.9383596 0.35964534 0.05619849 0.3449986
0.033655953 -0.14575559 0.36185586 0.11165224 0.058200996 -0.36123368 -0.2100391 -1.2140619
-0.07504878 0.3163527 0.22908968 0.08727322 0.108569235 0.39020213 -0.9856413 0.42616442
-0.1691866 -0.14500548 -0.33813474 -0.65850025 -0.5457779 0.24818675 -0.43619615 0.059208836
0.3185835 0.05649669 -0.29247987 -0.037719242 0.7384526 0.34383237 -0.79259384 -0.45216513
-0.19350013 0.28967744 0.33413118 0.14301853 -0.6190616 0.36572957 -0.38988167 -0.6417408
0.7502619 -0.31126443 -0.58332986 0.46107513 0.2178619 0.42633122 0.33273852 -0.14543425
0.618387 -0.34894776 -0.37659135 0.7667111 0.18401527 0.2195337 -0.5588348 -0.24613264
0.47528335 -0.44711366 0.26326993 0.17684796 0.114242665 -0.37096858 -0.08340798 0.13243641
0.33954558 -0.17133546 -0.2194619 0.42409077 -0.44509983 0.5677873 0.18998706 0.13585837
-0.6665981 -0.70765615 -0.557909 0.1446287 -0.3330083 0.706793 -0.0036489666 0.4854335
0.09963976 0.11792492 -0.20691991 -0.047848683 0.34897158 -0.16704153 0.34108156 0.39416426
0.761405 -0.7918784 -0.39793286 -0.393384 -0.59663236 0.6053125 -1.1406064 -0.19492398
-0.50281364 -0.069450326 0.16996121 -0.020180551 -0.28929675 -0.4986814 0.30865845 -0.22692314
0.11247345 0.17941095 0.33558416 -0.963469 0.03734935 0.18090434 0.45185474 0.044821393
-0.13389914 0.37532136 0.22790363 0.5718369 0.107407235 -0.20006889 0.12308735 0.49098748
0.10359126 0.011901329 0.3245281 0.7582993 -0.3070889 -1.1606247 0.3516988 -0.39591664
0.49604866 0.036274504 0.021276552 -0.28215972 -0.36451656 0.20197418 0.3737006 -0.7266408
0.23058754 0.2090182 -0.49936292 0.63997966 -0.73845655 0.31619996 -0.53407806 0.086172305
0.18520114 -0.5765814 0.3505351 0.98989326 -0.19998397 -0.022492092 -0.07706648 -1.0204401
0.23233844 0.503723 -0.5227402 0.23723024 0.32425132 0.35712832 -1.3020375 -0.016006738
-0.32535127 -0.33878452 0.061234232 0.55245 0.3552395 -0.4538333 -1.0630785 -0.23121363
0.20632738 -0.39385307 0.38069704 0.26319286 -0.5272699 -0.109687306 0.24178608 -0.45931807
0.21706448 0.257975 -0.6372527 -0.9011984 0.1745 0.5050697 0.026125561 0.011744701
0.24403639 -0.11721802 -0.26832405 -0.18517436 -0.20955162 0.35197783 0.34857157 0.20992136
-0.18869121 0.12008594 0.47409755 -0.07261513 0.2684834 -0.11375111 0.82867557 0.008781908
-0.46708447 0.6447244 -1.0393772 -0.2582999 -0.7585121 -0.07726075 -0.8702164 0.6087237
0.5272349 -0.8581542 0.3868576 0.47600803 0.061811578 -0.8276574 0.4084317 -0.05790131
0.3072909 0.41879845 -1.5498317 -0.42991406 -0.1649123 -1.1186073 0.05672099 -0.5204661
-0.2859504 -0.10261677 -0.34474394 -0.3619859 0.580893 -0.099008724 0.25932702 0.12273082
00000000: 5469 813e 35a2 cfbc f390 823d f3c9 163e
00000010: 56b8 f63e 734c dfbc 94b2 cfbe ae7e 46bd
00000020: 9b29 dbbd 755a bb3e db39 063d 70ae 503e
00000030: 1781 723e d744 98bf 6b27 cc3d 558c 73be
00000040: 29be 113f 3c1d ddbe e2c0 a1bd 9ccd 12bf
00000050: 5638 70bf 6f23 b83e 6330 663d a8a3 b03e
00000060: d3da 093d f440 15be 2c45 b93e eea9 e43d
00000070: 2b64 6e3d 9ff3 b8be 7d14 57be 6166 9bbf
00000080: 2db3 99bd fbf8 a13e 7c96 6a3e 4dbc b23d
00000090: 8c59 de3d 93c8 c73e fd52 7cbf 3932 da3e
000000a0: 413f 2dbe 517c 14be ff1f adbe 7993 28bf
000000b0: 1ab8 0bbf ab24 7e3e 1a55 dfbe f784 723d
000000c0: 601d a33e 1369 673d ecbf 95be 7e7f 1abd
000000d0: 3b0b 3d3f cc0a b03e 6ee7 4abf 3082 e7be
000000e0: e624 46be 9a50 943e 3e13 ab3e 7373 123e
000000f0: d27a 1ebf e840 bb3e 929e c7be 2049 24bf
00000100: 2a11 403f 0d5e 9fbe 1b55 15bf 0a12 ec3e
00000110: 3117 5f3e 1648 da3e b45c aa3e b7ec 14be
00000120: 9c4e 1e3f 48a9 b2be 95d0 c0be 2e47 443f
00000130: 806e 3c3e 71cd 603e cc0f 0fbf 320a 7cbe
00000140: 5758 f33e 15ec e4be 51cb 863e a217 353e
00000150: 0ff8 e93d 98ef bdbe ced1 aabd 699d 073e
00000160: ebd8 ad3e 9072 2fbe 9fba 60be 6d22 d93e
00000170: 20e4 e3be 825a 113f f88b 423e 751e 0b3e
00000180: 2ca6 2abf f428 35bf 20d3 0ebf 8c19 143e
00000190: 1080 aabe 63f0 343f 8023 6fbb bd8a f83e
000001a0: ee0f cc3d 9f82 f13d d0e2 53be fbfc 43bd
000001b0: 67ac b23e ef0c 2bbe 3ea2 ae3e e6cf c93e
000001c0: 70eb 423f 8bb8 4abf dbbd cbbe a169 c9be
000001d0: e6bc 18bf c3f5 1a3f 64ff 91bf 279a 47be
000001e0: 65b8 00bf f93b 8ebd 500a 2e3e af51 a5bc
000001f0: b41e 94be 2b53 ffbe 7b08 9e3e 8a5e 68be
00000200: 7b58 e63d 81b7 373e b0d1 ab3e e8a5 76bf
00000210: a2fb 183d fd3e 393e 8159 e73e a396 373d
00000220: db1c 09be 1f2a c03e 925f 693e e763 123f
00000230: 53f8 db3d dcde 4cbe 3815 fc3d b662 fb3e
00000240: a827 d43d cbfd 423c 8c28 a63e e71f 423f
00000250: c23a 9dbe 5a8f 94bf dd11 b43e 96b5 cabe
00000260: 17fa fd3e 9394 143d 2a4c ae3c 3d77 90be
00000270: eaa1 babe 52d2 4e3e af55 bf3e 2205 3abf
00000280: 241f 6c3e de08 563e 7fac ffbe b5d5 233f
00000290: 7d0b 3dbf f6e4 a13e 57b9 08bf 1b7b b03d
000002a0: 5ea5 3d3e d79a 13bf 5679 b33e a569 7d3f
000002b0: 99c8 4cbe 5641 b8bc 08d5 9dbd c89d 82bf
000002c0: 21ea 6d3e fef3 003f 4dd2 05bf 7cec 723e
000002d0: 4504 a63e 86d9 b63e 2aa9 a6bf 9020 83bc
000002e0: 7194 a6be 2a75 adbe bfd0 7a3d 5d6d 0d3f
000002f0: f4e1 b53e d75c e8be f512 88bf 44c3 6cbe
00000300: 7c47 533e 1ca7 c9be b9ea c23e 37c1 863e
00000310: 29fb 06bf bda3 e0bd c596 773e bd2b ebbe
00000320: 2746 5e3e 4d15 843e fe22 23bf f0b4 66bf
00000330: 21b0 323e 3f4c 013f 4605 d63c d96c 403c
00000340: ade4 793e 0010 f0bd c561 89be 599e 3dbe
00000350: b394 56be 7036 b43e f977 b23e a0f5 563e
00000360: 4538 41be 9eef f53d eabc f23e 3eb7 94bd
00000370: a876 893e 58f6 e8bd 1524 543f fee1 0f3c
00000380: b225 efbe a90c 253f 500a 85bf e23f 84be
00000390: d92d 42bf e23a 9ebd 81c6 5ebf 51d5 1b3f
000003a0: def8 063f feaf 5bbf 3312 c63e 53b7 f33e
000003b0: 232e 7d3d 5be1 53bf f61d d13e ed29 6dbd
000003c0: 3c55 9d3e c06c d63e e360 c6bf b21d dcbe
000003d0: c5de 28be 862e 8fbf 4554 683d 443d 05bf
000003e0: 1768 92be be28 d2bd 4782 b0be 3756 b9be
000003f0: 67b5 143f 16c5 cabd 83c6 843e 4c5a fb3d

bias f4 [10]
-0.22619392 0.11796469 -0.03814673 0.11418627 0.14627533 0.063265115 0.048584566 -0.086798206
0.040094 0.08184401
00000000: 619f 67be 7997 f13d bf3f 1cbd 7eda e93d
00000010: 33c9 153e 2491 813d 9c00 473d 42c3 b1bd
00000020: 9b39 243d d59d a73d
