Project_1/Part3_clean/checkpoints/interpolation_model3.pth (torch, 161453 bytes, 4 tensors)

weight f4 [50, 784]
-0.029191539 -0.00021911094 0.0089577865 -0.017840339 0.026416954 0.019248694 0.018427901 -0.012431247
0.022405272 0.016253954 -0.014653496 -0.023761759 -0.029576367 -0.035496216 0.017146133 0.011655178
0.00117101 -0.020349486 0.00013938546 -0.0003009311 -0.001930637 -0.029134369 0.027476853 0.03515231
0.0326364 -0.021596594 0.030865377 0.023222167 0.025015423 -0.01693219 0.0055366163 0.023037022
-0.006027307 -0.016628599 -0.0071852338 0.022410465 0.031433135 -0.0129279625 -0.028734544 0.0035215619
-0.009365653 0.005227468 -0.02200243 -0.0015483883 -0.0048886496 0.018299228 -0.008905023 -0.010659908
-0.027024232 0.010938398 -0.0037261334 0.012499375 0.0016084143 -0.032063834 -0.01653103 0.030198503
-0.0045246016 -0.030664803 0.03374961 0.025179822 -0.019905765 -0.009095508 0.00707984 -0.023686044
-0.022801792 0.0036969825 0.015915493 -0.034828626 0.0022073772 -0.017346282 0.023700226 -2.8171144e-05
-0.009234886 0.0067961616 -0.012864508 0.02215492 0.028394824 -0.0026166483 -0.005374423 -0.006495208
0.023407167 -0.027963461 -0.0074279523 0.028935451 0.020422114 -0.019762326 -0.025593402 -0.0037764525
0.03425084 0.0039346986 0.032696832 0.0213604 -0.029000547 -0.013281802 -0.012881284 -0.024587534
0.012404565 -0.016631104 0.018623957 -0.03359364 0.009828723 0.032233585 0.032255664 0.0103816185
-0.0028762484 -0.031398453 0.009472681 -0.029493636 -0.0031571006 0.01967976 0.0270985 0.0071973805
-0.0010167914 0.026488654 0.010719279 -0.022209492 0.0028916982 -0.016283173 0.018418496 -0.010240832
-0.03232921 -0.014190012 0.008413584 0.019555656 -0.03167953 0.015076472 0.017707383 -0.026586507
0.010589554 -0.03857959 0.022462685 0.01959075 -0.042752594 -0.015342515 -0.03732877 -0.03298931
0.0016100918 0.0104055535 0.0049217176 0.014647735 0.01152389 -0.00636544 0.0063398946 -0.020956049
-0.006288052 0.022342734 0.026417572 0.017867029 0.018490212 0.014755681 -0.040568665 0.017159775
0.009950806 -0.028586585 0.017488344 -0.006592803 -0.025173308 0.022714157 -0.0024382821 0.015892219
0.015669322 0.0071671447 0.0053300112 -0.0071098334 -0.028584927 -0.016865809 -0.018948905 -0.00081341184
-0.026509695 0.00406806 0.035694025 -0.028740186 -0.025843462 -0.03279956 0.002127367 -0.03040983
0.005688534 -0.008448336 -0.03363773 -0.031504355 0.0017043538 0.0032578146 -0.013146656 0.016946299
0.024203759 -0.032245554 0.017250486 -0.020533275 0.017104972 -0.014457906 -0.0072886883 -0.017105272
0.004660393 -0.005233007 -0.034415256 -0.016341742 0.021992927 -0.00757151 -0.032767165 -0.028227458
-0.030551428 -0.028512059 0.0064396914 0.024520755 0.0015127421 0.02684429 -0.039109945 -0.020473693
-0.02276139 -0.02414593 -0.02689645 0.0098267095 0.013180486 0.009985456 -0.033087473 -0.027335543
0.015023626 -0.04257148 -0.034581993 -0.016423365 -0.0375994 0.024181265 -0.00037342738 -0.03484805
-0.010245945 -0.024992803 -0.026095767 0.012981977 0.02238757 -0.010475921 0.02428026 0.007324409
0.015143403 0.026347566 -0.005646571 0.006894721 0.019040111 0.016017048 -0.029233571 -0.0032493365
-0.02829127 -0.0013568058 -0.020750362 -0.036613528 0.0046958057 0.024888404 -0.008610629 0.0028094193
-0.010021331 0.0128186 0.0045347386 -0.001712169 -0.028150031 -0.0028358742 0.035478577 -0.03064469
00000000: 1823 efbc 25c1 65b9 aec3 123c e725 92bc
00000010: 5e68 d83c 70af 9d3c 1cf6 963c 6eac 4bbc
00000020: 438b b73c 0327 853c 3815 70bc 05a8 c2bc
00000030: 234a f2bc 7b64 11bd 0c76 8c3c 5cf5 3e3c
00000040: 937c 993a f7b3 a6bc 0028 1239 4ac6 9db9
00000050: 6e0d fdba 33ab eebc 2317 e13c defb 0f3d
00000060: bfad 053d 57eb b0bc 63d9 fc3c 6a3c be3c
00000070: 25ed cc3c 60b5 8abc 816c b53b 23b8 bc3c
00000080: b780 c5bb b338 88bc 1c72 ebbb 2796 b73c
00000090: 08c0 003d cecf 53bc b564 ebbc 01ca 663b
000000a0: 6572 19bc 2e4b ab3b 713e b4bc 4af3 caba
000000b0: f730 a0bb 43e8 953c 60e6 11bc e5a6 2ebc
000000c0: ec61 ddbc f736 333c 2532 74bb 2eca 4c3c
000000d0: 6ed1 d23a 5e55 03bd 156c 87bc da62 f73c
000000e0: 1c43 94bb c134 fbbc 083d 0a3d ea45 ce3c
000000f0: 6a11 a3bc 5305 15bc 01fe e73b 3c09 c2bc
00000100: d3ca babc 1349 723b 3561 823c 76a8 0ebd
00000110: a5a9 103b ca19 8ebc fa26 c23c 1251 ecb7
00000120: eb4d 17bc 56b2 de3b a8c5 52bc 3c7e b53c
00000130: 439c e83c 137c 2bbb ee1b b0bb c1d5 d4bb
00000140: 63c0 bf3c a113 e5bc 2e66 f3bb 0a0a ed3c
00000150: 474c a73c 9ae4 a1bc 41a9 d1bc 5c7e 77bb
00000160: 9c4a 0c3d a5ee 803b 1ded 053d 01fc ae3c
00000170: 8e92 edbc ea9b 59bc 050c 53bc cc6b c9bc
00000180: 843c 4b3c f43d 88bc 4591 983c 7c99 09bd
00000190: a708 213c 5d07 043d 841e 043d aa17 2a3c
000001a0: 717f 3cbb aa9b 00bd 4e33 1b3c a39c f1bc
000001b0: 5ce7 4ebb 7337 a13c acfd dd3c 01d8 eb3b
000001c0: dc45 85ba bcfe d83c ea9f 2f3c aef0 b5bc
000001d0: a582 3d3b 4a64 85bc 63e2 963c 2ac9 27bc
000001e0: a26b 04bd 397d 68bc 21d9 093c 2f33 a03c
000001f0: 65c2 01bd 4f03 773c 130f 913c f2cb d9bc
00000200: cf7f 2d3c a205 1ebd aa03 b83c c87c a03c
00000210: 581d 2fbd 2c5f 7bbc 0de6 18bd cc1f 07bd
00000220: b709 d33a 0e7c 2a3c 5c46 a13b 0efd 6f3c
00000230: b3ce 3c3c 2e95 d0bb e4be cf3b 05ac abbc
00000240: 010c cebb 1c08 b73c aa69 d83c e05d 923c
00000250: c978 973c d0c1 713c 542b 26bd a892 8c3c
00000260: b508 233c 6a2e eabc b743 8f3c 7108 d8bb
00000270: 4138 cebc 0a13 ba3c 96cb 1fbb 6630 823c
00000280: f35c 803c 5eda ea3b 60a7 ae3b 9bf9 e8bb
00000290: f02a eabc 2a2a 8abc bc3a 9bbc 253b 55ba
000002a0: dc2a d9bc 5c4d 853b e633 123d 8a70 ebbc
000002b0: abb5 d3bc d558 06bd 4c6b 0b3b 091e f9bc
000002c0: e266 ba3b e46a 0abc b7c7 09bd b60a 01bd
000002d0: a064 df3a 0f81 553b 1265 57bc f7d2 8a3c
000002e0: f646 c63c ea13 04bd e450 8d3c 6635 a8bc
000002f0: ba1f 8c3c dae0 6cbc f3d5 eebb 5b20 8cbc
00000300: 36b6 983b a579 abbb 03f7 0cbd 1edf 85bc
00000310: 832a b43c 6e1a f8bb dd36 06bd 453d e7bc
00000320: fd46 fabc 1f92 e9bc 0c04 d33b c0df c83c
00000330: 3447 c63a 8ee8 db3c c031 20bd 72b8 a7bc
00000340: 1876 babc afcd c5bc f255 dcbc 3500 213c
00000350: f7f2 573c 0a9a 233c bb86 07bd caee dfbc
00000360: a825 763c 6f5f 2ebd d9a5 0dbd 4b8a 86bc
00000370: d401 1abd ca17 c63c 93c8 c3b9 d4bc 0ebd
00000380: 9cde 27bc b5bd ccbc cac6 d5bc 5cb2 543c
00000390: 2366 b73c 33a3 2bbc 65e7 c63c 9901 f03b
000003a0: 091c 783c dad6 d73c df06 b9bb 1ded e13b
000003b0: 02fa 9b3c 2f36 833c 3e7b efbc d2f2 54bb
000003c0: 18c3 e7bc d9d6 b1ba aafc a9bc 11f8 15bd
000003d0: 46df 993b c4e2 cb3c 9813 0dbc 3c1e 383b
000003e0: 8230 24bc 1b05 523c 2598 943b dc6a e0ba
000003f0: e59a e6bc 13da 39bb fc51 113d 930a fbbc

bias f4 [50]
-0.008006363 0.22907767 0.384541 -0.05477434 -0.5890615 0.12706555 -0.27484927 0.013262529
-0.020274615 0.06273857 -0.11281124 0.48181382 -0.0017606544 0.46571994 -0.08654784 -0.15300196
-0.1173444 -0.14821354 0.08469828 0.45569363 -0.20060118 -0.13057353 -0.10228553 0.10039092
0.22442448 -0.19077055 0.06594543 0.32360572 0.33377793 0.24302112 0.28584883 -0.109687366
0.009332128 -0.21270566 0.19878064 0.2421428 0.19737273 -0.16598321 0.099811554 0.06891775
0.2791311 0.09340673 0.25706798 0.35743055 0.07457076 0.047613285 -0.08590025 -0.18942484
-0.3655667 -0.23017403
00000000: 1f2d 03bc 5693 6a3e 8fe2 c43e 0f5b 60bd
00000010: bccc 16bf 791d 023e 0bb9 8cbe 144b 593c
00000020: f316 a6bc 147d 803d 9409 e7bd 4db0 f63e
00000030: c2c5 e6ba d872 ee3e fe3f b1bd 8cac 1cbe
00000040: 4352 f0bd 4ac5 17be 4b76 ad3d ad50 e93e
00000050: 656a 4dbe 11b5 05be 137b d1bd c199 cd3d
00000060: 88cf 653e 5b59 43be 660e 873d a6af a53e
00000070: f1e4 aa3e 87da 783e c75a 923e c5a3 e0bd
00000080: c8e5 183c 83cf 59be 278d 4b3e 48f4 773e
00000090: 141c 4a3e 81f7 29be 006a cc3d c024 8d3d
000000a0: 46ea 8e3e 074c bf3d 6a9e 833e 2301 b73e
000000b0: 8eb8 983d 2606 433d 78ec afbd 96f8 41be
000000c0: 8f2b bbbe beb2 6bbe

weight f4 [10, 50]
-0.1330411 0.19461712 0.09062055 0.4047613 0.29551533 0.6532279 -0.9081219 -0.17247705
-0.27920258 0.27054283 -0.13692892 0.06405897 -0.044946108 -0.06758464 -0.41983554 -1.9182776
0.08163521 0.14349528 0.37990302 -0.69496727 0.21280877 0.20328069 -0.09815529 0.09542996
0.4232399 -0.081047535 -0.17269489 -0.15552168 -0.92399544 -0.554593 -1.6867055 -0.30812618
-0.021842616 0.12517036 0.022854328 0.35547668 -0.6057927 0.4164595 -0.2096681 -0.4876046
0.351182 -0.91916436 0.16082588 -0.83427423 -1.0666878 0.077341095 0.31859323 -0.4840012
0.44222775 -0.34609082 0.019719888 -0.53900725 -0.0756602 0.3955518 -0.26701856 -0.4857119
0.49055347 -0.058872946 -0.20083079 0.15101156 -1.4297324 0.35170856 0.049650554 0.021446738
0.83465725 -0.22919728 -0.1638239 -0.041515272 -1.346437 0.37977707 0.053619534 -0.62989414
-0.528084 -0.29183605 0.4969571 0.12001434 -0.5208432 0.39999616 -1.0213578 0.28815487
0.30038485 0.1446677 0.4460766 0.044599447 -0.61802876 0.06559311 0.4043661 -0.8245257
0.7934367 0.09153416 0.32080945 -1.1924533 0.36907807 0.33309448 -0.5814317 0.56402576
-0.5544352 0.1470715 -0.16549599 0.5193464 0.08465889 -0.32516712 0.28452927 -0.36284155
0.40655747 0.47979516 0.404753 0.22733308 0.1867063 0.2530421 -0.14235641 0.54646665
-0.04931067 -1.2045873 0.0047930847 -0.7677268 0.3118737 -0.10629031 0.42672014 -0.6427099
-0.26605088 -0.44118723 0.44802576 0.064653486 0.49935773 -0.099429496 -0.18683821 0.52836543
-0.29873642 -0.95637816 0.033657573 -0.94235116 0.17965019 0.11242994 -0.091615036 0.015999539
0.7608805 -0.18528177 -0.08009089 -0.13897783 -0.0910341 0.10281311 -0.07502247 0.41440088
-0.07017102 -1.2529742 -0.3834351 -0.14976819 0.5175726 0.42747754 -0.11603411 -0.19990866
-0.02441333 0.31145394 -0.21219428 0.16841035 0.13757607 0.28571838 0.101700224 0.09557885
0.23633893 -0.47523493 0.019117674 -0.5178064 0.43616983 0.6442416 0.2054386 0.4920474
0.04086986 -1.1867067 -0.051400736 0.077045806 -0.10327805 0.3697999 -1.1372663 -0.16731316
0.2570745 -1.1967913 0.13159382 0.18060358 0.13618179 -0.213079 -0.7050825 -0.052727222
-0.33967108 0.28085297 -0.2359727 -0.5829759 0.45210764 0.3245668 -0.8106167 0.2895209
-0.4566043 -0.45776883 0.4252019 0.3863792 0.081721455 0.2270587 0.1515902 0.4488508
0.064053066 -0.21169429 0.12813461 -0.008592396 0.31204632 -0.49724394 -0.64787 -0.14379205
0.77524656 -0.9689645 -0.108489454 0.04760993 -0.016969608 0.32570425 0.6864584 0.22274296
-1.8631268 -1.0523442 -0.61985725 0.6356224 -0.7261594 0.19239864 -1.3498182 -0.6664254
-0.16478936 0.054874044 0.50053453 0.34363618 0.33758202 0.32934102 -0.46613902 0.33199072
0.18995476 0.20616136 0.13121143 0.03283563 -0.70015734 0.26547146 -0.43833512 0.037595157
0.5253537 0.29151773 -1.2541708 0.12993842 0.5379723 0.54289025 -1.7318943 -0.22581695
-0.3816651 0.22838302 -0.10244799 -0.06928206 0.691198 -0.18977338 -1.1585649 -1.1878821
00000000: ed3b 08be b649 473e 4497 b93d e03c cf3e
00000010: c94d 973e f239 273f ad7a 68bf d39d 30be
00000020: a4f3 8ebe 9784 8a3e 1837 0cbe 5931 833d
00000030: 6919 38bd d169 8abd aff4 d6be 1f8a f5bf
00000040: 5c30 a73d 6df0 123e a682 c23e 60e9 31bf
00000050: 8bea 593e d028 503e a405 c9bd c870 c33d
00000060: e6b2 d83e 40fc a5bd eed6 30be 1341 1fbe
00000070: f78a 6cbf cff9 0dbf f7e5 d7bf b7c2 9dbe
00000080: 49ef b2bc a92c 003e 0039 bb3c 0a01 b63e
00000090: 3b15 1bbf 2e3a d53e 3cb3 56be 4fa7 f9be
000000a0: 21ce b33e 5b4e 6bbf 8aaf 243e ff92 55bf
000000b0: 3a89 88bf 0265 9e3d a71e a33e 01cf f7be
000000c0: ad6b e23e d132 b1be 9a8b a13c 61fc 09bf
000000d0: bcf3 9abd c485 ca3e a8b6 88be 3baf f8be
000000e0: d329 fb3e c224 71bd 96a6 4dbe c6a2 1a3e
000000f0: 7901 b7bf 2513 b43e 615e 4b3d 12b1 af3c
00000100: 19ac 553f b1b2 6abe 74c1 27be eb0b 2abd
00000110: 0c58 acbf 2472 c23e 28a0 5b3d be40 21bf
00000120: 8330 07bf 896b 95be 2971 fe3e 14ca f53d
00000130: fb55 05bf 4ccc cc3e dabb 82bf 0989 933e
00000140: 0bcc 993e c523 143e 2764 e43e e9ad 363d
00000150: 2237 1ebf ae55 863d 1309 cf3e 1e14 53bf
00000160: ab1e 4b3f 4376 bb3d 2341 a43e 4fa2 98bf
00000170: cdf7 bc3e 5c8b aa3e b5d8 14bf fe63 103f
00000180: 77ef 0dbf e999 163e c877 29be e3f3 043f
00000190: a461 ad3d 4e7c a6be d2ad 913e 5ec6 b9be
000001a0: 4d28 d03e b6a7 f53e c93b cf3e 01ca 683e
000001b0: f02f 3f3e bc8e 813e e1c5 11be 3de5 0b3f
000001c0: fcf9 49bd eb2f 9abf 4f0f 9d3b be89 44bf
000001d0: e9ad 9f3e bcae d9bd 107b da3e a388 24bf
000001e0: d237 88be 4be3 e1be a263 e53e 0c69 843d
000001f0: d1ab ff3e b1a1 cbbd 8452 3fbe f542 073f
00000200: fbf3 98be 33d5 74bf 86dc 093d ed3d 71bf
00000210: 38f6 373e ab41 e63d aaa0 bbbd 7711 833c
00000220: 10c9 423f 81ba 3dbe b106 a4bd 3450 0ebe
00000230: 1670 babd ae8f d23d 61a5 99bd 5a2c d43e
00000240: d3b5 8fbd 7561 a0bf 9b51 c4be d55c 19be
00000250: a37f 043f 56de da3e 4ba3 edbd dbb4 4cbe
00000260: 77fe c7bc e476 9f3e 7549 59be c373 2c3e
00000270: bee0 0c3e ae49 923e 3548 d03d d8be c33d
00000280: d502 723e fe51 f3be ab9c 9c3c f68e 04bf
00000290: a751 df3e 04ed 243f 7f5e 523e a3ed fb3e
000002a0: 2867 273d 01e6 97bf 9489 52bd 31ca 9d3d
000002b0: 7183 d3bd 6a56 bd3e f191 91bf 2454 2bbe
000002c0: 459f 833e 7530 99bf 88c0 063e 25f0 383e
000002d0: 3d73 0b3e 6231 5abe 4980 34bf 80f8 57bd
000002e0: 5ee9 adbe f6cb 8f3e d4a2 71be e93d 15bf
000002f0: a77a e73e 9f2d a63e 9384 4fbf 153c 943e
00000300: 0ac8 e9be ad60 eabe 10b4 d93e 7fd3 c53e
00000310: 945d a73d 1382 683e 763a 1b3e c6cf e53e
00000320: 412e 833d 63c6 58be b835 033e 1fc7 0cbc
00000330: 89c4 9f3e c296 febe cfda 25bf 393e 13be
00000340: 8f76 463f 0f0e 78bf b82f debd a102 433d
00000350: d903 8bbc b5c2 a63e bdbb 2f3f bb16 643e
00000360: f07a eebf 37b3 86bf f7ae 1ebf 26b8 223f
00000370: 95e5 39bf 2604 453e d8c6 acbf db9a 2abf
00000380: 8bbe 28be 9bc3 603d 0823 003f 15f1 af3e
00000390: 8dd7 ac3e 639f a83e c6a9 eebe b0fa a93e
000003a0: 8083 423e f71b 533e 4a5c 063e a77e 063d
000003b0: 833d 33bf e0eb 873e 766d e0be 61fd 193d
000003c0: 957d 063f d041 953e ab88 a0bf 940e 053e
000003d0: 8db8 093f dbfa 0a3f b6ae ddbf 8f3c 67be
000003e0: 9c69 c3be 3ddd 693e 40d0 d1bd c1e3 8dbd
000003f0: 5af2 303f f453 42be db4b 94bf 850c 98bf

bias f4 [10]
-0.065070584 0.21595831 -0.09085745 -0.39113224 0.121231444 0.3866957 0.15238401 -0.09767028
0.077306464 -0.15978217
00000000: ba43 85bd 2d24 5d3e 7913 babd 7c42 c8be
00000010: 3148 f83d fbfc c53e 8e0a 1c3e 5b07 c8bd
00000020: da52 9e3d f09d 23be
