Project_1/Part3_clean/checkpoints/interpolation_model4.pth (torch, 161453 bytes, 4 tensors)

weight f4 [50, 784]
000000 4a f9 87 bb c4 41 12 3d 85 3c 64 3c 97 23 c7 3c
       -0.0041495906 0.03570725 0.013930445 0.024308963
000010 90 d1 03 bd 5e 2d 9b 3c a5 35 99 3c fa ea 95 3c
       -0.032182276 0.018942531 0.018702338 0.018300522
000020 0c 6d bc 3c a2 2b 05 3d 67 69 be 3c 93 d7 22 bb
       0.023001216 0.032512315 0.02324362 -0.002484773
000030 ff 14 9c bd 08 f5 83 bd 0b 17 e8 3d 61 73 77 3d
       -0.07621192 -0.064432204 0.1133252 0.06041277
000040 38 cd 63 3b 67 4a a4 3c ac 1c 0b bd fa 0b dc bc
       0.003475977 0.020055009 -0.03396289 -0.02686118
000050 37 a6 1f bc b7 03 db 3b fc 3f 16 3c 3c 37 2a bc
       -0.009744219 0.0066837925 0.0091705285 -0.010389145
000060 e5 c7 a0 bb 6e b0 a8 bb ee ab bc 3c 77 a3 46 bc
       -0.004906642 -0.005147985 0.023031201 -0.012123934
000070 9b c1 0b bd 65 62 a1 3b ca c3 85 3b 68 b2 07 3d
       -0.034120183 0.0049250596 0.0040821778 0.033129126
000080 e5 f4 74 bd 55 32 73 bd 53 c2 c3 bd 77 a0 4d bd
       -0.059803862 -0.059374172 -0.09558549 -0.05020186
000090 7f 24 ca bd d6 a1 14 be d5 31 39 be 4c 91 04 3d
       -0.09870242 -0.1451486 -0.18085416 0.03236513
0000a0 dc 5a 76 3d 9f 24 86 3d e6 17 d2 bd 28 43 ad bd
       0.060145244 0.06549954 -0.102584645 -0.08460075
0000b0 04 b1 5a 3e 9d 08 05 3e 2d 2f c5 be 91 cb ae be
       0.21356589 0.12991567 -0.38512555 -0.34139684
0000c0 d9 d3 8c be 29 32 23 be cd 9d f2 bd 46 42 d4 bd
       -0.27505377 -0.15937103 -0.11846504 -0.10364203
0000d0 21 71 6a bc 8c 6d 03 bd 7c f6 1e 3c c0 5e 06 bc
       -0.014309199 -0.032086894 0.009702321 -0.008201301
0000e0 d8 f5 df 3c 4a fc 47 3b d6 99 06 bd 00 08 49 3e
       0.027338907 0.0030515366 -0.032861553 0.19631958
0000f0 8f ad 14 3e b5 96 95 bd 6b 2b 4d be 26 be 73 bd
       0.14519332 -0.07304136 -0.20036094 -0.05950751
000100 e5 0b bd be 12 16 89 be 1d c8 82 be 1c 5b cb be
       -0.36923137 -0.2677465 -0.255433 -0.39717948
000110 31 7c 9b be 57 3a 15 bf 9c 0c 10 bf a9 32 c9 be
       -0.30368188 -0.58292145 -0.5626924 -0.39296463
000120 d4 bc 9e be 14 a2 d0 be bc 4a e9 bd 3a 83 da be
       -0.3100344 -0.40748656 -0.113912076 -0.42678243
000130 8d 0d d2 be 66 80 f0 be 95 b5 f1 be 8e 7a ae be
       -0.41025963 -0.4697296 -0.4720885 -0.34077877
000140 bb b0 af bd f0 e9 16 3e fd 3a 02 3d 1a 4c cf 3c
       -0.085786305 0.14737678 0.031794537 0.025304843
000150 4e 01 c4 3c b7 26 59 bb 18 51 a7 be b5 6f 18 3e
       0.023926403 -0.0033134648 -0.32679057 0.14886363
000160 2d 51 23 3e 73 06 7d bd dd 2c 99 be e2 1a c9 be
       0.15948935 -0.06177373 -0.2991704 -0.39278322
000170 eb ec 00 bf 6a f6 9f be ad ac 9b be 12 22 70 be
       -0.5036151 -0.31242687 -0.3040518 -0.23450497
000180 e1 38 4d be a9 4c 4f bd 5e 2a 8f 3d 45 ed c1 bd
       -0.20041229 -0.05061022 0.06990503 -0.09469084
000190 30 67 af bd ad 48 b6 bb 75 66 68 bd e8 c5 9a be
       -0.08564603 -0.005562863 -0.056738336 -0.30229115
0001a0 e4 ef dd bd b5 0c 67 bc 7a 7d d3 3d 99 89 b9 3d
       -0.10836771 -0.014102151 0.10326667 0.09059448
0001b0 d4 8f d6 bc ee d8 78 3e 73 89 05 3e ca 8b 75 3b
       -0.02619163 0.24301502 0.13040714 0.0037467354
0001c0 65 2b 25 3c 90 79 01 3b 1a ad a7 be 7c 35 ab bd
       0.010081147 0.0019756295 -0.32749254 -0.08359811
0001d0 7f 74 e3 bd be 20 cc be 83 82 65 be 78 48 24 bd
       -0.11106204 -0.3986873 -0.22413068 -0.040108174
0001e0 d9 dc f9 be 87 6f 61 be 91 dd 8d be 9f 79 8e 3c
       -0.48801306 -0.220152 -0.27708104 0.017391978
0001f0 d8 e9 09 3c d6 79 dd bd 64 79 42 3d ef 5d 06 3e
       0.008417569 -0.10814254 0.04747905 0.1312177
000200 6f f4 d8 3b a6 f2 d0 3d 3f ec c0 3d 47 1a e5 bd
       0.0066209356 0.102025315 0.0942006 -0.11186653
000210 08 ac 9e bc 6d c2 92 bd 18 63 fb bc 91 66 75 bd
       -0.01936914 -0.0716599 -0.0306869 -0.059912268
000220 c6 03 9b 3e 60 69 b7 3e 28 89 c7 3e f0 fa f1 3d
       0.30276316 0.35822582 0.3897183 0.11815441
000230 6d fa 03 3d cc f1 c8 bc 2c b4 a7 be d2 29 e9 bd
       0.032221247 -0.02452936 -0.32754648 -0.1138493
000240 dc 45 e0 be 99 13 dd be 0b bd 65 be ac 06 13 be
       -0.43803298 -0.43179014 -0.22435395 -0.14358014
000250 45 8b b9 bd 73 c3 48 bd 8a 49 9a 3d 73 14 95 3e
       -0.09059767 -0.04901452 0.07533558 0.29117164
000260 ec b6 32 3e 22 c7 42 3e 5c dc 00 3e 5f a8 30 3d
       0.17452592 0.19021276 0.1258406 0.04312932
000270 11 2c 1a 3d ed d2 17 3e 3a eb e1 3b c1 53 f7 bb
       0.03763968 0.14826556 0.0068944963 -0.007547826
000280 15 55 67 3d 6b 12 80 bd c2 77 c7 bd 4a 2f c8 be
       0.056477625 -0.06253513 -0.09739639 -0.3909858
000290 cc e5 ba bd 4c 2c 80 3e 28 50 95 3e b9 36 5d 3d
       -0.091258615 0.25033796 0.29162717 0.054007266
0002a0 c3 6d ef bc b3 de 59 be e1 c9 18 3e 88 b1 89 be
       -0.029227143 -0.2127636 0.1492076 -0.26893258
0002b0 c1 a3 54 be 75 3c 0b be 8f 09 69 bd 3a fd d0 3c
       -0.20765592 -0.13597281 -0.05689388 0.025511373
0002c0 73 11 0f 3e 2e f0 94 3d 73 34 58 3e 83 c8 2a 3e
       0.139715 0.07272373 0.21113758 0.16678052
0002d0 20 1b 45 3e 37 6d f2 3d ff 58 2f 3e 04 94 02 3e
       0.19248629 0.11837237 0.17123793 0.12751776
0002e0 d5 e1 a6 3d 58 e2 06 3e 67 59 d5 3d d3 66 46 3e
       0.08148543 0.13172281 0.10417443 0.19375162
0002f0 88 86 52 3d 55 51 f0 3c ac 18 a5 3c de 3c 4b be
       0.05139783 0.029335657 0.020153366 -0.19847438
000300 1f e7 54 be 23 e5 2c 3d 18 59 d7 bd c0 e9 19 be
       -0.2079129 0.04221071 -0.1051504 -0.15030575
000310 46 80 bb 3c e5 15 9c be 3c 9b 3a 3e a8 99 9d bd
       0.022888314 -0.30485454 0.1822328 -0.07695323
000320 05 0d be be 23 24 70 be 49 24 d5 3d e6 37 d9 bd
       -0.37119308 -0.23451285 0.104073115 -0.10606365
000330 b5 5e 00 3e 2d 89 20 3e 9b cb 63 3e 7f 20 14 3e
       0.12536128 0.15677328 0.22245638 0.14465521
000340 4c 4e 2e 3d 75 b2 b2 3d 9a 8b 17 bd 28 6f 89 3d
       0.04255514 0.08725444 -0.03699837 0.067106545
000350 4b 14 3f 3d fc 49 6d 3d 32 ed f9 3d 40 5f b0 3d
       0.046650212 0.057931885 0.122034445 0.086119175
000360 7f 4d 3e 3d 39 16 08 3d f9 91 36 3d ab a2 d2 3d
       0.046460625 0.03322432 0.044572804 0.10284933
000370 1f 3e 37 3d c7 a9 2e 3e ee d4 9e be 39 e8 0c be
       0.044736978 0.17056952 -0.31021827 -0.13760461
000380 19 ad 90 3e c4 36 be bd a7 46 e8 3c 45 9c 93 3c
       0.28257063 -0.092877895 0.028354002 0.018018851
000390 3e 6e b9 be 91 ba ff bd 57 fd 69 3e e3 46 f7 3c
       -0.3621692 -0.124867566 0.22850548 0.030185169
0003a0 2e 8d 27 3e 79 21 60 3e d0 7e 39 3e 7a 6d f8 3d
       0.1636245 0.21887769 0.18114781 0.12130256
0003b0 e2 a4 d8 3d 22 c0 2c 3d 8a 6e 88 bc 57 62 82 bb
       0.10578324 0.04217542 -0.016654272 -0.003979008
0003c0 2c 3d 11 3e 57 2c 73 3d 95 c2 3b 3e 6c 81 77 3d
       0.14183491 0.059368458 0.18335946 0.06042616
0003d0 2c 82 a1 3d f9 1f a1 3b 2e 9e bd bd 4c bf e2 3d
       0.078861564 0.0049171415 -0.09258686 0.11071643
0003e0 b9 d4 b1 3e 5d 7b 44 3e 4e 97 03 3e f5 49 62 3e
       0.34732607 0.19187684 0.12850687 0.22098525
0003f0 6d 9f 53 bd e9 36 15 3e c4 78 ee bc 75 49 db 3d
       -0.051665712 0.14571728 -0.02911032 0.1070737

bias f4 [50]
000000 bc e1 d5 bd 26 15 49 3e 37 ce 92 3d 1b e6 87 bd
       -0.10443446 0.19636974 0.071682386 -0.06635686
000010 a5 f8 4e 3e 9b 54 9f 3e 7d cb 40 3e d6 bf 5c 3e
       0.20212038 0.31119236 0.18827625 0.21557555
000020 bd 94 12 3e 40 1b 0f 3e d4 e3 01 bb 53 d8 13 bd
       0.14314552 0.13975239 -0.0019819634 -0.036094975
000030 ce 11 0d 3e 9b be 90 bd e8 46 dc bd a1 77 0b 3e
       0.13776323 -0.07067605 -0.10755712 0.13619854
000040 74 3e 8a 3e 02 83 84 3e 06 42 30 be 1c 9f 30 ba
       0.27000773 0.258812 -0.17212686 -0.00067375763
000050 d0 26 34 bd 50 6f a1 3e 2e f9 19 be 1a a2 b4 be
       -0.043982327 0.31530237 -0.15036461 -0.35279924
000060 e1 8e 9c 3e 42 35 a7 be 1c d7 5f 3d 9e 63 a2 3e
       0.30577758 -0.3265782 0.054648504 0.31716627
000070 c5 e0 51 bc a0 b3 ac 3d 44 64 a0 bd 36 a3 18 3e
       -0.012809937 0.08432698 -0.07831624 0.1490601
000080 11 6c 8f 3e 14 fe 24 be 0b 1b eb 3d 1a c9 7b 3e
       0.28012136 -0.16112548 0.114797674 0.24588433
000090 19 1d 88 bc 0e 0e 2d be ee c7 5b 3d de c5 4e 3c
       -0.016615437 -0.16899893 0.053657465 0.012620417
0000a0 34 42 ac bd f9 8c bb bd 70 c4 4f 3d c0 a3 b8 3d
       -0.08411065 -0.09157748 0.050724447 0.09015608
0000b0 d5 0d b6 be 6f fb 99 bc 27 63 68 3e 8b 4e 99 bd
       -0.35557428 -0.01879665 0.22694074 -0.07485684
0000c0 cd f2 d5 3d 73 f7 06 bd
       0.10446701 -0.03295083

weight f4 [10, 50]
000000 53 fa 50 3e b2 97 d4 3c 05 57 af be 6e f0 20 bf
       0.20407991 0.02595124 -0.34246078 -0.62866867
000010 5e e7 bc bd 3e 43 3a 3e 24 0e a8 bd 07 a0 13 3f
       -0.09223817 0.18189713 -0.08205822 0.5766606
000020 02 b1 25 3e fb 08 c4 be e9 75 8f be d4 87 fe 3d
       0.16180804 -0.38288102 -0.28019646 0.12428251
000030 27 23 9f bd 02 be 2f 3e 31 a8 15 bf 40 22 94 be
       -0.07770377 0.17162326 -0.58459765 -0.2893238
000040 c2 0c e6 3d b9 52 7f be 6d f2 8f 3e 70 75 af 3e
       0.11232902 -0.249339 0.28114644 0.34269285
000050 9c dc 74 3e 90 24 04 3e ba 1f fb 3e 64 ed 50 bf
       0.23912281 0.12904572 0.49047643 -0.8161223
000060 ec 06 53 bb 71 97 0c be f5 47 89 3e 79 7a f6 be
       -0.003220017 -0.13729645 0.2681271 -0.48140314
000070 76 1c 60 3e c3 e5 9f be 88 88 26 3e 80 80 32 bf
       0.21885857 -0.31229982 0.1626302 -0.69727325
000080 62 ee c7 be ea 89 5d be 46 a0 3f 3d 62 71 47 3e
       -0.3904906 -0.21634641 0.046783708 0.19476846
000090 4f d4 84 bd 0e 8a 36 be 84 ec 34 be 60 bd fc be
       -0.06485807 -0.17826101 -0.17668349 -0.49363232
0000a0 6f ab d1 be 5b 73 0a 3e 22 c5 d4 3d 5f c1 87 be
       -0.40951106 0.13520567 0.103891626 -0.26514718
0000b0 f9 59 5a 3e d3 d9 2d 3e 72 c7 63 be d8 17 a7 3e
       0.21323384 0.16977625 -0.22244051 0.3263538
0000c0 35 0c b7 3d f1 49 fe 3d ae 53 fe be 55 80 2c be
       0.08937875 0.12416447 -0.49673218 -0.1684583
0000d0 d7 e0 a0 be 26 f2 a8 3e 53 f6 44 3e 04 51 0f bf
       -0.3142154 0.32997245 0.1923459 -0.55982995
0000e0 75 05 a4 3e 7e 62 25 3e 56 d0 01 bf a2 c8 96 bc
       0.32035413 0.16150853 -0.5070852 -0.018406216
0000f0 2a 84 dc be a5 70 00 bd 52 3e ea be c4 28 e7 be
       -0.43069583 -0.031357426 -0.45750672 -0.4514829
000100 0a 7a 73 3e 9e df 3e 3e ff 6f 29 3e 84 78 78 be
       0.23777023 0.1863999 0.1654663 -0.24264723
000110 8d 61 8b 3c 96 3a 86 bb 11 91 10 bf a0 6e 72 3e
       0.01701429 -0.0040963395 -0.56471354 0.23675013
000120 01 36 53 be a7 bc 84 be 5e 58 a3 be e1 9b 7a be
       -0.2062607 -0.2592518 -0.31903356 -0.24473526
000130 00 fe 6e bd 69 f1 aa 3e 2b fc d4 3e 72 38 9e 3e
       -0.058347702 0.33387306 0.4159864 0.3090244
000140 3d be 64 3e d4 3f b1 bd 0a 65 0a 3d d6 a3 00 3f
       0.22338195 -0.086547524 0.033787765 0.50249994
000150 c4 5b 50 3e 08 e3 28 3f 87 82 17 bd ac 5c 71 bf
       0.20347506 0.6597142 -0.036989715 -0.9428203
000160 1b 61 bb be 07 11 b6 3e 0c 46 52 3e ea b7 68 3e
       -0.36597523 0.35559866 0.20534533 0.22726408
000170 b4 ab 18 3f a0 f0 2b 3e 8b 98 94 3d 58 be ef bd
       0.59637 0.1679101 0.07255658 -0.11706227
000180 e6 d7 0c bf cb 3c 98 be 6f d7 f1 be 35 c2 ca be
       -0.55016935 -0.2973388 -0.47234675 -0.39601293
000190 e6 32 a4 bd dc 12 cf be bc 80 4c bd f2 05 54 3e
       -0.080175206 -0.40444076 -0.04992746 0.20705393
0001a0 12 8a 66 bf 3f 0c d5 3d 59 2c ec 3e 41 7f 04 3f
       -0.9005443 0.104027264 0.46127585 0.51756674
0001b0 f9 6a c4 bd db 56 8d be 87 28 fe 3d c4 b3 14 3e
       -0.09590716 -0.27605328 0.12410074 0.145217
0001c0 2c a7 72 3d 4e d9 d5 bd e1 a6 00 3f b4 af 11 3e
       0.05924146 -0.10441838 0.50254637 0.14227182
0001d0 cf 1b 41 bf 81 2e 44 bf be b2 0f 3e c8 d8 d1 3d
       -0.7543306 -0.7663346 0.14033028 0.10246426
0001e0 80 95 06 bf b0 29 53 3e 65 38 1a 3e a7 26 a2 be
       -0.5257187 0.20621371 0.15060575 -0.31670114
0001f0 fb 4d 6f be da c9 3a 3e 40 78 2b 3e 54 6d e5 3e
       -0.23369591 0.18241063 0.1674509 0.44809973
000200 ac 4e 92 3d 43 eb 65 3e 72 5f 9d 3e 01 3b e0 be
       0.07143912 0.22453026 0.30736881 -0.43795016
000210 7a d8 06 3e e4 62 c0 3d a0 b4 a3 be 82 18 ae be
       0.13168517 0.09393862 -0.31973743 -0.34003073
000220 d7 ec 8a 3d 51 db e1 be be ab 48 be 8a 4b c6 3e
       0.06783455 -0.44112638 -0.19596764 0.38729507
000230 56 24 8c bd c4 d1 a8 3e e7 6b 0c bf f4 17 8c 3e
       -0.06842868 0.32972538 -0.54852146 0.27362025
000240 a0 c5 9f 3e 85 08 0b 3f 4c 52 00 bf 4d d5 5f 3e
       0.31205463 0.54309875 -0.50125575 0.21858712
000250 e0 ed b3 3e fc 05 8b be 3a 9f 14 be a7 ec e5 3e
       0.35142422 -0.27153003 -0.14513865 0.44907114
000260 a3 e8 2a 3e 74 4d 90 3e 4f ec 22 be 39 ed 9a be
       0.16690306 0.28184092 -0.15910457 -0.30259112
000270 49 ca e0 3d 77 60 68 be 55 35 3f 3e 39 8f 52 bc
       0.10976083 -0.22693048 0.18672688 -0.01285153
000280 23 59 87 bd 00 33 dc be 2e 9b 49 be 1f 63 74 3e
       -0.06608798 -0.4300766 -0.19688103 0.23865937
000290 ce a8 f2 3d 0b 35 95 3e 89 4a ca be 42 51 e2 3d
       0.11848603 0.2914203 -0.3950999 0.11050655
0002a0 ce 42 a6 3e 21 ef 05 ba bb 84 af 3e d0 a0 19 bf
       0.32472843 -0.00051091803 0.34280953 -0.60011005
0002b0 21 4b 23 be b2 7c 7e 3e ef d8 b5 be 05 e3 74 3e
       -0.15946628 0.24852255 -0.3551707 0.23914726
0002c0 09 09 05 bd 1a c2 8e be d5 e8 40 bd 5d 53 b5 bd
       -0.03247932 -0.27882463 -0.047097046 -0.08853791
0002d0 42 90 80 be b4 0c 8a bf 1b 8b c5 bb ac f5 da 3e
       -0.2511006 -1.0785127 -0.0060285456 0.42765558
0002e0 c2 29 41 be da 28 46 bf 93 c3 e5 bd 91 8d 0f 3f
       -0.18863586 -0.77406085 -0.112189434 0.5607539
0002f0 0a d4 6d 3e 98 88 a5 3e 18 4e 60 3e 3e f9 48 3e
       0.23225418 0.32330775 0.2190479 0.19626328
000300 c9 1c 36 bd a2 9f f0 be 48 78 47 3e f3 dc ba 3e
       -0.044461045 -0.4699679 0.19479477 0.36496696
000310 56 d7 ff be 9f 61 67 be ad c6 ba 3d 2f 3d 83 bd
       -0.49968976 -0.22595833 0.09119926 -0.06408154
000320 25 e0 09 be 5d 2a f3 3c a7 18 92 3e 41 ac c6 bd
       -0.1346441 0.029683286 0.28534433 -0.097008236
000330 e1 54 ec 3e 5b f2 32 3e 16 5e c3 3d 7a b9 8e be
       0.46158507 0.17475264 0.0953943 -0.27875882
000340 08 4c 0b 3e 4b b0 90 be ca 12 1c 3d d1 10 2b 3e
       0.13603222 -0.282595 0.038103856 0.16705634
000350 54 7a 88 3e 50 c0 dc bc 77 79 33 be ed 14 bf bc
       0.2665583 -0.02694717 -0.17526804 -0.023325408
000360 cc 39 11 3d 83 1a 61 bc a7 ac 34 bf ed 31 80 bf
       0.03545551 -0.013739231 -0.70575947 -1.0015236
000370 ce 6a f1 bc a6 fc 05 3f 9e f5 4d bf 37 65 b7 be
       -0.029469874 0.52338636 -0.8045291 -0.35819408
000380 94 c8 df 3d 0d 4c bd bf 8f f3 4a be 4c 86 59 39
       0.10926929 -1.4788834 -0.19819473 0.00020744762
000390 90 5c 3b bf 90 40 14 be 75 7b 8f 3e ad c5 51 bd
       -0.73188114 -0.14477754 0.28023878 -0.05121391
0003a0 f2 82 b9 bc 7c b4 33 3e 87 31 98 3e 73 47 68 bf
       -0.022645447 0.17549318 0.29725286 -0.9073402
0003b0 13 c6 ce bd 36 41 28 be a0 fd 9c 3e 11 50 f0 3e
       -0.100963734 -0.16431126 0.3066225 0.46936086
0003c0 96 89 e2 3e 81 99 8b bf e0 a8 92 be d1 1b 25 3e
       0.44245595 -1.0906221 -0.28644466 0.16123892
0003d0 0a aa 17 bf 6a 9a 21 bf 1f b5 e2 3e 90 47 f9 3e
       -0.59243834 -0.6312624 0.4427881 0.4868741
0003e0 c3 90 96 be 4f 57 cd be 57 e3 20 bc f6 14 1e 3e
       -0.2940732 -0.40105674 -0.009819827 0.15437683
0003f0 c7 16 68 be 0f ce 04 3f ee aa 69 bd 52 9b b6 3e
       -0.22664939 0.5187692 -0.057047777 0.35665375

bias f4 [10]
000000 63 6c 86 be e6 99 00 3e 78 f6 bc bd b6 7a 15 be
       -0.26254568 0.12558708 -0.09226698 -0.14597592
000010 c3 23 1b 3e b5 f0 83 3e 61 df d2 bd 8c 88 18 bd
       0.15150361 0.25769582 -0.102965124 -0.037239596
000020 bd 4f d2 bd 84 f0 cf ba
       -0.10269115 -0.0015864526
