Project_1/Part3_clean/checkpoints/interpolation_model4.pth (torch, 161453 bytes, 4 tensors)

weight f4 [50, 784]
000000 3a 55 af bc c1 35 67 3c d7 0a 0d bd 1c 53 e4 bb
       -0.021402944 0.014111937 -0.034434166 -0.006967915
000010 0e d4 a6 bc 53 83 dd 3b 65 7a ee bc 2b ab 07 3d
       -0.020364787 0.00676004 -0.029111097 0.033122223
000020 bc fb 27 bc 33 9d 8c bc 9c 5c 7d 3c 67 0b d9 bc
       -0.010252889 -0.017164802 0.015463974 -0.026494695
000030 5a bc 45 bb 04 50 d2 bc 43 ad 1d bd 7d 18 d6 b8
       -0.003017208 -0.02567292 -0.038495313 -0.000102088765
000040 ca c8 a6 3b 21 01 46 bc 9a c8 c8 bc 11 54 e5 bc
       0.005089854 -0.01208523 -0.024509717 -0.027994188
000050 33 da f8 3c f8 c3 5e 3c 87 de 87 3c 7c 1f c3 bc
       0.030377483 0.013596527 0.016585601 -0.023818724
000060 20 32 16 3c dc 7b 8f 3c 1e 77 bc 3c 9e 3d a1 3c
       0.009167224 0.017515115 0.023006018 0.019682702
000070 17 71 ac 3c 57 2a 23 3c 53 ee f9 3c 95 60 f6 3c
       0.02105002 0.009958825 0.03050915 0.03007535
000080 7b 2d 60 3c 21 4d 53 3c 2a 75 a3 bc f1 3d 8d 3c
       0.013682718 0.012896807 -0.01995333 0.01724145
000090 f4 14 1f 3d 58 c4 e1 3c df 2d c1 3c b2 29 67 3c
       0.03883834 0.027559444 0.023581443 0.014109062
0000a0 6e d5 81 bc d2 09 2f 3c f7 71 52 3d 98 1b 53 bc
       -0.015848842 0.010683494 0.051378217 -0.012884997
0000b0 ce 1b 55 bc 13 46 1f bc c3 5b 5e 3c 27 06 43 3d
       -0.013007117 -0.009721297 0.013571682 0.04761329
0000c0 79 c0 7c 3c 10 ae bf bc c3 ae 85 bc e8 bc 4a bd
       0.015426748 -0.02339843 -0.016318684 -0.04949656
0000d0 f3 b1 87 bc 3c 35 57 3c c8 f8 e9 bc b3 5f 49 bc
       -0.016564345 0.013135251 -0.028561011 -0.012290883
0000e0 8a c4 93 3b 2c 48 f6 bc 4c 49 57 bb e4 04 fe bc
       0.0045095133 -0.030063711 -0.0032850085 -0.031008191
0000f0 87 57 b8 bc 44 2c 59 3b 1b a6 a6 3b 71 d2 10 bc
       -0.022502674 0.0033137957 0.0050857193 -0.008839236
000100 b1 a9 90 3c c4 76 0d 3d a3 15 a1 3c a0 37 bc 3c
       0.01765904 0.03453709 0.019663638 0.022975743
000110 a5 bf 9e 3d e2 00 b3 3d cf d5 1c 3d 71 4d 4f 3d
       0.07751397 0.08740403 0.03828984 0.050610963
000120 ab 10 a7 3c c6 64 40 3d 6c f8 b6 3c c2 93 0b 3d
       0.02039369 0.046971105 0.022335254 0.03407646
000130 3b c1 83 3d 37 52 a3 3d c5 59 6c 3d 80 56 46 3c
       0.0643334 0.079746656 0.0577028 0.012105584
000140 7f 11 17 3d 8a 0f 10 3c c1 21 ea 3b 16 0c 02 3d
       0.03688192 0.008792767 0.007145137 0.031749807
000150 63 f4 cf 3c 03 17 c1 3c f3 63 5f 3c 41 6b 70 bb
       0.025385087 0.023570543 0.01363467 -0.0036685022
000160 76 71 b4 bc a3 07 0e bb 4c 91 a2 3d d8 19 ae 3d
       -0.022026759 -0.0021672032 0.079378694 0.08501023
000170 30 1b 6b 3d 84 8d 83 3d 5a 3c ba 3d 55 e4 c2 3d
       0.057398975 0.06423476 0.090935424 0.09516207
000180 4c 99 a8 3d 22 88 50 3d f4 4c 8e 3d d1 95 22 3d
       0.08232364 0.050911076 0.069482714 0.039693657
000190 56 b4 4a 3d e5 21 02 3d dd e9 a0 3d 49 77 54 3d
       0.049488388 0.031770606 0.07857106 0.05187157
0001a0 e3 a1 a1 3d 4b 3e a6 3d 1e 22 5a 3d 95 b2 82 3d
       0.078922056 0.0811735 0.053255193 0.06381718
0001b0 95 c6 69 3d 5e 24 97 3b 8c ac df 3b 3c 02 d5 3c
       0.05707415 0.0046124896 0.006825989 0.026002042
0001c0 51 34 cb 3c 1a 8c 6f ba 73 fb 9f bc aa 8e 0b bc
       0.02480522 -0.0009138003 -0.01952908 -0.0085179005
0001d0 c6 9e 1c 3d fd 3d 0b 3d 98 b4 c4 3d 3c 14 94 3d
       0.038237356 0.033994664 0.09604758 0.07230422
0001e0 56 b3 9b 3d d0 d6 90 3d 81 c2 cf 3c 35 27 fd 3c
       0.07602565 0.07072222 0.025361301 0.030902484
0001f0 02 7d 3b 3d c9 92 87 bc 6e 8b d4 3c 7f 64 77 3b
       0.045773514 -0.016549485 0.025945392 0.003774911
000200 72 5f e3 3b be dc 23 3d d4 45 65 3d eb 67 29 3d
       0.006938868 0.040005438 0.055974796 0.04135887
000210 0e da 43 3d d3 9a 2f 3d 69 51 84 3d 5b b3 c3 3c
       0.047815375 0.04287226 0.0646084 0.023889234
000220 41 3b 55 3d 61 bc 98 3c 9c 3c 5f bb 86 53 37 bc
       0.052058462 0.018644514 -0.0034063226 -0.011189347
000230 7a 40 98 3c 7d 28 07 3d 83 38 89 3c 3c 99 24 3d
       0.018585432 0.032997597 0.01675058 0.0401852
000240 c7 3e c3 3d ef a2 8c 3d bc 1d 83 3d b2 59 43 3d
       0.09533458 0.068670146 0.06402156 0.047692962
000250 1a bb ae 3d 9a db 80 3d fd ab b1 3c 72 29 16 3a
       0.085317805 0.06291886 0.021688456 0.0005728222
000260 7f 6c 0d 3c e3 24 39 bd c4 b6 2d bd 7e fc 53 bd
       0.0086318245 -0.045201194 -0.042410627 -0.051754467
000270 8f ac 9d bd 35 fe 53 bc cc f5 8a bc 32 fb 2f bd
       -0.076989286 -0.012939026 -0.016962908 -0.042964168
000280 b6 5e 5b bb 27 af e3 bc 31 18 01 bd b0 02 38 bc
       -0.00334732 -0.02779348 -0.03151721 -0.0112311095
000290 b3 de 00 bd e6 df d9 bc f3 81 0d bd 27 e8 62 3c
       -0.031462383 -0.02659602 -0.034547757 0.013849295
0002a0 ea 4a de 3c 4b 1f 32 3d d2 bb 54 3d 1c 5f e1 3c
       0.027135331 0.043486875 0.051936932 0.027511172
0002b0 f4 a2 9b 3d 0b c2 90 3d ac ca 9e 3d db 6b 53 3d
       0.0759944 0.07068261 0.077535 0.05161653
0002c0 36 67 65 3d 5d 41 56 3d 1d e3 10 3d ef e2 16 bc
       0.056006633 0.05230843 0.035372842 -0.009209379
0002d0 a7 25 e4 3b 85 23 0a bd be 49 46 bd 4f ca 71 bd
       0.0069624963 -0.03372528 -0.04841017 -0.059030827
0002e0 2d 87 16 bd 03 3b 33 bd 64 9f 91 bb 2c ad b9 bc
       -0.036750007 -0.04375745 -0.0044440497 -0.022665583
0002f0 3d 94 79 bd f7 00 7e bd 95 73 41 bd cc a3 98 bd
       -0.060932387 -0.06201264 -0.04722937 -0.07453117
000300 4d 34 df bd f4 16 0b bd c4 1d 88 bd 2d 16 a8 bc
       -0.108986475 -0.033957437 -0.06646302 -0.020518387
000310 2d 47 b5 3a b6 e3 4c 3d 3f 12 b2 3c d4 f6 81 3d
       0.0013830416 0.05002185 0.021737216 0.06345907
000320 6e 14 c8 3d 27 b1 96 3d 8b c2 49 3d dc 61 88 3c
       0.09769522 0.07358008 0.049257796 0.016648225
000330 01 a6 41 3c 9d cd 8b 3b c1 df 31 3d 98 23 0a 3c
       0.011819364 0.0042664544 0.04342628 0.008431338
000340 8d bf 3d 3c 45 96 13 3d e2 19 b4 bb 9d d3 1b 3d
       0.011581314 0.03603198 -0.0054962495 0.038043607
000350 32 f5 92 3a d2 fb d8 bc 52 f4 45 bd 38 7f f4 bc
       0.001121199 -0.026487265 -0.048328705 -0.029845819
000360 c8 e7 18 3c cd a7 15 bd 5e 72 87 bd 10 a7 ec bd
       0.009332605 -0.03653698 -0.06613611 -0.11555302
000370 9e 91 a2 bd 11 e2 02 be 4c 8f 0b bd af 4a 43 bd
       -0.079379305 -0.1278155 -0.034072205 -0.047678646
000380 b5 e1 bf bb 7d f4 6d 3d 2b dd 29 3c 57 2a 1f 3d
       -0.005855764 0.05809449 0.010367672 0.038858738
000390 57 89 53 3d 63 43 ae 3d 2f 90 99 3d 97 ae 4f 3d
       0.05164465 0.08508947 0.07498204 0.05070361
0003a0 13 5c 24 3d 87 0a 78 3c f2 31 0d 3d 54 fc 59 3c
       0.04012687 0.015139229 0.03447146 0.013304789
0003b0 cd 25 8f ba 7d 24 e9 3c 6f d5 2a 3d 96 fe 71 3d
       -0.00109213 0.028459782 0.041707452 0.059080683
0003c0 f6 9f 99 3c 26 7e f4 3c b7 5b 83 3c 1d 52 20 bd
       0.018753033 0.029845309 0.016034944 -0.03914081
0003d0 5d fb 42 bd 4f 8f 7e bc 23 f6 0f bd ce 3f ea bd
       -0.047603 -0.015537097 -0.035146844 -0.11437951
0003e0 70 b3 fa bd ce 7a b3 bd dd dc 95 bd ce 13 bf bc
       -0.12241256 -0.087636575 -0.07317517 -0.023324873
0003f0 58 6a 4e 3d 65 53 81 3c 0a 4a c5 3c c7 88 a7 3d
       0.050394386 0.015786836 0.024083156 0.08180385

bias f4 [50]
000000 99 44 63 3d 00 7b e7 3c 0f 75 b5 3d ee 5e e9 3c
       0.05548534 0.028256893 0.08860218 0.028487649
000010 8d 1b ae bb b0 2f 2d bd b8 79 86 3d a3 c0 5e 3d
       -0.005313343 -0.042281806 0.06566185 0.05438293
000020 e6 25 b0 3d ec 53 3f bc 5a 7f b8 3d 92 e3 83 3d
       0.086009786 -0.011677723 0.090086654 0.0643989
000030 b2 2f de 3d e4 b0 18 3d 28 fe 17 bd b9 71 ec 3d
       0.10848941 0.03727807 -0.037107617 0.115451284
000040 b5 e4 59 3d db cd 21 3d e5 c7 b2 3d de 4e a8 3d
       0.053196628 0.03950296 0.08729533 0.08218168
000050 12 fb 38 bd f2 9c 73 3d 53 c5 8d 3c 88 08 00 bb
       -0.045161314 0.059475847 0.017306006 -0.0019536335
000060 16 74 08 3d c6 f5 85 3c b8 f7 0e 3e c4 3d ed 3c
       0.033313833 0.016352545 0.13961685 0.028960116
000070 a7 94 00 bc 5b 97 c3 3c 08 d1 1e bd 85 ce 92 3c
       -0.0078479415 0.023875883 -0.038773566 0.017920742
000080 b4 cc 2c bd dc d1 19 3d a0 d1 2c 3d b8 ae fc bc
       -0.042187408 0.037553653 0.0421921 -0.030845031
000090 73 47 f8 bc a2 ab e4 3d e0 07 3c bc 46 8f 83 b9
       -0.030307507 0.11165549 -0.011476487 -0.00025093014
0000a0 c3 fa 9e 3c fe 48 85 3d c4 fc fd 3c b5 ec ef 3d
       0.019406682 0.06508063 0.031004317 0.1171507
0000b0 c3 6b 85 3d 87 dc 82 3d 48 b5 d5 3a 5b 49 b4 3d
       0.065146945 0.063897185 0.0016304636 0.08803054
0000c0 48 44 d1 3d f4 ea 6c bd
       0.10218102 -0.057841256

weight f4 [10, 50]
000000 cb a5 51 be 70 0b 59 be 41 61 31 3e b9 e9 cb 3d
       -0.20473401 -0.2119577 0.17322256 0.099566884
000010 52 42 22 3e 90 21 0c be 30 c9 8f 3d 29 8b 5f 3e
       0.15845612 -0.13684678 0.07020795 0.21830429
000020 0e 41 dd 3d 52 df ad 3c 6a 10 3b be 60 ae fe 3d
       0.10803424 0.021224651 -0.1826798 0.12435603
000030 d5 38 4c 3d 5c 0f 26 be 44 e7 6d 3d b0 67 31 be
       0.049858887 -0.16216797 0.05808188 -0.1732471
000040 61 ec 23 3e 9c 11 d8 3d a3 63 6b 3e 38 e0 1d be
       0.1600814 0.10550234 0.22987227 -0.15417564
000050 14 3f 30 be a3 44 65 3e da 36 0f 3c b1 18 aa 3d
       -0.17211562 0.22389464 0.008741105 0.08305491
000060 ec 94 b9 bd 12 20 91 bd ec 31 6c be af d0 a7 bd
       -0.09061608 -0.07086195 -0.23065919 -0.081941
000070 f4 8d 30 3e d4 3d f1 bc 2b e9 94 bd 52 81 02 3e
       0.17241651 -0.029448427 -0.07271036 0.12744644
000080 a6 df 0b 3e 00 10 83 be 52 a5 4e 3e 2b d7 d9 3d
       0.13659534 -0.25598145 0.20180252 0.10636743
000090 6b f7 64 be 7c 72 b2 bd 60 21 ed 3d cb 45 25 be
       -0.22360007 -0.087132424 0.115786314 -0.16139905
0000a0 ac a8 00 39 62 6e 4d bb f2 de 10 3e 12 29 09 be
       0.00012269866 -0.003134631 0.14147547 -0.13394573
0000b0 e8 ef 5e be 1b 78 27 be 43 b9 34 3e 1b c6 1c be
       -0.21771204 -0.1635441 0.17648797 -0.15309946
0000c0 79 6f 66 be df 3c d3 3d bc e1 9e 3d 28 89 da 3d
       -0.22503461 0.103143446 0.07757899 0.10670692
0000d0 cb e7 34 3d 5b 7e 8c be 6c 63 d3 3d 39 b0 ba 3c
       0.044166368 -0.27440152 0.103216976 0.022789108
0000e0 b3 ff e1 bd 7f d9 04 be 78 f9 4d 3e be 42 8d be
       -0.11035099 -0.12973593 0.20114696 -0.27589983
0000f0 65 c9 5b bd 2c 06 14 be 7d f8 44 3e 28 6c 26 3e
       -0.05365886 -0.1445548 0.19235416 0.16252196
000100 b0 d3 0e be 87 cf 05 3d e8 86 57 3e 91 51 2c 3e
       -0.1394794 0.032668617 0.21047556 0.1682799
000110 a0 72 61 be e5 af 3e be 54 22 24 be df 4e 30 be
       -0.22016382 -0.18621786 -0.1602872 -0.17217587
000120 c9 9a 54 3e 1a 34 4b be a0 35 cb bd 7a 66 11 3e
       0.20762171 -0.19844094 -0.099223375 0.14199248
000130 40 40 50 3e bc 53 4c be 50 58 55 be 68 56 42 be
       0.2033701 -0.19953817 -0.2083447 -0.18978274
000140 76 09 59 be 49 11 f0 3d 26 0b 13 be 3a 81 40 3e
       -0.21195015 0.11722047 -0.14359722 0.18799296
000150 49 2d 84 be 25 94 48 bd b8 50 b4 bd 3f 81 f9 3d
       -0.258158 -0.048969407 -0.088044584 0.12182855
000160 64 f6 36 3e a8 0b 2b 3a 70 05 50 be 09 84 1e 3e
       0.17867428 0.0006524869 -0.20314574 0.15480055
000170 7c dc 15 be b1 5d 44 be ed 8d 0e 3e 00 b6 45 be
       -0.1463489 -0.19176365 0.13921328 -0.19307709
000180 1e 2c 12 3d 33 d9 35 3e 35 ab 3d 3e 17 05 86 be
       0.035686605 0.17758636 0.18522342 -0.26175758
000190 cd 19 d7 3d 13 51 30 3e 04 97 ee bc 25 80 27 3e
       0.10502968 0.17218427 -0.029124744 0.16357477
0001a0 22 65 5b 3e 09 10 38 bd cf b3 4e 3e 89 7f f4 3d
       0.21425298 -0.044937167 0.20185779 0.11938388
0001b0 a2 dd c1 3d c4 4d 63 bd 37 1b 5e be 13 ac c0 3d
       0.09466101 -0.055494085 -0.21690069 0.094078206
0001c0 39 5c a9 bd 82 60 f1 bd 46 66 83 3d 3c e2 de bd
       -0.08269543 -0.117859855 0.064159915 -0.108829945
0001d0 d2 d2 0f be 92 97 57 be 09 98 38 be 0c f7 da bd
       -0.14045265 -0.21053913 -0.18026747 -0.10691652
0001e0 df 85 04 3e fb 20 5d be ea d2 eb bb 46 84 00 be
       0.12941693 -0.21594612 -0.007196774 -0.12550458
0001f0 3a 3d 3a 3d 2d 56 22 3e b1 58 07 be 8d b8 52 be
       0.045468546 0.15853186 -0.13217427 -0.20578213
000200 0c fc f9 3d cc 9c 72 3e f9 8a 97 bc c7 a8 d4 3c
       0.12206277 0.23692626 -0.018498885 0.025959386
000210 7e 89 88 bc ec 35 de 3d 6c eb 99 3d 7e 17 be 3d
       -0.016667124 0.108501285 0.07515606 0.092818245
000220 59 ce 4d bc 28 b3 be bd 1b dc b7 bb 41 5a 8e be
       -0.012561404 -0.09311515 -0.0056109554 -0.27803233
000230 ca d0 33 3e 66 1f 41 be 68 60 cd 3d 0e f7 c3 bd
       0.17560115 -0.18859634 0.10028154 -0.09568606
000240 56 08 5e bd 05 ab 61 be 3f e3 59 be 63 e0 14 3e
       -0.05420717 -0.22037895 -0.21278094 0.14538722
000250 01 05 05 3e 96 2a 0b bd 16 84 a0 3d 29 c5 96 3d
       0.1299019 -0.03397616 0.078376934 0.07361824
000260 d3 6d c0 3d ef c6 7c 3d 0a 65 62 bc dd 15 cf 3d
       0.09395947 0.061713155 -0.013818035 0.10111592
000270 36 2f 35 be 47 f0 0a be 17 97 66 be d8 ba f2 3d
       -0.17693791 -0.13568221 -0.22518574 0.11852044
000280 7f d9 9a bb ac 33 e8 bd 29 c4 5b be 7e 23 34 be
       -0.0047256346 -0.11337981 -0.21461548 -0.17591664
000290 d2 d2 3a 3e 83 b5 f5 bd 2f 25 37 3e 83 8a 22 3d
       0.18244484 -0.11997511 0.17885278 0.039682876
0002a0 8e c9 ac 3c fc 8d 1a be 97 f7 73 be 9e 4f b7 bd
       0.021092203 -0.15093225 -0.23824917 -0.08950733
0002b0 5f 35 21 bd 30 dd 3c 3e eb cc 72 3d 0a 68 68 3e
       -0.03935754 0.18443751 0.059277456 0.22695938
0002c0 47 d1 d4 bd f9 04 07 3e 2e 06 03 3e 2f 68 80 3d
       -0.10391479 0.1318549 0.12795326 0.062698714
0002d0 cc 56 a0 bd 67 41 c1 bc cb 72 23 be 63 22 37 3e
       -0.07829055 -0.023590757 -0.15961759 0.17884211
0002e0 d0 50 82 be 14 c4 c1 bd a4 fe 23 3e 1a c3 11 3d
       -0.2545228 -0.09461227 0.16015106 0.035586454
0002f0 6e 60 23 3e 12 ce 5a 3e c4 5d 46 be 66 bc 8e be
       0.15954754 0.21367672 -0.19371706 -0.27878112
000300 64 9c ba bd 8f c0 3b bc 54 86 0d be 31 c5 fc bc
       -0.091118604 -0.011459484 -0.13820773 -0.030855747
000310 5d 99 26 3e 87 6d 62 3d fd 92 13 3e c1 6d 4a be
       0.16269441 0.055280235 0.1441154 -0.1976843
000320 ee 28 3c 3e 3e da 98 bd 27 d3 85 be 5b 87 c7 3d
       0.18374988 -0.074635014 -0.2613766 0.09742614
000330 8a 80 28 be 7f 12 82 3d d0 ef 31 bd f4 56 c6 3d
       -0.16455284 0.06351184 -0.043441594 0.09684554
000340 36 47 37 be 3c 87 0a bc f9 08 48 3e 11 e0 fd bd
       -0.17898259 -0.008455094 0.19534673 -0.12396253
000350 4f dd bc bd 7c d7 42 3e 98 f5 63 be a3 8e 87 bd
       -0.09221899 0.19027513 -0.22261655 -0.06619003
000360 92 e0 b4 3a d7 3d 6a bd 26 e8 c7 3d 99 f6 6d 3e
       0.0013799837 -0.05718788 0.09761076 0.23238601
000370 81 35 85 bc 04 b1 82 be 2c a9 14 be 1c 56 2a 3e
       -0.016260864 -0.25525677 -0.14517659 0.1663441
000380 33 09 cd bd 58 c9 f7 bd e3 e2 14 3e d6 df 1c be
       -0.1001152 -0.1209895 0.14539675 -0.15319762
000390 04 42 d0 bd f1 19 da 3d 1a b9 43 3e e5 54 e2 bd
       -0.101688415 0.10649479 0.1911358 -0.110513486
0003a0 2d 40 44 be ee 81 01 be 1c 3c 28 3e ff 4a a3 bd
       -0.19165106 -0.1264722 0.1642918 -0.07973289
0003b0 39 f1 6b be 48 0e 41 be dd 0a c1 bd 5c 06 5c 3e
       -0.23041238 -0.18853104 -0.094259 0.21486801
0003c0 17 be 4d 3e e5 b2 5f 3e c6 74 b1 3b a0 e2 6e 3e
       0.20092045 0.21845587 0.005415532 0.23328638
0003d0 f0 20 25 3e 71 27 81 3e bd 3a 72 be 61 ef 6e be
       0.16125846 0.25225404 -0.2365522 -0.23333503
0003e0 54 e0 1c 3e f3 4d 39 3c af 25 43 be ff bb 1b be
       0.1531995 0.011310088 -0.19057344 -0.15208434
0003f0 31 d6 79 3e 7c af 73 be 75 92 ef bd bd c4 67 3d
       0.24398114 -0.2379741 -0.11697856 0.05658411

bias f4 [10]
000000 dc 58 8e 3d 9f 9f 13 3d cf d5 bc 3c 7b 07 ce 3d
       0.06950542 0.0360409 0.02305117 0.100600205
000010 a1 df 93 3d d1 e7 2d 3e e3 80 00 be 96 59 34 bb
       0.07220388 0.16982962 -0.12549166 -0.0027519218
000020 e5 c3 c2 bd 2d 57 41 bd
       -0.0951002 -0.047202278
